<?xml version="1.0" ?>
<net name="asl-recognition-0004" version="10">
	<layers>
		<layer id="0" name="4767477115908" type="Const" version="opset1">
			<data element_type="f16" offset="0" shape="" size="2"/>
			<output>
				<port id="0" precision="FP16"/>
			</output>
		</layer>
		<layer id="1" name="4768477215014" type="Const" version="opset1">
			<data element_type="f16" offset="2" shape="" size="2"/>
			<output>
				<port id="0" precision="FP16"/>
			</output>
		</layer>
		<layer id="2" name="4769477313682" type="Const" version="opset1">
			<data element_type="f16" offset="0" shape="" size="2"/>
			<output>
				<port id="0" precision="FP16"/>
			</output>
		</layer>
		<layer id="3" name="4770477415062" type="Const" version="opset1">
			<data element_type="f16" offset="2" shape="" size="2"/>
			<output>
				<port id="0" precision="FP16"/>
			</output>
		</layer>
		<layer id="4" name="751/Axis105114753" type="Const" version="opset1">
			<data element_type="i64" offset="4" shape="1" size="8"/>
			<output>
				<port id="0" precision="I64">
					<dim>1</dim>
				</port>
			</output>
		</layer>
		<layer id="5" name="749104914192" type="Const" version="opset1">
			<data element_type="i64" offset="12" shape="2" size="16"/>
			<output>
				<port id="0" names="749" precision="I64">
					<dim>2</dim>
				</port>
			</output>
		</layer>
		<layer id="6" name="4757476114234" type="Const" version="opset1">
			<data element_type="f16" offset="28" shape="" size="2"/>
			<output>
				<port id="0" precision="FP16"/>
			</output>
		</layer>
		<layer id="7" name="4758476214465" type="Const" version="opset1">
			<data element_type="f16" offset="30" shape="" size="2"/>
			<output>
				<port id="0" precision="FP16"/>
			</output>
		</layer>
		<layer id="8" name="4759476314048" type="Const" version="opset1">
			<data element_type="f16" offset="28" shape="" size="2"/>
			<output>
				<port id="0" precision="FP16"/>
			</output>
		</layer>
		<layer id="9" name="4760476414864" type="Const" version="opset1">
			<data element_type="f16" offset="30" shape="" size="2"/>
			<output>
				<port id="0" precision="FP16"/>
			</output>
		</layer>
		<layer id="10" name="2182218615836" type="Const" version="opset1">
			<data element_type="f16" offset="32" shape="" size="2"/>
			<output>
				<port id="0" precision="FP16"/>
			</output>
		</layer>
		<layer id="11" name="2183218714609" type="Const" version="opset1">
			<data element_type="f16" offset="34" shape="" size="2"/>
			<output>
				<port id="0" precision="FP16"/>
			</output>
		</layer>
		<layer id="12" name="2184218814963" type="Const" version="opset1">
			<data element_type="f16" offset="32" shape="" size="2"/>
			<output>
				<port id="0" precision="FP16"/>
			</output>
		</layer>
		<layer id="13" name="2185218915773" type="Const" version="opset1">
			<data element_type="f16" offset="34" shape="" size="2"/>
			<output>
				<port id="0" precision="FP16"/>
			</output>
		</layer>
		<layer id="14" name="3612361615521" type="Const" version="opset1">
			<data element_type="f16" offset="36" shape="" size="2"/>
			<output>
				<port id="0" precision="FP16"/>
			</output>
		</layer>
		<layer id="15" name="3613361715554" type="Const" version="opset1">
			<data element_type="f16" offset="38" shape="" size="2"/>
			<output>
				<port id="0" precision="FP16"/>
			</output>
		</layer>
		<layer id="16" name="3614361814615" type="Const" version="opset1">
			<data element_type="f16" offset="36" shape="" size="2"/>
			<output>
				<port id="0" precision="FP16"/>
			</output>
		</layer>
		<layer id="17" name="3615361914798" type="Const" version="opset1">
			<data element_type="f16" offset="38" shape="" size="2"/>
			<output>
				<port id="0" precision="FP16"/>
			</output>
		</layer>
		<layer id="18" name="3252325616019" type="Const" version="opset1">
			<data element_type="f16" offset="40" shape="" size="2"/>
			<output>
				<port id="0" precision="FP16"/>
			</output>
		</layer>
		<layer id="19" name="3253325714393" type="Const" version="opset1">
			<data element_type="f16" offset="42" shape="" size="2"/>
			<output>
				<port id="0" precision="FP16"/>
			</output>
		</layer>
		<layer id="20" name="3254325814045" type="Const" version="opset1">
			<data element_type="f16" offset="40" shape="" size="2"/>
			<output>
				<port id="0" precision="FP16"/>
			</output>
		</layer>
		<layer id="21" name="3255325913739" type="Const" version="opset1">
			<data element_type="f16" offset="42" shape="" size="2"/>
			<output>
				<port id="0" precision="FP16"/>
			</output>
		</layer>
		<layer id="22" name="1902190614285" type="Const" version="opset1">
			<data element_type="f16" offset="44" shape="" size="2"/>
			<output>
				<port id="0" precision="FP16"/>
			</output>
		</layer>
		<layer id="23" name="1903190715035" type="Const" version="opset1">
			<data element_type="f16" offset="46" shape="" size="2"/>
			<output>
				<port id="0" precision="FP16"/>
			</output>
		</layer>
		<layer id="24" name="1904190815782" type="Const" version="opset1">
			<data element_type="f16" offset="44" shape="" size="2"/>
			<output>
				<port id="0" precision="FP16"/>
			</output>
		</layer>
		<layer id="25" name="1905190915632" type="Const" version="opset1">
			<data element_type="f16" offset="46" shape="" size="2"/>
			<output>
				<port id="0" precision="FP16"/>
			</output>
		</layer>
		<layer id="26" name="3112311614489" type="Const" version="opset1">
			<data element_type="f16" offset="48" shape="" size="2"/>
			<output>
				<port id="0" precision="FP16"/>
			</output>
		</layer>
		<layer id="27" name="3113311714654" type="Const" version="opset1">
			<data element_type="f16" offset="50" shape="" size="2"/>
			<output>
				<port id="0" precision="FP16"/>
			</output>
		</layer>
		<layer id="28" name="3114311814387" type="Const" version="opset1">
			<data element_type="f16" offset="48" shape="" size="2"/>
			<output>
				<port id="0" precision="FP16"/>
			</output>
		</layer>
		<layer id="29" name="3115311914279" type="Const" version="opset1">
			<data element_type="f16" offset="50" shape="" size="2"/>
			<output>
				<port id="0" precision="FP16"/>
			</output>
		</layer>
		<layer id="30" name="2632263615308" type="Const" version="opset1">
			<data element_type="f16" offset="52" shape="" size="2"/>
			<output>
				<port id="0" precision="FP16"/>
			</output>
		</layer>
		<layer id="31" name="2633263715431" type="Const" version="opset1">
			<data element_type="f16" offset="54" shape="" size="2"/>
			<output>
				<port id="0" precision="FP16"/>
			</output>
		</layer>
		<layer id="32" name="2634263815851" type="Const" version="opset1">
			<data element_type="f16" offset="52" shape="" size="2"/>
			<output>
				<port id="0" precision="FP16"/>
			</output>
		</layer>
		<layer id="33" name="2635263913889" type="Const" version="opset1">
			<data element_type="f16" offset="54" shape="" size="2"/>
			<output>
				<port id="0" precision="FP16"/>
			</output>
		</layer>
		<layer id="34" name="3572357613691" type="Const" version="opset1">
			<data element_type="f16" offset="52" shape="" size="2"/>
			<output>
				<port id="0" precision="FP16"/>
			</output>
		</layer>
		<layer id="35" name="3573357715491" type="Const" version="opset1">
			<data element_type="f16" offset="56" shape="" size="2"/>
			<output>
				<port id="0" precision="FP16"/>
			</output>
		</layer>
		<layer id="36" name="3574357813847" type="Const" version="opset1">
			<data element_type="f16" offset="52" shape="" size="2"/>
			<output>
				<port id="0" precision="FP16"/>
			</output>
		</layer>
		<layer id="37" name="3575357916013" type="Const" version="opset1">
			<data element_type="f16" offset="56" shape="" size="2"/>
			<output>
				<port id="0" precision="FP16"/>
			</output>
		</layer>
		<layer id="38" name="2162216613670" type="Const" version="opset1">
			<data element_type="f16" offset="58" shape="" size="2"/>
			<output>
				<port id="0" precision="FP16"/>
			</output>
		</layer>
		<layer id="39" name="2163216713619" type="Const" version="opset1">
			<data element_type="f16" offset="60" shape="" size="2"/>
			<output>
				<port id="0" precision="FP16"/>
			</output>
		</layer>
		<layer id="40" name="2164216814543" type="Const" version="opset1">
			<data element_type="f16" offset="58" shape="" size="2"/>
			<output>
				<port id="0" precision="FP16"/>
			</output>
		</layer>
		<layer id="41" name="2165216915458" type="Const" version="opset1">
			<data element_type="f16" offset="60" shape="" size="2"/>
			<output>
				<port id="0" precision="FP16"/>
			</output>
		</layer>
		<layer id="42" name="2792279615515" type="Const" version="opset1">
			<data element_type="f16" offset="62" shape="" size="2"/>
			<output>
				<port id="0" precision="FP16"/>
			</output>
		</layer>
		<layer id="43" name="2793279715620" type="Const" version="opset1">
			<data element_type="f16" offset="64" shape="" size="2"/>
			<output>
				<port id="0" precision="FP16"/>
			</output>
		</layer>
		<layer id="44" name="2794279813826" type="Const" version="opset1">
			<data element_type="f16" offset="62" shape="" size="2"/>
			<output>
				<port id="0" precision="FP16"/>
			</output>
		</layer>
		<layer id="45" name="2795279913643" type="Const" version="opset1">
			<data element_type="f16" offset="64" shape="" size="2"/>
			<output>
				<port id="0" precision="FP16"/>
			</output>
		</layer>
		<layer id="46" name="1732173615452" type="Const" version="opset1">
			<data element_type="f16" offset="66" shape="1,960,1,1,1" size="1920"/>
			<output>
				<port id="0" precision="FP16">
					<dim>1</dim>
					<dim>960</dim>
					<dim>1</dim>
					<dim>1</dim>
					<dim>1</dim>
				</port>
			</output>
		</layer>
		<layer id="47" name="1733173715302" type="Const" version="opset1">
			<data element_type="f16" offset="1986" shape="1,960,1,1,1" size="1920"/>
			<output>
				<port id="0" precision="FP16">
					<dim>1</dim>
					<dim>960</dim>
					<dim>1</dim>
					<dim>1</dim>
					<dim>1</dim>
				</port>
			</output>
		</layer>
		<layer id="48" name="1734173816007" type="Const" version="opset1">
			<data element_type="f16" offset="66" shape="1,960,1,1,1" size="1920"/>
			<output>
				<port id="0" precision="FP16">
					<dim>1</dim>
					<dim>960</dim>
					<dim>1</dim>
					<dim>1</dim>
					<dim>1</dim>
				</port>
			</output>
		</layer>
		<layer id="49" name="1735173915689" type="Const" version="opset1">
			<data element_type="f16" offset="1986" shape="1,960,1,1,1" size="1920"/>
			<output>
				<port id="0" precision="FP16">
					<dim>1</dim>
					<dim>960</dim>
					<dim>1</dim>
					<dim>1</dim>
					<dim>1</dim>
				</port>
			</output>
		</layer>
		<layer id="50" name="2822282614297" type="Const" version="opset1">
			<data element_type="f16" offset="3906" shape="" size="2"/>
			<output>
				<port id="0" precision="FP16"/>
			</output>
		</layer>
		<layer id="51" name="2823282715131" type="Const" version="opset1">
			<data element_type="f16" offset="3908" shape="" size="2"/>
			<output>
				<port id="0" precision="FP16"/>
			</output>
		</layer>
		<layer id="52" name="2824282815005" type="Const" version="opset1">
			<data element_type="f16" offset="3906" shape="" size="2"/>
			<output>
				<port id="0" precision="FP16"/>
			</output>
		</layer>
		<layer id="53" name="2825282916004" type="Const" version="opset1">
			<data element_type="f16" offset="3908" shape="" size="2"/>
			<output>
				<port id="0" precision="FP16"/>
			</output>
		</layer>
		<layer id="54" name="1872187614861" type="Const" version="opset1">
			<data element_type="f16" offset="3910" shape="" size="2"/>
			<output>
				<port id="0" precision="FP16"/>
			</output>
		</layer>
		<layer id="55" name="1873187715761" type="Const" version="opset1">
			<data element_type="f16" offset="3912" shape="" size="2"/>
			<output>
				<port id="0" precision="FP16"/>
			</output>
		</layer>
		<layer id="56" name="1874187814888" type="Const" version="opset1">
			<data element_type="f16" offset="3910" shape="" size="2"/>
			<output>
				<port id="0" precision="FP16"/>
			</output>
		</layer>
		<layer id="57" name="1875187915863" type="Const" version="opset1">
			<data element_type="f16" offset="3912" shape="" size="2"/>
			<output>
				<port id="0" precision="FP16"/>
			</output>
		</layer>
		<layer id="58" name="3402340614690" type="Const" version="opset1">
			<data element_type="f16" offset="52" shape="" size="2"/>
			<output>
				<port id="0" precision="FP16"/>
			</output>
		</layer>
		<layer id="59" name="3403340715425" type="Const" version="opset1">
			<data element_type="f16" offset="3914" shape="" size="2"/>
			<output>
				<port id="0" precision="FP16"/>
			</output>
		</layer>
		<layer id="60" name="3404340815443" type="Const" version="opset1">
			<data element_type="f16" offset="52" shape="" size="2"/>
			<output>
				<port id="0" precision="FP16"/>
			</output>
		</layer>
		<layer id="61" name="3405340914660" type="Const" version="opset1">
			<data element_type="f16" offset="3914" shape="" size="2"/>
			<output>
				<port id="0" precision="FP16"/>
			</output>
		</layer>
		<layer id="62" name="2552255613754" type="Const" version="opset1">
			<data element_type="f16" offset="52" shape="" size="2"/>
			<output>
				<port id="0" precision="FP16"/>
			</output>
		</layer>
		<layer id="63" name="2553255715398" type="Const" version="opset1">
			<data element_type="f16" offset="3916" shape="" size="2"/>
			<output>
				<port id="0" precision="FP16"/>
			</output>
		</layer>
		<layer id="64" name="2554255815692" type="Const" version="opset1">
			<data element_type="f16" offset="52" shape="" size="2"/>
			<output>
				<port id="0" precision="FP16"/>
			</output>
		</layer>
		<layer id="65" name="2555255913943" type="Const" version="opset1">
			<data element_type="f16" offset="3916" shape="" size="2"/>
			<output>
				<port id="0" precision="FP16"/>
			</output>
		</layer>
		<layer id="66" name="1752175614894" type="Const" version="opset1">
			<data element_type="f16" offset="3918" shape="" size="2"/>
			<output>
				<port id="0" precision="FP16"/>
			</output>
		</layer>
		<layer id="67" name="1753175715605" type="Const" version="opset1">
			<data element_type="f16" offset="3920" shape="" size="2"/>
			<output>
				<port id="0" precision="FP16"/>
			</output>
		</layer>
		<layer id="68" name="1754175814093" type="Const" version="opset1">
			<data element_type="f16" offset="3918" shape="" size="2"/>
			<output>
				<port id="0" precision="FP16"/>
			</output>
		</layer>
		<layer id="69" name="1755175914069" type="Const" version="opset1">
			<data element_type="f16" offset="3920" shape="" size="2"/>
			<output>
				<port id="0" precision="FP16"/>
			</output>
		</layer>
		<layer id="70" name="2672267614732" type="Const" version="opset1">
			<data element_type="f16" offset="3922" shape="" size="2"/>
			<output>
				<port id="0" precision="FP16"/>
			</output>
		</layer>
		<layer id="71" name="2673267714426" type="Const" version="opset1">
			<data element_type="f16" offset="3924" shape="" size="2"/>
			<output>
				<port id="0" precision="FP16"/>
			</output>
		</layer>
		<layer id="72" name="2674267815008" type="Const" version="opset1">
			<data element_type="f16" offset="3922" shape="" size="2"/>
			<output>
				<port id="0" precision="FP16"/>
			</output>
		</layer>
		<layer id="73" name="2675267914402" type="Const" version="opset1">
			<data element_type="f16" offset="3924" shape="" size="2"/>
			<output>
				<port id="0" precision="FP16"/>
			</output>
		</layer>
		<layer id="74" name="2972297614258" type="Const" version="opset1">
			<data element_type="f16" offset="3926" shape="1,672,1,1,1" size="1344"/>
			<output>
				<port id="0" precision="FP16">
					<dim>1</dim>
					<dim>672</dim>
					<dim>1</dim>
					<dim>1</dim>
					<dim>1</dim>
				</port>
			</output>
		</layer>
		<layer id="75" name="2973297713790" type="Const" version="opset1">
			<data element_type="f16" offset="5270" shape="1,672,1,1,1" size="1344"/>
			<output>
				<port id="0" precision="FP16">
					<dim>1</dim>
					<dim>672</dim>
					<dim>1</dim>
					<dim>1</dim>
					<dim>1</dim>
				</port>
			</output>
		</layer>
		<layer id="76" name="2974297814501" type="Const" version="opset1">
			<data element_type="f16" offset="3926" shape="1,672,1,1,1" size="1344"/>
			<output>
				<port id="0" precision="FP16">
					<dim>1</dim>
					<dim>672</dim>
					<dim>1</dim>
					<dim>1</dim>
					<dim>1</dim>
				</port>
			</output>
		</layer>
		<layer id="77" name="2975297915269" type="Const" version="opset1">
			<data element_type="f16" offset="5270" shape="1,672,1,1,1" size="1344"/>
			<output>
				<port id="0" precision="FP16">
					<dim>1</dim>
					<dim>672</dim>
					<dim>1</dim>
					<dim>1</dim>
					<dim>1</dim>
				</port>
			</output>
		</layer>
		<layer id="78" name="2752275614576" type="Const" version="opset1">
			<data element_type="f16" offset="6614" shape="" size="2"/>
			<output>
				<port id="0" precision="FP16"/>
			</output>
		</layer>
		<layer id="79" name="2753275714879" type="Const" version="opset1">
			<data element_type="f16" offset="6616" shape="" size="2"/>
			<output>
				<port id="0" precision="FP16"/>
			</output>
		</layer>
		<layer id="80" name="2754275815890" type="Const" version="opset1">
			<data element_type="f16" offset="6614" shape="" size="2"/>
			<output>
				<port id="0" precision="FP16"/>
			</output>
		</layer>
		<layer id="81" name="2755275915560" type="Const" version="opset1">
			<data element_type="f16" offset="6616" shape="" size="2"/>
			<output>
				<port id="0" precision="FP16"/>
			</output>
		</layer>
		<layer id="82" name="2222222614828" type="Const" version="opset1">
			<data element_type="f16" offset="52" shape="" size="2"/>
			<output>
				<port id="0" precision="FP16"/>
			</output>
		</layer>
		<layer id="83" name="2223222714132" type="Const" version="opset1">
			<data element_type="f16" offset="6618" shape="" size="2"/>
			<output>
				<port id="0" precision="FP16"/>
			</output>
		</layer>
		<layer id="84" name="2224222815176" type="Const" version="opset1">
			<data element_type="f16" offset="52" shape="" size="2"/>
			<output>
				<port id="0" precision="FP16"/>
			</output>
		</layer>
		<layer id="85" name="2225222915314" type="Const" version="opset1">
			<data element_type="f16" offset="6618" shape="" size="2"/>
			<output>
				<port id="0" precision="FP16"/>
			</output>
		</layer>
		<layer id="86" name="3192319613985" type="Const" version="opset1">
			<data element_type="f16" offset="52" shape="" size="2"/>
			<output>
				<port id="0" precision="FP16"/>
			</output>
		</layer>
		<layer id="87" name="3193319714273" type="Const" version="opset1">
			<data element_type="f16" offset="6620" shape="" size="2"/>
			<output>
				<port id="0" precision="FP16"/>
			</output>
		</layer>
		<layer id="88" name="3194319814024" type="Const" version="opset1">
			<data element_type="f16" offset="52" shape="" size="2"/>
			<output>
				<port id="0" precision="FP16"/>
			</output>
		</layer>
		<layer id="89" name="3195319914417" type="Const" version="opset1">
			<data element_type="f16" offset="6620" shape="" size="2"/>
			<output>
				<port id="0" precision="FP16"/>
			</output>
		</layer>
		<layer id="90" name="3232323615629" type="Const" version="opset1">
			<data element_type="f16" offset="6622" shape="" size="2"/>
			<output>
				<port id="0" precision="FP16"/>
			</output>
		</layer>
		<layer id="91" name="3233323714990" type="Const" version="opset1">
			<data element_type="f16" offset="6624" shape="" size="2"/>
			<output>
				<port id="0" precision="FP16"/>
			</output>
		</layer>
		<layer id="92" name="3234323813994" type="Const" version="opset1">
			<data element_type="f16" offset="6622" shape="" size="2"/>
			<output>
				<port id="0" precision="FP16"/>
			</output>
		</layer>
		<layer id="93" name="3235323913721" type="Const" version="opset1">
			<data element_type="f16" offset="6624" shape="" size="2"/>
			<output>
				<port id="0" precision="FP16"/>
			</output>
		</layer>
		<layer id="94" name="2082208613874" type="Const" version="opset1">
			<data element_type="f16" offset="6626" shape="" size="2"/>
			<output>
				<port id="0" precision="FP16"/>
			</output>
		</layer>
		<layer id="95" name="2083208713757" type="Const" version="opset1">
			<data element_type="f16" offset="6628" shape="" size="2"/>
			<output>
				<port id="0" precision="FP16"/>
			</output>
		</layer>
		<layer id="96" name="2084208814855" type="Const" version="opset1">
			<data element_type="f16" offset="6626" shape="" size="2"/>
			<output>
				<port id="0" precision="FP16"/>
			</output>
		</layer>
		<layer id="97" name="2085208914780" type="Const" version="opset1">
			<data element_type="f16" offset="6628" shape="" size="2"/>
			<output>
				<port id="0" precision="FP16"/>
			</output>
		</layer>
		<layer id="98" name="1692169614153" type="Const" version="opset1">
			<data element_type="f16" offset="6630" shape="" size="2"/>
			<output>
				<port id="0" precision="FP16"/>
			</output>
		</layer>
		<layer id="99" name="1693169715842" type="Const" version="opset1">
			<data element_type="f16" offset="6632" shape="" size="2"/>
			<output>
				<port id="0" precision="FP16"/>
			</output>
		</layer>
		<layer id="100" name="1694169814633" type="Const" version="opset1">
			<data element_type="f16" offset="6630" shape="" size="2"/>
			<output>
				<port id="0" precision="FP16"/>
			</output>
		</layer>
		<layer id="101" name="1695169913904" type="Const" version="opset1">
			<data element_type="f16" offset="6632" shape="" size="2"/>
			<output>
				<port id="0" precision="FP16"/>
			</output>
		</layer>
		<layer id="102" name="2402240615581" type="Const" version="opset1">
			<data element_type="f16" offset="6634" shape="" size="2"/>
			<output>
				<port id="0" precision="FP16"/>
			</output>
		</layer>
		<layer id="103" name="2403240714666" type="Const" version="opset1">
			<data element_type="f16" offset="6636" shape="" size="2"/>
			<output>
				<port id="0" precision="FP16"/>
			</output>
		</layer>
		<layer id="104" name="2404240814699" type="Const" version="opset1">
			<data element_type="f16" offset="6634" shape="" size="2"/>
			<output>
				<port id="0" precision="FP16"/>
			</output>
		</layer>
		<layer id="105" name="2405240914264" type="Const" version="opset1">
			<data element_type="f16" offset="6636" shape="" size="2"/>
			<output>
				<port id="0" precision="FP16"/>
			</output>
		</layer>
		<layer id="106" name="3132313614630" type="Const" version="opset1">
			<data element_type="f16" offset="52" shape="" size="2"/>
			<output>
				<port id="0" precision="FP16"/>
			</output>
		</layer>
		<layer id="107" name="3133313715764" type="Const" version="opset1">
			<data element_type="f16" offset="54" shape="" size="2"/>
			<output>
				<port id="0" precision="FP16"/>
			</output>
		</layer>
		<layer id="108" name="3134313814612" type="Const" version="opset1">
			<data element_type="f16" offset="52" shape="" size="2"/>
			<output>
				<port id="0" precision="FP16"/>
			</output>
		</layer>
		<layer id="109" name="3135313915056" type="Const" version="opset1">
			<data element_type="f16" offset="54" shape="" size="2"/>
			<output>
				<port id="0" precision="FP16"/>
			</output>
		</layer>
		<layer id="110" name="2302230613622" type="Const" version="opset1">
			<data element_type="f16" offset="52" shape="" size="2"/>
			<output>
				<port id="0" precision="FP16"/>
			</output>
		</layer>
		<layer id="111" name="2303230713820" type="Const" version="opset1">
			<data element_type="f16" offset="6638" shape="" size="2"/>
			<output>
				<port id="0" precision="FP16"/>
			</output>
		</layer>
		<layer id="112" name="2304230814351" type="Const" version="opset1">
			<data element_type="f16" offset="52" shape="" size="2"/>
			<output>
				<port id="0" precision="FP16"/>
			</output>
		</layer>
		<layer id="113" name="2305230915224" type="Const" version="opset1">
			<data element_type="f16" offset="6638" shape="" size="2"/>
			<output>
				<port id="0" precision="FP16"/>
			</output>
		</layer>
		<layer id="114" name="2342234614180" type="Const" version="opset1">
			<data element_type="f16" offset="6640" shape="" size="2"/>
			<output>
				<port id="0" precision="FP16"/>
			</output>
		</layer>
		<layer id="115" name="2343234715296" type="Const" version="opset1">
			<data element_type="f16" offset="6642" shape="" size="2"/>
			<output>
				<port id="0" precision="FP16"/>
			</output>
		</layer>
		<layer id="116" name="2344234815422" type="Const" version="opset1">
			<data element_type="f16" offset="6640" shape="" size="2"/>
			<output>
				<port id="0" precision="FP16"/>
			</output>
		</layer>
		<layer id="117" name="2345234915530" type="Const" version="opset1">
			<data element_type="f16" offset="6642" shape="" size="2"/>
			<output>
				<port id="0" precision="FP16"/>
			</output>
		</layer>
		<layer id="118" name="3422342614369" type="Const" version="opset1">
			<data element_type="f16" offset="6644" shape="" size="2"/>
			<output>
				<port id="0" precision="FP16"/>
			</output>
		</layer>
		<layer id="119" name="3423342714144" type="Const" version="opset1">
			<data element_type="f16" offset="6646" shape="" size="2"/>
			<output>
				<port id="0" precision="FP16"/>
			</output>
		</layer>
		<layer id="120" name="3424342814765" type="Const" version="opset1">
			<data element_type="f16" offset="6644" shape="" size="2"/>
			<output>
				<port id="0" precision="FP16"/>
			</output>
		</layer>
		<layer id="121" name="3425342915089" type="Const" version="opset1">
			<data element_type="f16" offset="6646" shape="" size="2"/>
			<output>
				<port id="0" precision="FP16"/>
			</output>
		</layer>
		<layer id="122" name="2952295613718" type="Const" version="opset1">
			<data element_type="f16" offset="6648" shape="1,672,1,1,1" size="1344"/>
			<output>
				<port id="0" precision="FP16">
					<dim>1</dim>
					<dim>672</dim>
					<dim>1</dim>
					<dim>1</dim>
					<dim>1</dim>
				</port>
			</output>
		</layer>
		<layer id="123" name="2953295714846" type="Const" version="opset1">
			<data element_type="f16" offset="7992" shape="1,672,1,1,1" size="1344"/>
			<output>
				<port id="0" precision="FP16">
					<dim>1</dim>
					<dim>672</dim>
					<dim>1</dim>
					<dim>1</dim>
					<dim>1</dim>
				</port>
			</output>
		</layer>
		<layer id="124" name="2954295815059" type="Const" version="opset1">
			<data element_type="f16" offset="6648" shape="1,672,1,1,1" size="1344"/>
			<output>
				<port id="0" precision="FP16">
					<dim>1</dim>
					<dim>672</dim>
					<dim>1</dim>
					<dim>1</dim>
					<dim>1</dim>
				</port>
			</output>
		</layer>
		<layer id="125" name="2955295915041" type="Const" version="opset1">
			<data element_type="f16" offset="7992" shape="1,672,1,1,1" size="1344"/>
			<output>
				<port id="0" precision="FP16">
					<dim>1</dim>
					<dim>672</dim>
					<dim>1</dim>
					<dim>1</dim>
					<dim>1</dim>
				</port>
			</output>
		</layer>
		<layer id="126" name="3622362614588" type="Const" version="opset1">
			<data element_type="f16" offset="9336" shape="" size="2"/>
			<output>
				<port id="0" precision="FP16"/>
			</output>
		</layer>
		<layer id="127" name="3623362714213" type="Const" version="opset1">
			<data element_type="f16" offset="9338" shape="" size="2"/>
			<output>
				<port id="0" precision="FP16"/>
			</output>
		</layer>
		<layer id="128" name="3624362815368" type="Const" version="opset1">
			<data element_type="f16" offset="9336" shape="" size="2"/>
			<output>
				<port id="0" precision="FP16"/>
			</output>
		</layer>
		<layer id="129" name="3625362915551" type="Const" version="opset1">
			<data element_type="f16" offset="9338" shape="" size="2"/>
			<output>
				<port id="0" precision="FP16"/>
			</output>
		</layer>
		<layer id="130" name="3522352615686" type="Const" version="opset1">
			<data element_type="f16" offset="9340" shape="" size="2"/>
			<output>
				<port id="0" precision="FP16"/>
			</output>
		</layer>
		<layer id="131" name="3523352715200" type="Const" version="opset1">
			<data element_type="f16" offset="9342" shape="" size="2"/>
			<output>
				<port id="0" precision="FP16"/>
			</output>
		</layer>
		<layer id="132" name="3524352814558" type="Const" version="opset1">
			<data element_type="f16" offset="9340" shape="" size="2"/>
			<output>
				<port id="0" precision="FP16"/>
			</output>
		</layer>
		<layer id="133" name="3525352914390" type="Const" version="opset1">
			<data element_type="f16" offset="9342" shape="" size="2"/>
			<output>
				<port id="0" precision="FP16"/>
			</output>
		</layer>
		<layer id="134" name="2122212614726" type="Const" version="opset1">
			<data element_type="f16" offset="9344" shape="" size="2"/>
			<output>
				<port id="0" precision="FP16"/>
			</output>
		</layer>
		<layer id="135" name="2123212715767" type="Const" version="opset1">
			<data element_type="f16" offset="9346" shape="" size="2"/>
			<output>
				<port id="0" precision="FP16"/>
			</output>
		</layer>
		<layer id="136" name="2124212813883" type="Const" version="opset1">
			<data element_type="f16" offset="9344" shape="" size="2"/>
			<output>
				<port id="0" precision="FP16"/>
			</output>
		</layer>
		<layer id="137" name="2125212915596" type="Const" version="opset1">
			<data element_type="f16" offset="9346" shape="" size="2"/>
			<output>
				<port id="0" precision="FP16"/>
			</output>
		</layer>
		<layer id="138" name="1712171613778" type="Const" version="opset1">
			<data element_type="f16" offset="52" shape="" size="2"/>
			<output>
				<port id="0" precision="FP16"/>
			</output>
		</layer>
		<layer id="139" name="1713171715449" type="Const" version="opset1">
			<data element_type="f16" offset="54" shape="" size="2"/>
			<output>
				<port id="0" precision="FP16"/>
			</output>
		</layer>
		<layer id="140" name="1714171813934" type="Const" version="opset1">
			<data element_type="f16" offset="52" shape="" size="2"/>
			<output>
				<port id="0" precision="FP16"/>
			</output>
		</layer>
		<layer id="141" name="1715171915905" type="Const" version="opset1">
			<data element_type="f16" offset="54" shape="" size="2"/>
			<output>
				<port id="0" precision="FP16"/>
			</output>
		</layer>
		<layer id="142" name="3662366614882" type="Const" version="opset1">
			<data element_type="f16" offset="52" shape="" size="2"/>
			<output>
				<port id="0" precision="FP16"/>
			</output>
		</layer>
		<layer id="143" name="3663366715404" type="Const" version="opset1">
			<data element_type="f16" offset="9348" shape="" size="2"/>
			<output>
				<port id="0" precision="FP16"/>
			</output>
		</layer>
		<layer id="144" name="3664366815878" type="Const" version="opset1">
			<data element_type="f16" offset="52" shape="" size="2"/>
			<output>
				<port id="0" precision="FP16"/>
			</output>
		</layer>
		<layer id="145" name="3665366915473" type="Const" version="opset1">
			<data element_type="f16" offset="9348" shape="" size="2"/>
			<output>
				<port id="0" precision="FP16"/>
			</output>
		</layer>
		<layer id="146" name="3032303614162" type="Const" version="opset1">
			<data element_type="f16" offset="9350" shape="" size="2"/>
			<output>
				<port id="0" precision="FP16"/>
			</output>
		</layer>
		<layer id="147" name="3033303715278" type="Const" version="opset1">
			<data element_type="f16" offset="9352" shape="" size="2"/>
			<output>
				<port id="0" precision="FP16"/>
			</output>
		</layer>
		<layer id="148" name="3034303815650" type="Const" version="opset1">
			<data element_type="f16" offset="9350" shape="" size="2"/>
			<output>
				<port id="0" precision="FP16"/>
			</output>
		</layer>
		<layer id="149" name="3035303914744" type="Const" version="opset1">
			<data element_type="f16" offset="9352" shape="" size="2"/>
			<output>
				<port id="0" precision="FP16"/>
			</output>
		</layer>
		<layer id="150" name="3392339614063" type="Const" version="opset1">
			<data element_type="f16" offset="9354" shape="" size="2"/>
			<output>
				<port id="0" precision="FP16"/>
			</output>
		</layer>
		<layer id="151" name="3393339713922" type="Const" version="opset1">
			<data element_type="f16" offset="9356" shape="" size="2"/>
			<output>
				<port id="0" precision="FP16"/>
			</output>
		</layer>
		<layer id="152" name="3394339814993" type="Const" version="opset1">
			<data element_type="f16" offset="9354" shape="" size="2"/>
			<output>
				<port id="0" precision="FP16"/>
			</output>
		</layer>
		<layer id="153" name="3395339915080" type="Const" version="opset1">
			<data element_type="f16" offset="9356" shape="" size="2"/>
			<output>
				<port id="0" precision="FP16"/>
			</output>
		</layer>
		<layer id="154" name="2992299615173" type="Const" version="opset1">
			<data element_type="f16" offset="9358" shape="1,672,1,1,1" size="1344"/>
			<output>
				<port id="0" precision="FP16">
					<dim>1</dim>
					<dim>672</dim>
					<dim>1</dim>
					<dim>1</dim>
					<dim>1</dim>
				</port>
			</output>
		</layer>
		<layer id="155" name="2993299715743" type="Const" version="opset1">
			<data element_type="f16" offset="10702" shape="1,672,1,1,1" size="1344"/>
			<output>
				<port id="0" precision="FP16">
					<dim>1</dim>
					<dim>672</dim>
					<dim>1</dim>
					<dim>1</dim>
					<dim>1</dim>
				</port>
			</output>
		</layer>
		<layer id="156" name="2994299814243" type="Const" version="opset1">
			<data element_type="f16" offset="9358" shape="1,672,1,1,1" size="1344"/>
			<output>
				<port id="0" precision="FP16">
					<dim>1</dim>
					<dim>672</dim>
					<dim>1</dim>
					<dim>1</dim>
					<dim>1</dim>
				</port>
			</output>
		</layer>
		<layer id="157" name="2995299914378" type="Const" version="opset1">
			<data element_type="f16" offset="10702" shape="1,672,1,1,1" size="1344"/>
			<output>
				<port id="0" precision="FP16">
					<dim>1</dim>
					<dim>672</dim>
					<dim>1</dim>
					<dim>1</dim>
					<dim>1</dim>
				</port>
			</output>
		</layer>
		<layer id="158" name="2022202614597" type="Const" version="opset1">
			<data element_type="f16" offset="12046" shape="" size="2"/>
			<output>
				<port id="0" precision="FP16"/>
			</output>
		</layer>
		<layer id="159" name="2023202715983" type="Const" version="opset1">
			<data element_type="f16" offset="12048" shape="" size="2"/>
			<output>
				<port id="0" precision="FP16"/>
			</output>
		</layer>
		<layer id="160" name="2024202814705" type="Const" version="opset1">
			<data element_type="f16" offset="12046" shape="" size="2"/>
			<output>
				<port id="0" precision="FP16"/>
			</output>
		</layer>
		<layer id="161" name="2025202915920" type="Const" version="opset1">
			<data element_type="f16" offset="12048" shape="" size="2"/>
			<output>
				<port id="0" precision="FP16"/>
			</output>
		</layer>
		<layer id="162" name="2152215614972" type="Const" version="opset1">
			<data element_type="f16" offset="12050" shape="" size="2"/>
			<output>
				<port id="0" precision="FP16"/>
			</output>
		</layer>
		<layer id="163" name="2153215715566" type="Const" version="opset1">
			<data element_type="f16" offset="12052" shape="" size="2"/>
			<output>
				<port id="0" precision="FP16"/>
			</output>
		</layer>
		<layer id="164" name="2154215813811" type="Const" version="opset1">
			<data element_type="f16" offset="12050" shape="" size="2"/>
			<output>
				<port id="0" precision="FP16"/>
			</output>
		</layer>
		<layer id="165" name="2155215914177" type="Const" version="opset1">
			<data element_type="f16" offset="12052" shape="" size="2"/>
			<output>
				<port id="0" precision="FP16"/>
			</output>
		</layer>
		<layer id="166" name="3012301614255" type="Const" version="opset1">
			<data element_type="f16" offset="12054" shape="" size="2"/>
			<output>
				<port id="0" precision="FP16"/>
			</output>
		</layer>
		<layer id="167" name="3013301715677" type="Const" version="opset1">
			<data element_type="f16" offset="12056" shape="" size="2"/>
			<output>
				<port id="0" precision="FP16"/>
			</output>
		</layer>
		<layer id="168" name="3014301815866" type="Const" version="opset1">
			<data element_type="f16" offset="12054" shape="" size="2"/>
			<output>
				<port id="0" precision="FP16"/>
			</output>
		</layer>
		<layer id="169" name="3015301915344" type="Const" version="opset1">
			<data element_type="f16" offset="12056" shape="" size="2"/>
			<output>
				<port id="0" precision="FP16"/>
			</output>
		</layer>
		<layer id="170" name="2282228614540" type="Const" version="opset1">
			<data element_type="f16" offset="52" shape="" size="2"/>
			<output>
				<port id="0" precision="FP16"/>
			</output>
		</layer>
		<layer id="171" name="2283228715524" type="Const" version="opset1">
			<data element_type="f16" offset="12058" shape="" size="2"/>
			<output>
				<port id="0" precision="FP16"/>
			</output>
		</layer>
		<layer id="172" name="2284228815017" type="Const" version="opset1">
			<data element_type="f16" offset="52" shape="" size="2"/>
			<output>
				<port id="0" precision="FP16"/>
			</output>
		</layer>
		<layer id="173" name="2285228914720" type="Const" version="opset1">
			<data element_type="f16" offset="12058" shape="" size="2"/>
			<output>
				<port id="0" precision="FP16"/>
			</output>
		</layer>
		<layer id="174" name="3532353613745" type="Const" version="opset1">
			<data element_type="f16" offset="52" shape="" size="2"/>
			<output>
				<port id="0" precision="FP16"/>
			</output>
		</layer>
		<layer id="175" name="3533353713913" type="Const" version="opset1">
			<data element_type="f16" offset="12060" shape="" size="2"/>
			<output>
				<port id="0" precision="FP16"/>
			</output>
		</layer>
		<layer id="176" name="3534353815794" type="Const" version="opset1">
			<data element_type="f16" offset="52" shape="" size="2"/>
			<output>
				<port id="0" precision="FP16"/>
			</output>
		</layer>
		<layer id="177" name="3535353913781" type="Const" version="opset1">
			<data element_type="f16" offset="12060" shape="" size="2"/>
			<output>
				<port id="0" precision="FP16"/>
			</output>
		</layer>
		<layer id="178" name="3472347615545" type="Const" version="opset1">
			<data element_type="f16" offset="12062" shape="" size="2"/>
			<output>
				<port id="0" precision="FP16"/>
			</output>
		</layer>
		<layer id="179" name="3473347715959" type="Const" version="opset1">
			<data element_type="f16" offset="12064" shape="" size="2"/>
			<output>
				<port id="0" precision="FP16"/>
			</output>
		</layer>
		<layer id="180" name="3474347815896" type="Const" version="opset1">
			<data element_type="f16" offset="12062" shape="" size="2"/>
			<output>
				<port id="0" precision="FP16"/>
			</output>
		</layer>
		<layer id="181" name="3475347915911" type="Const" version="opset1">
			<data element_type="f16" offset="12064" shape="" size="2"/>
			<output>
				<port id="0" precision="FP16"/>
			</output>
		</layer>
		<layer id="182" name="2012201614363" type="Const" version="opset1">
			<data element_type="f16" offset="12066" shape="" size="2"/>
			<output>
				<port id="0" precision="FP16"/>
			</output>
		</layer>
		<layer id="183" name="2013201714228" type="Const" version="opset1">
			<data element_type="f16" offset="12068" shape="" size="2"/>
			<output>
				<port id="0" precision="FP16"/>
			</output>
		</layer>
		<layer id="184" name="2014201815272" type="Const" version="opset1">
			<data element_type="f16" offset="12066" shape="" size="2"/>
			<output>
				<port id="0" precision="FP16"/>
			</output>
		</layer>
		<layer id="185" name="2015201914723" type="Const" version="opset1">
			<data element_type="f16" offset="12068" shape="" size="2"/>
			<output>
				<port id="0" precision="FP16"/>
			</output>
		</layer>
		<layer id="186" name="3352335615776" type="Const" version="opset1">
			<data element_type="f16" offset="12070" shape="1,480,1,1,1" size="960"/>
			<output>
				<port id="0" precision="FP16">
					<dim>1</dim>
					<dim>480</dim>
					<dim>1</dim>
					<dim>1</dim>
					<dim>1</dim>
				</port>
			</output>
		</layer>
		<layer id="187" name="3353335715617" type="Const" version="opset1">
			<data element_type="f16" offset="13030" shape="1,480,1,1,1" size="960"/>
			<output>
				<port id="0" precision="FP16">
					<dim>1</dim>
					<dim>480</dim>
					<dim>1</dim>
					<dim>1</dim>
					<dim>1</dim>
				</port>
			</output>
		</layer>
		<layer id="188" name="3354335813856" type="Const" version="opset1">
			<data element_type="f16" offset="12070" shape="1,480,1,1,1" size="960"/>
			<output>
				<port id="0" precision="FP16">
					<dim>1</dim>
					<dim>480</dim>
					<dim>1</dim>
					<dim>1</dim>
					<dim>1</dim>
				</port>
			</output>
		</layer>
		<layer id="189" name="3355335915146" type="Const" version="opset1">
			<data element_type="f16" offset="13030" shape="1,480,1,1,1" size="960"/>
			<output>
				<port id="0" precision="FP16">
					<dim>1</dim>
					<dim>480</dim>
					<dim>1</dim>
					<dim>1</dim>
					<dim>1</dim>
				</port>
			</output>
		</layer>
		<layer id="190" name="2712271615266" type="Const" version="opset1">
			<data element_type="f16" offset="13990" shape="" size="2"/>
			<output>
				<port id="0" precision="FP16"/>
			</output>
		</layer>
		<layer id="191" name="2713271714291" type="Const" version="opset1">
			<data element_type="f16" offset="13992" shape="" size="2"/>
			<output>
				<port id="0" precision="FP16"/>
			</output>
		</layer>
		<layer id="192" name="2714271813814" type="Const" version="opset1">
			<data element_type="f16" offset="13990" shape="" size="2"/>
			<output>
				<port id="0" precision="FP16"/>
			</output>
		</layer>
		<layer id="193" name="2715271914924" type="Const" version="opset1">
			<data element_type="f16" offset="13992" shape="" size="2"/>
			<output>
				<port id="0" precision="FP16"/>
			</output>
		</layer>
		<layer id="194" name="3082308613649" type="Const" version="opset1">
			<data element_type="f16" offset="52" shape="" size="2"/>
			<output>
				<port id="0" precision="FP16"/>
			</output>
		</layer>
		<layer id="195" name="3083308713844" type="Const" version="opset1">
			<data element_type="f16" offset="13994" shape="" size="2"/>
			<output>
				<port id="0" precision="FP16"/>
			</output>
		</layer>
		<layer id="196" name="3084308815044" type="Const" version="opset1">
			<data element_type="f16" offset="52" shape="" size="2"/>
			<output>
				<port id="0" precision="FP16"/>
			</output>
		</layer>
		<layer id="197" name="3085308915854" type="Const" version="opset1">
			<data element_type="f16" offset="13994" shape="" size="2"/>
			<output>
				<port id="0" precision="FP16"/>
			</output>
		</layer>
		<layer id="198" name="1792179614111" type="Const" version="opset1">
			<data element_type="f16" offset="52" shape="" size="2"/>
			<output>
				<port id="0" precision="FP16"/>
			</output>
		</layer>
		<layer id="199" name="1793179715527" type="Const" version="opset1">
			<data element_type="f16" offset="13996" shape="" size="2"/>
			<output>
				<port id="0" precision="FP16"/>
			</output>
		</layer>
		<layer id="200" name="1794179815518" type="Const" version="opset1">
			<data element_type="f16" offset="52" shape="" size="2"/>
			<output>
				<port id="0" precision="FP16"/>
			</output>
		</layer>
		<layer id="201" name="1795179914471" type="Const" version="opset1">
			<data element_type="f16" offset="13996" shape="" size="2"/>
			<output>
				<port id="0" precision="FP16"/>
			</output>
		</layer>
		<layer id="202" name="2592259613967" type="Const" version="opset1">
			<data element_type="f16" offset="13998" shape="" size="2"/>
			<output>
				<port id="0" precision="FP16"/>
			</output>
		</layer>
		<layer id="203" name="2593259715101" type="Const" version="opset1">
			<data element_type="f16" offset="14000" shape="" size="2"/>
			<output>
				<port id="0" precision="FP16"/>
			</output>
		</layer>
		<layer id="204" name="2594259814663" type="Const" version="opset1">
			<data element_type="f16" offset="13998" shape="" size="2"/>
			<output>
				<port id="0" precision="FP16"/>
			</output>
		</layer>
		<layer id="205" name="2595259915179" type="Const" version="opset1">
			<data element_type="f16" offset="14000" shape="" size="2"/>
			<output>
				<port id="0" precision="FP16"/>
			</output>
		</layer>
		<layer id="206" name="2042204615584" type="Const" version="opset1">
			<data element_type="f16" offset="14002" shape="" size="2"/>
			<output>
				<port id="0" precision="FP16"/>
			</output>
		</layer>
		<layer id="207" name="2043204714303" type="Const" version="opset1">
			<data element_type="f16" offset="14004" shape="" size="2"/>
			<output>
				<port id="0" precision="FP16"/>
			</output>
		</layer>
		<layer id="208" name="2044204815020" type="Const" version="opset1">
			<data element_type="f16" offset="14002" shape="" size="2"/>
			<output>
				<port id="0" precision="FP16"/>
			</output>
		</layer>
		<layer id="209" name="2045204913853" type="Const" version="opset1">
			<data element_type="f16" offset="14004" shape="" size="2"/>
			<output>
				<port id="0" precision="FP16"/>
			</output>
		</layer>
		<layer id="210" name="2482248615671" type="Const" version="opset1">
			<data element_type="f16" offset="14006" shape="" size="2"/>
			<output>
				<port id="0" precision="FP16"/>
			</output>
		</layer>
		<layer id="211" name="2483248714066" type="Const" version="opset1">
			<data element_type="f16" offset="14008" shape="" size="2"/>
			<output>
				<port id="0" precision="FP16"/>
			</output>
		</layer>
		<layer id="212" name="2484248814996" type="Const" version="opset1">
			<data element_type="f16" offset="14006" shape="" size="2"/>
			<output>
				<port id="0" precision="FP16"/>
			</output>
		</layer>
		<layer id="213" name="2485248914915" type="Const" version="opset1">
			<data element_type="f16" offset="14008" shape="" size="2"/>
			<output>
				<port id="0" precision="FP16"/>
			</output>
		</layer>
		<layer id="214" name="2272227614117" type="Const" version="opset1">
			<data element_type="f16" offset="14010" shape="" size="2"/>
			<output>
				<port id="0" precision="FP16"/>
			</output>
		</layer>
		<layer id="215" name="2273227714414" type="Const" version="opset1">
			<data element_type="f16" offset="14012" shape="" size="2"/>
			<output>
				<port id="0" precision="FP16"/>
			</output>
		</layer>
		<layer id="216" name="2274227814837" type="Const" version="opset1">
			<data element_type="f16" offset="14010" shape="" size="2"/>
			<output>
				<port id="0" precision="FP16"/>
			</output>
		</layer>
		<layer id="217" name="2275227914123" type="Const" version="opset1">
			<data element_type="f16" offset="14012" shape="" size="2"/>
			<output>
				<port id="0" precision="FP16"/>
			</output>
		</layer>
		<layer id="218" name="3372337615797" type="Const" version="opset1">
			<data element_type="f16" offset="14014" shape="" size="2"/>
			<output>
				<port id="0" precision="FP16"/>
			</output>
		</layer>
		<layer id="219" name="3373337714078" type="Const" version="opset1">
			<data element_type="f16" offset="14016" shape="" size="2"/>
			<output>
				<port id="0" precision="FP16"/>
			</output>
		</layer>
		<layer id="220" name="3374337815221" type="Const" version="opset1">
			<data element_type="f16" offset="14014" shape="" size="2"/>
			<output>
				<port id="0" precision="FP16"/>
			</output>
		</layer>
		<layer id="221" name="3375337914939" type="Const" version="opset1">
			<data element_type="f16" offset="14016" shape="" size="2"/>
			<output>
				<port id="0" precision="FP16"/>
			</output>
		</layer>
		<layer id="222" name="3432343613928" type="Const" version="opset1">
			<data element_type="f16" offset="14018" shape="1,184,1,1,1" size="368"/>
			<output>
				<port id="0" precision="FP16">
					<dim>1</dim>
					<dim>184</dim>
					<dim>1</dim>
					<dim>1</dim>
					<dim>1</dim>
				</port>
			</output>
		</layer>
		<layer id="223" name="3433343714672" type="Const" version="opset1">
			<data element_type="f16" offset="14386" shape="1,184,1,1,1" size="368"/>
			<output>
				<port id="0" precision="FP16">
					<dim>1</dim>
					<dim>184</dim>
					<dim>1</dim>
					<dim>1</dim>
					<dim>1</dim>
				</port>
			</output>
		</layer>
		<layer id="224" name="3434343815371" type="Const" version="opset1">
			<data element_type="f16" offset="14018" shape="1,184,1,1,1" size="368"/>
			<output>
				<port id="0" precision="FP16">
					<dim>1</dim>
					<dim>184</dim>
					<dim>1</dim>
					<dim>1</dim>
					<dim>1</dim>
				</port>
			</output>
		</layer>
		<layer id="225" name="3435343914060" type="Const" version="opset1">
			<data element_type="f16" offset="14386" shape="1,184,1,1,1" size="368"/>
			<output>
				<port id="0" precision="FP16">
					<dim>1</dim>
					<dim>184</dim>
					<dim>1</dim>
					<dim>1</dim>
					<dim>1</dim>
				</port>
			</output>
		</layer>
		<layer id="226" name="1972197614639" type="Const" version="opset1">
			<data element_type="f16" offset="14754" shape="" size="2"/>
			<output>
				<port id="0" precision="FP16"/>
			</output>
		</layer>
		<layer id="227" name="1973197715953" type="Const" version="opset1">
			<data element_type="f16" offset="14756" shape="" size="2"/>
			<output>
				<port id="0" precision="FP16"/>
			</output>
		</layer>
		<layer id="228" name="1974197814438" type="Const" version="opset1">
			<data element_type="f16" offset="14754" shape="" size="2"/>
			<output>
				<port id="0" precision="FP16"/>
			</output>
		</layer>
		<layer id="229" name="1975197914525" type="Const" version="opset1">
			<data element_type="f16" offset="14756" shape="" size="2"/>
			<output>
				<port id="0" precision="FP16"/>
			</output>
		</layer>
		<layer id="230" name="2782278616010" type="Const" version="opset1">
			<data element_type="f16" offset="14758" shape="" size="2"/>
			<output>
				<port id="0" precision="FP16"/>
			</output>
		</layer>
		<layer id="231" name="2783278714750" type="Const" version="opset1">
			<data element_type="f16" offset="14760" shape="" size="2"/>
			<output>
				<port id="0" precision="FP16"/>
			</output>
		</layer>
		<layer id="232" name="2784278814399" type="Const" version="opset1">
			<data element_type="f16" offset="14758" shape="" size="2"/>
			<output>
				<port id="0" precision="FP16"/>
			</output>
		</layer>
		<layer id="233" name="2785278915161" type="Const" version="opset1">
			<data element_type="f16" offset="14760" shape="" size="2"/>
			<output>
				<port id="0" precision="FP16"/>
			</output>
		</layer>
		<layer id="234" name="3212321613955" type="Const" version="opset1">
			<data element_type="f16" offset="14762" shape="" size="2"/>
			<output>
				<port id="0" precision="FP16"/>
			</output>
		</layer>
		<layer id="235" name="3213321713676" type="Const" version="opset1">
			<data element_type="f16" offset="14764" shape="" size="2"/>
			<output>
				<port id="0" precision="FP16"/>
			</output>
		</layer>
		<layer id="236" name="3214321814627" type="Const" version="opset1">
			<data element_type="f16" offset="14762" shape="" size="2"/>
			<output>
				<port id="0" precision="FP16"/>
			</output>
		</layer>
		<layer id="237" name="3215321913685" type="Const" version="opset1">
			<data element_type="f16" offset="14764" shape="" size="2"/>
			<output>
				<port id="0" precision="FP16"/>
			</output>
		</layer>
		<layer id="238" name="2462246614327" type="Const" version="opset1">
			<data element_type="f16" offset="14766" shape="1,184,1,1,1" size="368"/>
			<output>
				<port id="0" precision="FP16">
					<dim>1</dim>
					<dim>184</dim>
					<dim>1</dim>
					<dim>1</dim>
					<dim>1</dim>
				</port>
			</output>
		</layer>
		<layer id="239" name="2463246715548" type="Const" version="opset1">
			<data element_type="f16" offset="15134" shape="1,184,1,1,1" size="368"/>
			<output>
				<port id="0" precision="FP16">
					<dim>1</dim>
					<dim>184</dim>
					<dim>1</dim>
					<dim>1</dim>
					<dim>1</dim>
				</port>
			</output>
		</layer>
		<layer id="240" name="2464246813799" type="Const" version="opset1">
			<data element_type="f16" offset="14766" shape="1,184,1,1,1" size="368"/>
			<output>
				<port id="0" precision="FP16">
					<dim>1</dim>
					<dim>184</dim>
					<dim>1</dim>
					<dim>1</dim>
					<dim>1</dim>
				</port>
			</output>
		</layer>
		<layer id="241" name="2465246914225" type="Const" version="opset1">
			<data element_type="f16" offset="15134" shape="1,184,1,1,1" size="368"/>
			<output>
				<port id="0" precision="FP16">
					<dim>1</dim>
					<dim>184</dim>
					<dim>1</dim>
					<dim>1</dim>
					<dim>1</dim>
				</port>
			</output>
		</layer>
		<layer id="242" name="2442244615719" type="Const" version="opset1">
			<data element_type="f16" offset="15502" shape="" size="2"/>
			<output>
				<port id="0" precision="FP16"/>
			</output>
		</layer>
		<layer id="243" name="2443244714555" type="Const" version="opset1">
			<data element_type="f16" offset="15504" shape="" size="2"/>
			<output>
				<port id="0" precision="FP16"/>
			</output>
		</layer>
		<layer id="244" name="2444244815815" type="Const" version="opset1">
			<data element_type="f16" offset="15502" shape="" size="2"/>
			<output>
				<port id="0" precision="FP16"/>
			</output>
		</layer>
		<layer id="245" name="2445244914288" type="Const" version="opset1">
			<data element_type="f16" offset="15504" shape="" size="2"/>
			<output>
				<port id="0" precision="FP16"/>
			</output>
		</layer>
		<layer id="246" name="1962196615437" type="Const" version="opset1">
			<data element_type="f16" offset="15506" shape="" size="2"/>
			<output>
				<port id="0" precision="FP16"/>
			</output>
		</layer>
		<layer id="247" name="1963196715293" type="Const" version="opset1">
			<data element_type="f16" offset="15508" shape="" size="2"/>
			<output>
				<port id="0" precision="FP16"/>
			</output>
		</layer>
		<layer id="248" name="1964196814735" type="Const" version="opset1">
			<data element_type="f16" offset="15506" shape="" size="2"/>
			<output>
				<port id="0" precision="FP16"/>
			</output>
		</layer>
		<layer id="249" name="1965196913859" type="Const" version="opset1">
			<data element_type="f16" offset="15508" shape="" size="2"/>
			<output>
				<port id="0" precision="FP16"/>
			</output>
		</layer>
		<layer id="250" name="2532253615509" type="Const" version="opset1">
			<data element_type="f16" offset="15510" shape="" size="2"/>
			<output>
				<port id="0" precision="FP16"/>
			</output>
		</layer>
		<layer id="251" name="2533253714678" type="Const" version="opset1">
			<data element_type="f16" offset="15512" shape="" size="2"/>
			<output>
				<port id="0" precision="FP16"/>
			</output>
		</layer>
		<layer id="252" name="2534253814858" type="Const" version="opset1">
			<data element_type="f16" offset="15510" shape="" size="2"/>
			<output>
				<port id="0" precision="FP16"/>
			</output>
		</layer>
		<layer id="253" name="2535253915803" type="Const" version="opset1">
			<data element_type="f16" offset="15512" shape="" size="2"/>
			<output>
				<port id="0" precision="FP16"/>
			</output>
		</layer>
		<layer id="254" name="2732273614936" type="Const" version="opset1">
			<data element_type="f16" offset="15514" shape="1,200,1,1,1" size="400"/>
			<output>
				<port id="0" precision="FP16">
					<dim>1</dim>
					<dim>200</dim>
					<dim>1</dim>
					<dim>1</dim>
					<dim>1</dim>
				</port>
			</output>
		</layer>
		<layer id="255" name="2733273714342" type="Const" version="opset1">
			<data element_type="f16" offset="15914" shape="1,200,1,1,1" size="400"/>
			<output>
				<port id="0" precision="FP16">
					<dim>1</dim>
					<dim>200</dim>
					<dim>1</dim>
					<dim>1</dim>
					<dim>1</dim>
				</port>
			</output>
		</layer>
		<layer id="256" name="2734273815839" type="Const" version="opset1">
			<data element_type="f16" offset="15514" shape="1,200,1,1,1" size="400"/>
			<output>
				<port id="0" precision="FP16">
					<dim>1</dim>
					<dim>200</dim>
					<dim>1</dim>
					<dim>1</dim>
					<dim>1</dim>
				</port>
			</output>
		</layer>
		<layer id="257" name="2735273915338" type="Const" version="opset1">
			<data element_type="f16" offset="15914" shape="1,200,1,1,1" size="400"/>
			<output>
				<port id="0" precision="FP16">
					<dim>1</dim>
					<dim>200</dim>
					<dim>1</dim>
					<dim>1</dim>
					<dim>1</dim>
				</port>
			</output>
		</layer>
		<layer id="258" name="2872287615050" type="Const" version="opset1">
			<data element_type="f16" offset="16314" shape="" size="2"/>
			<output>
				<port id="0" precision="FP16"/>
			</output>
		</layer>
		<layer id="259" name="2873287714762" type="Const" version="opset1">
			<data element_type="f16" offset="16316" shape="" size="2"/>
			<output>
				<port id="0" precision="FP16"/>
			</output>
		</layer>
		<layer id="260" name="2874287815998" type="Const" version="opset1">
			<data element_type="f16" offset="16314" shape="" size="2"/>
			<output>
				<port id="0" precision="FP16"/>
			</output>
		</layer>
		<layer id="261" name="2875287915734" type="Const" version="opset1">
			<data element_type="f16" offset="16316" shape="" size="2"/>
			<output>
				<port id="0" precision="FP16"/>
			</output>
		</layer>
		<layer id="262" name="2892289614849" type="Const" version="opset1">
			<data element_type="f16" offset="16318" shape="" size="2"/>
			<output>
				<port id="0" precision="FP16"/>
			</output>
		</layer>
		<layer id="263" name="2893289713919" type="Const" version="opset1">
			<data element_type="f16" offset="16320" shape="" size="2"/>
			<output>
				<port id="0" precision="FP16"/>
			</output>
		</layer>
		<layer id="264" name="2894289815359" type="Const" version="opset1">
			<data element_type="f16" offset="16318" shape="" size="2"/>
			<output>
				<port id="0" precision="FP16"/>
			</output>
		</layer>
		<layer id="265" name="2895289915374" type="Const" version="opset1">
			<data element_type="f16" offset="16320" shape="" size="2"/>
			<output>
				<port id="0" precision="FP16"/>
			</output>
		</layer>
		<layer id="266" name="3702370614324" type="Const" version="opset1">
			<data element_type="f16" offset="16322" shape="1,240,1,1,1" size="480"/>
			<output>
				<port id="0" precision="FP16">
					<dim>1</dim>
					<dim>240</dim>
					<dim>1</dim>
					<dim>1</dim>
					<dim>1</dim>
				</port>
			</output>
		</layer>
		<layer id="267" name="3703370714408" type="Const" version="opset1">
			<data element_type="f16" offset="16802" shape="1,240,1,1,1" size="480"/>
			<output>
				<port id="0" precision="FP16">
					<dim>1</dim>
					<dim>240</dim>
					<dim>1</dim>
					<dim>1</dim>
					<dim>1</dim>
				</port>
			</output>
		</layer>
		<layer id="268" name="3704370814468" type="Const" version="opset1">
			<data element_type="f16" offset="16322" shape="1,240,1,1,1" size="480"/>
			<output>
				<port id="0" precision="FP16">
					<dim>1</dim>
					<dim>240</dim>
					<dim>1</dim>
					<dim>1</dim>
					<dim>1</dim>
				</port>
			</output>
		</layer>
		<layer id="269" name="3705370914492" type="Const" version="opset1">
			<data element_type="f16" offset="16802" shape="1,240,1,1,1" size="480"/>
			<output>
				<port id="0" precision="FP16">
					<dim>1</dim>
					<dim>240</dim>
					<dim>1</dim>
					<dim>1</dim>
					<dim>1</dim>
				</port>
			</output>
		</layer>
		<layer id="270" name="2932293615857" type="Const" version="opset1">
			<data element_type="f16" offset="17282" shape="" size="2"/>
			<output>
				<port id="0" precision="FP16"/>
			</output>
		</layer>
		<layer id="271" name="2933293715656" type="Const" version="opset1">
			<data element_type="f16" offset="17284" shape="" size="2"/>
			<output>
				<port id="0" precision="FP16"/>
			</output>
		</layer>
		<layer id="272" name="2934293814099" type="Const" version="opset1">
			<data element_type="f16" offset="17282" shape="" size="2"/>
			<output>
				<port id="0" precision="FP16"/>
			</output>
		</layer>
		<layer id="273" name="2935293915539" type="Const" version="opset1">
			<data element_type="f16" offset="17284" shape="" size="2"/>
			<output>
				<port id="0" precision="FP16"/>
			</output>
		</layer>
		<layer id="274" name="3462346615350" type="Const" version="opset1">
			<data element_type="f16" offset="17286" shape="" size="2"/>
			<output>
				<port id="0" precision="FP16"/>
			</output>
		</layer>
		<layer id="275" name="3463346715122" type="Const" version="opset1">
			<data element_type="f16" offset="17288" shape="" size="2"/>
			<output>
				<port id="0" precision="FP16"/>
			</output>
		</layer>
		<layer id="276" name="3464346815779" type="Const" version="opset1">
			<data element_type="f16" offset="17286" shape="" size="2"/>
			<output>
				<port id="0" precision="FP16"/>
			</output>
		</layer>
		<layer id="277" name="3465346915965" type="Const" version="opset1">
			<data element_type="f16" offset="17288" shape="" size="2"/>
			<output>
				<port id="0" precision="FP16"/>
			</output>
		</layer>
		<layer id="278" name="3682368614816" type="Const" version="opset1">
			<data element_type="f16" offset="52" shape="" size="2"/>
			<output>
				<port id="0" precision="FP16"/>
			</output>
		</layer>
		<layer id="279" name="3683368715962" type="Const" version="opset1">
			<data element_type="f16" offset="17290" shape="" size="2"/>
			<output>
				<port id="0" precision="FP16"/>
			</output>
		</layer>
		<layer id="280" name="3684368815248" type="Const" version="opset1">
			<data element_type="f16" offset="52" shape="" size="2"/>
			<output>
				<port id="0" precision="FP16"/>
			</output>
		</layer>
		<layer id="281" name="3685368914018" type="Const" version="opset1">
			<data element_type="f16" offset="17290" shape="" size="2"/>
			<output>
				<port id="0" precision="FP16"/>
			</output>
		</layer>
		<layer id="282" name="3272327615104" type="Const" version="opset1">
			<data element_type="f16" offset="52" shape="" size="2"/>
			<output>
				<port id="0" precision="FP16"/>
			</output>
		</layer>
		<layer id="283" name="3273327715932" type="Const" version="opset1">
			<data element_type="f16" offset="17292" shape="" size="2"/>
			<output>
				<port id="0" precision="FP16"/>
			</output>
		</layer>
		<layer id="284" name="3274327814885" type="Const" version="opset1">
			<data element_type="f16" offset="52" shape="" size="2"/>
			<output>
				<port id="0" precision="FP16"/>
			</output>
		</layer>
		<layer id="285" name="3275327915824" type="Const" version="opset1">
			<data element_type="f16" offset="17292" shape="" size="2"/>
			<output>
				<port id="0" precision="FP16"/>
			</output>
		</layer>
		<layer id="286" name="2242224614003" type="Const" version="opset1">
			<data element_type="f16" offset="52" shape="" size="2"/>
			<output>
				<port id="0" precision="FP16"/>
			</output>
		</layer>
		<layer id="287" name="2243224715716" type="Const" version="opset1">
			<data element_type="f16" offset="17294" shape="" size="2"/>
			<output>
				<port id="0" precision="FP16"/>
			</output>
		</layer>
		<layer id="288" name="2244224814495" type="Const" version="opset1">
			<data element_type="f16" offset="52" shape="" size="2"/>
			<output>
				<port id="0" precision="FP16"/>
			</output>
		</layer>
		<layer id="289" name="2245224915479" type="Const" version="opset1">
			<data element_type="f16" offset="17294" shape="" size="2"/>
			<output>
				<port id="0" precision="FP16"/>
			</output>
		</layer>
		<layer id="290" name="2802280614246" type="Const" version="opset1">
			<data element_type="f16" offset="17296" shape="" size="2"/>
			<output>
				<port id="0" precision="FP16"/>
			</output>
		</layer>
		<layer id="291" name="2803280715203" type="Const" version="opset1">
			<data element_type="f16" offset="17298" shape="" size="2"/>
			<output>
				<port id="0" precision="FP16"/>
			</output>
		</layer>
		<layer id="292" name="2804280813700" type="Const" version="opset1">
			<data element_type="f16" offset="17296" shape="" size="2"/>
			<output>
				<port id="0" precision="FP16"/>
			</output>
		</layer>
		<layer id="293" name="2805280915497" type="Const" version="opset1">
			<data element_type="f16" offset="17298" shape="" size="2"/>
			<output>
				<port id="0" precision="FP16"/>
			</output>
		</layer>
		<layer id="294" name="3102310614480" type="Const" version="opset1">
			<data element_type="f16" offset="17300" shape="" size="2"/>
			<output>
				<port id="0" precision="FP16"/>
			</output>
		</layer>
		<layer id="295" name="3103310713925" type="Const" version="opset1">
			<data element_type="f16" offset="17302" shape="" size="2"/>
			<output>
				<port id="0" precision="FP16"/>
			</output>
		</layer>
		<layer id="296" name="3104310815401" type="Const" version="opset1">
			<data element_type="f16" offset="17300" shape="" size="2"/>
			<output>
				<port id="0" precision="FP16"/>
			</output>
		</layer>
		<layer id="297" name="3105310914957" type="Const" version="opset1">
			<data element_type="f16" offset="17302" shape="" size="2"/>
			<output>
				<port id="0" precision="FP16"/>
			</output>
		</layer>
		<layer id="298" name="1812181614867" type="Const" version="opset1">
			<data element_type="f16" offset="17304" shape="1,120,1,1,1" size="240"/>
			<output>
				<port id="0" precision="FP16">
					<dim>1</dim>
					<dim>120</dim>
					<dim>1</dim>
					<dim>1</dim>
					<dim>1</dim>
				</port>
			</output>
		</layer>
		<layer id="299" name="1813181714135" type="Const" version="opset1">
			<data element_type="f16" offset="17544" shape="1,120,1,1,1" size="240"/>
			<output>
				<port id="0" precision="FP16">
					<dim>1</dim>
					<dim>120</dim>
					<dim>1</dim>
					<dim>1</dim>
					<dim>1</dim>
				</port>
			</output>
		</layer>
		<layer id="300" name="1814181814366" type="Const" version="opset1">
			<data element_type="f16" offset="17304" shape="1,120,1,1,1" size="240"/>
			<output>
				<port id="0" precision="FP16">
					<dim>1</dim>
					<dim>120</dim>
					<dim>1</dim>
					<dim>1</dim>
					<dim>1</dim>
				</port>
			</output>
		</layer>
		<layer id="301" name="1815181914456" type="Const" version="opset1">
			<data element_type="f16" offset="17544" shape="1,120,1,1,1" size="240"/>
			<output>
				<port id="0" precision="FP16">
					<dim>1</dim>
					<dim>120</dim>
					<dim>1</dim>
					<dim>1</dim>
					<dim>1</dim>
				</port>
			</output>
		</layer>
		<layer id="302" name="2912291614360" type="Const" version="opset1">
			<data element_type="f16" offset="17784" shape="" size="2"/>
			<output>
				<port id="0" precision="FP16"/>
			</output>
		</layer>
		<layer id="303" name="2913291713694" type="Const" version="opset1">
			<data element_type="f16" offset="17786" shape="" size="2"/>
			<output>
				<port id="0" precision="FP16"/>
			</output>
		</layer>
		<layer id="304" name="2914291813628" type="Const" version="opset1">
			<data element_type="f16" offset="17784" shape="" size="2"/>
			<output>
				<port id="0" precision="FP16"/>
			</output>
		</layer>
		<layer id="305" name="2915291915197" type="Const" version="opset1">
			<data element_type="f16" offset="17786" shape="" size="2"/>
			<output>
				<port id="0" precision="FP16"/>
			</output>
		</layer>
		<layer id="306" name="2862286614462" type="Const" version="opset1">
			<data element_type="f16" offset="17788" shape="" size="2"/>
			<output>
				<port id="0" precision="FP16"/>
			</output>
		</layer>
		<layer id="307" name="2863286715941" type="Const" version="opset1">
			<data element_type="f16" offset="17790" shape="" size="2"/>
			<output>
				<port id="0" precision="FP16"/>
			</output>
		</layer>
		<layer id="308" name="2864286814189" type="Const" version="opset1">
			<data element_type="f16" offset="17788" shape="" size="2"/>
			<output>
				<port id="0" precision="FP16"/>
			</output>
		</layer>
		<layer id="309" name="2865286915341" type="Const" version="opset1">
			<data element_type="f16" offset="17790" shape="" size="2"/>
			<output>
				<port id="0" precision="FP16"/>
			</output>
		</layer>
		<layer id="310" name="1932193614951" type="Const" version="opset1">
			<data element_type="f16" offset="52" shape="" size="2"/>
			<output>
				<port id="0" precision="FP16"/>
			</output>
		</layer>
		<layer id="311" name="1933193714240" type="Const" version="opset1">
			<data element_type="f16" offset="17792" shape="" size="2"/>
			<output>
				<port id="0" precision="FP16"/>
			</output>
		</layer>
		<layer id="312" name="1934193814009" type="Const" version="opset1">
			<data element_type="f16" offset="52" shape="" size="2"/>
			<output>
				<port id="0" precision="FP16"/>
			</output>
		</layer>
		<layer id="313" name="1935193913823" type="Const" version="opset1">
			<data element_type="f16" offset="17792" shape="" size="2"/>
			<output>
				<port id="0" precision="FP16"/>
			</output>
		</layer>
		<layer id="314" name="3552355614792" type="Const" version="opset1">
			<data element_type="f16" offset="52" shape="" size="2"/>
			<output>
				<port id="0" precision="FP16"/>
			</output>
		</layer>
		<layer id="315" name="3553355715086" type="Const" version="opset1">
			<data element_type="f16" offset="17794" shape="" size="2"/>
			<output>
				<port id="0" precision="FP16"/>
			</output>
		</layer>
		<layer id="316" name="3554355814384" type="Const" version="opset1">
			<data element_type="f16" offset="52" shape="" size="2"/>
			<output>
				<port id="0" precision="FP16"/>
			</output>
		</layer>
		<layer id="317" name="3555355913892" type="Const" version="opset1">
			<data element_type="f16" offset="17794" shape="" size="2"/>
			<output>
				<port id="0" precision="FP16"/>
			</output>
		</layer>
		<layer id="318" name="2102210615818" type="Const" version="opset1">
			<data element_type="f16" offset="52" shape="" size="2"/>
			<output>
				<port id="0" precision="FP16"/>
			</output>
		</layer>
		<layer id="319" name="2103210714459" type="Const" version="opset1">
			<data element_type="f16" offset="17796" shape="" size="2"/>
			<output>
				<port id="0" precision="FP16"/>
			</output>
		</layer>
		<layer id="320" name="2104210814840" type="Const" version="opset1">
			<data element_type="f16" offset="52" shape="" size="2"/>
			<output>
				<port id="0" precision="FP16"/>
			</output>
		</layer>
		<layer id="321" name="2105210915395" type="Const" version="opset1">
			<data element_type="f16" offset="17796" shape="" size="2"/>
			<output>
				<port id="0" precision="FP16"/>
			</output>
		</layer>
		<layer id="322" name="2062206614270" type="Const" version="opset1">
			<data element_type="f16" offset="17798" shape="" size="2"/>
			<output>
				<port id="0" precision="FP16"/>
			</output>
		</layer>
		<layer id="323" name="2063206714981" type="Const" version="opset1">
			<data element_type="f16" offset="17800" shape="" size="2"/>
			<output>
				<port id="0" precision="FP16"/>
			</output>
		</layer>
		<layer id="324" name="2064206814081" type="Const" version="opset1">
			<data element_type="f16" offset="17798" shape="" size="2"/>
			<output>
				<port id="0" precision="FP16"/>
			</output>
		</layer>
		<layer id="325" name="2065206913805" type="Const" version="opset1">
			<data element_type="f16" offset="17800" shape="" size="2"/>
			<output>
				<port id="0" precision="FP16"/>
			</output>
		</layer>
		<layer id="326" name="3722372614084" type="Const" version="opset1">
			<data element_type="f16" offset="17802" shape="" size="2"/>
			<output>
				<port id="0" precision="FP16"/>
			</output>
		</layer>
		<layer id="327" name="3723372715455" type="Const" version="opset1">
			<data element_type="f16" offset="17804" shape="" size="2"/>
			<output>
				<port id="0" precision="FP16"/>
			</output>
		</layer>
		<layer id="328" name="3724372814975" type="Const" version="opset1">
			<data element_type="f16" offset="17802" shape="" size="2"/>
			<output>
				<port id="0" precision="FP16"/>
			</output>
		</layer>
		<layer id="329" name="3725372914120" type="Const" version="opset1">
			<data element_type="f16" offset="17804" shape="" size="2"/>
			<output>
				<port id="0" precision="FP16"/>
			</output>
		</layer>
		<layer id="330" name="2322232615575" type="Const" version="opset1">
			<data element_type="f16" offset="17304" shape="1,120,1,1,1" size="240"/>
			<output>
				<port id="0" precision="FP16">
					<dim>1</dim>
					<dim>120</dim>
					<dim>1</dim>
					<dim>1</dim>
					<dim>1</dim>
				</port>
			</output>
		</layer>
		<layer id="331" name="2323232714954" type="Const" version="opset1">
			<data element_type="f16" offset="17806" shape="1,120,1,1,1" size="240"/>
			<output>
				<port id="0" precision="FP16">
					<dim>1</dim>
					<dim>120</dim>
					<dim>1</dim>
					<dim>1</dim>
					<dim>1</dim>
				</port>
			</output>
		</layer>
		<layer id="332" name="2324232814624" type="Const" version="opset1">
			<data element_type="f16" offset="17304" shape="1,120,1,1,1" size="240"/>
			<output>
				<port id="0" precision="FP16">
					<dim>1</dim>
					<dim>120</dim>
					<dim>1</dim>
					<dim>1</dim>
					<dim>1</dim>
				</port>
			</output>
		</layer>
		<layer id="333" name="2325232915602" type="Const" version="opset1">
			<data element_type="f16" offset="17806" shape="1,120,1,1,1" size="240"/>
			<output>
				<port id="0" precision="FP16">
					<dim>1</dim>
					<dim>120</dim>
					<dim>1</dim>
					<dim>1</dim>
					<dim>1</dim>
				</port>
			</output>
		</layer>
		<layer id="334" name="1832183615257" type="Const" version="opset1">
			<data element_type="f16" offset="18046" shape="" size="2"/>
			<output>
				<port id="0" precision="FP16"/>
			</output>
		</layer>
		<layer id="335" name="1833183714579" type="Const" version="opset1">
			<data element_type="f16" offset="18048" shape="" size="2"/>
			<output>
				<port id="0" precision="FP16"/>
			</output>
		</layer>
		<layer id="336" name="1834183814546" type="Const" version="opset1">
			<data element_type="f16" offset="18046" shape="" size="2"/>
			<output>
				<port id="0" precision="FP16"/>
			</output>
		</layer>
		<layer id="337" name="1835183914834" type="Const" version="opset1">
			<data element_type="f16" offset="18048" shape="" size="2"/>
			<output>
				<port id="0" precision="FP16"/>
			</output>
		</layer>
		<layer id="338" name="3152315615275" type="Const" version="opset1">
			<data element_type="f16" offset="52" shape="" size="2"/>
			<output>
				<port id="0" precision="FP16"/>
			</output>
		</layer>
		<layer id="339" name="3153315715446" type="Const" version="opset1">
			<data element_type="f16" offset="18050" shape="" size="2"/>
			<output>
				<port id="0" precision="FP16"/>
			</output>
		</layer>
		<layer id="340" name="3154315814381" type="Const" version="opset1">
			<data element_type="f16" offset="52" shape="" size="2"/>
			<output>
				<port id="0" precision="FP16"/>
			</output>
		</layer>
		<layer id="341" name="3155315915665" type="Const" version="opset1">
			<data element_type="f16" offset="18050" shape="" size="2"/>
			<output>
				<port id="0" precision="FP16"/>
			</output>
		</layer>
		<layer id="342" name="3312331615485" type="Const" version="opset1">
			<data element_type="f16" offset="52" shape="" size="2"/>
			<output>
				<port id="0" precision="FP16"/>
			</output>
		</layer>
		<layer id="343" name="3313331714714" type="Const" version="opset1">
			<data element_type="f16" offset="18052" shape="" size="2"/>
			<output>
				<port id="0" precision="FP16"/>
			</output>
		</layer>
		<layer id="344" name="3314331815392" type="Const" version="opset1">
			<data element_type="f16" offset="52" shape="" size="2"/>
			<output>
				<port id="0" precision="FP16"/>
			</output>
		</layer>
		<layer id="345" name="3315331913769" type="Const" version="opset1">
			<data element_type="f16" offset="18052" shape="" size="2"/>
			<output>
				<port id="0" precision="FP16"/>
			</output>
		</layer>
		<layer id="346" name="3292329615230" type="Const" version="opset1">
			<data element_type="f16" offset="52" shape="" size="2"/>
			<output>
				<port id="0" precision="FP16"/>
			</output>
		</layer>
		<layer id="347" name="3293329715284" type="Const" version="opset1">
			<data element_type="f16" offset="18054" shape="" size="2"/>
			<output>
				<port id="0" precision="FP16"/>
			</output>
		</layer>
		<layer id="348" name="3294329813637" type="Const" version="opset1">
			<data element_type="f16" offset="52" shape="" size="2"/>
			<output>
				<port id="0" precision="FP16"/>
			</output>
		</layer>
		<layer id="349" name="3295329915365" type="Const" version="opset1">
			<data element_type="f16" offset="18054" shape="" size="2"/>
			<output>
				<port id="0" precision="FP16"/>
			</output>
		</layer>
		<layer id="350" name="1772177614216" type="Const" version="opset1">
			<data element_type="f16" offset="18056" shape="" size="2"/>
			<output>
				<port id="0" precision="FP16"/>
			</output>
		</layer>
		<layer id="351" name="1773177715572" type="Const" version="opset1">
			<data element_type="f16" offset="18058" shape="" size="2"/>
			<output>
				<port id="0" precision="FP16"/>
			</output>
		</layer>
		<layer id="352" name="1774177813664" type="Const" version="opset1">
			<data element_type="f16" offset="18056" shape="" size="2"/>
			<output>
				<port id="0" precision="FP16"/>
			</output>
		</layer>
		<layer id="353" name="1775177915929" type="Const" version="opset1">
			<data element_type="f16" offset="18058" shape="" size="2"/>
			<output>
				<port id="0" precision="FP16"/>
			</output>
		</layer>
		<layer id="354" name="2522252615881" type="Const" version="opset1">
			<data element_type="f16" offset="18060" shape="" size="2"/>
			<output>
				<port id="0" precision="FP16"/>
			</output>
		</layer>
		<layer id="355" name="2523252714375" type="Const" version="opset1">
			<data element_type="f16" offset="18062" shape="" size="2"/>
			<output>
				<port id="0" precision="FP16"/>
			</output>
		</layer>
		<layer id="356" name="2524252814150" type="Const" version="opset1">
			<data element_type="f16" offset="18060" shape="" size="2"/>
			<output>
				<port id="0" precision="FP16"/>
			</output>
		</layer>
		<layer id="357" name="2525252914933" type="Const" version="opset1">
			<data element_type="f16" offset="18062" shape="" size="2"/>
			<output>
				<port id="0" precision="FP16"/>
			</output>
		</layer>
		<layer id="358" name="1852185614621" type="Const" version="opset1">
			<data element_type="f16" offset="18064" shape="1,72,1,1,1" size="144"/>
			<output>
				<port id="0" precision="FP16">
					<dim>1</dim>
					<dim>72</dim>
					<dim>1</dim>
					<dim>1</dim>
					<dim>1</dim>
				</port>
			</output>
		</layer>
		<layer id="359" name="1853185714795" type="Const" version="opset1">
			<data element_type="f16" offset="18208" shape="1,72,1,1,1" size="144"/>
			<output>
				<port id="0" precision="FP16">
					<dim>1</dim>
					<dim>72</dim>
					<dim>1</dim>
					<dim>1</dim>
					<dim>1</dim>
				</port>
			</output>
		</layer>
		<layer id="360" name="1854185814696" type="Const" version="opset1">
			<data element_type="f16" offset="18064" shape="1,72,1,1,1" size="144"/>
			<output>
				<port id="0" precision="FP16">
					<dim>1</dim>
					<dim>72</dim>
					<dim>1</dim>
					<dim>1</dim>
					<dim>1</dim>
				</port>
			</output>
		</layer>
		<layer id="361" name="1855185913940" type="Const" version="opset1">
			<data element_type="f16" offset="18208" shape="1,72,1,1,1" size="144"/>
			<output>
				<port id="0" precision="FP16">
					<dim>1</dim>
					<dim>72</dim>
					<dim>1</dim>
					<dim>1</dim>
					<dim>1</dim>
				</port>
			</output>
		</layer>
		<layer id="362" name="2652265614477" type="Const" version="opset1">
			<data element_type="f16" offset="18352" shape="" size="2"/>
			<output>
				<port id="0" precision="FP16"/>
			</output>
		</layer>
		<layer id="363" name="2653265715785" type="Const" version="opset1">
			<data element_type="f16" offset="18354" shape="" size="2"/>
			<output>
				<port id="0" precision="FP16"/>
			</output>
		</layer>
		<layer id="364" name="2654265814102" type="Const" version="opset1">
			<data element_type="f16" offset="18352" shape="" size="2"/>
			<output>
				<port id="0" precision="FP16"/>
			</output>
		</layer>
		<layer id="365" name="2655265914453" type="Const" version="opset1">
			<data element_type="f16" offset="18354" shape="" size="2"/>
			<output>
				<port id="0" precision="FP16"/>
			</output>
		</layer>
		<layer id="366" name="2392239615578" type="Const" version="opset1">
			<data element_type="f16" offset="18356" shape="" size="2"/>
			<output>
				<port id="0" precision="FP16"/>
			</output>
		</layer>
		<layer id="367" name="2393239714072" type="Const" version="opset1">
			<data element_type="f16" offset="18358" shape="" size="2"/>
			<output>
				<port id="0" precision="FP16"/>
			</output>
		</layer>
		<layer id="368" name="2394239814645" type="Const" version="opset1">
			<data element_type="f16" offset="18356" shape="" size="2"/>
			<output>
				<port id="0" precision="FP16"/>
			</output>
		</layer>
		<layer id="369" name="2395239913802" type="Const" version="opset1">
			<data element_type="f16" offset="18358" shape="" size="2"/>
			<output>
				<port id="0" precision="FP16"/>
			</output>
		</layer>
		<layer id="370" name="1912191615788" type="Const" version="opset1">
			<data element_type="f16" offset="52" shape="" size="2"/>
			<output>
				<port id="0" precision="FP16"/>
			</output>
		</layer>
		<layer id="371" name="1913191715662" type="Const" version="opset1">
			<data element_type="f16" offset="18360" shape="" size="2"/>
			<output>
				<port id="0" precision="FP16"/>
			</output>
		</layer>
		<layer id="372" name="1914191815434" type="Const" version="opset1">
			<data element_type="f16" offset="52" shape="" size="2"/>
			<output>
				<port id="0" precision="FP16"/>
			</output>
		</layer>
		<layer id="373" name="1915191914528" type="Const" version="opset1">
			<data element_type="f16" offset="18360" shape="" size="2"/>
			<output>
				<port id="0" precision="FP16"/>
			</output>
		</layer>
		<layer id="374" name="3332333613667" type="Const" version="opset1">
			<data element_type="f16" offset="18064" shape="1,72,1,1,1" size="144"/>
			<output>
				<port id="0" precision="FP16">
					<dim>1</dim>
					<dim>72</dim>
					<dim>1</dim>
					<dim>1</dim>
					<dim>1</dim>
				</port>
			</output>
		</layer>
		<layer id="375" name="3333333715152" type="Const" version="opset1">
			<data element_type="f16" offset="18362" shape="1,72,1,1,1" size="144"/>
			<output>
				<port id="0" precision="FP16">
					<dim>1</dim>
					<dim>72</dim>
					<dim>1</dim>
					<dim>1</dim>
					<dim>1</dim>
				</port>
			</output>
		</layer>
		<layer id="376" name="3334333815680" type="Const" version="opset1">
			<data element_type="f16" offset="18064" shape="1,72,1,1,1" size="144"/>
			<output>
				<port id="0" precision="FP16">
					<dim>1</dim>
					<dim>72</dim>
					<dim>1</dim>
					<dim>1</dim>
					<dim>1</dim>
				</port>
			</output>
		</layer>
		<layer id="377" name="3335333915557" type="Const" version="opset1">
			<data element_type="f16" offset="18362" shape="1,72,1,1,1" size="144"/>
			<output>
				<port id="0" precision="FP16">
					<dim>1</dim>
					<dim>72</dim>
					<dim>1</dim>
					<dim>1</dim>
					<dim>1</dim>
				</port>
			</output>
		</layer>
		<layer id="378" name="2502250613736" type="Const" version="opset1">
			<data element_type="f16" offset="18506" shape="" size="2"/>
			<output>
				<port id="0" precision="FP16"/>
			</output>
		</layer>
		<layer id="379" name="2503250715914" type="Const" version="opset1">
			<data element_type="f16" offset="18508" shape="" size="2"/>
			<output>
				<port id="0" precision="FP16"/>
			</output>
		</layer>
		<layer id="380" name="2504250815800" type="Const" version="opset1">
			<data element_type="f16" offset="18506" shape="" size="2"/>
			<output>
				<port id="0" precision="FP16"/>
			</output>
		</layer>
		<layer id="381" name="2505250915212" type="Const" version="opset1">
			<data element_type="f16" offset="18508" shape="" size="2"/>
			<output>
				<port id="0" precision="FP16"/>
			</output>
		</layer>
		<layer id="382" name="2702270615155" type="Const" version="opset1">
			<data element_type="f16" offset="18510" shape="" size="2"/>
			<output>
				<port id="0" precision="FP16"/>
			</output>
		</layer>
		<layer id="383" name="2703270714708" type="Const" version="opset1">
			<data element_type="f16" offset="18512" shape="" size="2"/>
			<output>
				<port id="0" precision="FP16"/>
			</output>
		</layer>
		<layer id="384" name="2704270815992" type="Const" version="opset1">
			<data element_type="f16" offset="18510" shape="" size="2"/>
			<output>
				<port id="0" precision="FP16"/>
			</output>
		</layer>
		<layer id="385" name="2705270915407" type="Const" version="opset1">
			<data element_type="f16" offset="18512" shape="" size="2"/>
			<output>
				<port id="0" precision="FP16"/>
			</output>
		</layer>
		<layer id="386" name="2572257614636" type="Const" version="opset1">
			<data element_type="f16" offset="52" shape="" size="2"/>
			<output>
				<port id="0" precision="FP16"/>
			</output>
		</layer>
		<layer id="387" name="2573257714873" type="Const" version="opset1">
			<data element_type="f16" offset="18514" shape="" size="2"/>
			<output>
				<port id="0" precision="FP16"/>
			</output>
		</layer>
		<layer id="388" name="2574257815065" type="Const" version="opset1">
			<data element_type="f16" offset="52" shape="" size="2"/>
			<output>
				<port id="0" precision="FP16"/>
			</output>
		</layer>
		<layer id="389" name="2575257913760" type="Const" version="opset1">
			<data element_type="f16" offset="18514" shape="" size="2"/>
			<output>
				<port id="0" precision="FP16"/>
			</output>
		</layer>
		<layer id="390" name="2202220615722" type="Const" version="opset1">
			<data element_type="f16" offset="18516" shape="1,64,1,1,1" size="128"/>
			<output>
				<port id="0" precision="FP16">
					<dim>1</dim>
					<dim>64</dim>
					<dim>1</dim>
					<dim>1</dim>
					<dim>1</dim>
				</port>
			</output>
		</layer>
		<layer id="391" name="2203220713673" type="Const" version="opset1">
			<data element_type="f16" offset="18644" shape="1,64,1,1,1" size="128"/>
			<output>
				<port id="0" precision="FP16">
					<dim>1</dim>
					<dim>64</dim>
					<dim>1</dim>
					<dim>1</dim>
					<dim>1</dim>
				</port>
			</output>
		</layer>
		<layer id="392" name="2204220815845" type="Const" version="opset1">
			<data element_type="f16" offset="18516" shape="1,64,1,1,1" size="128"/>
			<output>
				<port id="0" precision="FP16">
					<dim>1</dim>
					<dim>64</dim>
					<dim>1</dim>
					<dim>1</dim>
					<dim>1</dim>
				</port>
			</output>
		</layer>
		<layer id="393" name="2205220915140" type="Const" version="opset1">
			<data element_type="f16" offset="18644" shape="1,64,1,1,1" size="128"/>
			<output>
				<port id="0" precision="FP16">
					<dim>1</dim>
					<dim>64</dim>
					<dim>1</dim>
					<dim>1</dim>
					<dim>1</dim>
				</port>
			</output>
		</layer>
		<layer id="394" name="3642364615254" type="Const" version="opset1">
			<data element_type="f16" offset="18772" shape="" size="2"/>
			<output>
				<port id="0" precision="FP16"/>
			</output>
		</layer>
		<layer id="395" name="3643364715944" type="Const" version="opset1">
			<data element_type="f16" offset="18774" shape="" size="2"/>
			<output>
				<port id="0" precision="FP16"/>
			</output>
		</layer>
		<layer id="396" name="3644364813979" type="Const" version="opset1">
			<data element_type="f16" offset="18772" shape="" size="2"/>
			<output>
				<port id="0" precision="FP16"/>
			</output>
		</layer>
		<layer id="397" name="3645364914573" type="Const" version="opset1">
			<data element_type="f16" offset="18774" shape="" size="2"/>
			<output>
				<port id="0" precision="FP16"/>
			</output>
		</layer>
		<layer id="398" name="3492349614282" type="Const" version="opset1">
			<data element_type="f16" offset="18776" shape="" size="2"/>
			<output>
				<port id="0" precision="FP16"/>
			</output>
		</layer>
		<layer id="399" name="3493349713976" type="Const" version="opset1">
			<data element_type="f16" offset="18778" shape="" size="2"/>
			<output>
				<port id="0" precision="FP16"/>
			</output>
		</layer>
		<layer id="400" name="3494349814969" type="Const" version="opset1">
			<data element_type="f16" offset="18776" shape="" size="2"/>
			<output>
				<port id="0" precision="FP16"/>
			</output>
		</layer>
		<layer id="401" name="3495349915512" type="Const" version="opset1">
			<data element_type="f16" offset="18778" shape="" size="2"/>
			<output>
				<port id="0" precision="FP16"/>
			</output>
		</layer>
		<layer id="402" name="input" type="Parameter" version="opset1">
			<data element_type="f16" shape="1,3,16,224,224"/>
			<output>
				<port id="0" names="input" precision="FP16">
					<dim>1</dim>
					<dim>3</dim>
					<dim>16</dim>
					<dim>224</dim>
					<dim>224</dim>
				</port>
			</output>
		</layer>
		<layer id="403" name="data_mul_141942705453415968" type="Const" version="opset1">
			<data element_type="f16" offset="18780" shape="1,3,1,1,1" size="6"/>
			<output>
				<port id="0" precision="FP16">
					<dim>1</dim>
					<dim>3</dim>
					<dim>1</dim>
					<dim>1</dim>
					<dim>1</dim>
				</port>
			</output>
		</layer>
		<layer id="404" name="input/scale/Fused_Mul_" type="Multiply" version="opset1">
			<data auto_broadcast="numpy"/>
			<input>
				<port id="0">
					<dim>1</dim>
					<dim>3</dim>
					<dim>16</dim>
					<dim>224</dim>
					<dim>224</dim>
				</port>
				<port id="1">
					<dim>1</dim>
					<dim>3</dim>
					<dim>1</dim>
					<dim>1</dim>
					<dim>1</dim>
				</port>
			</input>
			<output>
				<port id="2" precision="FP16">
					<dim>1</dim>
					<dim>3</dim>
					<dim>16</dim>
					<dim>224</dim>
					<dim>224</dim>
				</port>
			</output>
		</layer>
		<layer id="405" name="data_add_141962702753614921" type="Const" version="opset1">
			<data element_type="f16" offset="18786" shape="1,3,1,1,1" size="6"/>
			<output>
				<port id="0" precision="FP16">
					<dim>1</dim>
					<dim>3</dim>
					<dim>1</dim>
					<dim>1</dim>
					<dim>1</dim>
				</port>
			</output>
		</layer>
		<layer id="406" name="input/mean/Fused_Add_" type="Add" version="opset1">
			<data auto_broadcast="numpy"/>
			<input>
				<port id="0">
					<dim>1</dim>
					<dim>3</dim>
					<dim>16</dim>
					<dim>224</dim>
					<dim>224</dim>
				</port>
				<port id="1">
					<dim>1</dim>
					<dim>3</dim>
					<dim>1</dim>
					<dim>1</dim>
					<dim>1</dim>
				</port>
			</input>
			<output>
				<port id="2" precision="FP16">
					<dim>1</dim>
					<dim>3</dim>
					<dim>16</dim>
					<dim>224</dim>
					<dim>224</dim>
				</port>
			</output>
		</layer>
		<layer id="407" name="367/fq_input_0" type="FakeQuantize" version="opset1">
			<data auto_broadcast="numpy" levels="256"/>
			<input>
				<port id="0">
					<dim>1</dim>
					<dim>3</dim>
					<dim>16</dim>
					<dim>224</dim>
					<dim>224</dim>
				</port>
				<port id="1"/>
				<port id="2"/>
				<port id="3"/>
				<port id="4"/>
			</input>
			<output>
				<port id="5" precision="FP16">
					<dim>1</dim>
					<dim>3</dim>
					<dim>16</dim>
					<dim>224</dim>
					<dim>224</dim>
				</port>
			</output>
		</layer>
		<layer id="408" name="368/mean/Fused_Mul__copy5387685/quantized938715362" type="Const" version="opset1">
			<data element_type="i8" offset="18792" shape="16,3,1,3,3" size="432"/>
			<output>
				<port id="0" precision="I8">
					<dim>16</dim>
					<dim>3</dim>
					<dim>1</dim>
					<dim>3</dim>
					<dim>3</dim>
				</port>
			</output>
		</layer>
		<layer id="409" name="368/mean/Fused_Mul__copy5387685/quantized/to_f16" type="Convert" version="opset1">
			<data destination_type="f16"/>
			<input>
				<port id="0">
					<dim>16</dim>
					<dim>3</dim>
					<dim>1</dim>
					<dim>3</dim>
					<dim>3</dim>
				</port>
			</input>
			<output>
				<port id="1" precision="FP16">
					<dim>16</dim>
					<dim>3</dim>
					<dim>1</dim>
					<dim>3</dim>
					<dim>3</dim>
				</port>
			</output>
		</layer>
		<layer id="410" name="367/fq_weights_1/zero_point940015353" type="Const" version="opset1">
			<data element_type="f16" offset="19224" shape="16,1,1,1,1" size="32"/>
			<output>
				<port id="0" precision="FP16">
					<dim>16</dim>
					<dim>1</dim>
					<dim>1</dim>
					<dim>1</dim>
					<dim>1</dim>
				</port>
			</output>
		</layer>
		<layer id="411" name="367/fq_weights_1/minus_zp" type="Subtract" version="opset1">
			<data auto_broadcast="numpy"/>
			<input>
				<port id="0">
					<dim>16</dim>
					<dim>3</dim>
					<dim>1</dim>
					<dim>3</dim>
					<dim>3</dim>
				</port>
				<port id="1">
					<dim>16</dim>
					<dim>1</dim>
					<dim>1</dim>
					<dim>1</dim>
					<dim>1</dim>
				</port>
			</input>
			<output>
				<port id="2" precision="FP16">
					<dim>16</dim>
					<dim>3</dim>
					<dim>1</dim>
					<dim>3</dim>
					<dim>3</dim>
				</port>
			</output>
		</layer>
		<layer id="412" name="367/fq_weights_1/scale939514570" type="Const" version="opset1">
			<data element_type="f16" offset="19256" shape="16,1,1,1,1" size="32"/>
			<output>
				<port id="0" precision="FP16">
					<dim>16</dim>
					<dim>1</dim>
					<dim>1</dim>
					<dim>1</dim>
					<dim>1</dim>
				</port>
			</output>
		</layer>
		<layer id="413" name="367/fq_weights_1/mulpiply_by_scale" type="Multiply" version="opset1">
			<data auto_broadcast="numpy"/>
			<input>
				<port id="0">
					<dim>16</dim>
					<dim>3</dim>
					<dim>1</dim>
					<dim>3</dim>
					<dim>3</dim>
				</port>
				<port id="1">
					<dim>16</dim>
					<dim>1</dim>
					<dim>1</dim>
					<dim>1</dim>
					<dim>1</dim>
				</port>
			</input>
			<output>
				<port id="2" precision="FP16">
					<dim>16</dim>
					<dim>3</dim>
					<dim>1</dim>
					<dim>3</dim>
					<dim>3</dim>
				</port>
			</output>
		</layer>
		<layer id="414" name="367" type="Convolution" version="opset1">
			<data auto_pad="explicit" dilations="1,1,1" pads_begin="0,1,1" pads_end="0,1,1" strides="1,2,2"/>
			<input>
				<port id="0">
					<dim>1</dim>
					<dim>3</dim>
					<dim>16</dim>
					<dim>224</dim>
					<dim>224</dim>
				</port>
				<port id="1">
					<dim>16</dim>
					<dim>3</dim>
					<dim>1</dim>
					<dim>3</dim>
					<dim>3</dim>
				</port>
			</input>
			<output>
				<port id="2" precision="FP16">
					<dim>1</dim>
					<dim>16</dim>
					<dim>16</dim>
					<dim>112</dim>
					<dim>112</dim>
				</port>
			</output>
		</layer>
		<layer id="415" name="data_add_141991420454015902" type="Const" version="opset1">
			<data element_type="f16" offset="19288" shape="1,16,1,1,1" size="32"/>
			<output>
				<port id="0" precision="FP16">
					<dim>1</dim>
					<dim>16</dim>
					<dim>1</dim>
					<dim>1</dim>
					<dim>1</dim>
				</port>
			</output>
		</layer>
		<layer id="416" name="368/variance/Fused_Add_" type="Add" version="opset1">
			<data auto_broadcast="numpy"/>
			<input>
				<port id="0">
					<dim>1</dim>
					<dim>16</dim>
					<dim>16</dim>
					<dim>112</dim>
					<dim>112</dim>
				</port>
				<port id="1">
					<dim>1</dim>
					<dim>16</dim>
					<dim>1</dim>
					<dim>1</dim>
					<dim>1</dim>
				</port>
			</input>
			<output>
				<port id="2" names="368" precision="FP16">
					<dim>1</dim>
					<dim>16</dim>
					<dim>16</dim>
					<dim>112</dim>
					<dim>112</dim>
				</port>
			</output>
		</layer>
		<layer id="417" name="36954214210" type="Const" version="opset1">
			<data element_type="f16" offset="19320" shape="1,1,1,1,1" size="2"/>
			<output>
				<port id="0" names="369" precision="FP16">
					<dim>1</dim>
					<dim>1</dim>
					<dim>1</dim>
					<dim>1</dim>
					<dim>1</dim>
				</port>
			</output>
		</layer>
		<layer id="418" name="370" type="Add" version="opset1">
			<data auto_broadcast="numpy"/>
			<input>
				<port id="0">
					<dim>1</dim>
					<dim>16</dim>
					<dim>16</dim>
					<dim>112</dim>
					<dim>112</dim>
				</port>
				<port id="1">
					<dim>1</dim>
					<dim>1</dim>
					<dim>1</dim>
					<dim>1</dim>
					<dim>1</dim>
				</port>
			</input>
			<output>
				<port id="2" names="370" precision="FP16">
					<dim>1</dim>
					<dim>16</dim>
					<dim>16</dim>
					<dim>112</dim>
					<dim>112</dim>
				</port>
			</output>
		</layer>
		<layer id="419" name="371" type="Clamp" version="opset1">
			<data max="6" min="0"/>
			<input>
				<port id="0">
					<dim>1</dim>
					<dim>16</dim>
					<dim>16</dim>
					<dim>112</dim>
					<dim>112</dim>
				</port>
			</input>
			<output>
				<port id="1" names="371" precision="FP16">
					<dim>1</dim>
					<dim>16</dim>
					<dim>16</dim>
					<dim>112</dim>
					<dim>112</dim>
				</port>
			</output>
		</layer>
		<layer id="420" name="37254515725" type="Const" version="opset1">
			<data element_type="f16" offset="19322" shape="1,1,1,1,1" size="2"/>
			<output>
				<port id="0" names="372" precision="FP16">
					<dim>1</dim>
					<dim>1</dim>
					<dim>1</dim>
					<dim>1</dim>
					<dim>1</dim>
				</port>
			</output>
		</layer>
		<layer id="421" name="373" type="Multiply" version="opset1">
			<data auto_broadcast="numpy"/>
			<input>
				<port id="0">
					<dim>1</dim>
					<dim>16</dim>
					<dim>16</dim>
					<dim>112</dim>
					<dim>112</dim>
				</port>
				<port id="1">
					<dim>1</dim>
					<dim>1</dim>
					<dim>1</dim>
					<dim>1</dim>
					<dim>1</dim>
				</port>
			</input>
			<output>
				<port id="2" names="373" precision="FP16">
					<dim>1</dim>
					<dim>16</dim>
					<dim>16</dim>
					<dim>112</dim>
					<dim>112</dim>
				</port>
			</output>
		</layer>
		<layer id="422" name="374" type="Multiply" version="opset1">
			<data auto_broadcast="numpy"/>
			<input>
				<port id="0">
					<dim>1</dim>
					<dim>16</dim>
					<dim>16</dim>
					<dim>112</dim>
					<dim>112</dim>
				</port>
				<port id="1">
					<dim>1</dim>
					<dim>16</dim>
					<dim>16</dim>
					<dim>112</dim>
					<dim>112</dim>
				</port>
			</input>
			<output>
				<port id="2" names="374" precision="FP16">
					<dim>1</dim>
					<dim>16</dim>
					<dim>16</dim>
					<dim>112</dim>
					<dim>112</dim>
				</port>
			</output>
		</layer>
		<layer id="423" name="1992199614819" type="Const" version="opset1">
			<data element_type="f16" offset="52" shape="" size="2"/>
			<output>
				<port id="0" precision="FP16"/>
			</output>
		</layer>
		<layer id="424" name="1993199714321" type="Const" version="opset1">
			<data element_type="f16" offset="19324" shape="" size="2"/>
			<output>
				<port id="0" precision="FP16"/>
			</output>
		</layer>
		<layer id="425" name="1994199813886" type="Const" version="opset1">
			<data element_type="f16" offset="52" shape="" size="2"/>
			<output>
				<port id="0" precision="FP16"/>
			</output>
		</layer>
		<layer id="426" name="1995199915323" type="Const" version="opset1">
			<data element_type="f16" offset="19324" shape="" size="2"/>
			<output>
				<port id="0" precision="FP16"/>
			</output>
		</layer>
		<layer id="427" name="375/fq_weights_13070" type="Const" version="opset1">
			<data element_type="f16" offset="19326" shape="16,1,1,1,3,3" size="288"/>
			<output>
				<port id="0" names="backbone.features.1.conv.0.weight" precision="FP16">
					<dim>16</dim>
					<dim>1</dim>
					<dim>1</dim>
					<dim>1</dim>
					<dim>3</dim>
					<dim>3</dim>
				</port>
			</output>
		</layer>
		<layer id="428" name="375" type="GroupConvolution" version="opset1">
			<data auto_pad="explicit" dilations="1,1,1" pads_begin="0,1,1" pads_end="0,1,1" strides="1,1,1"/>
			<input>
				<port id="0">
					<dim>1</dim>
					<dim>16</dim>
					<dim>16</dim>
					<dim>112</dim>
					<dim>112</dim>
				</port>
				<port id="1">
					<dim>16</dim>
					<dim>1</dim>
					<dim>1</dim>
					<dim>1</dim>
					<dim>3</dim>
					<dim>3</dim>
				</port>
			</input>
			<output>
				<port id="2" precision="FP16">
					<dim>1</dim>
					<dim>16</dim>
					<dim>16</dim>
					<dim>112</dim>
					<dim>112</dim>
				</port>
			</output>
		</layer>
		<layer id="429" name="data_add_142071421255013679" type="Const" version="opset1">
			<data element_type="f16" offset="19614" shape="1,16,1,1,1" size="32"/>
			<output>
				<port id="0" precision="FP16">
					<dim>1</dim>
					<dim>16</dim>
					<dim>1</dim>
					<dim>1</dim>
					<dim>1</dim>
				</port>
			</output>
		</layer>
		<layer id="430" name="376/variance/Fused_Add_" type="Add" version="opset1">
			<data auto_broadcast="numpy"/>
			<input>
				<port id="0">
					<dim>1</dim>
					<dim>16</dim>
					<dim>16</dim>
					<dim>112</dim>
					<dim>112</dim>
				</port>
				<port id="1">
					<dim>1</dim>
					<dim>16</dim>
					<dim>1</dim>
					<dim>1</dim>
					<dim>1</dim>
				</port>
			</input>
			<output>
				<port id="2" names="376" precision="FP16">
					<dim>1</dim>
					<dim>16</dim>
					<dim>16</dim>
					<dim>112</dim>
					<dim>112</dim>
				</port>
			</output>
		</layer>
		<layer id="431" name="377" type="ReLU" version="opset1">
			<input>
				<port id="0">
					<dim>1</dim>
					<dim>16</dim>
					<dim>16</dim>
					<dim>112</dim>
					<dim>112</dim>
				</port>
			</input>
			<output>
				<port id="1" names="377" precision="FP16">
					<dim>1</dim>
					<dim>16</dim>
					<dim>16</dim>
					<dim>112</dim>
					<dim>112</dim>
				</port>
			</output>
		</layer>
		<layer id="432" name="378/fq_input_0" type="FakeQuantize" version="opset1">
			<data auto_broadcast="numpy" levels="256"/>
			<input>
				<port id="0">
					<dim>1</dim>
					<dim>16</dim>
					<dim>16</dim>
					<dim>112</dim>
					<dim>112</dim>
				</port>
				<port id="1"/>
				<port id="2"/>
				<port id="3"/>
				<port id="4"/>
			</input>
			<output>
				<port id="5" precision="FP16">
					<dim>1</dim>
					<dim>16</dim>
					<dim>16</dim>
					<dim>112</dim>
					<dim>112</dim>
				</port>
			</output>
		</layer>
		<layer id="433" name="379/mean/Fused_Mul__copy5537691/quantized864313982" type="Const" version="opset1">
			<data element_type="i8" offset="19646" shape="16,16,5,1,1" size="1280"/>
			<output>
				<port id="0" precision="I8">
					<dim>16</dim>
					<dim>16</dim>
					<dim>5</dim>
					<dim>1</dim>
					<dim>1</dim>
				</port>
			</output>
		</layer>
		<layer id="434" name="379/mean/Fused_Mul__copy5537691/quantized/to_f16" type="Convert" version="opset1">
			<data destination_type="f16"/>
			<input>
				<port id="0">
					<dim>16</dim>
					<dim>16</dim>
					<dim>5</dim>
					<dim>1</dim>
					<dim>1</dim>
				</port>
			</input>
			<output>
				<port id="1" precision="FP16">
					<dim>16</dim>
					<dim>16</dim>
					<dim>5</dim>
					<dim>1</dim>
					<dim>1</dim>
				</port>
			</output>
		</layer>
		<layer id="435" name="378/fq_weights_1/zero_point865614900" type="Const" version="opset1">
			<data element_type="f16" offset="20926" shape="16,1,1,1,1" size="32"/>
			<output>
				<port id="0" precision="FP16">
					<dim>16</dim>
					<dim>1</dim>
					<dim>1</dim>
					<dim>1</dim>
					<dim>1</dim>
				</port>
			</output>
		</layer>
		<layer id="436" name="378/fq_weights_1/minus_zp" type="Subtract" version="opset1">
			<data auto_broadcast="numpy"/>
			<input>
				<port id="0">
					<dim>16</dim>
					<dim>16</dim>
					<dim>5</dim>
					<dim>1</dim>
					<dim>1</dim>
				</port>
				<port id="1">
					<dim>16</dim>
					<dim>1</dim>
					<dim>1</dim>
					<dim>1</dim>
					<dim>1</dim>
				</port>
			</input>
			<output>
				<port id="2" precision="FP16">
					<dim>16</dim>
					<dim>16</dim>
					<dim>5</dim>
					<dim>1</dim>
					<dim>1</dim>
				</port>
			</output>
		</layer>
		<layer id="437" name="378/fq_weights_1/scale865115329" type="Const" version="opset1">
			<data element_type="f16" offset="20958" shape="16,1,1,1,1" size="32"/>
			<output>
				<port id="0" precision="FP16">
					<dim>16</dim>
					<dim>1</dim>
					<dim>1</dim>
					<dim>1</dim>
					<dim>1</dim>
				</port>
			</output>
		</layer>
		<layer id="438" name="378/fq_weights_1/mulpiply_by_scale" type="Multiply" version="opset1">
			<data auto_broadcast="numpy"/>
			<input>
				<port id="0">
					<dim>16</dim>
					<dim>16</dim>
					<dim>5</dim>
					<dim>1</dim>
					<dim>1</dim>
				</port>
				<port id="1">
					<dim>16</dim>
					<dim>1</dim>
					<dim>1</dim>
					<dim>1</dim>
					<dim>1</dim>
				</port>
			</input>
			<output>
				<port id="2" precision="FP16">
					<dim>16</dim>
					<dim>16</dim>
					<dim>5</dim>
					<dim>1</dim>
					<dim>1</dim>
				</port>
			</output>
		</layer>
		<layer id="439" name="378" type="Convolution" version="opset1">
			<data auto_pad="explicit" dilations="1,1,1" pads_begin="2,0,0" pads_end="2,0,0" strides="1,1,1"/>
			<input>
				<port id="0">
					<dim>1</dim>
					<dim>16</dim>
					<dim>16</dim>
					<dim>112</dim>
					<dim>112</dim>
				</port>
				<port id="1">
					<dim>16</dim>
					<dim>16</dim>
					<dim>5</dim>
					<dim>1</dim>
					<dim>1</dim>
				</port>
			</input>
			<output>
				<port id="2" precision="FP16">
					<dim>1</dim>
					<dim>16</dim>
					<dim>16</dim>
					<dim>112</dim>
					<dim>112</dim>
				</port>
			</output>
		</layer>
		<layer id="440" name="data_add_142151422055515926" type="Const" version="opset1">
			<data element_type="f16" offset="20990" shape="1,16,1,1,1" size="32"/>
			<output>
				<port id="0" precision="FP16">
					<dim>1</dim>
					<dim>16</dim>
					<dim>1</dim>
					<dim>1</dim>
					<dim>1</dim>
				</port>
			</output>
		</layer>
		<layer id="441" name="379/variance/Fused_Add_" type="Add" version="opset1">
			<data auto_broadcast="numpy"/>
			<input>
				<port id="0">
					<dim>1</dim>
					<dim>16</dim>
					<dim>16</dim>
					<dim>112</dim>
					<dim>112</dim>
				</port>
				<port id="1">
					<dim>1</dim>
					<dim>16</dim>
					<dim>1</dim>
					<dim>1</dim>
					<dim>1</dim>
				</port>
			</input>
			<output>
				<port id="2" names="379" precision="FP16">
					<dim>1</dim>
					<dim>16</dim>
					<dim>16</dim>
					<dim>112</dim>
					<dim>112</dim>
				</port>
			</output>
		</layer>
		<layer id="442" name="380" type="Add" version="opset1">
			<data auto_broadcast="numpy"/>
			<input>
				<port id="0">
					<dim>1</dim>
					<dim>16</dim>
					<dim>16</dim>
					<dim>112</dim>
					<dim>112</dim>
				</port>
				<port id="1">
					<dim>1</dim>
					<dim>16</dim>
					<dim>16</dim>
					<dim>112</dim>
					<dim>112</dim>
				</port>
			</input>
			<output>
				<port id="2" names="380" precision="FP16">
					<dim>1</dim>
					<dim>16</dim>
					<dim>16</dim>
					<dim>112</dim>
					<dim>112</dim>
				</port>
			</output>
		</layer>
		<layer id="443" name="381/fq_input_0" type="FakeQuantize" version="opset1">
			<data auto_broadcast="numpy" levels="256"/>
			<input>
				<port id="0">
					<dim>1</dim>
					<dim>16</dim>
					<dim>16</dim>
					<dim>112</dim>
					<dim>112</dim>
				</port>
				<port id="1"/>
				<port id="2"/>
				<port id="3"/>
				<port id="4"/>
			</input>
			<output>
				<port id="5" precision="FP16">
					<dim>1</dim>
					<dim>16</dim>
					<dim>16</dim>
					<dim>112</dim>
					<dim>112</dim>
				</port>
			</output>
		</layer>
		<layer id="444" name="382/mean/Fused_Mul__copy5587693/quantized873915038" type="Const" version="opset1">
			<data element_type="i8" offset="21022" shape="64,16,1,1,1" size="1024"/>
			<output>
				<port id="0" precision="I8">
					<dim>64</dim>
					<dim>16</dim>
					<dim>1</dim>
					<dim>1</dim>
					<dim>1</dim>
				</port>
			</output>
		</layer>
		<layer id="445" name="382/mean/Fused_Mul__copy5587693/quantized/to_f16" type="Convert" version="opset1">
			<data destination_type="f16"/>
			<input>
				<port id="0">
					<dim>64</dim>
					<dim>16</dim>
					<dim>1</dim>
					<dim>1</dim>
					<dim>1</dim>
				</port>
			</input>
			<output>
				<port id="1" precision="FP16">
					<dim>64</dim>
					<dim>16</dim>
					<dim>1</dim>
					<dim>1</dim>
					<dim>1</dim>
				</port>
			</output>
		</layer>
		<layer id="446" name="381/fq_weights_1/zero_point875214036" type="Const" version="opset1">
			<data element_type="f16" offset="22046" shape="64,1,1,1,1" size="128"/>
			<output>
				<port id="0" precision="FP16">
					<dim>64</dim>
					<dim>1</dim>
					<dim>1</dim>
					<dim>1</dim>
					<dim>1</dim>
				</port>
			</output>
		</layer>
		<layer id="447" name="381/fq_weights_1/minus_zp" type="Subtract" version="opset1">
			<data auto_broadcast="numpy"/>
			<input>
				<port id="0">
					<dim>64</dim>
					<dim>16</dim>
					<dim>1</dim>
					<dim>1</dim>
					<dim>1</dim>
				</port>
				<port id="1">
					<dim>64</dim>
					<dim>1</dim>
					<dim>1</dim>
					<dim>1</dim>
					<dim>1</dim>
				</port>
			</input>
			<output>
				<port id="2" precision="FP16">
					<dim>64</dim>
					<dim>16</dim>
					<dim>1</dim>
					<dim>1</dim>
					<dim>1</dim>
				</port>
			</output>
		</layer>
		<layer id="448" name="381/fq_weights_1/scale874715986" type="Const" version="opset1">
			<data element_type="f16" offset="22174" shape="64,1,1,1,1" size="128"/>
			<output>
				<port id="0" precision="FP16">
					<dim>64</dim>
					<dim>1</dim>
					<dim>1</dim>
					<dim>1</dim>
					<dim>1</dim>
				</port>
			</output>
		</layer>
		<layer id="449" name="381/fq_weights_1/mulpiply_by_scale" type="Multiply" version="opset1">
			<data auto_broadcast="numpy"/>
			<input>
				<port id="0">
					<dim>64</dim>
					<dim>16</dim>
					<dim>1</dim>
					<dim>1</dim>
					<dim>1</dim>
				</port>
				<port id="1">
					<dim>64</dim>
					<dim>1</dim>
					<dim>1</dim>
					<dim>1</dim>
					<dim>1</dim>
				</port>
			</input>
			<output>
				<port id="2" precision="FP16">
					<dim>64</dim>
					<dim>16</dim>
					<dim>1</dim>
					<dim>1</dim>
					<dim>1</dim>
				</port>
			</output>
		</layer>
		<layer id="450" name="381" type="Convolution" version="opset1">
			<data auto_pad="explicit" dilations="1,1,1" pads_begin="0,0,0" pads_end="0,0,0" strides="1,1,1"/>
			<input>
				<port id="0">
					<dim>1</dim>
					<dim>16</dim>
					<dim>16</dim>
					<dim>112</dim>
					<dim>112</dim>
				</port>
				<port id="1">
					<dim>64</dim>
					<dim>16</dim>
					<dim>1</dim>
					<dim>1</dim>
					<dim>1</dim>
				</port>
			</input>
			<output>
				<port id="2" precision="FP16">
					<dim>1</dim>
					<dim>64</dim>
					<dim>16</dim>
					<dim>112</dim>
					<dim>112</dim>
				</port>
			</output>
		</layer>
		<layer id="451" name="data_add_142231422856014786" type="Const" version="opset1">
			<data element_type="f16" offset="22302" shape="1,64,1,1,1" size="128"/>
			<output>
				<port id="0" precision="FP16">
					<dim>1</dim>
					<dim>64</dim>
					<dim>1</dim>
					<dim>1</dim>
					<dim>1</dim>
				</port>
			</output>
		</layer>
		<layer id="452" name="382/variance/Fused_Add_" type="Add" version="opset1">
			<data auto_broadcast="numpy"/>
			<input>
				<port id="0">
					<dim>1</dim>
					<dim>64</dim>
					<dim>16</dim>
					<dim>112</dim>
					<dim>112</dim>
				</port>
				<port id="1">
					<dim>1</dim>
					<dim>64</dim>
					<dim>1</dim>
					<dim>1</dim>
					<dim>1</dim>
				</port>
			</input>
			<output>
				<port id="2" names="382" precision="FP16">
					<dim>1</dim>
					<dim>64</dim>
					<dim>16</dim>
					<dim>112</dim>
					<dim>112</dim>
				</port>
			</output>
		</layer>
		<layer id="453" name="383" type="ReLU" version="opset1">
			<input>
				<port id="0">
					<dim>1</dim>
					<dim>64</dim>
					<dim>16</dim>
					<dim>112</dim>
					<dim>112</dim>
				</port>
			</input>
			<output>
				<port id="1" names="383" precision="FP16">
					<dim>1</dim>
					<dim>64</dim>
					<dim>16</dim>
					<dim>112</dim>
					<dim>112</dim>
				</port>
			</output>
		</layer>
		<layer id="454" name="384/fq_input_0" type="FakeQuantize" version="opset1">
			<data auto_broadcast="numpy" levels="256"/>
			<input>
				<port id="0">
					<dim>1</dim>
					<dim>64</dim>
					<dim>16</dim>
					<dim>112</dim>
					<dim>112</dim>
				</port>
				<port id="1">
					<dim>1</dim>
					<dim>64</dim>
					<dim>1</dim>
					<dim>1</dim>
					<dim>1</dim>
				</port>
				<port id="2">
					<dim>1</dim>
					<dim>64</dim>
					<dim>1</dim>
					<dim>1</dim>
					<dim>1</dim>
				</port>
				<port id="3">
					<dim>1</dim>
					<dim>64</dim>
					<dim>1</dim>
					<dim>1</dim>
					<dim>1</dim>
				</port>
				<port id="4">
					<dim>1</dim>
					<dim>64</dim>
					<dim>1</dim>
					<dim>1</dim>
					<dim>1</dim>
				</port>
			</input>
			<output>
				<port id="5" precision="FP16">
					<dim>1</dim>
					<dim>64</dim>
					<dim>16</dim>
					<dim>112</dim>
					<dim>112</dim>
				</port>
			</output>
		</layer>
		<layer id="455" name="11952/value1195414171" type="Const" version="opset1">
			<data element_type="i64" offset="22430" shape="6" size="48"/>
			<output>
				<port id="0" precision="I64">
					<dim>6</dim>
				</port>
			</output>
		</layer>
		<layer id="456" name="385/mean/Fused_Mul__copy5637695/quantized931514789" type="Const" version="opset1">
			<data element_type="i8" offset="22478" shape="64,1,1,3,3" size="576"/>
			<output>
				<port id="0" precision="I8">
					<dim>64</dim>
					<dim>1</dim>
					<dim>1</dim>
					<dim>3</dim>
					<dim>3</dim>
				</port>
			</output>
		</layer>
		<layer id="457" name="385/mean/Fused_Mul__copy5637695/quantized/to_f16" type="Convert" version="opset1">
			<data destination_type="f16"/>
			<input>
				<port id="0">
					<dim>64</dim>
					<dim>1</dim>
					<dim>1</dim>
					<dim>3</dim>
					<dim>3</dim>
				</port>
			</input>
			<output>
				<port id="1" precision="FP16">
					<dim>64</dim>
					<dim>1</dim>
					<dim>1</dim>
					<dim>3</dim>
					<dim>3</dim>
				</port>
			</output>
		</layer>
		<layer id="458" name="384/fq_weights_1/zero_point932815167" type="Const" version="opset1">
			<data element_type="f16" offset="23054" shape="64,1,1,1,1" size="128"/>
			<output>
				<port id="0" precision="FP16">
					<dim>64</dim>
					<dim>1</dim>
					<dim>1</dim>
					<dim>1</dim>
					<dim>1</dim>
				</port>
			</output>
		</layer>
		<layer id="459" name="384/fq_weights_1/minus_zp" type="Subtract" version="opset1">
			<data auto_broadcast="numpy"/>
			<input>
				<port id="0">
					<dim>64</dim>
					<dim>1</dim>
					<dim>1</dim>
					<dim>3</dim>
					<dim>3</dim>
				</port>
				<port id="1">
					<dim>64</dim>
					<dim>1</dim>
					<dim>1</dim>
					<dim>1</dim>
					<dim>1</dim>
				</port>
			</input>
			<output>
				<port id="2" precision="FP16">
					<dim>64</dim>
					<dim>1</dim>
					<dim>1</dim>
					<dim>3</dim>
					<dim>3</dim>
				</port>
			</output>
		</layer>
		<layer id="460" name="384/fq_weights_1/scale932314312" type="Const" version="opset1">
			<data element_type="f16" offset="23182" shape="64,1,1,1,1" size="128"/>
			<output>
				<port id="0" precision="FP16">
					<dim>64</dim>
					<dim>1</dim>
					<dim>1</dim>
					<dim>1</dim>
					<dim>1</dim>
				</port>
			</output>
		</layer>
		<layer id="461" name="384/fq_weights_1/mulpiply_by_scale" type="Multiply" version="opset1">
			<data auto_broadcast="numpy"/>
			<input>
				<port id="0">
					<dim>64</dim>
					<dim>1</dim>
					<dim>1</dim>
					<dim>3</dim>
					<dim>3</dim>
				</port>
				<port id="1">
					<dim>64</dim>
					<dim>1</dim>
					<dim>1</dim>
					<dim>1</dim>
					<dim>1</dim>
				</port>
			</input>
			<output>
				<port id="2" precision="FP16">
					<dim>64</dim>
					<dim>1</dim>
					<dim>1</dim>
					<dim>3</dim>
					<dim>3</dim>
				</port>
			</output>
		</layer>
		<layer id="462" name="11952" type="Reshape" version="opset1">
			<data special_zero="true"/>
			<input>
				<port id="0">
					<dim>64</dim>
					<dim>1</dim>
					<dim>1</dim>
					<dim>3</dim>
					<dim>3</dim>
				</port>
				<port id="1">
					<dim>6</dim>
				</port>
			</input>
			<output>
				<port id="2" precision="FP16">
					<dim>64</dim>
					<dim>1</dim>
					<dim>1</dim>
					<dim>1</dim>
					<dim>3</dim>
					<dim>3</dim>
				</port>
			</output>
		</layer>
		<layer id="463" name="384" type="GroupConvolution" version="opset1">
			<data auto_pad="explicit" dilations="1,1,1" pads_begin="0,1,1" pads_end="0,1,1" strides="1,2,2"/>
			<input>
				<port id="0">
					<dim>1</dim>
					<dim>64</dim>
					<dim>16</dim>
					<dim>112</dim>
					<dim>112</dim>
				</port>
				<port id="1">
					<dim>64</dim>
					<dim>1</dim>
					<dim>1</dim>
					<dim>1</dim>
					<dim>3</dim>
					<dim>3</dim>
				</port>
			</input>
			<output>
				<port id="2" precision="FP16">
					<dim>1</dim>
					<dim>64</dim>
					<dim>16</dim>
					<dim>56</dim>
					<dim>56</dim>
				</port>
			</output>
		</layer>
		<layer id="464" name="data_add_142311423656514984" type="Const" version="opset1">
			<data element_type="f16" offset="23310" shape="1,64,1,1,1" size="128"/>
			<output>
				<port id="0" precision="FP16">
					<dim>1</dim>
					<dim>64</dim>
					<dim>1</dim>
					<dim>1</dim>
					<dim>1</dim>
				</port>
			</output>
		</layer>
		<layer id="465" name="385/variance/Fused_Add_" type="Add" version="opset1">
			<data auto_broadcast="numpy"/>
			<input>
				<port id="0">
					<dim>1</dim>
					<dim>64</dim>
					<dim>16</dim>
					<dim>56</dim>
					<dim>56</dim>
				</port>
				<port id="1">
					<dim>1</dim>
					<dim>64</dim>
					<dim>1</dim>
					<dim>1</dim>
					<dim>1</dim>
				</port>
			</input>
			<output>
				<port id="2" names="385" precision="FP16">
					<dim>1</dim>
					<dim>64</dim>
					<dim>16</dim>
					<dim>56</dim>
					<dim>56</dim>
				</port>
			</output>
		</layer>
		<layer id="466" name="386" type="ReLU" version="opset1">
			<input>
				<port id="0">
					<dim>1</dim>
					<dim>64</dim>
					<dim>16</dim>
					<dim>56</dim>
					<dim>56</dim>
				</port>
			</input>
			<output>
				<port id="1" names="386" precision="FP16">
					<dim>1</dim>
					<dim>64</dim>
					<dim>16</dim>
					<dim>56</dim>
					<dim>56</dim>
				</port>
			</output>
		</layer>
		<layer id="467" name="387/fq_input_0" type="FakeQuantize" version="opset1">
			<data auto_broadcast="numpy" levels="256"/>
			<input>
				<port id="0">
					<dim>1</dim>
					<dim>64</dim>
					<dim>16</dim>
					<dim>56</dim>
					<dim>56</dim>
				</port>
				<port id="1"/>
				<port id="2"/>
				<port id="3"/>
				<port id="4"/>
			</input>
			<output>
				<port id="5" precision="FP16">
					<dim>1</dim>
					<dim>64</dim>
					<dim>16</dim>
					<dim>56</dim>
					<dim>56</dim>
				</port>
			</output>
		</layer>
		<layer id="468" name="388/mean/Fused_Mul__copy5687697/quantized888314927" type="Const" version="opset1">
			<data element_type="i8" offset="23438" shape="24,64,3,1,1" size="4608"/>
			<output>
				<port id="0" precision="I8">
					<dim>24</dim>
					<dim>64</dim>
					<dim>3</dim>
					<dim>1</dim>
					<dim>1</dim>
				</port>
			</output>
		</layer>
		<layer id="469" name="388/mean/Fused_Mul__copy5687697/quantized/to_f16" type="Convert" version="opset1">
			<data destination_type="f16"/>
			<input>
				<port id="0">
					<dim>24</dim>
					<dim>64</dim>
					<dim>3</dim>
					<dim>1</dim>
					<dim>1</dim>
				</port>
			</input>
			<output>
				<port id="1" precision="FP16">
					<dim>24</dim>
					<dim>64</dim>
					<dim>3</dim>
					<dim>1</dim>
					<dim>1</dim>
				</port>
			</output>
		</layer>
		<layer id="470" name="387/fq_weights_1/zero_point889615191" type="Const" version="opset1">
			<data element_type="f16" offset="28046" shape="24,1,1,1,1" size="48"/>
			<output>
				<port id="0" precision="FP16">
					<dim>24</dim>
					<dim>1</dim>
					<dim>1</dim>
					<dim>1</dim>
					<dim>1</dim>
				</port>
			</output>
		</layer>
		<layer id="471" name="387/fq_weights_1/minus_zp" type="Subtract" version="opset1">
			<data auto_broadcast="numpy"/>
			<input>
				<port id="0">
					<dim>24</dim>
					<dim>64</dim>
					<dim>3</dim>
					<dim>1</dim>
					<dim>1</dim>
				</port>
				<port id="1">
					<dim>24</dim>
					<dim>1</dim>
					<dim>1</dim>
					<dim>1</dim>
					<dim>1</dim>
				</port>
			</input>
			<output>
				<port id="2" precision="FP16">
					<dim>24</dim>
					<dim>64</dim>
					<dim>3</dim>
					<dim>1</dim>
					<dim>1</dim>
				</port>
			</output>
		</layer>
		<layer id="472" name="387/fq_weights_1/scale889114033" type="Const" version="opset1">
			<data element_type="f16" offset="28094" shape="24,1,1,1,1" size="48"/>
			<output>
				<port id="0" precision="FP16">
					<dim>24</dim>
					<dim>1</dim>
					<dim>1</dim>
					<dim>1</dim>
					<dim>1</dim>
				</port>
			</output>
		</layer>
		<layer id="473" name="387/fq_weights_1/mulpiply_by_scale" type="Multiply" version="opset1">
			<data auto_broadcast="numpy"/>
			<input>
				<port id="0">
					<dim>24</dim>
					<dim>64</dim>
					<dim>3</dim>
					<dim>1</dim>
					<dim>1</dim>
				</port>
				<port id="1">
					<dim>24</dim>
					<dim>1</dim>
					<dim>1</dim>
					<dim>1</dim>
					<dim>1</dim>
				</port>
			</input>
			<output>
				<port id="2" precision="FP16">
					<dim>24</dim>
					<dim>64</dim>
					<dim>3</dim>
					<dim>1</dim>
					<dim>1</dim>
				</port>
			</output>
		</layer>
		<layer id="474" name="387" type="Convolution" version="opset1">
			<data auto_pad="explicit" dilations="1,1,1" pads_begin="1,0,0" pads_end="1,0,0" strides="1,1,1"/>
			<input>
				<port id="0">
					<dim>1</dim>
					<dim>64</dim>
					<dim>16</dim>
					<dim>56</dim>
					<dim>56</dim>
				</port>
				<port id="1">
					<dim>24</dim>
					<dim>64</dim>
					<dim>3</dim>
					<dim>1</dim>
					<dim>1</dim>
				</port>
			</input>
			<output>
				<port id="2" precision="FP16">
					<dim>1</dim>
					<dim>24</dim>
					<dim>16</dim>
					<dim>56</dim>
					<dim>56</dim>
				</port>
			</output>
		</layer>
		<layer id="475" name="data_add_142391424457016001" type="Const" version="opset1">
			<data element_type="f16" offset="28142" shape="1,24,1,1,1" size="48"/>
			<output>
				<port id="0" precision="FP16">
					<dim>1</dim>
					<dim>24</dim>
					<dim>1</dim>
					<dim>1</dim>
					<dim>1</dim>
				</port>
			</output>
		</layer>
		<layer id="476" name="388/variance/Fused_Add_" type="Add" version="opset1">
			<data auto_broadcast="numpy"/>
			<input>
				<port id="0">
					<dim>1</dim>
					<dim>24</dim>
					<dim>16</dim>
					<dim>56</dim>
					<dim>56</dim>
				</port>
				<port id="1">
					<dim>1</dim>
					<dim>24</dim>
					<dim>1</dim>
					<dim>1</dim>
					<dim>1</dim>
				</port>
			</input>
			<output>
				<port id="2" names="388,389" precision="FP16">
					<dim>1</dim>
					<dim>24</dim>
					<dim>16</dim>
					<dim>56</dim>
					<dim>56</dim>
				</port>
			</output>
		</layer>
		<layer id="477" name="390/fq_input_0" type="FakeQuantize" version="opset1">
			<data auto_broadcast="numpy" levels="256"/>
			<input>
				<port id="0">
					<dim>1</dim>
					<dim>24</dim>
					<dim>16</dim>
					<dim>56</dim>
					<dim>56</dim>
				</port>
				<port id="1"/>
				<port id="2"/>
				<port id="3"/>
				<port id="4"/>
			</input>
			<output>
				<port id="5" precision="FP16">
					<dim>1</dim>
					<dim>24</dim>
					<dim>16</dim>
					<dim>56</dim>
					<dim>56</dim>
				</port>
			</output>
		</layer>
		<layer id="478" name="390" type="AvgPool" version="opset1">
			<data auto_pad="explicit" exclude-pad="true" kernel="2,1,1" pads_begin="0,0,0" pads_end="0,0,0" rounding_type="floor" strides="2,1,1"/>
			<input>
				<port id="0">
					<dim>1</dim>
					<dim>24</dim>
					<dim>16</dim>
					<dim>56</dim>
					<dim>56</dim>
				</port>
			</input>
			<output>
				<port id="1" names="390" precision="FP16">
					<dim>1</dim>
					<dim>24</dim>
					<dim>8</dim>
					<dim>56</dim>
					<dim>56</dim>
				</port>
			</output>
		</layer>
		<layer id="479" name="391/fq_input_0" type="FakeQuantize" version="opset1">
			<data auto_broadcast="numpy" levels="256"/>
			<input>
				<port id="0">
					<dim>1</dim>
					<dim>24</dim>
					<dim>8</dim>
					<dim>56</dim>
					<dim>56</dim>
				</port>
				<port id="1"/>
				<port id="2"/>
				<port id="3"/>
				<port id="4"/>
			</input>
			<output>
				<port id="5" precision="FP16">
					<dim>1</dim>
					<dim>24</dim>
					<dim>8</dim>
					<dim>56</dim>
					<dim>56</dim>
				</port>
			</output>
		</layer>
		<layer id="480" name="392/mean/Fused_Mul__copy5737699/quantized919515977" type="Const" version="opset1">
			<data element_type="i8" offset="28190" shape="72,24,1,1,1" size="1728"/>
			<output>
				<port id="0" precision="I8">
					<dim>72</dim>
					<dim>24</dim>
					<dim>1</dim>
					<dim>1</dim>
					<dim>1</dim>
				</port>
			</output>
		</layer>
		<layer id="481" name="392/mean/Fused_Mul__copy5737699/quantized/to_f16" type="Convert" version="opset1">
			<data destination_type="f16"/>
			<input>
				<port id="0">
					<dim>72</dim>
					<dim>24</dim>
					<dim>1</dim>
					<dim>1</dim>
					<dim>1</dim>
				</port>
			</input>
			<output>
				<port id="1" precision="FP16">
					<dim>72</dim>
					<dim>24</dim>
					<dim>1</dim>
					<dim>1</dim>
					<dim>1</dim>
				</port>
			</output>
		</layer>
		<layer id="482" name="391/fq_weights_1/zero_point920815119" type="Const" version="opset1">
			<data element_type="f16" offset="29918" shape="72,1,1,1,1" size="144"/>
			<output>
				<port id="0" precision="FP16">
					<dim>72</dim>
					<dim>1</dim>
					<dim>1</dim>
					<dim>1</dim>
					<dim>1</dim>
				</port>
			</output>
		</layer>
		<layer id="483" name="391/fq_weights_1/minus_zp" type="Subtract" version="opset1">
			<data auto_broadcast="numpy"/>
			<input>
				<port id="0">
					<dim>72</dim>
					<dim>24</dim>
					<dim>1</dim>
					<dim>1</dim>
					<dim>1</dim>
				</port>
				<port id="1">
					<dim>72</dim>
					<dim>1</dim>
					<dim>1</dim>
					<dim>1</dim>
					<dim>1</dim>
				</port>
			</input>
			<output>
				<port id="2" precision="FP16">
					<dim>72</dim>
					<dim>24</dim>
					<dim>1</dim>
					<dim>1</dim>
					<dim>1</dim>
				</port>
			</output>
		</layer>
		<layer id="484" name="391/fq_weights_1/scale920314147" type="Const" version="opset1">
			<data element_type="f16" offset="30062" shape="72,1,1,1,1" size="144"/>
			<output>
				<port id="0" precision="FP16">
					<dim>72</dim>
					<dim>1</dim>
					<dim>1</dim>
					<dim>1</dim>
					<dim>1</dim>
				</port>
			</output>
		</layer>
		<layer id="485" name="391/fq_weights_1/mulpiply_by_scale" type="Multiply" version="opset1">
			<data auto_broadcast="numpy"/>
			<input>
				<port id="0">
					<dim>72</dim>
					<dim>24</dim>
					<dim>1</dim>
					<dim>1</dim>
					<dim>1</dim>
				</port>
				<port id="1">
					<dim>72</dim>
					<dim>1</dim>
					<dim>1</dim>
					<dim>1</dim>
					<dim>1</dim>
				</port>
			</input>
			<output>
				<port id="2" precision="FP16">
					<dim>72</dim>
					<dim>24</dim>
					<dim>1</dim>
					<dim>1</dim>
					<dim>1</dim>
				</port>
			</output>
		</layer>
		<layer id="486" name="391" type="Convolution" version="opset1">
			<data auto_pad="explicit" dilations="1,1,1" pads_begin="0,0,0" pads_end="0,0,0" strides="1,1,1"/>
			<input>
				<port id="0">
					<dim>1</dim>
					<dim>24</dim>
					<dim>8</dim>
					<dim>56</dim>
					<dim>56</dim>
				</port>
				<port id="1">
					<dim>72</dim>
					<dim>24</dim>
					<dim>1</dim>
					<dim>1</dim>
					<dim>1</dim>
				</port>
			</input>
			<output>
				<port id="2" precision="FP16">
					<dim>1</dim>
					<dim>72</dim>
					<dim>8</dim>
					<dim>56</dim>
					<dim>56</dim>
				</port>
			</output>
		</layer>
		<layer id="487" name="data_add_142471425257515236" type="Const" version="opset1">
			<data element_type="f16" offset="30206" shape="1,72,1,1,1" size="144"/>
			<output>
				<port id="0" precision="FP16">
					<dim>1</dim>
					<dim>72</dim>
					<dim>1</dim>
					<dim>1</dim>
					<dim>1</dim>
				</port>
			</output>
		</layer>
		<layer id="488" name="392/variance/Fused_Add_" type="Add" version="opset1">
			<data auto_broadcast="numpy"/>
			<input>
				<port id="0">
					<dim>1</dim>
					<dim>72</dim>
					<dim>8</dim>
					<dim>56</dim>
					<dim>56</dim>
				</port>
				<port id="1">
					<dim>1</dim>
					<dim>72</dim>
					<dim>1</dim>
					<dim>1</dim>
					<dim>1</dim>
				</port>
			</input>
			<output>
				<port id="2" names="392" precision="FP16">
					<dim>1</dim>
					<dim>72</dim>
					<dim>8</dim>
					<dim>56</dim>
					<dim>56</dim>
				</port>
			</output>
		</layer>
		<layer id="489" name="393" type="ReLU" version="opset1">
			<input>
				<port id="0">
					<dim>1</dim>
					<dim>72</dim>
					<dim>8</dim>
					<dim>56</dim>
					<dim>56</dim>
				</port>
			</input>
			<output>
				<port id="1" names="393" precision="FP16">
					<dim>1</dim>
					<dim>72</dim>
					<dim>8</dim>
					<dim>56</dim>
					<dim>56</dim>
				</port>
			</output>
		</layer>
		<layer id="490" name="394/fq_input_0" type="FakeQuantize" version="opset1">
			<data auto_broadcast="numpy" levels="256"/>
			<input>
				<port id="0">
					<dim>1</dim>
					<dim>72</dim>
					<dim>8</dim>
					<dim>56</dim>
					<dim>56</dim>
				</port>
				<port id="1">
					<dim>1</dim>
					<dim>72</dim>
					<dim>1</dim>
					<dim>1</dim>
					<dim>1</dim>
				</port>
				<port id="2">
					<dim>1</dim>
					<dim>72</dim>
					<dim>1</dim>
					<dim>1</dim>
					<dim>1</dim>
				</port>
				<port id="3">
					<dim>1</dim>
					<dim>72</dim>
					<dim>1</dim>
					<dim>1</dim>
					<dim>1</dim>
				</port>
				<port id="4">
					<dim>1</dim>
					<dim>72</dim>
					<dim>1</dim>
					<dim>1</dim>
					<dim>1</dim>
				</port>
			</input>
			<output>
				<port id="5" precision="FP16">
					<dim>1</dim>
					<dim>72</dim>
					<dim>8</dim>
					<dim>56</dim>
					<dim>56</dim>
				</port>
			</output>
		</layer>
		<layer id="491" name="11964/value1196614201" type="Const" version="opset1">
			<data element_type="i64" offset="30350" shape="6" size="48"/>
			<output>
				<port id="0" precision="I64">
					<dim>6</dim>
				</port>
			</output>
		</layer>
		<layer id="492" name="395/mean/Fused_Mul__copy5787701/quantized895515215" type="Const" version="opset1">
			<data element_type="i8" offset="30398" shape="72,1,1,3,3" size="648"/>
			<output>
				<port id="0" precision="I8">
					<dim>72</dim>
					<dim>1</dim>
					<dim>1</dim>
					<dim>3</dim>
					<dim>3</dim>
				</port>
			</output>
		</layer>
		<layer id="493" name="395/mean/Fused_Mul__copy5787701/quantized/to_f16" type="Convert" version="opset1">
			<data destination_type="f16"/>
			<input>
				<port id="0">
					<dim>72</dim>
					<dim>1</dim>
					<dim>1</dim>
					<dim>3</dim>
					<dim>3</dim>
				</port>
			</input>
			<output>
				<port id="1" precision="FP16">
					<dim>72</dim>
					<dim>1</dim>
					<dim>1</dim>
					<dim>3</dim>
					<dim>3</dim>
				</port>
			</output>
		</layer>
		<layer id="494" name="394/fq_weights_1/zero_point896814852" type="Const" version="opset1">
			<data element_type="f16" offset="31046" shape="72,1,1,1,1" size="144"/>
			<output>
				<port id="0" precision="FP16">
					<dim>72</dim>
					<dim>1</dim>
					<dim>1</dim>
					<dim>1</dim>
					<dim>1</dim>
				</port>
			</output>
		</layer>
		<layer id="495" name="394/fq_weights_1/minus_zp" type="Subtract" version="opset1">
			<data auto_broadcast="numpy"/>
			<input>
				<port id="0">
					<dim>72</dim>
					<dim>1</dim>
					<dim>1</dim>
					<dim>3</dim>
					<dim>3</dim>
				</port>
				<port id="1">
					<dim>72</dim>
					<dim>1</dim>
					<dim>1</dim>
					<dim>1</dim>
					<dim>1</dim>
				</port>
			</input>
			<output>
				<port id="2" precision="FP16">
					<dim>72</dim>
					<dim>1</dim>
					<dim>1</dim>
					<dim>3</dim>
					<dim>3</dim>
				</port>
			</output>
		</layer>
		<layer id="496" name="394/fq_weights_1/scale896315419" type="Const" version="opset1">
			<data element_type="f16" offset="31190" shape="72,1,1,1,1" size="144"/>
			<output>
				<port id="0" precision="FP16">
					<dim>72</dim>
					<dim>1</dim>
					<dim>1</dim>
					<dim>1</dim>
					<dim>1</dim>
				</port>
			</output>
		</layer>
		<layer id="497" name="394/fq_weights_1/mulpiply_by_scale" type="Multiply" version="opset1">
			<data auto_broadcast="numpy"/>
			<input>
				<port id="0">
					<dim>72</dim>
					<dim>1</dim>
					<dim>1</dim>
					<dim>3</dim>
					<dim>3</dim>
				</port>
				<port id="1">
					<dim>72</dim>
					<dim>1</dim>
					<dim>1</dim>
					<dim>1</dim>
					<dim>1</dim>
				</port>
			</input>
			<output>
				<port id="2" precision="FP16">
					<dim>72</dim>
					<dim>1</dim>
					<dim>1</dim>
					<dim>3</dim>
					<dim>3</dim>
				</port>
			</output>
		</layer>
		<layer id="498" name="11964" type="Reshape" version="opset1">
			<data special_zero="true"/>
			<input>
				<port id="0">
					<dim>72</dim>
					<dim>1</dim>
					<dim>1</dim>
					<dim>3</dim>
					<dim>3</dim>
				</port>
				<port id="1">
					<dim>6</dim>
				</port>
			</input>
			<output>
				<port id="2" precision="FP16">
					<dim>72</dim>
					<dim>1</dim>
					<dim>1</dim>
					<dim>1</dim>
					<dim>3</dim>
					<dim>3</dim>
				</port>
			</output>
		</layer>
		<layer id="499" name="394" type="GroupConvolution" version="opset1">
			<data auto_pad="explicit" dilations="1,1,1" pads_begin="0,1,1" pads_end="0,1,1" strides="1,1,1"/>
			<input>
				<port id="0">
					<dim>1</dim>
					<dim>72</dim>
					<dim>8</dim>
					<dim>56</dim>
					<dim>56</dim>
				</port>
				<port id="1">
					<dim>72</dim>
					<dim>1</dim>
					<dim>1</dim>
					<dim>1</dim>
					<dim>3</dim>
					<dim>3</dim>
				</port>
			</input>
			<output>
				<port id="2" precision="FP16">
					<dim>1</dim>
					<dim>72</dim>
					<dim>8</dim>
					<dim>56</dim>
					<dim>56</dim>
				</port>
			</output>
		</layer>
		<layer id="500" name="data_add_142551426058014423" type="Const" version="opset1">
			<data element_type="f16" offset="31334" shape="1,72,1,1,1" size="144"/>
			<output>
				<port id="0" precision="FP16">
					<dim>1</dim>
					<dim>72</dim>
					<dim>1</dim>
					<dim>1</dim>
					<dim>1</dim>
				</port>
			</output>
		</layer>
		<layer id="501" name="395/variance/Fused_Add_" type="Add" version="opset1">
			<data auto_broadcast="numpy"/>
			<input>
				<port id="0">
					<dim>1</dim>
					<dim>72</dim>
					<dim>8</dim>
					<dim>56</dim>
					<dim>56</dim>
				</port>
				<port id="1">
					<dim>1</dim>
					<dim>72</dim>
					<dim>1</dim>
					<dim>1</dim>
					<dim>1</dim>
				</port>
			</input>
			<output>
				<port id="2" names="395" precision="FP16">
					<dim>1</dim>
					<dim>72</dim>
					<dim>8</dim>
					<dim>56</dim>
					<dim>56</dim>
				</port>
			</output>
		</layer>
		<layer id="502" name="396" type="ReLU" version="opset1">
			<input>
				<port id="0">
					<dim>1</dim>
					<dim>72</dim>
					<dim>8</dim>
					<dim>56</dim>
					<dim>56</dim>
				</port>
			</input>
			<output>
				<port id="1" names="396" precision="FP16">
					<dim>1</dim>
					<dim>72</dim>
					<dim>8</dim>
					<dim>56</dim>
					<dim>56</dim>
				</port>
			</output>
		</layer>
		<layer id="503" name="397/fq_input_0" type="FakeQuantize" version="opset1">
			<data auto_broadcast="numpy" levels="256"/>
			<input>
				<port id="0">
					<dim>1</dim>
					<dim>72</dim>
					<dim>8</dim>
					<dim>56</dim>
					<dim>56</dim>
				</port>
				<port id="1"/>
				<port id="2"/>
				<port id="3"/>
				<port id="4"/>
			</input>
			<output>
				<port id="5" precision="FP16">
					<dim>1</dim>
					<dim>72</dim>
					<dim>8</dim>
					<dim>56</dim>
					<dim>56</dim>
				</port>
			</output>
		</layer>
		<layer id="504" name="398/mean/Fused_Mul__copy5837703/quantized979515071" type="Const" version="opset1">
			<data element_type="i8" offset="31478" shape="24,72,3,1,1" size="5184"/>
			<output>
				<port id="0" precision="I8">
					<dim>24</dim>
					<dim>72</dim>
					<dim>3</dim>
					<dim>1</dim>
					<dim>1</dim>
				</port>
			</output>
		</layer>
		<layer id="505" name="398/mean/Fused_Mul__copy5837703/quantized/to_f16" type="Convert" version="opset1">
			<data destination_type="f16"/>
			<input>
				<port id="0">
					<dim>24</dim>
					<dim>72</dim>
					<dim>3</dim>
					<dim>1</dim>
					<dim>1</dim>
				</port>
			</input>
			<output>
				<port id="1" precision="FP16">
					<dim>24</dim>
					<dim>72</dim>
					<dim>3</dim>
					<dim>1</dim>
					<dim>1</dim>
				</port>
			</output>
		</layer>
		<layer id="506" name="397/fq_weights_1/zero_point980813868" type="Const" version="opset1">
			<data element_type="f16" offset="36662" shape="24,1,1,1,1" size="48"/>
			<output>
				<port id="0" precision="FP16">
					<dim>24</dim>
					<dim>1</dim>
					<dim>1</dim>
					<dim>1</dim>
					<dim>1</dim>
				</port>
			</output>
		</layer>
		<layer id="507" name="397/fq_weights_1/minus_zp" type="Subtract" version="opset1">
			<data auto_broadcast="numpy"/>
			<input>
				<port id="0">
					<dim>24</dim>
					<dim>72</dim>
					<dim>3</dim>
					<dim>1</dim>
					<dim>1</dim>
				</port>
				<port id="1">
					<dim>24</dim>
					<dim>1</dim>
					<dim>1</dim>
					<dim>1</dim>
					<dim>1</dim>
				</port>
			</input>
			<output>
				<port id="2" precision="FP16">
					<dim>24</dim>
					<dim>72</dim>
					<dim>3</dim>
					<dim>1</dim>
					<dim>1</dim>
				</port>
			</output>
		</layer>
		<layer id="508" name="397/fq_weights_1/scale980314717" type="Const" version="opset1">
			<data element_type="f16" offset="36710" shape="24,1,1,1,1" size="48"/>
			<output>
				<port id="0" precision="FP16">
					<dim>24</dim>
					<dim>1</dim>
					<dim>1</dim>
					<dim>1</dim>
					<dim>1</dim>
				</port>
			</output>
		</layer>
		<layer id="509" name="397/fq_weights_1/mulpiply_by_scale" type="Multiply" version="opset1">
			<data auto_broadcast="numpy"/>
			<input>
				<port id="0">
					<dim>24</dim>
					<dim>72</dim>
					<dim>3</dim>
					<dim>1</dim>
					<dim>1</dim>
				</port>
				<port id="1">
					<dim>24</dim>
					<dim>1</dim>
					<dim>1</dim>
					<dim>1</dim>
					<dim>1</dim>
				</port>
			</input>
			<output>
				<port id="2" precision="FP16">
					<dim>24</dim>
					<dim>72</dim>
					<dim>3</dim>
					<dim>1</dim>
					<dim>1</dim>
				</port>
			</output>
		</layer>
		<layer id="510" name="397" type="Convolution" version="opset1">
			<data auto_pad="explicit" dilations="1,1,1" pads_begin="1,0,0" pads_end="1,0,0" strides="1,1,1"/>
			<input>
				<port id="0">
					<dim>1</dim>
					<dim>72</dim>
					<dim>8</dim>
					<dim>56</dim>
					<dim>56</dim>
				</port>
				<port id="1">
					<dim>24</dim>
					<dim>72</dim>
					<dim>3</dim>
					<dim>1</dim>
					<dim>1</dim>
				</port>
			</input>
			<output>
				<port id="2" precision="FP16">
					<dim>1</dim>
					<dim>24</dim>
					<dim>8</dim>
					<dim>56</dim>
					<dim>56</dim>
				</port>
			</output>
		</layer>
		<layer id="511" name="data_add_142631426858514759" type="Const" version="opset1">
			<data element_type="f16" offset="36758" shape="1,24,1,1,1" size="48"/>
			<output>
				<port id="0" precision="FP16">
					<dim>1</dim>
					<dim>24</dim>
					<dim>1</dim>
					<dim>1</dim>
					<dim>1</dim>
				</port>
			</output>
		</layer>
		<layer id="512" name="398/variance/Fused_Add_" type="Add" version="opset1">
			<data auto_broadcast="numpy"/>
			<input>
				<port id="0">
					<dim>1</dim>
					<dim>24</dim>
					<dim>8</dim>
					<dim>56</dim>
					<dim>56</dim>
				</port>
				<port id="1">
					<dim>1</dim>
					<dim>24</dim>
					<dim>1</dim>
					<dim>1</dim>
					<dim>1</dim>
				</port>
			</input>
			<output>
				<port id="2" names="398" precision="FP16">
					<dim>1</dim>
					<dim>24</dim>
					<dim>8</dim>
					<dim>56</dim>
					<dim>56</dim>
				</port>
			</output>
		</layer>
		<layer id="513" name="399/fq_input_1" type="FakeQuantize" version="opset1">
			<data auto_broadcast="numpy" levels="256"/>
			<input>
				<port id="0">
					<dim>1</dim>
					<dim>24</dim>
					<dim>8</dim>
					<dim>56</dim>
					<dim>56</dim>
				</port>
				<port id="1"/>
				<port id="2"/>
				<port id="3"/>
				<port id="4"/>
			</input>
			<output>
				<port id="5" precision="FP16">
					<dim>1</dim>
					<dim>24</dim>
					<dim>8</dim>
					<dim>56</dim>
					<dim>56</dim>
				</port>
			</output>
		</layer>
		<layer id="514" name="399" type="Add" version="opset1">
			<data auto_broadcast="numpy"/>
			<input>
				<port id="0">
					<dim>1</dim>
					<dim>24</dim>
					<dim>8</dim>
					<dim>56</dim>
					<dim>56</dim>
				</port>
				<port id="1">
					<dim>1</dim>
					<dim>24</dim>
					<dim>8</dim>
					<dim>56</dim>
					<dim>56</dim>
				</port>
			</input>
			<output>
				<port id="2" names="399" precision="FP16">
					<dim>1</dim>
					<dim>24</dim>
					<dim>8</dim>
					<dim>56</dim>
					<dim>56</dim>
				</port>
			</output>
		</layer>
		<layer id="515" name="400/fq_input_0" type="FakeQuantize" version="opset1">
			<data auto_broadcast="numpy" levels="256"/>
			<input>
				<port id="0">
					<dim>1</dim>
					<dim>24</dim>
					<dim>8</dim>
					<dim>56</dim>
					<dim>56</dim>
				</port>
				<port id="1"/>
				<port id="2"/>
				<port id="3"/>
				<port id="4"/>
			</input>
			<output>
				<port id="5" precision="FP16">
					<dim>1</dim>
					<dim>24</dim>
					<dim>8</dim>
					<dim>56</dim>
					<dim>56</dim>
				</port>
			</output>
		</layer>
		<layer id="516" name="401/mean/Fused_Mul__copy5887705/quantized907514114" type="Const" version="opset1">
			<data element_type="i8" offset="36806" shape="72,24,1,1,1" size="1728"/>
			<output>
				<port id="0" precision="I8">
					<dim>72</dim>
					<dim>24</dim>
					<dim>1</dim>
					<dim>1</dim>
					<dim>1</dim>
				</port>
			</output>
		</layer>
		<layer id="517" name="401/mean/Fused_Mul__copy5887705/quantized/to_f16" type="Convert" version="opset1">
			<data destination_type="f16"/>
			<input>
				<port id="0">
					<dim>72</dim>
					<dim>24</dim>
					<dim>1</dim>
					<dim>1</dim>
					<dim>1</dim>
				</port>
			</input>
			<output>
				<port id="1" precision="FP16">
					<dim>72</dim>
					<dim>24</dim>
					<dim>1</dim>
					<dim>1</dim>
					<dim>1</dim>
				</port>
			</output>
		</layer>
		<layer id="518" name="400/fq_weights_1/zero_point908815728" type="Const" version="opset1">
			<data element_type="f16" offset="38534" shape="72,1,1,1,1" size="144"/>
			<output>
				<port id="0" precision="FP16">
					<dim>72</dim>
					<dim>1</dim>
					<dim>1</dim>
					<dim>1</dim>
					<dim>1</dim>
				</port>
			</output>
		</layer>
		<layer id="519" name="400/fq_weights_1/minus_zp" type="Subtract" version="opset1">
			<data auto_broadcast="numpy"/>
			<input>
				<port id="0">
					<dim>72</dim>
					<dim>24</dim>
					<dim>1</dim>
					<dim>1</dim>
					<dim>1</dim>
				</port>
				<port id="1">
					<dim>72</dim>
					<dim>1</dim>
					<dim>1</dim>
					<dim>1</dim>
					<dim>1</dim>
				</port>
			</input>
			<output>
				<port id="2" precision="FP16">
					<dim>72</dim>
					<dim>24</dim>
					<dim>1</dim>
					<dim>1</dim>
					<dim>1</dim>
				</port>
			</output>
		</layer>
		<layer id="520" name="400/fq_weights_1/scale908313697" type="Const" version="opset1">
			<data element_type="f16" offset="38678" shape="72,1,1,1,1" size="144"/>
			<output>
				<port id="0" precision="FP16">
					<dim>72</dim>
					<dim>1</dim>
					<dim>1</dim>
					<dim>1</dim>
					<dim>1</dim>
				</port>
			</output>
		</layer>
		<layer id="521" name="400/fq_weights_1/mulpiply_by_scale" type="Multiply" version="opset1">
			<data auto_broadcast="numpy"/>
			<input>
				<port id="0">
					<dim>72</dim>
					<dim>24</dim>
					<dim>1</dim>
					<dim>1</dim>
					<dim>1</dim>
				</port>
				<port id="1">
					<dim>72</dim>
					<dim>1</dim>
					<dim>1</dim>
					<dim>1</dim>
					<dim>1</dim>
				</port>
			</input>
			<output>
				<port id="2" precision="FP16">
					<dim>72</dim>
					<dim>24</dim>
					<dim>1</dim>
					<dim>1</dim>
					<dim>1</dim>
				</port>
			</output>
		</layer>
		<layer id="522" name="400" type="Convolution" version="opset1">
			<data auto_pad="explicit" dilations="1,1,1" pads_begin="0,0,0" pads_end="0,0,0" strides="1,1,1"/>
			<input>
				<port id="0">
					<dim>1</dim>
					<dim>24</dim>
					<dim>8</dim>
					<dim>56</dim>
					<dim>56</dim>
				</port>
				<port id="1">
					<dim>72</dim>
					<dim>24</dim>
					<dim>1</dim>
					<dim>1</dim>
					<dim>1</dim>
				</port>
			</input>
			<output>
				<port id="2" precision="FP16">
					<dim>1</dim>
					<dim>72</dim>
					<dim>8</dim>
					<dim>56</dim>
					<dim>56</dim>
				</port>
			</output>
		</layer>
		<layer id="523" name="data_add_142711427659014903" type="Const" version="opset1">
			<data element_type="f16" offset="38822" shape="1,72,1,1,1" size="144"/>
			<output>
				<port id="0" precision="FP16">
					<dim>1</dim>
					<dim>72</dim>
					<dim>1</dim>
					<dim>1</dim>
					<dim>1</dim>
				</port>
			</output>
		</layer>
		<layer id="524" name="401/variance/Fused_Add_" type="Add" version="opset1">
			<data auto_broadcast="numpy"/>
			<input>
				<port id="0">
					<dim>1</dim>
					<dim>72</dim>
					<dim>8</dim>
					<dim>56</dim>
					<dim>56</dim>
				</port>
				<port id="1">
					<dim>1</dim>
					<dim>72</dim>
					<dim>1</dim>
					<dim>1</dim>
					<dim>1</dim>
				</port>
			</input>
			<output>
				<port id="2" names="401" precision="FP16">
					<dim>1</dim>
					<dim>72</dim>
					<dim>8</dim>
					<dim>56</dim>
					<dim>56</dim>
				</port>
			</output>
		</layer>
		<layer id="525" name="402" type="ReLU" version="opset1">
			<input>
				<port id="0">
					<dim>1</dim>
					<dim>72</dim>
					<dim>8</dim>
					<dim>56</dim>
					<dim>56</dim>
				</port>
			</input>
			<output>
				<port id="1" names="402" precision="FP16">
					<dim>1</dim>
					<dim>72</dim>
					<dim>8</dim>
					<dim>56</dim>
					<dim>56</dim>
				</port>
			</output>
		</layer>
		<layer id="526" name="403/fq_input_0" type="FakeQuantize" version="opset1">
			<data auto_broadcast="numpy" levels="256"/>
			<input>
				<port id="0">
					<dim>1</dim>
					<dim>72</dim>
					<dim>8</dim>
					<dim>56</dim>
					<dim>56</dim>
				</port>
				<port id="1">
					<dim>1</dim>
					<dim>72</dim>
					<dim>1</dim>
					<dim>1</dim>
					<dim>1</dim>
				</port>
				<port id="2">
					<dim>1</dim>
					<dim>72</dim>
					<dim>1</dim>
					<dim>1</dim>
					<dim>1</dim>
				</port>
				<port id="3">
					<dim>1</dim>
					<dim>72</dim>
					<dim>1</dim>
					<dim>1</dim>
					<dim>1</dim>
				</port>
				<port id="4">
					<dim>1</dim>
					<dim>72</dim>
					<dim>1</dim>
					<dim>1</dim>
					<dim>1</dim>
				</port>
			</input>
			<output>
				<port id="5" precision="FP16">
					<dim>1</dim>
					<dim>72</dim>
					<dim>8</dim>
					<dim>56</dim>
					<dim>56</dim>
				</port>
			</output>
		</layer>
		<layer id="527" name="11936/value1193814087" type="Const" version="opset1">
			<data element_type="i64" offset="38966" shape="6" size="48"/>
			<output>
				<port id="0" precision="I64">
					<dim>6</dim>
				</port>
			</output>
		</layer>
		<layer id="528" name="404/mean/Fused_Mul__copy5937707/quantized1027515032" type="Const" version="opset1">
			<data element_type="i8" offset="39014" shape="72,1,1,5,5" size="1800"/>
			<output>
				<port id="0" precision="I8">
					<dim>72</dim>
					<dim>1</dim>
					<dim>1</dim>
					<dim>5</dim>
					<dim>5</dim>
				</port>
			</output>
		</layer>
		<layer id="529" name="404/mean/Fused_Mul__copy5937707/quantized/to_f16" type="Convert" version="opset1">
			<data destination_type="f16"/>
			<input>
				<port id="0">
					<dim>72</dim>
					<dim>1</dim>
					<dim>1</dim>
					<dim>5</dim>
					<dim>5</dim>
				</port>
			</input>
			<output>
				<port id="1" precision="FP16">
					<dim>72</dim>
					<dim>1</dim>
					<dim>1</dim>
					<dim>5</dim>
					<dim>5</dim>
				</port>
			</output>
		</layer>
		<layer id="530" name="403/fq_weights_1/zero_point1028814252" type="Const" version="opset1">
			<data element_type="f16" offset="40814" shape="72,1,1,1,1" size="144"/>
			<output>
				<port id="0" precision="FP16">
					<dim>72</dim>
					<dim>1</dim>
					<dim>1</dim>
					<dim>1</dim>
					<dim>1</dim>
				</port>
			</output>
		</layer>
		<layer id="531" name="403/fq_weights_1/minus_zp" type="Subtract" version="opset1">
			<data auto_broadcast="numpy"/>
			<input>
				<port id="0">
					<dim>72</dim>
					<dim>1</dim>
					<dim>1</dim>
					<dim>5</dim>
					<dim>5</dim>
				</port>
				<port id="1">
					<dim>72</dim>
					<dim>1</dim>
					<dim>1</dim>
					<dim>1</dim>
					<dim>1</dim>
				</port>
			</input>
			<output>
				<port id="2" precision="FP16">
					<dim>72</dim>
					<dim>1</dim>
					<dim>1</dim>
					<dim>5</dim>
					<dim>5</dim>
				</port>
			</output>
		</layer>
		<layer id="532" name="403/fq_weights_1/scale1028313850" type="Const" version="opset1">
			<data element_type="f16" offset="40958" shape="72,1,1,1,1" size="144"/>
			<output>
				<port id="0" precision="FP16">
					<dim>72</dim>
					<dim>1</dim>
					<dim>1</dim>
					<dim>1</dim>
					<dim>1</dim>
				</port>
			</output>
		</layer>
		<layer id="533" name="403/fq_weights_1/mulpiply_by_scale" type="Multiply" version="opset1">
			<data auto_broadcast="numpy"/>
			<input>
				<port id="0">
					<dim>72</dim>
					<dim>1</dim>
					<dim>1</dim>
					<dim>5</dim>
					<dim>5</dim>
				</port>
				<port id="1">
					<dim>72</dim>
					<dim>1</dim>
					<dim>1</dim>
					<dim>1</dim>
					<dim>1</dim>
				</port>
			</input>
			<output>
				<port id="2" precision="FP16">
					<dim>72</dim>
					<dim>1</dim>
					<dim>1</dim>
					<dim>5</dim>
					<dim>5</dim>
				</port>
			</output>
		</layer>
		<layer id="534" name="11936" type="Reshape" version="opset1">
			<data special_zero="true"/>
			<input>
				<port id="0">
					<dim>72</dim>
					<dim>1</dim>
					<dim>1</dim>
					<dim>5</dim>
					<dim>5</dim>
				</port>
				<port id="1">
					<dim>6</dim>
				</port>
			</input>
			<output>
				<port id="2" precision="FP16">
					<dim>72</dim>
					<dim>1</dim>
					<dim>1</dim>
					<dim>1</dim>
					<dim>5</dim>
					<dim>5</dim>
				</port>
			</output>
		</layer>
		<layer id="535" name="403" type="GroupConvolution" version="opset1">
			<data auto_pad="explicit" dilations="1,1,1" pads_begin="0,2,2" pads_end="0,2,2" strides="1,2,2"/>
			<input>
				<port id="0">
					<dim>1</dim>
					<dim>72</dim>
					<dim>8</dim>
…
		<edge from-layer="174" from-port="0" to-layer="1011" to-port="1"/>
		<edge from-layer="175" from-port="0" to-layer="1011" to-port="2"/>
		<edge from-layer="176" from-port="0" to-layer="1011" to-port="3"/>
		<edge from-layer="177" from-port="0" to-layer="1011" to-port="4"/>
		<edge from-layer="1012" from-port="0" to-layer="1013" to-port="0"/>
		<edge from-layer="1013" from-port="1" to-layer="1015" to-port="0"/>
		<edge from-layer="1014" from-port="0" to-layer="1015" to-port="1"/>
		<edge from-layer="1015" from-port="2" to-layer="1017" to-port="0"/>
		<edge from-layer="1016" from-port="0" to-layer="1017" to-port="1"/>
		<edge from-layer="1011" from-port="5" to-layer="1018" to-port="0"/>
		<edge from-layer="1017" from-port="2" to-layer="1018" to-port="1"/>
		<edge from-layer="1018" from-port="2" to-layer="1020" to-port="0"/>
		<edge from-layer="1019" from-port="0" to-layer="1020" to-port="1"/>
		<edge from-layer="1020" from-port="2" to-layer="1021" to-port="0"/>
		<edge from-layer="1021" from-port="1" to-layer="1023" to-port="0"/>
		<edge from-layer="1022" from-port="0" to-layer="1023" to-port="1"/>
		<edge from-layer="1023" from-port="2" to-layer="1024" to-port="0"/>
		<edge from-layer="170" from-port="0" to-layer="1024" to-port="1"/>
		<edge from-layer="171" from-port="0" to-layer="1024" to-port="2"/>
		<edge from-layer="172" from-port="0" to-layer="1024" to-port="3"/>
		<edge from-layer="173" from-port="0" to-layer="1024" to-port="4"/>
		<edge from-layer="1024" from-port="5" to-layer="1025" to-port="0"/>
		<edge from-layer="998" from-port="5" to-layer="1025" to-port="1"/>
		<edge from-layer="1025" from-port="2" to-layer="1027" to-port="0"/>
		<edge from-layer="1026" from-port="0" to-layer="1027" to-port="1"/>
		<edge from-layer="1027" from-port="2" to-layer="1028" to-port="0"/>
		<edge from-layer="1028" from-port="1" to-layer="1030" to-port="0"/>
		<edge from-layer="1029" from-port="0" to-layer="1030" to-port="1"/>
		<edge from-layer="1025" from-port="2" to-layer="1031" to-port="0"/>
		<edge from-layer="1030" from-port="2" to-layer="1031" to-port="1"/>
		<edge from-layer="1031" from-port="2" to-layer="1032" to-port="0"/>
		<edge from-layer="166" from-port="0" to-layer="1032" to-port="1"/>
		<edge from-layer="167" from-port="0" to-layer="1032" to-port="2"/>
		<edge from-layer="168" from-port="0" to-layer="1032" to-port="3"/>
		<edge from-layer="169" from-port="0" to-layer="1032" to-port="4"/>
		<edge from-layer="1033" from-port="0" to-layer="1034" to-port="0"/>
		<edge from-layer="1034" from-port="1" to-layer="1036" to-port="0"/>
		<edge from-layer="1035" from-port="0" to-layer="1036" to-port="1"/>
		<edge from-layer="1036" from-port="2" to-layer="1038" to-port="0"/>
		<edge from-layer="1037" from-port="0" to-layer="1038" to-port="1"/>
		<edge from-layer="1032" from-port="5" to-layer="1039" to-port="0"/>
		<edge from-layer="1038" from-port="2" to-layer="1039" to-port="1"/>
		<edge from-layer="1039" from-port="2" to-layer="1041" to-port="0"/>
		<edge from-layer="1040" from-port="0" to-layer="1041" to-port="1"/>
		<edge from-layer="1041" from-port="2" to-layer="1042" to-port="0"/>
		<edge from-layer="162" from-port="0" to-layer="1042" to-port="1"/>
		<edge from-layer="163" from-port="0" to-layer="1042" to-port="2"/>
		<edge from-layer="164" from-port="0" to-layer="1042" to-port="3"/>
		<edge from-layer="165" from-port="0" to-layer="1042" to-port="4"/>
		<edge from-layer="1042" from-port="5" to-layer="1043" to-port="0"/>
		<edge from-layer="1043" from-port="1" to-layer="1044" to-port="0"/>
		<edge from-layer="158" from-port="0" to-layer="1044" to-port="1"/>
		<edge from-layer="159" from-port="0" to-layer="1044" to-port="2"/>
		<edge from-layer="160" from-port="0" to-layer="1044" to-port="3"/>
		<edge from-layer="161" from-port="0" to-layer="1044" to-port="4"/>
		<edge from-layer="1045" from-port="0" to-layer="1046" to-port="0"/>
		<edge from-layer="1046" from-port="1" to-layer="1048" to-port="0"/>
		<edge from-layer="1047" from-port="0" to-layer="1048" to-port="1"/>
		<edge from-layer="1048" from-port="2" to-layer="1050" to-port="0"/>
		<edge from-layer="1049" from-port="0" to-layer="1050" to-port="1"/>
		<edge from-layer="1044" from-port="5" to-layer="1051" to-port="0"/>
		<edge from-layer="1050" from-port="2" to-layer="1051" to-port="1"/>
		<edge from-layer="1051" from-port="2" to-layer="1053" to-port="0"/>
		<edge from-layer="1052" from-port="0" to-layer="1053" to-port="1"/>
		<edge from-layer="1053" from-port="2" to-layer="1055" to-port="0"/>
		<edge from-layer="1054" from-port="0" to-layer="1055" to-port="1"/>
		<edge from-layer="1055" from-port="2" to-layer="1056" to-port="0"/>
		<edge from-layer="1056" from-port="1" to-layer="1058" to-port="0"/>
		<edge from-layer="1057" from-port="0" to-layer="1058" to-port="1"/>
		<edge from-layer="1053" from-port="2" to-layer="1059" to-port="0"/>
		<edge from-layer="1058" from-port="2" to-layer="1059" to-port="1"/>
		<edge from-layer="1059" from-port="2" to-layer="1060" to-port="0"/>
		<edge from-layer="154" from-port="0" to-layer="1060" to-port="1"/>
		<edge from-layer="155" from-port="0" to-layer="1060" to-port="2"/>
		<edge from-layer="156" from-port="0" to-layer="1060" to-port="3"/>
		<edge from-layer="157" from-port="0" to-layer="1060" to-port="4"/>
		<edge from-layer="1062" from-port="0" to-layer="1063" to-port="0"/>
		<edge from-layer="1063" from-port="1" to-layer="1065" to-port="0"/>
		<edge from-layer="1064" from-port="0" to-layer="1065" to-port="1"/>
		<edge from-layer="1065" from-port="2" to-layer="1067" to-port="0"/>
		<edge from-layer="1066" from-port="0" to-layer="1067" to-port="1"/>
		<edge from-layer="1067" from-port="2" to-layer="1068" to-port="0"/>
		<edge from-layer="1061" from-port="0" to-layer="1068" to-port="1"/>
		<edge from-layer="1060" from-port="5" to-layer="1069" to-port="0"/>
		<edge from-layer="1068" from-port="2" to-layer="1069" to-port="1"/>
		<edge from-layer="1069" from-port="2" to-layer="1071" to-port="0"/>
		<edge from-layer="1070" from-port="0" to-layer="1071" to-port="1"/>
		<edge from-layer="1071" from-port="2" to-layer="1072" to-port="0"/>
		<edge from-layer="150" from-port="0" to-layer="1072" to-port="1"/>
		<edge from-layer="151" from-port="0" to-layer="1072" to-port="2"/>
		<edge from-layer="152" from-port="0" to-layer="1072" to-port="3"/>
		<edge from-layer="153" from-port="0" to-layer="1072" to-port="4"/>
		<edge from-layer="1072" from-port="5" to-layer="1073" to-port="0"/>
		<edge from-layer="1073" from-port="1" to-layer="1074" to-port="0"/>
		<edge from-layer="146" from-port="0" to-layer="1074" to-port="1"/>
		<edge from-layer="147" from-port="0" to-layer="1074" to-port="2"/>
		<edge from-layer="148" from-port="0" to-layer="1074" to-port="3"/>
		<edge from-layer="149" from-port="0" to-layer="1074" to-port="4"/>
		<edge from-layer="1075" from-port="0" to-layer="1076" to-port="0"/>
		<edge from-layer="1076" from-port="1" to-layer="1078" to-port="0"/>
		<edge from-layer="1077" from-port="0" to-layer="1078" to-port="1"/>
		<edge from-layer="1078" from-port="2" to-layer="1080" to-port="0"/>
		<edge from-layer="1079" from-port="0" to-layer="1080" to-port="1"/>
		<edge from-layer="1074" from-port="5" to-layer="1081" to-port="0"/>
		<edge from-layer="1080" from-port="2" to-layer="1081" to-port="1"/>
		<edge from-layer="1081" from-port="2" to-layer="1083" to-port="0"/>
		<edge from-layer="1082" from-port="0" to-layer="1083" to-port="1"/>
		<edge from-layer="1083" from-port="2" to-layer="1084" to-port="0"/>
		<edge from-layer="1084" from-port="1" to-layer="1085" to-port="0"/>
		<edge from-layer="142" from-port="0" to-layer="1085" to-port="1"/>
		<edge from-layer="143" from-port="0" to-layer="1085" to-port="2"/>
		<edge from-layer="144" from-port="0" to-layer="1085" to-port="3"/>
		<edge from-layer="145" from-port="0" to-layer="1085" to-port="4"/>
		<edge from-layer="1086" from-port="0" to-layer="1087" to-port="0"/>
		<edge from-layer="1087" from-port="1" to-layer="1089" to-port="0"/>
		<edge from-layer="1088" from-port="0" to-layer="1089" to-port="1"/>
		<edge from-layer="1089" from-port="2" to-layer="1091" to-port="0"/>
		<edge from-layer="1090" from-port="0" to-layer="1091" to-port="1"/>
		<edge from-layer="1085" from-port="5" to-layer="1092" to-port="0"/>
		<edge from-layer="1091" from-port="2" to-layer="1092" to-port="1"/>
		<edge from-layer="1092" from-port="2" to-layer="1094" to-port="0"/>
		<edge from-layer="1093" from-port="0" to-layer="1094" to-port="1"/>
		<edge from-layer="1094" from-port="2" to-layer="1095" to-port="0"/>
		<edge from-layer="1095" from-port="1" to-layer="1097" to-port="0"/>
		<edge from-layer="1096" from-port="0" to-layer="1097" to-port="1"/>
		<edge from-layer="1097" from-port="2" to-layer="1098" to-port="0"/>
		<edge from-layer="138" from-port="0" to-layer="1098" to-port="1"/>
		<edge from-layer="139" from-port="0" to-layer="1098" to-port="2"/>
		<edge from-layer="140" from-port="0" to-layer="1098" to-port="3"/>
		<edge from-layer="141" from-port="0" to-layer="1098" to-port="4"/>
		<edge from-layer="1098" from-port="5" to-layer="1099" to-port="0"/>
		<edge from-layer="1072" from-port="5" to-layer="1099" to-port="1"/>
		<edge from-layer="1099" from-port="2" to-layer="1101" to-port="0"/>
		<edge from-layer="1100" from-port="0" to-layer="1101" to-port="1"/>
		<edge from-layer="1101" from-port="2" to-layer="1102" to-port="0"/>
		<edge from-layer="1102" from-port="1" to-layer="1104" to-port="0"/>
		<edge from-layer="1103" from-port="0" to-layer="1104" to-port="1"/>
		<edge from-layer="1099" from-port="2" to-layer="1105" to-port="0"/>
		<edge from-layer="1104" from-port="2" to-layer="1105" to-port="1"/>
		<edge from-layer="1105" from-port="2" to-layer="1106" to-port="0"/>
		<edge from-layer="134" from-port="0" to-layer="1106" to-port="1"/>
		<edge from-layer="135" from-port="0" to-layer="1106" to-port="2"/>
		<edge from-layer="136" from-port="0" to-layer="1106" to-port="3"/>
		<edge from-layer="137" from-port="0" to-layer="1106" to-port="4"/>
		<edge from-layer="1107" from-port="0" to-layer="1108" to-port="0"/>
		<edge from-layer="1108" from-port="1" to-layer="1110" to-port="0"/>
		<edge from-layer="1109" from-port="0" to-layer="1110" to-port="1"/>
		<edge from-layer="1110" from-port="2" to-layer="1112" to-port="0"/>
		<edge from-layer="1111" from-port="0" to-layer="1112" to-port="1"/>
		<edge from-layer="1106" from-port="5" to-layer="1113" to-port="0"/>
		<edge from-layer="1112" from-port="2" to-layer="1113" to-port="1"/>
		<edge from-layer="1113" from-port="2" to-layer="1115" to-port="0"/>
		<edge from-layer="1114" from-port="0" to-layer="1115" to-port="1"/>
		<edge from-layer="1115" from-port="2" to-layer="1116" to-port="0"/>
		<edge from-layer="130" from-port="0" to-layer="1116" to-port="1"/>
		<edge from-layer="131" from-port="0" to-layer="1116" to-port="2"/>
		<edge from-layer="132" from-port="0" to-layer="1116" to-port="3"/>
		<edge from-layer="133" from-port="0" to-layer="1116" to-port="4"/>
		<edge from-layer="1044" from-port="5" to-layer="1117" to-port="0"/>
		<edge from-layer="1116" from-port="5" to-layer="1117" to-port="1"/>
		<edge from-layer="1117" from-port="2" to-layer="1118" to-port="0"/>
		<edge from-layer="126" from-port="0" to-layer="1118" to-port="1"/>
		<edge from-layer="127" from-port="0" to-layer="1118" to-port="2"/>
		<edge from-layer="128" from-port="0" to-layer="1118" to-port="3"/>
		<edge from-layer="129" from-port="0" to-layer="1118" to-port="4"/>
		<edge from-layer="1119" from-port="0" to-layer="1120" to-port="0"/>
		<edge from-layer="1120" from-port="1" to-layer="1122" to-port="0"/>
		<edge from-layer="1121" from-port="0" to-layer="1122" to-port="1"/>
		<edge from-layer="1122" from-port="2" to-layer="1124" to-port="0"/>
		<edge from-layer="1123" from-port="0" to-layer="1124" to-port="1"/>
		<edge from-layer="1118" from-port="5" to-layer="1125" to-port="0"/>
		<edge from-layer="1124" from-port="2" to-layer="1125" to-port="1"/>
		<edge from-layer="1125" from-port="2" to-layer="1127" to-port="0"/>
		<edge from-layer="1126" from-port="0" to-layer="1127" to-port="1"/>
		<edge from-layer="1127" from-port="2" to-layer="1129" to-port="0"/>
		<edge from-layer="1128" from-port="0" to-layer="1129" to-port="1"/>
		<edge from-layer="1129" from-port="2" to-layer="1130" to-port="0"/>
		<edge from-layer="1130" from-port="1" to-layer="1132" to-port="0"/>
		<edge from-layer="1131" from-port="0" to-layer="1132" to-port="1"/>
		<edge from-layer="1127" from-port="2" to-layer="1133" to-port="0"/>
		<edge from-layer="1132" from-port="2" to-layer="1133" to-port="1"/>
		<edge from-layer="1133" from-port="2" to-layer="1134" to-port="0"/>
		<edge from-layer="122" from-port="0" to-layer="1134" to-port="1"/>
		<edge from-layer="123" from-port="0" to-layer="1134" to-port="2"/>
		<edge from-layer="124" from-port="0" to-layer="1134" to-port="3"/>
		<edge from-layer="125" from-port="0" to-layer="1134" to-port="4"/>
		<edge from-layer="1136" from-port="0" to-layer="1137" to-port="0"/>
		<edge from-layer="1137" from-port="1" to-layer="1139" to-port="0"/>
		<edge from-layer="1138" from-port="0" to-layer="1139" to-port="1"/>
		<edge from-layer="1139" from-port="2" to-layer="1141" to-port="0"/>
		<edge from-layer="1140" from-port="0" to-layer="1141" to-port="1"/>
		<edge from-layer="1141" from-port="2" to-layer="1142" to-port="0"/>
		<edge from-layer="1135" from-port="0" to-layer="1142" to-port="1"/>
		<edge from-layer="1134" from-port="5" to-layer="1143" to-port="0"/>
		<edge from-layer="1142" from-port="2" to-layer="1143" to-port="1"/>
		<edge from-layer="1143" from-port="2" to-layer="1145" to-port="0"/>
		<edge from-layer="1144" from-port="0" to-layer="1145" to-port="1"/>
		<edge from-layer="1145" from-port="2" to-layer="1146" to-port="0"/>
		<edge from-layer="118" from-port="0" to-layer="1146" to-port="1"/>
		<edge from-layer="119" from-port="0" to-layer="1146" to-port="2"/>
		<edge from-layer="120" from-port="0" to-layer="1146" to-port="3"/>
		<edge from-layer="121" from-port="0" to-layer="1146" to-port="4"/>
		<edge from-layer="1146" from-port="5" to-layer="1147" to-port="0"/>
		<edge from-layer="1147" from-port="1" to-layer="1148" to-port="0"/>
		<edge from-layer="114" from-port="0" to-layer="1148" to-port="1"/>
		<edge from-layer="115" from-port="0" to-layer="1148" to-port="2"/>
		<edge from-layer="116" from-port="0" to-layer="1148" to-port="3"/>
		<edge from-layer="117" from-port="0" to-layer="1148" to-port="4"/>
		<edge from-layer="1149" from-port="0" to-layer="1150" to-port="0"/>
		<edge from-layer="1150" from-port="1" to-layer="1152" to-port="0"/>
		<edge from-layer="1151" from-port="0" to-layer="1152" to-port="1"/>
		<edge from-layer="1152" from-port="2" to-layer="1154" to-port="0"/>
		<edge from-layer="1153" from-port="0" to-layer="1154" to-port="1"/>
		<edge from-layer="1148" from-port="5" to-layer="1155" to-port="0"/>
		<edge from-layer="1154" from-port="2" to-layer="1155" to-port="1"/>
		<edge from-layer="1155" from-port="2" to-layer="1157" to-port="0"/>
		<edge from-layer="1156" from-port="0" to-layer="1157" to-port="1"/>
		<edge from-layer="1157" from-port="2" to-layer="1158" to-port="0"/>
		<edge from-layer="1158" from-port="1" to-layer="1159" to-port="0"/>
		<edge from-layer="110" from-port="0" to-layer="1159" to-port="1"/>
		<edge from-layer="111" from-port="0" to-layer="1159" to-port="2"/>
		<edge from-layer="112" from-port="0" to-layer="1159" to-port="3"/>
		<edge from-layer="113" from-port="0" to-layer="1159" to-port="4"/>
		<edge from-layer="1160" from-port="0" to-layer="1161" to-port="0"/>
		<edge from-layer="1161" from-port="1" to-layer="1163" to-port="0"/>
		<edge from-layer="1162" from-port="0" to-layer="1163" to-port="1"/>
		<edge from-layer="1163" from-port="2" to-layer="1165" to-port="0"/>
		<edge from-layer="1164" from-port="0" to-layer="1165" to-port="1"/>
		<edge from-layer="1159" from-port="5" to-layer="1166" to-port="0"/>
		<edge from-layer="1165" from-port="2" to-layer="1166" to-port="1"/>
		<edge from-layer="1166" from-port="2" to-layer="1168" to-port="0"/>
		<edge from-layer="1167" from-port="0" to-layer="1168" to-port="1"/>
		<edge from-layer="1168" from-port="2" to-layer="1169" to-port="0"/>
		<edge from-layer="1169" from-port="1" to-layer="1171" to-port="0"/>
		<edge from-layer="1170" from-port="0" to-layer="1171" to-port="1"/>
		<edge from-layer="1171" from-port="2" to-layer="1172" to-port="0"/>
		<edge from-layer="106" from-port="0" to-layer="1172" to-port="1"/>
		<edge from-layer="107" from-port="0" to-layer="1172" to-port="2"/>
		<edge from-layer="108" from-port="0" to-layer="1172" to-port="3"/>
		<edge from-layer="109" from-port="0" to-layer="1172" to-port="4"/>
		<edge from-layer="1172" from-port="5" to-layer="1173" to-port="0"/>
		<edge from-layer="1146" from-port="5" to-layer="1173" to-port="1"/>
		<edge from-layer="1173" from-port="2" to-layer="1175" to-port="0"/>
		<edge from-layer="1174" from-port="0" to-layer="1175" to-port="1"/>
		<edge from-layer="1175" from-port="2" to-layer="1176" to-port="0"/>
		<edge from-layer="1176" from-port="1" to-layer="1178" to-port="0"/>
		<edge from-layer="1177" from-port="0" to-layer="1178" to-port="1"/>
		<edge from-layer="1173" from-port="2" to-layer="1179" to-port="0"/>
		<edge from-layer="1178" from-port="2" to-layer="1179" to-port="1"/>
		<edge from-layer="1179" from-port="2" to-layer="1180" to-port="0"/>
		<edge from-layer="102" from-port="0" to-layer="1180" to-port="1"/>
		<edge from-layer="103" from-port="0" to-layer="1180" to-port="2"/>
		<edge from-layer="104" from-port="0" to-layer="1180" to-port="3"/>
		<edge from-layer="105" from-port="0" to-layer="1180" to-port="4"/>
		<edge from-layer="1181" from-port="0" to-layer="1182" to-port="0"/>
		<edge from-layer="1182" from-port="1" to-layer="1184" to-port="0"/>
		<edge from-layer="1183" from-port="0" to-layer="1184" to-port="1"/>
		<edge from-layer="1184" from-port="2" to-layer="1186" to-port="0"/>
		<edge from-layer="1185" from-port="0" to-layer="1186" to-port="1"/>
		<edge from-layer="1180" from-port="5" to-layer="1187" to-port="0"/>
		<edge from-layer="1186" from-port="2" to-layer="1187" to-port="1"/>
		<edge from-layer="1187" from-port="2" to-layer="1189" to-port="0"/>
		<edge from-layer="1188" from-port="0" to-layer="1189" to-port="1"/>
		<edge from-layer="1189" from-port="2" to-layer="1190" to-port="0"/>
		<edge from-layer="98" from-port="0" to-layer="1190" to-port="1"/>
		<edge from-layer="99" from-port="0" to-layer="1190" to-port="2"/>
		<edge from-layer="100" from-port="0" to-layer="1190" to-port="3"/>
		<edge from-layer="101" from-port="0" to-layer="1190" to-port="4"/>
		<edge from-layer="1192" from-port="0" to-layer="1193" to-port="0"/>
		<edge from-layer="1193" from-port="1" to-layer="1195" to-port="0"/>
		<edge from-layer="1194" from-port="0" to-layer="1195" to-port="1"/>
		<edge from-layer="1195" from-port="2" to-layer="1197" to-port="0"/>
		<edge from-layer="1196" from-port="0" to-layer="1197" to-port="1"/>
		<edge from-layer="1197" from-port="2" to-layer="1198" to-port="0"/>
		<edge from-layer="1191" from-port="0" to-layer="1198" to-port="1"/>
		<edge from-layer="1190" from-port="5" to-layer="1199" to-port="0"/>
		<edge from-layer="1198" from-port="2" to-layer="1199" to-port="1"/>
		<edge from-layer="1199" from-port="2" to-layer="1201" to-port="0"/>
		<edge from-layer="1200" from-port="0" to-layer="1201" to-port="1"/>
		<edge from-layer="1201" from-port="2" to-layer="1203" to-port="0"/>
		<edge from-layer="1202" from-port="0" to-layer="1203" to-port="1"/>
		<edge from-layer="1203" from-port="2" to-layer="1204" to-port="0"/>
		<edge from-layer="1204" from-port="1" to-layer="1206" to-port="0"/>
		<edge from-layer="1205" from-port="0" to-layer="1206" to-port="1"/>
		<edge from-layer="1201" from-port="2" to-layer="1207" to-port="0"/>
		<edge from-layer="1206" from-port="2" to-layer="1207" to-port="1"/>
		<edge from-layer="1207" from-port="2" to-layer="1208" to-port="0"/>
		<edge from-layer="94" from-port="0" to-layer="1208" to-port="1"/>
		<edge from-layer="95" from-port="0" to-layer="1208" to-port="2"/>
		<edge from-layer="96" from-port="0" to-layer="1208" to-port="3"/>
		<edge from-layer="97" from-port="0" to-layer="1208" to-port="4"/>
		<edge from-layer="1209" from-port="0" to-layer="1210" to-port="0"/>
		<edge from-layer="1210" from-port="1" to-layer="1212" to-port="0"/>
		<edge from-layer="1211" from-port="0" to-layer="1212" to-port="1"/>
		<edge from-layer="1212" from-port="2" to-layer="1214" to-port="0"/>
		<edge from-layer="1213" from-port="0" to-layer="1214" to-port="1"/>
		<edge from-layer="1208" from-port="5" to-layer="1215" to-port="0"/>
		<edge from-layer="1214" from-port="2" to-layer="1215" to-port="1"/>
		<edge from-layer="1215" from-port="2" to-layer="1217" to-port="0"/>
		<edge from-layer="1216" from-port="0" to-layer="1217" to-port="1"/>
		<edge from-layer="1217" from-port="2" to-layer="1218" to-port="0"/>
		<edge from-layer="90" from-port="0" to-layer="1218" to-port="1"/>
		<edge from-layer="91" from-port="0" to-layer="1218" to-port="2"/>
		<edge from-layer="92" from-port="0" to-layer="1218" to-port="3"/>
		<edge from-layer="93" from-port="0" to-layer="1218" to-port="4"/>
		<edge from-layer="1190" from-port="5" to-layer="1231" to-port="0"/>
		<edge from-layer="1231" from-port="1" to-layer="1232" to-port="0"/>
		<edge from-layer="1227" from-port="0" to-layer="1232" to-port="1"/>
		<edge from-layer="1228" from-port="0" to-layer="1232" to-port="2"/>
		<edge from-layer="1229" from-port="0" to-layer="1232" to-port="3"/>
		<edge from-layer="1230" from-port="0" to-layer="1232" to-port="4"/>
		<edge from-layer="1234" from-port="0" to-layer="1235" to-port="0"/>
		<edge from-layer="1235" from-port="1" to-layer="1237" to-port="0"/>
		<edge from-layer="1236" from-port="0" to-layer="1237" to-port="1"/>
		<edge from-layer="1237" from-port="2" to-layer="1239" to-port="0"/>
		<edge from-layer="1238" from-port="0" to-layer="1239" to-port="1"/>
		<edge from-layer="1239" from-port="2" to-layer="1240" to-port="0"/>
		<edge from-layer="1233" from-port="0" to-layer="1240" to-port="1"/>
		<edge from-layer="1232" from-port="5" to-layer="1241" to-port="0"/>
		<edge from-layer="1240" from-port="2" to-layer="1241" to-port="1"/>
		<edge from-layer="1241" from-port="2" to-layer="1243" to-port="0"/>
		<edge from-layer="1242" from-port="0" to-layer="1243" to-port="1"/>
		<edge from-layer="1243" from-port="2" to-layer="1245" to-port="0"/>
		<edge from-layer="1244" from-port="0" to-layer="1245" to-port="1"/>
		<edge from-layer="1245" from-port="2" to-layer="1246" to-port="0"/>
		<edge from-layer="1246" from-port="1" to-layer="1248" to-port="0"/>
		<edge from-layer="1247" from-port="0" to-layer="1248" to-port="1"/>
		<edge from-layer="1243" from-port="2" to-layer="1249" to-port="0"/>
		<edge from-layer="1248" from-port="2" to-layer="1249" to-port="1"/>
		<edge from-layer="1249" from-port="2" to-layer="1250" to-port="0"/>
		<edge from-layer="1223" from-port="0" to-layer="1250" to-port="1"/>
		<edge from-layer="1224" from-port="0" to-layer="1250" to-port="2"/>
		<edge from-layer="1225" from-port="0" to-layer="1250" to-port="3"/>
		<edge from-layer="1226" from-port="0" to-layer="1250" to-port="4"/>
		<edge from-layer="1251" from-port="0" to-layer="1252" to-port="0"/>
		<edge from-layer="1252" from-port="1" to-layer="1254" to-port="0"/>
		<edge from-layer="1253" from-port="0" to-layer="1254" to-port="1"/>
		<edge from-layer="1254" from-port="2" to-layer="1256" to-port="0"/>
		<edge from-layer="1255" from-port="0" to-layer="1256" to-port="1"/>
		<edge from-layer="1250" from-port="5" to-layer="1257" to-port="0"/>
		<edge from-layer="1256" from-port="2" to-layer="1257" to-port="1"/>
		<edge from-layer="1257" from-port="2" to-layer="1259" to-port="0"/>
		<edge from-layer="1258" from-port="0" to-layer="1259" to-port="1"/>
		<edge from-layer="1259" from-port="2" to-layer="1260" to-port="0"/>
		<edge from-layer="1219" from-port="0" to-layer="1260" to-port="1"/>
		<edge from-layer="1220" from-port="0" to-layer="1260" to-port="2"/>
		<edge from-layer="1221" from-port="0" to-layer="1260" to-port="3"/>
		<edge from-layer="1222" from-port="0" to-layer="1260" to-port="4"/>
		<edge from-layer="1218" from-port="5" to-layer="1261" to-port="0"/>
		<edge from-layer="1260" from-port="5" to-layer="1261" to-port="1"/>
		<edge from-layer="1261" from-port="2" to-layer="1262" to-port="0"/>
		<edge from-layer="1262" from-port="1" to-layer="1263" to-port="0"/>
		<edge from-layer="86" from-port="0" to-layer="1263" to-port="1"/>
		<edge from-layer="87" from-port="0" to-layer="1263" to-port="2"/>
		<edge from-layer="88" from-port="0" to-layer="1263" to-port="3"/>
		<edge from-layer="89" from-port="0" to-layer="1263" to-port="4"/>
		<edge from-layer="1264" from-port="0" to-layer="1265" to-port="0"/>
		<edge from-layer="1265" from-port="1" to-layer="1267" to-port="0"/>
		<edge from-layer="1266" from-port="0" to-layer="1267" to-port="1"/>
		<edge from-layer="1267" from-port="2" to-layer="1269" to-port="0"/>
		<edge from-layer="1268" from-port="0" to-layer="1269" to-port="1"/>
		<edge from-layer="1263" from-port="5" to-layer="1270" to-port="0"/>
		<edge from-layer="1269" from-port="2" to-layer="1270" to-port="1"/>
		<edge from-layer="1270" from-port="2" to-layer="1271" to-port="0"/>
		<edge from-layer="82" from-port="0" to-layer="1271" to-port="1"/>
		<edge from-layer="83" from-port="0" to-layer="1271" to-port="2"/>
		<edge from-layer="84" from-port="0" to-layer="1271" to-port="3"/>
		<edge from-layer="85" from-port="0" to-layer="1271" to-port="4"/>
		<edge from-layer="1271" from-port="5" to-layer="1272" to-port="0"/>
		<edge from-layer="1190" from-port="5" to-layer="1272" to-port="1"/>
		<edge from-layer="1272" from-port="2" to-layer="1273" to-port="0"/>
		<edge from-layer="78" from-port="0" to-layer="1273" to-port="1"/>
		<edge from-layer="79" from-port="0" to-layer="1273" to-port="2"/>
		<edge from-layer="80" from-port="0" to-layer="1273" to-port="3"/>
		<edge from-layer="81" from-port="0" to-layer="1273" to-port="4"/>
		<edge from-layer="1274" from-port="0" to-layer="1275" to-port="0"/>
		<edge from-layer="1275" from-port="1" to-layer="1277" to-port="0"/>
		<edge from-layer="1276" from-port="0" to-layer="1277" to-port="1"/>
		<edge from-layer="1277" from-port="2" to-layer="1279" to-port="0"/>
		<edge from-layer="1278" from-port="0" to-layer="1279" to-port="1"/>
		<edge from-layer="1273" from-port="5" to-layer="1280" to-port="0"/>
		<edge from-layer="1279" from-port="2" to-layer="1280" to-port="1"/>
		<edge from-layer="1280" from-port="2" to-layer="1282" to-port="0"/>
		<edge from-layer="1281" from-port="0" to-layer="1282" to-port="1"/>
		<edge from-layer="1282" from-port="2" to-layer="1284" to-port="0"/>
		<edge from-layer="1283" from-port="0" to-layer="1284" to-port="1"/>
		<edge from-layer="1284" from-port="2" to-layer="1285" to-port="0"/>
		<edge from-layer="1285" from-port="1" to-layer="1287" to-port="0"/>
		<edge from-layer="1286" from-port="0" to-layer="1287" to-port="1"/>
		<edge from-layer="1282" from-port="2" to-layer="1288" to-port="0"/>
		<edge from-layer="1287" from-port="2" to-layer="1288" to-port="1"/>
		<edge from-layer="1288" from-port="2" to-layer="1289" to-port="0"/>
		<edge from-layer="74" from-port="0" to-layer="1289" to-port="1"/>
		<edge from-layer="75" from-port="0" to-layer="1289" to-port="2"/>
		<edge from-layer="76" from-port="0" to-layer="1289" to-port="3"/>
		<edge from-layer="77" from-port="0" to-layer="1289" to-port="4"/>
		<edge from-layer="1291" from-port="0" to-layer="1292" to-port="0"/>
		<edge from-layer="1292" from-port="1" to-layer="1294" to-port="0"/>
		<edge from-layer="1293" from-port="0" to-layer="1294" to-port="1"/>
		<edge from-layer="1294" from-port="2" to-layer="1296" to-port="0"/>
		<edge from-layer="1295" from-port="0" to-layer="1296" to-port="1"/>
		<edge from-layer="1296" from-port="2" to-layer="1297" to-port="0"/>
		<edge from-layer="1290" from-port="0" to-layer="1297" to-port="1"/>
		<edge from-layer="1289" from-port="5" to-layer="1298" to-port="0"/>
		<edge from-layer="1297" from-port="2" to-layer="1298" to-port="1"/>
		<edge from-layer="1298" from-port="2" to-layer="1300" to-port="0"/>
		<edge from-layer="1299" from-port="0" to-layer="1300" to-port="1"/>
		<edge from-layer="1300" from-port="2" to-layer="1301" to-port="0"/>
		<edge from-layer="70" from-port="0" to-layer="1301" to-port="1"/>
		<edge from-layer="71" from-port="0" to-layer="1301" to-port="2"/>
		<edge from-layer="72" from-port="0" to-layer="1301" to-port="3"/>
		<edge from-layer="73" from-port="0" to-layer="1301" to-port="4"/>
		<edge from-layer="1301" from-port="5" to-layer="1302" to-port="0"/>
		<edge from-layer="1302" from-port="1" to-layer="1303" to-port="0"/>
		<edge from-layer="66" from-port="0" to-layer="1303" to-port="1"/>
		<edge from-layer="67" from-port="0" to-layer="1303" to-port="2"/>
		<edge from-layer="68" from-port="0" to-layer="1303" to-port="3"/>
		<edge from-layer="69" from-port="0" to-layer="1303" to-port="4"/>
		<edge from-layer="1304" from-port="0" to-layer="1305" to-port="0"/>
		<edge from-layer="1305" from-port="1" to-layer="1307" to-port="0"/>
		<edge from-layer="1306" from-port="0" to-layer="1307" to-port="1"/>
		<edge from-layer="1307" from-port="2" to-layer="1309" to-port="0"/>
		<edge from-layer="1308" from-port="0" to-layer="1309" to-port="1"/>
		<edge from-layer="1303" from-port="5" to-layer="1310" to-port="0"/>
		<edge from-layer="1309" from-port="2" to-layer="1310" to-port="1"/>
		<edge from-layer="1310" from-port="2" to-layer="1312" to-port="0"/>
		<edge from-layer="1311" from-port="0" to-layer="1312" to-port="1"/>
		<edge from-layer="1312" from-port="2" to-layer="1313" to-port="0"/>
		<edge from-layer="1313" from-port="1" to-layer="1314" to-port="0"/>
		<edge from-layer="62" from-port="0" to-layer="1314" to-port="1"/>
		<edge from-layer="63" from-port="0" to-layer="1314" to-port="2"/>
		<edge from-layer="64" from-port="0" to-layer="1314" to-port="3"/>
		<edge from-layer="65" from-port="0" to-layer="1314" to-port="4"/>
		<edge from-layer="1315" from-port="0" to-layer="1316" to-port="0"/>
		<edge from-layer="1316" from-port="1" to-layer="1318" to-port="0"/>
		<edge from-layer="1317" from-port="0" to-layer="1318" to-port="1"/>
		<edge from-layer="1318" from-port="2" to-layer="1320" to-port="0"/>
		<edge from-layer="1319" from-port="0" to-layer="1320" to-port="1"/>
		<edge from-layer="1314" from-port="5" to-layer="1321" to-port="0"/>
		<edge from-layer="1320" from-port="2" to-layer="1321" to-port="1"/>
		<edge from-layer="1321" from-port="2" to-layer="1323" to-port="0"/>
		<edge from-layer="1322" from-port="0" to-layer="1323" to-port="1"/>
		<edge from-layer="1323" from-port="2" to-layer="1324" to-port="0"/>
		<edge from-layer="1324" from-port="1" to-layer="1326" to-port="0"/>
		<edge from-layer="1325" from-port="0" to-layer="1326" to-port="1"/>
		<edge from-layer="1326" from-port="2" to-layer="1327" to-port="0"/>
		<edge from-layer="58" from-port="0" to-layer="1327" to-port="1"/>
		<edge from-layer="59" from-port="0" to-layer="1327" to-port="2"/>
		<edge from-layer="60" from-port="0" to-layer="1327" to-port="3"/>
		<edge from-layer="61" from-port="0" to-layer="1327" to-port="4"/>
		<edge from-layer="1327" from-port="5" to-layer="1328" to-port="0"/>
		<edge from-layer="1301" from-port="5" to-layer="1328" to-port="1"/>
		<edge from-layer="1328" from-port="2" to-layer="1330" to-port="0"/>
		<edge from-layer="1329" from-port="0" to-layer="1330" to-port="1"/>
		<edge from-layer="1330" from-port="2" to-layer="1331" to-port="0"/>
		<edge from-layer="1331" from-port="1" to-layer="1333" to-port="0"/>
		<edge from-layer="1332" from-port="0" to-layer="1333" to-port="1"/>
		<edge from-layer="1328" from-port="2" to-layer="1334" to-port="0"/>
		<edge from-layer="1333" from-port="2" to-layer="1334" to-port="1"/>
		<edge from-layer="1334" from-port="2" to-layer="1335" to-port="0"/>
		<edge from-layer="54" from-port="0" to-layer="1335" to-port="1"/>
		<edge from-layer="55" from-port="0" to-layer="1335" to-port="2"/>
		<edge from-layer="56" from-port="0" to-layer="1335" to-port="3"/>
		<edge from-layer="57" from-port="0" to-layer="1335" to-port="4"/>
		<edge from-layer="1336" from-port="0" to-layer="1337" to-port="0"/>
		<edge from-layer="1337" from-port="1" to-layer="1339" to-port="0"/>
		<edge from-layer="1338" from-port="0" to-layer="1339" to-port="1"/>
		<edge from-layer="1339" from-port="2" to-layer="1341" to-port="0"/>
		<edge from-layer="1340" from-port="0" to-layer="1341" to-port="1"/>
		<edge from-layer="1335" from-port="5" to-layer="1342" to-port="0"/>
		<edge from-layer="1341" from-port="2" to-layer="1342" to-port="1"/>
		<edge from-layer="1342" from-port="2" to-layer="1344" to-port="0"/>
		<edge from-layer="1343" from-port="0" to-layer="1344" to-port="1"/>
		<edge from-layer="1344" from-port="2" to-layer="1345" to-port="0"/>
		<edge from-layer="50" from-port="0" to-layer="1345" to-port="1"/>
		<edge from-layer="51" from-port="0" to-layer="1345" to-port="2"/>
		<edge from-layer="52" from-port="0" to-layer="1345" to-port="3"/>
		<edge from-layer="53" from-port="0" to-layer="1345" to-port="4"/>
		<edge from-layer="1346" from-port="0" to-layer="1347" to-port="0"/>
		<edge from-layer="1347" from-port="1" to-layer="1349" to-port="0"/>
		<edge from-layer="1348" from-port="0" to-layer="1349" to-port="1"/>
		<edge from-layer="1349" from-port="2" to-layer="1351" to-port="0"/>
		<edge from-layer="1350" from-port="0" to-layer="1351" to-port="1"/>
		<edge from-layer="1345" from-port="5" to-layer="1352" to-port="0"/>
		<edge from-layer="1351" from-port="2" to-layer="1352" to-port="1"/>
		<edge from-layer="1352" from-port="2" to-layer="1354" to-port="0"/>
		<edge from-layer="1353" from-port="0" to-layer="1354" to-port="1"/>
		<edge from-layer="1354" from-port="2" to-layer="1356" to-port="0"/>
		<edge from-layer="1355" from-port="0" to-layer="1356" to-port="1"/>
		<edge from-layer="1356" from-port="2" to-layer="1357" to-port="0"/>
		<edge from-layer="1357" from-port="1" to-layer="1359" to-port="0"/>
		<edge from-layer="1358" from-port="0" to-layer="1359" to-port="1"/>
		<edge from-layer="1354" from-port="2" to-layer="1360" to-port="0"/>
		<edge from-layer="1359" from-port="2" to-layer="1360" to-port="1"/>
		<edge from-layer="1360" from-port="2" to-layer="1361" to-port="0"/>
		<edge from-layer="46" from-port="0" to-layer="1361" to-port="1"/>
		<edge from-layer="47" from-port="0" to-layer="1361" to-port="2"/>
		<edge from-layer="48" from-port="0" to-layer="1361" to-port="3"/>
		<edge from-layer="49" from-port="0" to-layer="1361" to-port="4"/>
		<edge from-layer="1363" from-port="0" to-layer="1364" to-port="0"/>
		<edge from-layer="1364" from-port="1" to-layer="1366" to-port="0"/>
		<edge from-layer="1365" from-port="0" to-layer="1366" to-port="1"/>
		<edge from-layer="1366" from-port="2" to-layer="1368" to-port="0"/>
		<edge from-layer="1367" from-port="0" to-layer="1368" to-port="1"/>
		<edge from-layer="1368" from-port="2" to-layer="1369" to-port="0"/>
		<edge from-layer="1362" from-port="0" to-layer="1369" to-port="1"/>
		<edge from-layer="1361" from-port="5" to-layer="1370" to-port="0"/>
		<edge from-layer="1369" from-port="2" to-layer="1370" to-port="1"/>
		<edge from-layer="1370" from-port="2" to-layer="1372" to-port="0"/>
		<edge from-layer="1371" from-port="0" to-layer="1372" to-port="1"/>
		<edge from-layer="1372" from-port="2" to-layer="1373" to-port="0"/>
		<edge from-layer="42" from-port="0" to-layer="1373" to-port="1"/>
		<edge from-layer="43" from-port="0" to-layer="1373" to-port="2"/>
		<edge from-layer="44" from-port="0" to-layer="1373" to-port="3"/>
		<edge from-layer="45" from-port="0" to-layer="1373" to-port="4"/>
		<edge from-layer="1373" from-port="5" to-layer="1374" to-port="0"/>
		<edge from-layer="1374" from-port="1" to-layer="1375" to-port="0"/>
		<edge from-layer="38" from-port="0" to-layer="1375" to-port="1"/>
		<edge from-layer="39" from-port="0" to-layer="1375" to-port="2"/>
		<edge from-layer="40" from-port="0" to-layer="1375" to-port="3"/>
		<edge from-layer="41" from-port="0" to-layer="1375" to-port="4"/>
		<edge from-layer="1376" from-port="0" to-layer="1377" to-port="0"/>
		<edge from-layer="1377" from-port="1" to-layer="1379" to-port="0"/>
		<edge from-layer="1378" from-port="0" to-layer="1379" to-port="1"/>
		<edge from-layer="1379" from-port="2" to-layer="1381" to-port="0"/>
		<edge from-layer="1380" from-port="0" to-layer="1381" to-port="1"/>
		<edge from-layer="1375" from-port="5" to-layer="1382" to-port="0"/>
		<edge from-layer="1381" from-port="2" to-layer="1382" to-port="1"/>
		<edge from-layer="1382" from-port="2" to-layer="1384" to-port="0"/>
		<edge from-layer="1383" from-port="0" to-layer="1384" to-port="1"/>
		<edge from-layer="1384" from-port="2" to-layer="1385" to-port="0"/>
		<edge from-layer="1385" from-port="1" to-layer="1386" to-port="0"/>
		<edge from-layer="34" from-port="0" to-layer="1386" to-port="1"/>
		<edge from-layer="35" from-port="0" to-layer="1386" to-port="2"/>
		<edge from-layer="36" from-port="0" to-layer="1386" to-port="3"/>
		<edge from-layer="37" from-port="0" to-layer="1386" to-port="4"/>
		<edge from-layer="1387" from-port="0" to-layer="1388" to-port="0"/>
		<edge from-layer="1388" from-port="1" to-layer="1390" to-port="0"/>
		<edge from-layer="1389" from-port="0" to-layer="1390" to-port="1"/>
		<edge from-layer="1390" from-port="2" to-layer="1392" to-port="0"/>
		<edge from-layer="1391" from-port="0" to-layer="1392" to-port="1"/>
		<edge from-layer="1386" from-port="5" to-layer="1393" to-port="0"/>
		<edge from-layer="1392" from-port="2" to-layer="1393" to-port="1"/>
		<edge from-layer="1393" from-port="2" to-layer="1395" to-port="0"/>
		<edge from-layer="1394" from-port="0" to-layer="1395" to-port="1"/>
		<edge from-layer="1395" from-port="2" to-layer="1396" to-port="0"/>
		<edge from-layer="1396" from-port="1" to-layer="1398" to-port="0"/>
		<edge from-layer="1397" from-port="0" to-layer="1398" to-port="1"/>
		<edge from-layer="1398" from-port="2" to-layer="1399" to-port="0"/>
		<edge from-layer="30" from-port="0" to-layer="1399" to-port="1"/>
		<edge from-layer="31" from-port="0" to-layer="1399" to-port="2"/>
		<edge from-layer="32" from-port="0" to-layer="1399" to-port="3"/>
		<edge from-layer="33" from-port="0" to-layer="1399" to-port="4"/>
		<edge from-layer="1399" from-port="5" to-layer="1400" to-port="0"/>
		<edge from-layer="1373" from-port="5" to-layer="1400" to-port="1"/>
		<edge from-layer="1400" from-port="2" to-layer="1402" to-port="0"/>
		<edge from-layer="1401" from-port="0" to-layer="1402" to-port="1"/>
		<edge from-layer="1402" from-port="2" to-layer="1403" to-port="0"/>
		<edge from-layer="1403" from-port="1" to-layer="1405" to-port="0"/>
		<edge from-layer="1404" from-port="0" to-layer="1405" to-port="1"/>
		<edge from-layer="1400" from-port="2" to-layer="1406" to-port="0"/>
		<edge from-layer="1405" from-port="2" to-layer="1406" to-port="1"/>
		<edge from-layer="1406" from-port="2" to-layer="1407" to-port="0"/>
		<edge from-layer="26" from-port="0" to-layer="1407" to-port="1"/>
		<edge from-layer="27" from-port="0" to-layer="1407" to-port="2"/>
		<edge from-layer="28" from-port="0" to-layer="1407" to-port="3"/>
		<edge from-layer="29" from-port="0" to-layer="1407" to-port="4"/>
		<edge from-layer="1408" from-port="0" to-layer="1409" to-port="0"/>
		<edge from-layer="1409" from-port="1" to-layer="1411" to-port="0"/>
		<edge from-layer="1410" from-port="0" to-layer="1411" to-port="1"/>
		<edge from-layer="1411" from-port="2" to-layer="1413" to-port="0"/>
		<edge from-layer="1412" from-port="0" to-layer="1413" to-port="1"/>
		<edge from-layer="1407" from-port="5" to-layer="1414" to-port="0"/>
		<edge from-layer="1413" from-port="2" to-layer="1414" to-port="1"/>
		<edge from-layer="1414" from-port="2" to-layer="1416" to-port="0"/>
		<edge from-layer="1415" from-port="0" to-layer="1416" to-port="1"/>
		<edge from-layer="1416" from-port="2" to-layer="1417" to-port="0"/>
		<edge from-layer="22" from-port="0" to-layer="1417" to-port="1"/>
		<edge from-layer="23" from-port="0" to-layer="1417" to-port="2"/>
		<edge from-layer="24" from-port="0" to-layer="1417" to-port="3"/>
		<edge from-layer="25" from-port="0" to-layer="1417" to-port="4"/>
		<edge from-layer="1345" from-port="5" to-layer="1418" to-port="0"/>
		<edge from-layer="1417" from-port="5" to-layer="1418" to-port="1"/>
		<edge from-layer="1418" from-port="2" to-layer="1419" to-port="0"/>
		<edge from-layer="18" from-port="0" to-layer="1419" to-port="1"/>
		<edge from-layer="19" from-port="0" to-layer="1419" to-port="2"/>
		<edge from-layer="20" from-port="0" to-layer="1419" to-port="3"/>
		<edge from-layer="21" from-port="0" to-layer="1419" to-port="4"/>
		<edge from-layer="1420" from-port="0" to-layer="1421" to-port="0"/>
		<edge from-layer="1421" from-port="1" to-layer="1423" to-port="0"/>
		<edge from-layer="1422" from-port="0" to-layer="1423" to-port="1"/>
		<edge from-layer="1423" from-port="2" to-layer="1425" to-port="0"/>
		<edge from-layer="1424" from-port="0" to-layer="1425" to-port="1"/>
		<edge from-layer="1419" from-port="5" to-layer="1426" to-port="0"/>
		<edge from-layer="1425" from-port="2" to-layer="1426" to-port="1"/>
		<edge from-layer="1426" from-port="2" to-layer="1428" to-port="0"/>
		<edge from-layer="1427" from-port="0" to-layer="1428" to-port="1"/>
		<edge from-layer="1428" from-port="2" to-layer="1430" to-port="0"/>
		<edge from-layer="1429" from-port="0" to-layer="1430" to-port="1"/>
		<edge from-layer="1430" from-port="2" to-layer="1431" to-port="0"/>
		<edge from-layer="1431" from-port="1" to-layer="1433" to-port="0"/>
		<edge from-layer="1432" from-port="0" to-layer="1433" to-port="1"/>
		<edge from-layer="1428" from-port="2" to-layer="1434" to-port="0"/>
		<edge from-layer="1433" from-port="2" to-layer="1434" to-port="1"/>
		<edge from-layer="1434" from-port="2" to-layer="1435" to-port="0"/>
		<edge from-layer="14" from-port="0" to-layer="1435" to-port="1"/>
		<edge from-layer="15" from-port="0" to-layer="1435" to-port="2"/>
		<edge from-layer="16" from-port="0" to-layer="1435" to-port="3"/>
		<edge from-layer="17" from-port="0" to-layer="1435" to-port="4"/>
		<edge from-layer="1435" from-port="5" to-layer="1436" to-port="0"/>
		<edge from-layer="1436" from-port="1" to-layer="1437" to-port="0"/>
		<edge from-layer="10" from-port="0" to-layer="1437" to-port="1"/>
		<edge from-layer="11" from-port="0" to-layer="1437" to-port="2"/>
		<edge from-layer="12" from-port="0" to-layer="1437" to-port="3"/>
		<edge from-layer="13" from-port="0" to-layer="1437" to-port="4"/>
		<edge from-layer="1438" from-port="0" to-layer="1439" to-port="0"/>
		<edge from-layer="1439" from-port="1" to-layer="1441" to-port="0"/>
		<edge from-layer="1440" from-port="0" to-layer="1441" to-port="1"/>
		<edge from-layer="1441" from-port="2" to-layer="1443" to-port="0"/>
		<edge from-layer="1442" from-port="0" to-layer="1443" to-port="1"/>
		<edge from-layer="1437" from-port="5" to-layer="1444" to-port="0"/>
		<edge from-layer="1443" from-port="2" to-layer="1444" to-port="1"/>
		<edge from-layer="1444" from-port="2" to-layer="1446" to-port="0"/>
		<edge from-layer="1445" from-port="0" to-layer="1446" to-port="1"/>
		<edge from-layer="1446" from-port="2" to-layer="1447" to-port="0"/>
		<edge from-layer="6" from-port="0" to-layer="1447" to-port="1"/>
		<edge from-layer="7" from-port="0" to-layer="1447" to-port="2"/>
		<edge from-layer="8" from-port="0" to-layer="1447" to-port="3"/>
		<edge from-layer="9" from-port="0" to-layer="1447" to-port="4"/>
		<edge from-layer="1447" from-port="5" to-layer="1448" to-port="0"/>
		<edge from-layer="5" from-port="0" to-layer="1448" to-port="1"/>
		<edge from-layer="1448" from-port="2" to-layer="1449" to-port="0"/>
		<edge from-layer="4" from-port="0" to-layer="1449" to-port="1"/>
		<edge from-layer="1449" from-port="2" to-layer="1450" to-port="0"/>
		<edge from-layer="0" from-port="0" to-layer="1450" to-port="1"/>
		<edge from-layer="1" from-port="0" to-layer="1450" to-port="2"/>
		<edge from-layer="2" from-port="0" to-layer="1450" to-port="3"/>
		<edge from-layer="3" from-port="0" to-layer="1450" to-port="4"/>
		<edge from-layer="1452" from-port="0" to-layer="1453" to-port="0"/>
		<edge from-layer="1453" from-port="1" to-layer="1456" to-port="0"/>
		<edge from-layer="1454" from-port="0" to-layer="1456" to-port="1"/>
		<edge from-layer="1455" from-port="0" to-layer="1456" to-port="2"/>
		<edge from-layer="1451" from-port="0" to-layer="1457" to-port="0"/>
		<edge from-layer="1456" from-port="3" to-layer="1457" to-port="1"/>
		<edge from-layer="1450" from-port="5" to-layer="1458" to-port="0"/>
		<edge from-layer="1457" from-port="2" to-layer="1458" to-port="1"/>
		<edge from-layer="1459" from-port="0" to-layer="1460" to-port="0"/>
		<edge from-layer="1460" from-port="1" to-layer="1462" to-port="0"/>
		<edge from-layer="1461" from-port="0" to-layer="1462" to-port="1"/>
		<edge from-layer="1462" from-port="2" to-layer="1464" to-port="0"/>
		<edge from-layer="1463" from-port="0" to-layer="1464" to-port="1"/>
		<edge from-layer="1458" from-port="2" to-layer="1465" to-port="0"/>
		<edge from-layer="1464" from-port="2" to-layer="1465" to-port="1"/>
		<edge from-layer="1465" from-port="2" to-layer="1467" to-port="0"/>
		<edge from-layer="1466" from-port="0" to-layer="1467" to-port="1"/>
		<edge from-layer="1467" from-port="2" to-layer="1468" to-port="0"/>
	</edges>
	<meta_data>
		<MO_version value="custom_HEAD_149c43044cb1e8ed8cd4f3f196b23f7b3f129a36"/>
		<cli_parameters>
			<caffe_parser_path value="DIR"/>
			<data_type value="FP16"/>
			<disable_nhwc_to_nchw value="False"/>
			<disable_omitting_optional value="False"/>
			<disable_resnet_optimization value="False"/>
			<disable_weights_compression value="False"/>
			<enable_concat_optimization value="False"/>
			<enable_flattening_nested_params value="False"/>
			<enable_ssd_gluoncv value="False"/>
			<extensions value="DIR"/>
			<framework value="onnx"/>
			<freeze_placeholder_with_value value="{}"/>
			<generate_deprecated_IR_V7 value="False"/>
			<input value="input"/>
			<input_model value="DIR/v199_e34.onnx"/>
			<input_model_is_text value="False"/>
			<input_shape value="[1,3,16,224,224]"/>
			<k value="DIR/CustomLayersMapping.xml"/>
			<keep_shape_ops value="True"/>
			<legacy_ir_generation value="False"/>
			<legacy_mxnet_model value="False"/>
			<log_level value="ERROR"/>
			<mean_scale_values value="{'input': {'mean': array([123.675, 116.28 , 103.53 ]), 'scale': array([58.39, 57.12, 57.38])}}"/>
			<mean_values value="input[123.675,116.28,103.53]"/>
			<model_name value="asl-recognition-0004"/>
			<output value="['output']"/>
			<output_dir value="DIR"/>
			<placeholder_data_types value="{}"/>
			<placeholder_shapes value="{'input': array([  1,   3,  16, 224, 224])}"/>
			<progress value="False"/>
			<remove_memory value="False"/>
			<remove_output_softmax value="False"/>
			<reverse_input_channels value="False"/>
			<save_params_from_nd value="False"/>
			<scale_values value="input[58.39,57.12,57.38]"/>
			<silent value="False"/>
			<static_shape value="False"/>
			<stream_output value="False"/>
			<transform value=""/>
			<unset unset_cli_parameters="batch, counts, disable_fusing, disable_gfusing, finegrain_fusing, input_checkpoint, input_meta_graph, input_proto, input_symbol, mean_file, mean_file_offsets, move_to_preprocess, nd_prefix_name, pretrained_model_name, saved_model_dir, saved_model_tags, scale, tensorboard_logdir, tensorflow_custom_layer_libraries, tensorflow_custom_operations_config_update, tensorflow_object_detection_api_pipeline_config, tensorflow_use_custom_operations_config, transformations_config"/>
		</cli_parameters>
	</meta_data>
	<quantization_parameters>
		<config>{
		'compression': {
			'algorithms': [
				{
					'name': 'AccuracyAwareQuantization',
					'params': {
						'drop_type': 'relative',
						'max_iter_num': 20,
						'maximal_drop': 0.01,
						'metric_subset_ratio': 0.2,
						'preset': 'performance',
						'stat_subset_size': 300,
						'tune_hyperparams': true
					}
				}
			],
			'dump_intermediate_model': true,
			'target_device': 'ANY'
		},
		'engine': {
			'models': [
				{
					'name': 'asl-recognition-0004',
					'launchers': [
						{
							'framework': 'dlsdk',
							'adapter': 'classification',
							'inputs': [
								{
									'type': 'INPUT',
									'name': 'input',
									'layout': 'NCDHW'
								}
							],
							'device': 'CPU'
						}
					],
					'datasets': [
						{
							'name': 'msasl-100',
							'data_source': 'PATH',
							'annotation_conversion': {
								'converter': 'continuous_clip_action_recognition',
								'annotation_file': 'PATH',
								'data_dir': 'PATH',
								'out_fps': 15,
								'clip_length': 16
							},
							'annotation': 'PATH',
							'preprocessing': [
								{
									'type': 'resize',
									'size': 256,
									'aspect_ratio_scale': 'greater'
								},
								{
									'type': 'crop',
									'size': 224
								},
								{
									'type': 'bgr_to_rgb'
								}
							],
							'metrics': [
								{
									'type': 'accuracy',
									'name': 'rank@1',
									'top_k': 1
								}
							],
							'_command_line_mapping': {
								'annotation_file': 'PATH',
								'data_dir': 'PATH'
							}
						}
					]
				}
			],
			'stat_requests_number': null,
			'eval_requests_number': null,
			'type': 'accuracy_checker'
		}
	}</config>
		<version value="1.0"/>
		<cli_params value="{'quantize': None, 'preset': None, 'model': None, 'weights': None, 'name': None, 'ac_config': None, 'max_drop': None, 'evaluate': False, 'output_dir': 'PATH', 'direct_dump': True, 'log_level': 'INFO', 'pbar': False, 'stream_output': False, 'keep_uncompressed_weights': False}"/>
	</quantization_parameters>
</net>
