<?xml version="1.0" ?>
<net name="RMNet_SSD" version="10">
	<layers>
		<layer id="0" name="2705270922359" type="Const" version="opset1">
			<data element_type="f16" offset="0" shape="1,1,1,1" size="2"/>
			<output>
				<port id="0" precision="FP16">
					<dim>1</dim>
					<dim>1</dim>
					<dim>1</dim>
					<dim>1</dim>
				</port>
			</output>
		</layer>
		<layer id="1" name="2706271022575" type="Const" version="opset1">
			<data element_type="f16" offset="2" shape="1,1,1,1" size="2"/>
			<output>
				<port id="0" precision="FP16">
					<dim>1</dim>
					<dim>1</dim>
					<dim>1</dim>
					<dim>1</dim>
				</port>
			</output>
		</layer>
		<layer id="2" name="2707271121585" type="Const" version="opset1">
			<data element_type="f16" offset="0" shape="1,1,1,1" size="2"/>
			<output>
				<port id="0" precision="FP16">
					<dim>1</dim>
					<dim>1</dim>
					<dim>1</dim>
					<dim>1</dim>
				</port>
			</output>
		</layer>
		<layer id="3" name="2708271220157" type="Const" version="opset1">
			<data element_type="f16" offset="2" shape="1,1,1,1" size="2"/>
			<output>
				<port id="0" precision="FP16">
					<dim>1</dim>
					<dim>1</dim>
					<dim>1</dim>
					<dim>1</dim>
				</port>
			</output>
		</layer>
		<layer id="4" name="3595359919704" type="Const" version="opset1">
			<data element_type="f16" offset="4" shape="1,1,1,1" size="2"/>
			<output>
				<port id="0" precision="FP16">
					<dim>1</dim>
					<dim>1</dim>
					<dim>1</dim>
					<dim>1</dim>
				</port>
			</output>
		</layer>
		<layer id="5" name="3596360022677" type="Const" version="opset1">
			<data element_type="f16" offset="6" shape="1,1,1,1" size="2"/>
			<output>
				<port id="0" precision="FP16">
					<dim>1</dim>
					<dim>1</dim>
					<dim>1</dim>
					<dim>1</dim>
				</port>
			</output>
		</layer>
		<layer id="6" name="3597360119296" type="Const" version="opset1">
			<data element_type="f16" offset="4" shape="1,1,1,1" size="2"/>
			<output>
				<port id="0" precision="FP16">
					<dim>1</dim>
					<dim>1</dim>
					<dim>1</dim>
					<dim>1</dim>
				</port>
			</output>
		</layer>
		<layer id="7" name="3598360221363" type="Const" version="opset1">
			<data element_type="f16" offset="6" shape="1,1,1,1" size="2"/>
			<output>
				<port id="0" precision="FP16">
					<dim>1</dim>
					<dim>1</dim>
					<dim>1</dim>
					<dim>1</dim>
				</port>
			</output>
		</layer>
		<layer id="8" name="4365436919524" type="Const" version="opset1">
			<data element_type="f16" offset="8" shape="1,1,1,1" size="2"/>
			<output>
				<port id="0" precision="FP16">
					<dim>1</dim>
					<dim>1</dim>
					<dim>1</dim>
					<dim>1</dim>
				</port>
			</output>
		</layer>
		<layer id="9" name="4366437021921" type="Const" version="opset1">
			<data element_type="f16" offset="10" shape="1,1,1,1" size="2"/>
			<output>
				<port id="0" precision="FP16">
					<dim>1</dim>
					<dim>1</dim>
					<dim>1</dim>
					<dim>1</dim>
				</port>
			</output>
		</layer>
		<layer id="10" name="4367437122077" type="Const" version="opset1">
			<data element_type="f16" offset="8" shape="1,1,1,1" size="2"/>
			<output>
				<port id="0" precision="FP16">
					<dim>1</dim>
					<dim>1</dim>
					<dim>1</dim>
					<dim>1</dim>
				</port>
			</output>
		</layer>
		<layer id="11" name="4368437220898" type="Const" version="opset1">
			<data element_type="f16" offset="10" shape="1,1,1,1" size="2"/>
			<output>
				<port id="0" precision="FP16">
					<dim>1</dim>
					<dim>1</dim>
					<dim>1</dim>
					<dim>1</dim>
				</port>
			</output>
		</layer>
		<layer id="12" name="5125512922371" type="Const" version="opset1">
			<data element_type="f16" offset="4" shape="1,1,1,1" size="2"/>
			<output>
				<port id="0" precision="FP16">
					<dim>1</dim>
					<dim>1</dim>
					<dim>1</dim>
					<dim>1</dim>
				</port>
			</output>
		</layer>
		<layer id="13" name="5126513021186" type="Const" version="opset1">
			<data element_type="f16" offset="12" shape="1,1,1,1" size="2"/>
			<output>
				<port id="0" precision="FP16">
					<dim>1</dim>
					<dim>1</dim>
					<dim>1</dim>
					<dim>1</dim>
				</port>
			</output>
		</layer>
		<layer id="14" name="5127513119470" type="Const" version="opset1">
			<data element_type="f16" offset="4" shape="1,1,1,1" size="2"/>
			<output>
				<port id="0" precision="FP16">
					<dim>1</dim>
					<dim>1</dim>
					<dim>1</dim>
					<dim>1</dim>
				</port>
			</output>
		</layer>
		<layer id="15" name="5128513219167" type="Const" version="opset1">
			<data element_type="f16" offset="12" shape="1,1,1,1" size="2"/>
			<output>
				<port id="0" precision="FP16">
					<dim>1</dim>
					<dim>1</dim>
					<dim>1</dim>
					<dim>1</dim>
				</port>
			</output>
		</layer>
		<layer id="16" name="4665466919467" type="Const" version="opset1">
			<data element_type="f16" offset="4" shape="1,1,1,1" size="2"/>
			<output>
				<port id="0" precision="FP16">
					<dim>1</dim>
					<dim>1</dim>
					<dim>1</dim>
					<dim>1</dim>
				</port>
			</output>
		</layer>
		<layer id="17" name="4666467020808" type="Const" version="opset1">
			<data element_type="f16" offset="14" shape="1,1,1,1" size="2"/>
			<output>
				<port id="0" precision="FP16">
					<dim>1</dim>
					<dim>1</dim>
					<dim>1</dim>
					<dim>1</dim>
				</port>
			</output>
		</layer>
		<layer id="18" name="4667467120910" type="Const" version="opset1">
			<data element_type="f16" offset="4" shape="1,1,1,1" size="2"/>
			<output>
				<port id="0" precision="FP16">
					<dim>1</dim>
					<dim>1</dim>
					<dim>1</dim>
					<dim>1</dim>
				</port>
			</output>
		</layer>
		<layer id="19" name="4668467220520" type="Const" version="opset1">
			<data element_type="f16" offset="14" shape="1,1,1,1" size="2"/>
			<output>
				<port id="0" precision="FP16">
					<dim>1</dim>
					<dim>1</dim>
					<dim>1</dim>
					<dim>1</dim>
				</port>
			</output>
		</layer>
		<layer id="20" name="4055405922662" type="Const" version="opset1">
			<data element_type="f16" offset="16" shape="1,1,1,1" size="2"/>
			<output>
				<port id="0" precision="FP16">
					<dim>1</dim>
					<dim>1</dim>
					<dim>1</dim>
					<dim>1</dim>
				</port>
			</output>
		</layer>
		<layer id="21" name="4056406021948" type="Const" version="opset1">
			<data element_type="f16" offset="18" shape="1,1,1,1" size="2"/>
			<output>
				<port id="0" precision="FP16">
					<dim>1</dim>
					<dim>1</dim>
					<dim>1</dim>
					<dim>1</dim>
				</port>
			</output>
		</layer>
		<layer id="22" name="4057406122326" type="Const" version="opset1">
			<data element_type="f16" offset="16" shape="1,1,1,1" size="2"/>
			<output>
				<port id="0" precision="FP16">
					<dim>1</dim>
					<dim>1</dim>
					<dim>1</dim>
					<dim>1</dim>
				</port>
			</output>
		</layer>
		<layer id="23" name="4058406219662" type="Const" version="opset1">
			<data element_type="f16" offset="18" shape="1,1,1,1" size="2"/>
			<output>
				<port id="0" precision="FP16">
					<dim>1</dim>
					<dim>1</dim>
					<dim>1</dim>
					<dim>1</dim>
				</port>
			</output>
		</layer>
		<layer id="24" name="3285328920829" type="Const" version="opset1">
			<data element_type="f16" offset="4" shape="1,1,1,1" size="2"/>
			<output>
				<port id="0" precision="FP16">
					<dim>1</dim>
					<dim>1</dim>
					<dim>1</dim>
					<dim>1</dim>
				</port>
			</output>
		</layer>
		<layer id="25" name="3286329021330" type="Const" version="opset1">
			<data element_type="f16" offset="20" shape="1,1,1,1" size="2"/>
			<output>
				<port id="0" precision="FP16">
					<dim>1</dim>
					<dim>1</dim>
					<dim>1</dim>
					<dim>1</dim>
				</port>
			</output>
		</layer>
		<layer id="26" name="3287329120844" type="Const" version="opset1">
			<data element_type="f16" offset="4" shape="1,1,1,1" size="2"/>
			<output>
				<port id="0" precision="FP16">
					<dim>1</dim>
					<dim>1</dim>
					<dim>1</dim>
					<dim>1</dim>
				</port>
			</output>
		</layer>
		<layer id="27" name="3288329220316" type="Const" version="opset1">
			<data element_type="f16" offset="20" shape="1,1,1,1" size="2"/>
			<output>
				<port id="0" precision="FP16">
					<dim>1</dim>
					<dim>1</dim>
					<dim>1</dim>
					<dim>1</dim>
				</port>
			</output>
		</layer>
		<layer id="28" name="2305230920037" type="Const" version="opset1">
			<data element_type="f16" offset="16" shape="1,1,1,1" size="2"/>
			<output>
				<port id="0" precision="FP16">
					<dim>1</dim>
					<dim>1</dim>
					<dim>1</dim>
					<dim>1</dim>
				</port>
			</output>
		</layer>
		<layer id="29" name="2306231020079" type="Const" version="opset1">
			<data element_type="f16" offset="22" shape="1,1,1,1" size="2"/>
			<output>
				<port id="0" precision="FP16">
					<dim>1</dim>
					<dim>1</dim>
					<dim>1</dim>
					<dim>1</dim>
				</port>
			</output>
		</layer>
		<layer id="30" name="2307231119416" type="Const" version="opset1">
			<data element_type="f16" offset="16" shape="1,1,1,1" size="2"/>
			<output>
				<port id="0" precision="FP16">
					<dim>1</dim>
					<dim>1</dim>
					<dim>1</dim>
					<dim>1</dim>
				</port>
			</output>
		</layer>
		<layer id="31" name="2308231221606" type="Const" version="opset1">
			<data element_type="f16" offset="22" shape="1,1,1,1" size="2"/>
			<output>
				<port id="0" precision="FP16">
					<dim>1</dim>
					<dim>1</dim>
					<dim>1</dim>
					<dim>1</dim>
				</port>
			</output>
		</layer>
		<layer id="32" name="4565456920292" type="Const" version="opset1">
			<data element_type="f16" offset="24" shape="1,1,1,1" size="2"/>
			<output>
				<port id="0" precision="FP16">
					<dim>1</dim>
					<dim>1</dim>
					<dim>1</dim>
					<dim>1</dim>
				</port>
			</output>
		</layer>
		<layer id="33" name="4566457019707" type="Const" version="opset1">
			<data element_type="f16" offset="26" shape="1,1,1,1" size="2"/>
			<output>
				<port id="0" precision="FP16">
					<dim>1</dim>
					<dim>1</dim>
					<dim>1</dim>
					<dim>1</dim>
				</port>
			</output>
		</layer>
		<layer id="34" name="4567457119527" type="Const" version="opset1">
			<data element_type="f16" offset="24" shape="1,1,1,1" size="2"/>
			<output>
				<port id="0" precision="FP16">
					<dim>1</dim>
					<dim>1</dim>
					<dim>1</dim>
					<dim>1</dim>
				</port>
			</output>
		</layer>
		<layer id="35" name="4568457221669" type="Const" version="opset1">
			<data element_type="f16" offset="26" shape="1,1,1,1" size="2"/>
			<output>
				<port id="0" precision="FP16">
					<dim>1</dim>
					<dim>1</dim>
					<dim>1</dim>
					<dim>1</dim>
				</port>
			</output>
		</layer>
		<layer id="36" name="2725272920424" type="Const" version="opset1">
			<data element_type="f16" offset="28" shape="1,1,1,1" size="2"/>
			<output>
				<port id="0" precision="FP16">
					<dim>1</dim>
					<dim>1</dim>
					<dim>1</dim>
					<dim>1</dim>
				</port>
			</output>
		</layer>
		<layer id="37" name="2726273021987" type="Const" version="opset1">
			<data element_type="f16" offset="30" shape="1,1,1,1" size="2"/>
			<output>
				<port id="0" precision="FP16">
					<dim>1</dim>
					<dim>1</dim>
					<dim>1</dim>
					<dim>1</dim>
				</port>
			</output>
		</layer>
		<layer id="38" name="2727273122602" type="Const" version="opset1">
			<data element_type="f16" offset="28" shape="1,1,1,1" size="2"/>
			<output>
				<port id="0" precision="FP16">
					<dim>1</dim>
					<dim>1</dim>
					<dim>1</dim>
					<dim>1</dim>
				</port>
			</output>
		</layer>
		<layer id="39" name="2728273222698" type="Const" version="opset1">
			<data element_type="f16" offset="30" shape="1,1,1,1" size="2"/>
			<output>
				<port id="0" precision="FP16">
					<dim>1</dim>
					<dim>1</dim>
					<dim>1</dim>
					<dim>1</dim>
				</port>
			</output>
		</layer>
		<layer id="40" name="5425542919179" type="Const" version="opset1">
			<data element_type="f16" offset="32" shape="1,1,1,1" size="2"/>
			<output>
				<port id="0" precision="FP16">
					<dim>1</dim>
					<dim>1</dim>
					<dim>1</dim>
					<dim>1</dim>
				</port>
			</output>
		</layer>
		<layer id="41" name="5426543020364" type="Const" version="opset1">
			<data element_type="f16" offset="34" shape="1,1,1,1" size="2"/>
			<output>
				<port id="0" precision="FP16">
					<dim>1</dim>
					<dim>1</dim>
					<dim>1</dim>
					<dim>1</dim>
				</port>
			</output>
		</layer>
		<layer id="42" name="5427543120442" type="Const" version="opset1">
			<data element_type="f16" offset="32" shape="1,1,1,1" size="2"/>
			<output>
				<port id="0" precision="FP16">
					<dim>1</dim>
					<dim>1</dim>
					<dim>1</dim>
					<dim>1</dim>
				</port>
			</output>
		</layer>
		<layer id="43" name="5428543220811" type="Const" version="opset1">
			<data element_type="f16" offset="34" shape="1,1,1,1" size="2"/>
			<output>
				<port id="0" precision="FP16">
					<dim>1</dim>
					<dim>1</dim>
					<dim>1</dim>
					<dim>1</dim>
				</port>
			</output>
		</layer>
		<layer id="44" name="4155415919626" type="Const" version="opset1">
			<data element_type="f16" offset="36" shape="1,1,1,1" size="2"/>
			<output>
				<port id="0" precision="FP16">
					<dim>1</dim>
					<dim>1</dim>
					<dim>1</dim>
					<dim>1</dim>
				</port>
			</output>
		</layer>
		<layer id="45" name="4156416021075" type="Const" version="opset1">
			<data element_type="f16" offset="38" shape="1,1,1,1" size="2"/>
			<output>
				<port id="0" precision="FP16">
					<dim>1</dim>
					<dim>1</dim>
					<dim>1</dim>
					<dim>1</dim>
				</port>
			</output>
		</layer>
		<layer id="46" name="4157416119302" type="Const" version="opset1">
			<data element_type="f16" offset="36" shape="1,1,1,1" size="2"/>
			<output>
				<port id="0" precision="FP16">
					<dim>1</dim>
					<dim>1</dim>
					<dim>1</dim>
					<dim>1</dim>
				</port>
			</output>
		</layer>
		<layer id="47" name="4158416220217" type="Const" version="opset1">
			<data element_type="f16" offset="38" shape="1,1,1,1" size="2"/>
			<output>
				<port id="0" precision="FP16">
					<dim>1</dim>
					<dim>1</dim>
					<dim>1</dim>
					<dim>1</dim>
				</port>
			</output>
		</layer>
		<layer id="48" name="4885488920646" type="Const" version="opset1">
			<data element_type="f16" offset="40" shape="1,1,1,1" size="2"/>
			<output>
				<port id="0" precision="FP16">
					<dim>1</dim>
					<dim>1</dim>
					<dim>1</dim>
					<dim>1</dim>
				</port>
			</output>
		</layer>
		<layer id="49" name="4886489020124" type="Const" version="opset1">
			<data element_type="f16" offset="42" shape="1,1,1,1" size="2"/>
			<output>
				<port id="0" precision="FP16">
					<dim>1</dim>
					<dim>1</dim>
					<dim>1</dim>
					<dim>1</dim>
				</port>
			</output>
		</layer>
		<layer id="50" name="4887489122155" type="Const" version="opset1">
			<data element_type="f16" offset="40" shape="1,1,1,1" size="2"/>
			<output>
				<port id="0" precision="FP16">
					<dim>1</dim>
					<dim>1</dim>
					<dim>1</dim>
					<dim>1</dim>
				</port>
			</output>
		</layer>
		<layer id="51" name="4888489222215" type="Const" version="opset1">
			<data element_type="f16" offset="42" shape="1,1,1,1" size="2"/>
			<output>
				<port id="0" precision="FP16">
					<dim>1</dim>
					<dim>1</dim>
					<dim>1</dim>
					<dim>1</dim>
				</port>
			</output>
		</layer>
		<layer id="52" name="3675367919269" type="Const" version="opset1">
			<data element_type="f16" offset="44" shape="1,1,1,1" size="2"/>
			<output>
				<port id="0" precision="FP16">
					<dim>1</dim>
					<dim>1</dim>
					<dim>1</dim>
					<dim>1</dim>
				</port>
			</output>
		</layer>
		<layer id="53" name="3676368022062" type="Const" version="opset1">
			<data element_type="f16" offset="46" shape="1,1,1,1" size="2"/>
			<output>
				<port id="0" precision="FP16">
					<dim>1</dim>
					<dim>1</dim>
					<dim>1</dim>
					<dim>1</dim>
				</port>
			</output>
		</layer>
		<layer id="54" name="3677368119383" type="Const" version="opset1">
			<data element_type="f16" offset="44" shape="1,1,1,1" size="2"/>
			<output>
				<port id="0" precision="FP16">
					<dim>1</dim>
					<dim>1</dim>
					<dim>1</dim>
					<dim>1</dim>
				</port>
			</output>
		</layer>
		<layer id="55" name="3678368221234" type="Const" version="opset1">
			<data element_type="f16" offset="46" shape="1,1,1,1" size="2"/>
			<output>
				<port id="0" precision="FP16">
					<dim>1</dim>
					<dim>1</dim>
					<dim>1</dim>
					<dim>1</dim>
				</port>
			</output>
		</layer>
		<layer id="56" name="5225522921600" type="Const" version="opset1">
			<data element_type="f16" offset="48" shape="1,1,1,1" size="2"/>
			<output>
				<port id="0" precision="FP16">
					<dim>1</dim>
					<dim>1</dim>
					<dim>1</dim>
					<dim>1</dim>
				</port>
			</output>
		</layer>
		<layer id="57" name="5226523022500" type="Const" version="opset1">
			<data element_type="f16" offset="50" shape="1,1,1,1" size="2"/>
			<output>
				<port id="0" precision="FP16">
					<dim>1</dim>
					<dim>1</dim>
					<dim>1</dim>
					<dim>1</dim>
				</port>
			</output>
		</layer>
		<layer id="58" name="5227523120145" type="Const" version="opset1">
			<data element_type="f16" offset="48" shape="1,1,1,1" size="2"/>
			<output>
				<port id="0" precision="FP16">
					<dim>1</dim>
					<dim>1</dim>
					<dim>1</dim>
					<dim>1</dim>
				</port>
			</output>
		</layer>
		<layer id="59" name="5228523221045" type="Const" version="opset1">
			<data element_type="f16" offset="50" shape="1,1,1,1" size="2"/>
			<output>
				<port id="0" precision="FP16">
					<dim>1</dim>
					<dim>1</dim>
					<dim>1</dim>
					<dim>1</dim>
				</port>
			</output>
		</layer>
		<layer id="60" name="2665266921381" type="Const" version="opset1">
			<data element_type="f16" offset="4" shape="1,1,1,1" size="2"/>
			<output>
				<port id="0" precision="FP16">
					<dim>1</dim>
					<dim>1</dim>
					<dim>1</dim>
					<dim>1</dim>
				</port>
			</output>
		</layer>
		<layer id="61" name="2666267019491" type="Const" version="opset1">
			<data element_type="f16" offset="52" shape="1,1,1,1" size="2"/>
			<output>
				<port id="0" precision="FP16">
					<dim>1</dim>
					<dim>1</dim>
					<dim>1</dim>
					<dim>1</dim>
				</port>
			</output>
		</layer>
		<layer id="62" name="2667267120514" type="Const" version="opset1">
			<data element_type="f16" offset="4" shape="1,1,1,1" size="2"/>
			<output>
				<port id="0" precision="FP16">
					<dim>1</dim>
					<dim>1</dim>
					<dim>1</dim>
					<dim>1</dim>
				</port>
			</output>
		</layer>
		<layer id="63" name="2668267220049" type="Const" version="opset1">
			<data element_type="f16" offset="52" shape="1,1,1,1" size="2"/>
			<output>
				<port id="0" precision="FP16">
					<dim>1</dim>
					<dim>1</dim>
					<dim>1</dim>
					<dim>1</dim>
				</port>
			</output>
		</layer>
		<layer id="64" name="4215421921003" type="Const" version="opset1">
			<data element_type="f16" offset="54" shape="1,1,1,1" size="2"/>
			<output>
				<port id="0" precision="FP16">
					<dim>1</dim>
					<dim>1</dim>
					<dim>1</dim>
					<dim>1</dim>
				</port>
			</output>
		</layer>
		<layer id="65" name="4216422021999" type="Const" version="opset1">
			<data element_type="f16" offset="56" shape="1,1,1,1" size="2"/>
			<output>
				<port id="0" precision="FP16">
					<dim>1</dim>
					<dim>1</dim>
					<dim>1</dim>
					<dim>1</dim>
				</port>
			</output>
		</layer>
		<layer id="66" name="4217422122587" type="Const" version="opset1">
			<data element_type="f16" offset="54" shape="1,1,1,1" size="2"/>
			<output>
				<port id="0" precision="FP16">
					<dim>1</dim>
					<dim>1</dim>
					<dim>1</dim>
					<dim>1</dim>
				</port>
			</output>
		</layer>
		<layer id="67" name="4218422222257" type="Const" version="opset1">
			<data element_type="f16" offset="56" shape="1,1,1,1" size="2"/>
			<output>
				<port id="0" precision="FP16">
					<dim>1</dim>
					<dim>1</dim>
					<dim>1</dim>
					<dim>1</dim>
				</port>
			</output>
		</layer>
		<layer id="68" name="2625262919860" type="Const" version="opset1">
			<data element_type="f16" offset="58" shape="1,1,1,1" size="2"/>
			<output>
				<port id="0" precision="FP16">
					<dim>1</dim>
					<dim>1</dim>
					<dim>1</dim>
					<dim>1</dim>
				</port>
			</output>
		</layer>
		<layer id="69" name="2626263021336" type="Const" version="opset1">
			<data element_type="f16" offset="60" shape="1,1,1,1" size="2"/>
			<output>
				<port id="0" precision="FP16">
					<dim>1</dim>
					<dim>1</dim>
					<dim>1</dim>
					<dim>1</dim>
				</port>
			</output>
		</layer>
		<layer id="70" name="2627263121981" type="Const" version="opset1">
			<data element_type="f16" offset="58" shape="1,1,1,1" size="2"/>
			<output>
				<port id="0" precision="FP16">
					<dim>1</dim>
					<dim>1</dim>
					<dim>1</dim>
					<dim>1</dim>
				</port>
			</output>
		</layer>
		<layer id="71" name="2628263221237" type="Const" version="opset1">
			<data element_type="f16" offset="60" shape="1,1,1,1" size="2"/>
			<output>
				<port id="0" precision="FP16">
					<dim>1</dim>
					<dim>1</dim>
					<dim>1</dim>
					<dim>1</dim>
				</port>
			</output>
		</layer>
		<layer id="72" name="4345434921288" type="Const" version="opset1">
			<data element_type="f16" offset="4" shape="1,1,1,1" size="2"/>
			<output>
				<port id="0" precision="FP16">
					<dim>1</dim>
					<dim>1</dim>
					<dim>1</dim>
					<dim>1</dim>
				</port>
			</output>
		</layer>
		<layer id="73" name="4346435019815" type="Const" version="opset1">
			<data element_type="f16" offset="14" shape="1,1,1,1" size="2"/>
			<output>
				<port id="0" precision="FP16">
					<dim>1</dim>
					<dim>1</dim>
					<dim>1</dim>
					<dim>1</dim>
				</port>
			</output>
		</layer>
		<layer id="74" name="4347435119989" type="Const" version="opset1">
			<data element_type="f16" offset="4" shape="1,1,1,1" size="2"/>
			<output>
				<port id="0" precision="FP16">
					<dim>1</dim>
					<dim>1</dim>
					<dim>1</dim>
					<dim>1</dim>
				</port>
			</output>
		</layer>
		<layer id="75" name="4348435221228" type="Const" version="opset1">
			<data element_type="f16" offset="14" shape="1,1,1,1" size="2"/>
			<output>
				<port id="0" precision="FP16">
					<dim>1</dim>
					<dim>1</dim>
					<dim>1</dim>
					<dim>1</dim>
				</port>
			</output>
		</layer>
		<layer id="76" name="4095409920526" type="Const" version="opset1">
			<data element_type="f16" offset="62" shape="1,1,1,1" size="2"/>
			<output>
				<port id="0" precision="FP16">
					<dim>1</dim>
					<dim>1</dim>
					<dim>1</dim>
					<dim>1</dim>
				</port>
			</output>
		</layer>
		<layer id="77" name="4096410020553" type="Const" version="opset1">
			<data element_type="f16" offset="64" shape="1,1,1,1" size="2"/>
			<output>
				<port id="0" precision="FP16">
					<dim>1</dim>
					<dim>1</dim>
					<dim>1</dim>
					<dim>1</dim>
				</port>
			</output>
		</layer>
		<layer id="78" name="4097410119455" type="Const" version="opset1">
			<data element_type="f16" offset="62" shape="1,1,1,1" size="2"/>
			<output>
				<port id="0" precision="FP16">
					<dim>1</dim>
					<dim>1</dim>
					<dim>1</dim>
					<dim>1</dim>
				</port>
			</output>
		</layer>
		<layer id="79" name="4098410222380" type="Const" version="opset1">
			<data element_type="f16" offset="64" shape="1,1,1,1" size="2"/>
			<output>
				<port id="0" precision="FP16">
					<dim>1</dim>
					<dim>1</dim>
					<dim>1</dim>
					<dim>1</dim>
				</port>
			</output>
		</layer>
		<layer id="80" name="3165316919221" type="Const" version="opset1">
			<data element_type="f16" offset="4" shape="1,1,1,1" size="2"/>
			<output>
				<port id="0" precision="FP16">
					<dim>1</dim>
					<dim>1</dim>
					<dim>1</dim>
					<dim>1</dim>
				</port>
			</output>
		</layer>
		<layer id="81" name="3166317021387" type="Const" version="opset1">
			<data element_type="f16" offset="12" shape="1,1,1,1" size="2"/>
			<output>
				<port id="0" precision="FP16">
					<dim>1</dim>
					<dim>1</dim>
					<dim>1</dim>
					<dim>1</dim>
				</port>
			</output>
		</layer>
		<layer id="82" name="3167317122512" type="Const" version="opset1">
			<data element_type="f16" offset="4" shape="1,1,1,1" size="2"/>
			<output>
				<port id="0" precision="FP16">
					<dim>1</dim>
					<dim>1</dim>
					<dim>1</dim>
					<dim>1</dim>
				</port>
			</output>
		</layer>
		<layer id="83" name="3168317222461" type="Const" version="opset1">
			<data element_type="f16" offset="12" shape="1,1,1,1" size="2"/>
			<output>
				<port id="0" precision="FP16">
					<dim>1</dim>
					<dim>1</dim>
					<dim>1</dim>
					<dim>1</dim>
				</port>
			</output>
		</layer>
		<layer id="84" name="3735373922320" type="Const" version="opset1">
			<data element_type="f16" offset="4" shape="1,1,1,1" size="2"/>
			<output>
				<port id="0" precision="FP16">
					<dim>1</dim>
					<dim>1</dim>
					<dim>1</dim>
					<dim>1</dim>
				</port>
			</output>
		</layer>
		<layer id="85" name="3736374020577" type="Const" version="opset1">
			<data element_type="f16" offset="14" shape="1,1,1,1" size="2"/>
			<output>
				<port id="0" precision="FP16">
					<dim>1</dim>
					<dim>1</dim>
					<dim>1</dim>
					<dim>1</dim>
				</port>
			</output>
		</layer>
		<layer id="86" name="3737374121588" type="Const" version="opset1">
			<data element_type="f16" offset="4" shape="1,1,1,1" size="2"/>
			<output>
				<port id="0" precision="FP16">
					<dim>1</dim>
					<dim>1</dim>
					<dim>1</dim>
					<dim>1</dim>
				</port>
			</output>
		</layer>
		<layer id="87" name="3738374222095" type="Const" version="opset1">
			<data element_type="f16" offset="14" shape="1,1,1,1" size="2"/>
			<output>
				<port id="0" precision="FP16">
					<dim>1</dim>
					<dim>1</dim>
					<dim>1</dim>
					<dim>1</dim>
				</port>
			</output>
		</layer>
		<layer id="88" name="3045304921054" type="Const" version="opset1">
			<data element_type="f16" offset="66" shape="1,1,1,1" size="2"/>
			<output>
				<port id="0" precision="FP16">
					<dim>1</dim>
					<dim>1</dim>
					<dim>1</dim>
					<dim>1</dim>
				</port>
			</output>
		</layer>
		<layer id="89" name="3046305021492" type="Const" version="opset1">
			<data element_type="f16" offset="68" shape="1,1,1,1" size="2"/>
			<output>
				<port id="0" precision="FP16">
					<dim>1</dim>
					<dim>1</dim>
					<dim>1</dim>
					<dim>1</dim>
				</port>
			</output>
		</layer>
		<layer id="90" name="3047305120733" type="Const" version="opset1">
			<data element_type="f16" offset="66" shape="1,1,1,1" size="2"/>
			<output>
				<port id="0" precision="FP16">
					<dim>1</dim>
					<dim>1</dim>
					<dim>1</dim>
					<dim>1</dim>
				</port>
			</output>
		</layer>
		<layer id="91" name="3048305221807" type="Const" version="opset1">
			<data element_type="f16" offset="68" shape="1,1,1,1" size="2"/>
			<output>
				<port id="0" precision="FP16">
					<dim>1</dim>
					<dim>1</dim>
					<dim>1</dim>
					<dim>1</dim>
				</port>
			</output>
		</layer>
		<layer id="92" name="3975397920142" type="Const" version="opset1">
			<data element_type="f16" offset="4" shape="1,1,1,1" size="2"/>
			<output>
				<port id="0" precision="FP16">
					<dim>1</dim>
					<dim>1</dim>
					<dim>1</dim>
					<dim>1</dim>
				</port>
			</output>
		</layer>
		<layer id="93" name="3976398020991" type="Const" version="opset1">
			<data element_type="f16" offset="70" shape="1,1,1,1" size="2"/>
			<output>
				<port id="0" precision="FP16">
					<dim>1</dim>
					<dim>1</dim>
					<dim>1</dim>
					<dim>1</dim>
				</port>
			</output>
		</layer>
		<layer id="94" name="3977398119434" type="Const" version="opset1">
			<data element_type="f16" offset="4" shape="1,1,1,1" size="2"/>
			<output>
				<port id="0" precision="FP16">
					<dim>1</dim>
					<dim>1</dim>
					<dim>1</dim>
					<dim>1</dim>
				</port>
			</output>
		</layer>
		<layer id="95" name="3978398220643" type="Const" version="opset1">
			<data element_type="f16" offset="70" shape="1,1,1,1" size="2"/>
			<output>
				<port id="0" precision="FP16">
					<dim>1</dim>
					<dim>1</dim>
					<dim>1</dim>
					<dim>1</dim>
				</port>
			</output>
		</layer>
		<layer id="96" name="4745474921867" type="Const" version="opset1">
			<data element_type="f16" offset="4" shape="1,1,1,1" size="2"/>
			<output>
				<port id="0" precision="FP16">
					<dim>1</dim>
					<dim>1</dim>
					<dim>1</dim>
					<dim>1</dim>
				</port>
			</output>
		</layer>
		<layer id="97" name="4746475019962" type="Const" version="opset1">
			<data element_type="f16" offset="70" shape="1,1,1,1" size="2"/>
			<output>
				<port id="0" precision="FP16">
					<dim>1</dim>
					<dim>1</dim>
					<dim>1</dim>
					<dim>1</dim>
				</port>
			</output>
		</layer>
		<layer id="98" name="4747475119320" type="Const" version="opset1">
			<data element_type="f16" offset="4" shape="1,1,1,1" size="2"/>
			<output>
				<port id="0" precision="FP16">
					<dim>1</dim>
					<dim>1</dim>
					<dim>1</dim>
					<dim>1</dim>
				</port>
			</output>
		</layer>
		<layer id="99" name="4748475219440" type="Const" version="opset1">
			<data element_type="f16" offset="70" shape="1,1,1,1" size="2"/>
			<output>
				<port id="0" precision="FP16">
					<dim>1</dim>
					<dim>1</dim>
					<dim>1</dim>
					<dim>1</dim>
				</port>
			</output>
		</layer>
		<layer id="100" name="4985498921735" type="Const" version="opset1">
			<data element_type="f16" offset="4" shape="1,1,1,1" size="2"/>
			<output>
				<port id="0" precision="FP16">
					<dim>1</dim>
					<dim>1</dim>
					<dim>1</dim>
					<dim>1</dim>
				</port>
			</output>
		</layer>
		<layer id="101" name="4986499021723" type="Const" version="opset1">
			<data element_type="f16" offset="70" shape="1,1,1,1" size="2"/>
			<output>
				<port id="0" precision="FP16">
					<dim>1</dim>
					<dim>1</dim>
					<dim>1</dim>
					<dim>1</dim>
				</port>
			</output>
		</layer>
		<layer id="102" name="4987499121027" type="Const" version="opset1">
			<data element_type="f16" offset="4" shape="1,1,1,1" size="2"/>
			<output>
				<port id="0" precision="FP16">
					<dim>1</dim>
					<dim>1</dim>
					<dim>1</dim>
					<dim>1</dim>
				</port>
			</output>
		</layer>
		<layer id="103" name="4988499219590" type="Const" version="opset1">
			<data element_type="f16" offset="70" shape="1,1,1,1" size="2"/>
			<output>
				<port id="0" precision="FP16">
					<dim>1</dim>
					<dim>1</dim>
					<dim>1</dim>
					<dim>1</dim>
				</port>
			</output>
		</layer>
		<layer id="104" name="3125312922410" type="Const" version="opset1">
			<data element_type="f16" offset="4" shape="1,1,1,1" size="2"/>
			<output>
				<port id="0" precision="FP16">
					<dim>1</dim>
					<dim>1</dim>
					<dim>1</dim>
					<dim>1</dim>
				</port>
			</output>
		</layer>
		<layer id="105" name="3126313021780" type="Const" version="opset1">
			<data element_type="f16" offset="70" shape="1,1,1,1" size="2"/>
			<output>
				<port id="0" precision="FP16">
					<dim>1</dim>
					<dim>1</dim>
					<dim>1</dim>
					<dim>1</dim>
				</port>
			</output>
		</layer>
		<layer id="106" name="3127313120928" type="Const" version="opset1">
			<data element_type="f16" offset="4" shape="1,1,1,1" size="2"/>
			<output>
				<port id="0" precision="FP16">
					<dim>1</dim>
					<dim>1</dim>
					<dim>1</dim>
					<dim>1</dim>
				</port>
			</output>
		</layer>
		<layer id="107" name="3128313220745" type="Const" version="opset1">
			<data element_type="f16" offset="70" shape="1,1,1,1" size="2"/>
			<output>
				<port id="0" precision="FP16">
					<dim>1</dim>
					<dim>1</dim>
					<dim>1</dim>
					<dim>1</dim>
				</port>
			</output>
		</layer>
		<layer id="108" name="3855385922470" type="Const" version="opset1">
			<data element_type="f16" offset="72" shape="1,1,1,1" size="2"/>
			<output>
				<port id="0" precision="FP16">
					<dim>1</dim>
					<dim>1</dim>
					<dim>1</dim>
					<dim>1</dim>
				</port>
			</output>
		</layer>
		<layer id="109" name="3856386019833" type="Const" version="opset1">
			<data element_type="f16" offset="74" shape="1,1,1,1" size="2"/>
			<output>
				<port id="0" precision="FP16">
					<dim>1</dim>
					<dim>1</dim>
					<dim>1</dim>
					<dim>1</dim>
				</port>
			</output>
		</layer>
		<layer id="110" name="3857386120877" type="Const" version="opset1">
			<data element_type="f16" offset="72" shape="1,1,1,1" size="2"/>
			<output>
				<port id="0" precision="FP16">
					<dim>1</dim>
					<dim>1</dim>
					<dim>1</dim>
					<dim>1</dim>
				</port>
			</output>
		</layer>
		<layer id="111" name="3858386221009" type="Const" version="opset1">
			<data element_type="f16" offset="74" shape="1,1,1,1" size="2"/>
			<output>
				<port id="0" precision="FP16">
					<dim>1</dim>
					<dim>1</dim>
					<dim>1</dim>
					<dim>1</dim>
				</port>
			</output>
		</layer>
		<layer id="112" name="4405440922086" type="Const" version="opset1">
			<data element_type="f16" offset="72" shape="1,1,1,1" size="2"/>
			<output>
				<port id="0" precision="FP16">
					<dim>1</dim>
					<dim>1</dim>
					<dim>1</dim>
					<dim>1</dim>
				</port>
			</output>
		</layer>
		<layer id="113" name="4406441020853" type="Const" version="opset1">
			<data element_type="f16" offset="76" shape="1,1,1,1" size="2"/>
			<output>
				<port id="0" precision="FP16">
					<dim>1</dim>
					<dim>1</dim>
					<dim>1</dim>
					<dim>1</dim>
				</port>
			</output>
		</layer>
		<layer id="114" name="4407441121222" type="Const" version="opset1">
			<data element_type="f16" offset="72" shape="1,1,1,1" size="2"/>
			<output>
				<port id="0" precision="FP16">
					<dim>1</dim>
					<dim>1</dim>
					<dim>1</dim>
					<dim>1</dim>
				</port>
			</output>
		</layer>
		<layer id="115" name="4408441221936" type="Const" version="opset1">
			<data element_type="f16" offset="76" shape="1,1,1,1" size="2"/>
			<output>
				<port id="0" precision="FP16">
					<dim>1</dim>
					<dim>1</dim>
					<dim>1</dim>
					<dim>1</dim>
				</port>
			</output>
		</layer>
		<layer id="116" name="4905490921117" type="Const" version="opset1">
			<data element_type="f16" offset="78" shape="1,1,1,1" size="2"/>
			<output>
				<port id="0" precision="FP16">
					<dim>1</dim>
					<dim>1</dim>
					<dim>1</dim>
					<dim>1</dim>
				</port>
			</output>
		</layer>
		<layer id="117" name="4906491021831" type="Const" version="opset1">
			<data element_type="f16" offset="80" shape="1,1,1,1" size="2"/>
			<output>
				<port id="0" precision="FP16">
					<dim>1</dim>
					<dim>1</dim>
					<dim>1</dim>
					<dim>1</dim>
				</port>
			</output>
		</layer>
		<layer id="118" name="4907491120730" type="Const" version="opset1">
			<data element_type="f16" offset="78" shape="1,1,1,1" size="2"/>
			<output>
				<port id="0" precision="FP16">
					<dim>1</dim>
					<dim>1</dim>
					<dim>1</dim>
					<dim>1</dim>
				</port>
			</output>
		</layer>
		<layer id="119" name="4908491222635" type="Const" version="opset1">
			<data element_type="f16" offset="80" shape="1,1,1,1" size="2"/>
			<output>
				<port id="0" precision="FP16">
					<dim>1</dim>
					<dim>1</dim>
					<dim>1</dim>
					<dim>1</dim>
				</port>
			</output>
		</layer>
		<layer id="120" name="data_mul_2480872320019" type="Const" version="opset1">
			<data element_type="f16" offset="82" shape="1,3,1,1" size="6"/>
			<output>
				<port id="0" precision="FP16">
					<dim>1</dim>
					<dim>3</dim>
					<dim>1</dim>
					<dim>1</dim>
				</port>
			</output>
		</layer>
		<layer id="121" name="3585358922638" type="Const" version="opset1">
			<data element_type="f16" offset="88" shape="1,1,1,1" size="2"/>
			<output>
				<port id="0" precision="FP16">
					<dim>1</dim>
					<dim>1</dim>
					<dim>1</dim>
					<dim>1</dim>
				</port>
			</output>
		</layer>
		<layer id="122" name="3586359022518" type="Const" version="opset1">
			<data element_type="f16" offset="90" shape="1,1,1,1" size="2"/>
			<output>
				<port id="0" precision="FP16">
					<dim>1</dim>
					<dim>1</dim>
					<dim>1</dim>
					<dim>1</dim>
				</port>
			</output>
		</layer>
		<layer id="123" name="3587359121912" type="Const" version="opset1">
			<data element_type="f16" offset="88" shape="1,1,1,1" size="2"/>
			<output>
				<port id="0" precision="FP16">
					<dim>1</dim>
					<dim>1</dim>
					<dim>1</dim>
					<dim>1</dim>
				</port>
			</output>
		</layer>
		<layer id="124" name="3588359220268" type="Const" version="opset1">
			<data element_type="f16" offset="90" shape="1,1,1,1" size="2"/>
			<output>
				<port id="0" precision="FP16">
					<dim>1</dim>
					<dim>1</dim>
					<dim>1</dim>
					<dim>1</dim>
				</port>
			</output>
		</layer>
		<layer id="125" name="data" type="Parameter" version="opset1">
			<data element_type="f16" shape="1,3,1024,1024"/>
			<output>
				<port id="0" names="data" precision="FP16">
					<dim>1</dim>
					<dim>3</dim>
					<dim>1024</dim>
					<dim>1024</dim>
				</port>
			</output>
		</layer>
		<layer id="126" name="data/mean_input_port_1/value61883980572120985" type="Const" version="opset1">
			<data element_type="f16" offset="92" shape="1,3,1,1" size="6"/>
			<output>
				<port id="0" precision="FP16">
					<dim>1</dim>
					<dim>3</dim>
					<dim>1</dim>
					<dim>1</dim>
				</port>
			</output>
		</layer>
		<layer id="127" name="data/mean" type="Add" version="opset1">
			<data auto_broadcast="numpy"/>
			<input>
				<port id="0">
					<dim>1</dim>
					<dim>3</dim>
					<dim>1024</dim>
					<dim>1024</dim>
				</port>
				<port id="1">
					<dim>1</dim>
					<dim>3</dim>
					<dim>1</dim>
					<dim>1</dim>
				</port>
			</input>
			<output>
				<port id="2" precision="FP16">
					<dim>1</dim>
					<dim>3</dim>
					<dim>1024</dim>
					<dim>1024</dim>
				</port>
			</output>
		</layer>
		<layer id="128" name="data_bn/mean/Fused_Mul_/fq_input_0" type="FakeQuantize" version="opset1">
			<data auto_broadcast="numpy" levels="256"/>
			<input>
				<port id="0">
					<dim>1</dim>
					<dim>3</dim>
					<dim>1024</dim>
					<dim>1024</dim>
				</port>
				<port id="1">
					<dim>1</dim>
					<dim>1</dim>
					<dim>1</dim>
					<dim>1</dim>
				</port>
				<port id="2">
					<dim>1</dim>
					<dim>1</dim>
					<dim>1</dim>
					<dim>1</dim>
				</port>
				<port id="3">
					<dim>1</dim>
					<dim>1</dim>
					<dim>1</dim>
					<dim>1</dim>
				</port>
				<port id="4">
					<dim>1</dim>
					<dim>1</dim>
					<dim>1</dim>
					<dim>1</dim>
				</port>
			</input>
			<output>
				<port id="5" precision="FP16">
					<dim>1</dim>
					<dim>3</dim>
					<dim>1024</dim>
					<dim>1024</dim>
				</port>
			</output>
		</layer>
		<layer id="129" name="data_bn/mean/Fused_Mul_" type="Multiply" version="opset1">
			<data auto_broadcast="numpy"/>
			<input>
				<port id="0">
					<dim>1</dim>
					<dim>3</dim>
					<dim>1024</dim>
					<dim>1024</dim>
				</port>
				<port id="1">
					<dim>1</dim>
					<dim>3</dim>
					<dim>1</dim>
					<dim>1</dim>
				</port>
			</input>
			<output>
				<port id="2" precision="FP16">
					<dim>1</dim>
					<dim>3</dim>
					<dim>1024</dim>
					<dim>1024</dim>
				</port>
			</output>
		</layer>
		<layer id="130" name="data_add_2481072522080" type="Const" version="opset1">
			<data element_type="f16" offset="98" shape="1,3,1,1" size="6"/>
			<output>
				<port id="0" precision="FP16">
					<dim>1</dim>
					<dim>3</dim>
					<dim>1</dim>
					<dim>1</dim>
				</port>
			</output>
		</layer>
		<layer id="131" name="data_bn/variance/Fused_Add_" type="Add" version="opset1">
			<data auto_broadcast="numpy"/>
			<input>
				<port id="0">
					<dim>1</dim>
					<dim>3</dim>
					<dim>1024</dim>
					<dim>1024</dim>
				</port>
				<port id="1">
					<dim>1</dim>
					<dim>3</dim>
					<dim>1</dim>
					<dim>1</dim>
				</port>
			</input>
			<output>
				<port id="2" names="data_bn" precision="FP16">
					<dim>1</dim>
					<dim>3</dim>
					<dim>1024</dim>
					<dim>1024</dim>
				</port>
			</output>
		</layer>
		<layer id="132" name="conv0/WithoutBiases/fq_input_0" type="FakeQuantize" version="opset1">
			<data auto_broadcast="numpy" levels="256"/>
			<input>
				<port id="0">
					<dim>1</dim>
					<dim>3</dim>
					<dim>1024</dim>
					<dim>1024</dim>
				</port>
				<port id="1">
					<dim>1</dim>
					<dim>1</dim>
					<dim>1</dim>
					<dim>1</dim>
				</port>
				<port id="2">
					<dim>1</dim>
					<dim>1</dim>
					<dim>1</dim>
					<dim>1</dim>
				</port>
				<port id="3">
					<dim>1</dim>
					<dim>1</dim>
					<dim>1</dim>
					<dim>1</dim>
				</port>
				<port id="4">
					<dim>1</dim>
					<dim>1</dim>
					<dim>1</dim>
					<dim>1</dim>
				</port>
			</input>
			<output>
				<port id="5" precision="FP16">
					<dim>1</dim>
					<dim>3</dim>
					<dim>1024</dim>
					<dim>1024</dim>
				</port>
			</output>
		</layer>
		<layer id="133" name="conv0_bn/mean/Fused_Mul__copy7279995/quantized1330921639" type="Const" version="opset1">
			<data element_type="i8" offset="104" shape="3,3,7,7" size="441"/>
			<output>
				<port id="0" precision="I8">
					<dim>3</dim>
					<dim>3</dim>
					<dim>7</dim>
					<dim>7</dim>
				</port>
			</output>
		</layer>
		<layer id="134" name="conv0_bn/mean/Fused_Mul__copy7279995/quantized/to_f16" type="Convert" version="opset1">
			<data destination_type="f16"/>
			<input>
				<port id="0">
					<dim>3</dim>
					<dim>3</dim>
					<dim>7</dim>
					<dim>7</dim>
				</port>
			</input>
			<output>
				<port id="1" precision="FP16">
					<dim>3</dim>
					<dim>3</dim>
					<dim>7</dim>
					<dim>7</dim>
				</port>
			</output>
		</layer>
		<layer id="135" name="conv0/WithoutBiases/fq_weights_1/zero_point1332220658" type="Const" version="opset1">
			<data element_type="f16" offset="545" shape="3,1,1,1" size="6"/>
			<output>
				<port id="0" precision="FP16">
					<dim>3</dim>
					<dim>1</dim>
					<dim>1</dim>
					<dim>1</dim>
				</port>
			</output>
		</layer>
		<layer id="136" name="conv0/WithoutBiases/fq_weights_1/minus_zp" type="Subtract" version="opset1">
			<data auto_broadcast="numpy"/>
			<input>
				<port id="0">
					<dim>3</dim>
					<dim>3</dim>
					<dim>7</dim>
					<dim>7</dim>
				</port>
				<port id="1">
					<dim>3</dim>
					<dim>1</dim>
					<dim>1</dim>
					<dim>1</dim>
				</port>
			</input>
			<output>
				<port id="2" precision="FP16">
					<dim>3</dim>
					<dim>3</dim>
					<dim>7</dim>
					<dim>7</dim>
				</port>
			</output>
		</layer>
		<layer id="137" name="conv0/WithoutBiases/fq_weights_1/scale1331722227" type="Const" version="opset1">
			<data element_type="f16" offset="551" shape="3,1,1,1" size="6"/>
			<output>
				<port id="0" precision="FP16">
					<dim>3</dim>
					<dim>1</dim>
					<dim>1</dim>
					<dim>1</dim>
				</port>
			</output>
		</layer>
		<layer id="138" name="conv0/WithoutBiases/fq_weights_1/mulpiply_by_scale" type="Multiply" version="opset1">
			<data auto_broadcast="numpy"/>
			<input>
				<port id="0">
					<dim>3</dim>
					<dim>3</dim>
					<dim>7</dim>
					<dim>7</dim>
				</port>
				<port id="1">
					<dim>3</dim>
					<dim>1</dim>
					<dim>1</dim>
					<dim>1</dim>
				</port>
			</input>
			<output>
				<port id="2" precision="FP16">
					<dim>3</dim>
					<dim>3</dim>
					<dim>7</dim>
					<dim>7</dim>
				</port>
			</output>
		</layer>
		<layer id="139" name="conv0/WithoutBiases" type="Convolution" version="opset1">
			<data auto_pad="explicit" dilations="1,1" pads_begin="3,3" pads_end="3,3" strides="2,2"/>
			<input>
				<port id="0">
					<dim>1</dim>
					<dim>3</dim>
					<dim>1024</dim>
					<dim>1024</dim>
				</port>
				<port id="1">
					<dim>3</dim>
					<dim>3</dim>
					<dim>7</dim>
					<dim>7</dim>
				</port>
			</input>
			<output>
				<port id="2" precision="FP16">
					<dim>1</dim>
					<dim>3</dim>
					<dim>512</dim>
					<dim>512</dim>
				</port>
			</output>
		</layer>
		<layer id="140" name="data_add_248132481872921768" type="Const" version="opset1">
			<data element_type="f16" offset="557" shape="1,3,1,1" size="6"/>
			<output>
				<port id="0" precision="FP16">
					<dim>1</dim>
					<dim>3</dim>
					<dim>1</dim>
					<dim>1</dim>
				</port>
			</output>
		</layer>
		<layer id="141" name="conv0/Fused_Add_" type="Add" version="opset1">
			<data auto_broadcast="numpy"/>
			<input>
				<port id="0">
					<dim>1</dim>
					<dim>3</dim>
					<dim>512</dim>
					<dim>512</dim>
				</port>
				<port id="1">
					<dim>1</dim>
					<dim>3</dim>
					<dim>1</dim>
					<dim>1</dim>
				</port>
			</input>
			<output>
				<port id="2" names="conv0" precision="FP16">
					<dim>1</dim>
					<dim>3</dim>
					<dim>512</dim>
					<dim>512</dim>
				</port>
			</output>
		</layer>
		<layer id="142" name="conv0_relu" type="ReLU" version="opset1">
			<input>
				<port id="0">
					<dim>1</dim>
					<dim>3</dim>
					<dim>512</dim>
					<dim>512</dim>
				</port>
			</input>
			<output>
				<port id="1" names="conv0" precision="FP16">
					<dim>1</dim>
					<dim>3</dim>
					<dim>512</dim>
					<dim>512</dim>
				</port>
			</output>
		</layer>
		<layer id="143" name="init_block1/dim_inc/conv/fq_input_0" type="FakeQuantize" version="opset1">
			<data auto_broadcast="numpy" levels="256"/>
			<input>
				<port id="0">
					<dim>1</dim>
					<dim>3</dim>
					<dim>512</dim>
					<dim>512</dim>
				</port>
				<port id="1">
					<dim>1</dim>
					<dim>1</dim>
					<dim>1</dim>
					<dim>1</dim>
				</port>
				<port id="2">
					<dim>1</dim>
					<dim>1</dim>
					<dim>1</dim>
					<dim>1</dim>
				</port>
				<port id="3">
					<dim>1</dim>
					<dim>1</dim>
					<dim>1</dim>
					<dim>1</dim>
				</port>
				<port id="4">
					<dim>1</dim>
					<dim>1</dim>
					<dim>1</dim>
					<dim>1</dim>
				</port>
			</input>
			<output>
				<port id="5" precision="FP16">
					<dim>1</dim>
					<dim>3</dim>
					<dim>512</dim>
					<dim>512</dim>
				</port>
			</output>
		</layer>
		<layer id="144" name="init_block1/dim_inc/bn/mean/Fused_Mul__copy7329997/quantized1249320169" type="Const" version="opset1">
			<data element_type="i8" offset="563" shape="32,3,3,3" size="864"/>
			<output>
				<port id="0" precision="I8">
					<dim>32</dim>
					<dim>3</dim>
					<dim>3</dim>
					<dim>3</dim>
				</port>
			</output>
		</layer>
		<layer id="145" name="init_block1/dim_inc/bn/mean/Fused_Mul__copy7329997/quantized/to_f16" type="Convert" version="opset1">
			<data destination_type="f16"/>
			<input>
				<port id="0">
					<dim>32</dim>
					<dim>3</dim>
					<dim>3</dim>
					<dim>3</dim>
				</port>
			</input>
			<output>
				<port id="1" precision="FP16">
					<dim>32</dim>
					<dim>3</dim>
					<dim>3</dim>
					<dim>3</dim>
				</port>
			</output>
		</layer>
		<layer id="146" name="init_block1/dim_inc/conv/fq_weights_1/zero_point1250622515" type="Const" version="opset1">
			<data element_type="f16" offset="1427" shape="32,1,1,1" size="64"/>
			<output>
				<port id="0" precision="FP16">
					<dim>32</dim>
					<dim>1</dim>
					<dim>1</dim>
					<dim>1</dim>
				</port>
			</output>
		</layer>
		<layer id="147" name="init_block1/dim_inc/conv/fq_weights_1/minus_zp" type="Subtract" version="opset1">
			<data auto_broadcast="numpy"/>
			<input>
				<port id="0">
					<dim>32</dim>
					<dim>3</dim>
					<dim>3</dim>
					<dim>3</dim>
				</port>
				<port id="1">
					<dim>32</dim>
					<dim>1</dim>
					<dim>1</dim>
					<dim>1</dim>
				</port>
			</input>
			<output>
				<port id="2" precision="FP16">
					<dim>32</dim>
					<dim>3</dim>
					<dim>3</dim>
					<dim>3</dim>
				</port>
			</output>
		</layer>
		<layer id="148" name="init_block1/dim_inc/conv/fq_weights_1/scale1250120664" type="Const" version="opset1">
			<data element_type="f16" offset="1491" shape="32,1,1,1" size="64"/>
			<output>
				<port id="0" precision="FP16">
					<dim>32</dim>
					<dim>1</dim>
					<dim>1</dim>
					<dim>1</dim>
				</port>
			</output>
		</layer>
		<layer id="149" name="init_block1/dim_inc/conv/fq_weights_1/mulpiply_by_scale" type="Multiply" version="opset1">
			<data auto_broadcast="numpy"/>
			<input>
				<port id="0">
					<dim>32</dim>
					<dim>3</dim>
					<dim>3</dim>
					<dim>3</dim>
				</port>
				<port id="1">
					<dim>32</dim>
					<dim>1</dim>
					<dim>1</dim>
					<dim>1</dim>
				</port>
			</input>
			<output>
				<port id="2" precision="FP16">
					<dim>32</dim>
					<dim>3</dim>
					<dim>3</dim>
					<dim>3</dim>
				</port>
			</output>
		</layer>
		<layer id="150" name="init_block1/dim_inc/conv" type="Convolution" version="opset1">
			<data auto_pad="explicit" dilations="1,1" pads_begin="1,1" pads_end="1,1" strides="2,2"/>
			<input>
				<port id="0">
					<dim>1</dim>
					<dim>3</dim>
					<dim>512</dim>
					<dim>512</dim>
				</port>
				<port id="1">
					<dim>32</dim>
					<dim>3</dim>
					<dim>3</dim>
					<dim>3</dim>
				</port>
			</input>
			<output>
				<port id="2" precision="FP16">
					<dim>1</dim>
					<dim>32</dim>
					<dim>256</dim>
					<dim>256</dim>
				</port>
			</output>
		</layer>
		<layer id="151" name="data_add_248212482673421252" type="Const" version="opset1">
			<data element_type="f16" offset="1555" shape="1,32,1,1" size="64"/>
			<output>
				<port id="0" precision="FP16">
					<dim>1</dim>
					<dim>32</dim>
					<dim>1</dim>
					<dim>1</dim>
				</port>
			</output>
		</layer>
		<layer id="152" name="init_block1/dim_inc/bn/variance/Fused_Add_" type="Add" version="opset1">
			<data auto_broadcast="numpy"/>
			<input>
				<port id="0">
					<dim>1</dim>
					<dim>32</dim>
					<dim>256</dim>
					<dim>256</dim>
				</port>
				<port id="1">
					<dim>1</dim>
					<dim>32</dim>
					<dim>1</dim>
					<dim>1</dim>
				</port>
			</input>
			<output>
				<port id="2" names="init_block1/dim_inc/conv" precision="FP16">
					<dim>1</dim>
					<dim>32</dim>
					<dim>256</dim>
					<dim>256</dim>
				</port>
			</output>
		</layer>
		<layer id="153" name="init_block1/dim_inc/fn" type="ReLU" version="opset1">
			<input>
				<port id="0">
					<dim>1</dim>
					<dim>32</dim>
					<dim>256</dim>
					<dim>256</dim>
				</port>
			</input>
			<output>
				<port id="1" names="init_block1/dim_inc/conv" precision="FP16">
					<dim>1</dim>
					<dim>32</dim>
					<dim>256</dim>
					<dim>256</dim>
				</port>
			</output>
		</layer>
		<layer id="154" name="bottleneck1_1/add/fq_input_0" type="FakeQuantize" version="opset1">
			<data auto_broadcast="numpy" levels="256"/>
			<input>
				<port id="0">
					<dim>1</dim>
					<dim>32</dim>
					<dim>256</dim>
					<dim>256</dim>
				</port>
				<port id="1">
					<dim>1</dim>
					<dim>1</dim>
					<dim>1</dim>
					<dim>1</dim>
				</port>
				<port id="2">
					<dim>1</dim>
					<dim>1</dim>
					<dim>1</dim>
					<dim>1</dim>
				</port>
				<port id="3">
					<dim>1</dim>
					<dim>1</dim>
					<dim>1</dim>
					<dim>1</dim>
				</port>
				<port id="4">
					<dim>1</dim>
					<dim>1</dim>
					<dim>1</dim>
					<dim>1</dim>
				</port>
			</input>
			<output>
				<port id="5" precision="FP16">
					<dim>1</dim>
					<dim>32</dim>
					<dim>256</dim>
					<dim>256</dim>
				</port>
			</output>
		</layer>
		<layer id="155" name="3865386919980" type="Const" version="opset1">
			<data element_type="f16" offset="1619" shape="1,1,1,1" size="2"/>
			<output>
				<port id="0" precision="FP16">
					<dim>1</dim>
					<dim>1</dim>
					<dim>1</dim>
					<dim>1</dim>
				</port>
			</output>
		</layer>
		<layer id="156" name="3866387019869" type="Const" version="opset1">
			<data element_type="f16" offset="1621" shape="1,1,1,1" size="2"/>
			<output>
				<port id="0" precision="FP16">
					<dim>1</dim>
					<dim>1</dim>
					<dim>1</dim>
					<dim>1</dim>
				</port>
			</output>
		</layer>
		<layer id="157" name="3867387119917" type="Const" version="opset1">
			<data element_type="f16" offset="1619" shape="1,1,1,1" size="2"/>
			<output>
				<port id="0" precision="FP16">
					<dim>1</dim>
					<dim>1</dim>
					<dim>1</dim>
					<dim>1</dim>
				</port>
			</output>
		</layer>
		<layer id="158" name="3868387219893" type="Const" version="opset1">
			<data element_type="f16" offset="1621" shape="1,1,1,1" size="2"/>
			<output>
				<port id="0" precision="FP16">
					<dim>1</dim>
					<dim>1</dim>
					<dim>1</dim>
					<dim>1</dim>
				</port>
			</output>
		</layer>
		<layer id="159" name="4965496922341" type="Const" version="opset1">
			<data element_type="f16" offset="4" shape="1,1,1,1" size="2"/>
			<output>
				<port id="0" precision="FP16">
					<dim>1</dim>
					<dim>1</dim>
					<dim>1</dim>
					<dim>1</dim>
				</port>
			</output>
		</layer>
		<layer id="160" name="4966497020376" type="Const" version="opset1">
			<data element_type="f16" offset="1623" shape="1,1,1,1" size="2"/>
			<output>
				<port id="0" precision="FP16">
					<dim>1</dim>
					<dim>1</dim>
					<dim>1</dim>
					<dim>1</dim>
				</port>
			</output>
		</layer>
		<layer id="161" name="4967497122464" type="Const" version="opset1">
			<data element_type="f16" offset="4" shape="1,1,1,1" size="2"/>
			<output>
				<port id="0" precision="FP16">
					<dim>1</dim>
					<dim>1</dim>
					<dim>1</dim>
					<dim>1</dim>
				</port>
			</output>
		</layer>
		<layer id="162" name="4968497221597" type="Const" version="opset1">
			<data element_type="f16" offset="1623" shape="1,1,1,1" size="2"/>
			<output>
				<port id="0" precision="FP16">
					<dim>1</dim>
					<dim>1</dim>
					<dim>1</dim>
					<dim>1</dim>
				</port>
			</output>
		</layer>
		<layer id="163" name="4785478920331" type="Const" version="opset1">
			<data element_type="f16" offset="1625" shape="1,8,1,1" size="16"/>
			<output>
				<port id="0" precision="FP16">
					<dim>1</dim>
					<dim>8</dim>
					<dim>1</dim>
					<dim>1</dim>
				</port>
			</output>
		</layer>
		<layer id="164" name="4786479022068" type="Const" version="opset1">
			<data element_type="f16" offset="1641" shape="1,8,1,1" size="16"/>
			<output>
				<port id="0" precision="FP16">
					<dim>1</dim>
					<dim>8</dim>
					<dim>1</dim>
					<dim>1</dim>
				</port>
			</output>
		</layer>
		<layer id="165" name="4787479120787" type="Const" version="opset1">
			<data element_type="f16" offset="1625" shape="1,8,1,1" size="16"/>
			<output>
				<port id="0" precision="FP16">
					<dim>1</dim>
					<dim>8</dim>
					<dim>1</dim>
					<dim>1</dim>
				</port>
			</output>
		</layer>
		<layer id="166" name="4788479220823" type="Const" version="opset1">
			<data element_type="f16" offset="1641" shape="1,8,1,1" size="16"/>
			<output>
				<port id="0" precision="FP16">
					<dim>1</dim>
					<dim>8</dim>
					<dim>1</dim>
					<dim>1</dim>
				</port>
			</output>
		</layer>
		<layer id="167" name="bottleneck1_1/dim_red/bn/mean/Fused_Mul__copy7379999/quantized1398122212" type="Const" version="opset1">
			<data element_type="i8" offset="1657" shape="8,32,1,1" size="256"/>
			<output>
				<port id="0" precision="I8">
					<dim>8</dim>
					<dim>32</dim>
					<dim>1</dim>
					<dim>1</dim>
				</port>
			</output>
		</layer>
		<layer id="168" name="bottleneck1_1/dim_red/bn/mean/Fused_Mul__copy7379999/quantized/to_f16" type="Convert" version="opset1">
			<data destination_type="f16"/>
			<input>
				<port id="0">
					<dim>8</dim>
					<dim>32</dim>
					<dim>1</dim>
					<dim>1</dim>
				</port>
			</input>
			<output>
				<port id="1" precision="FP16">
					<dim>8</dim>
					<dim>32</dim>
					<dim>1</dim>
					<dim>1</dim>
				</port>
			</output>
		</layer>
		<layer id="169" name="bottleneck1_1/dim_red/conv/fq_weights_1/zero_point1399419293" type="Const" version="opset1">
			<data element_type="f16" offset="1913" shape="8,1,1,1" size="16"/>
			<output>
				<port id="0" precision="FP16">
					<dim>8</dim>
					<dim>1</dim>
					<dim>1</dim>
					<dim>1</dim>
				</port>
			</output>
		</layer>
		<layer id="170" name="bottleneck1_1/dim_red/conv/fq_weights_1/minus_zp" type="Subtract" version="opset1">
			<data auto_broadcast="numpy"/>
			<input>
				<port id="0">
					<dim>8</dim>
					<dim>32</dim>
					<dim>1</dim>
					<dim>1</dim>
				</port>
				<port id="1">
					<dim>8</dim>
					<dim>1</dim>
					<dim>1</dim>
					<dim>1</dim>
				</port>
			</input>
			<output>
				<port id="2" precision="FP16">
					<dim>8</dim>
					<dim>32</dim>
					<dim>1</dim>
					<dim>1</dim>
				</port>
			</output>
		</layer>
		<layer id="171" name="bottleneck1_1/dim_red/conv/fq_weights_1/scale1398919785" type="Const" version="opset1">
			<data element_type="f16" offset="1929" shape="8,1,1,1" size="16"/>
			<output>
				<port id="0" precision="FP16">
					<dim>8</dim>
					<dim>1</dim>
					<dim>1</dim>
					<dim>1</dim>
				</port>
			</output>
		</layer>
		<layer id="172" name="bottleneck1_1/dim_red/conv/fq_weights_1/mulpiply_by_scale" type="Multiply" version="opset1">
			<data auto_broadcast="numpy"/>
			<input>
				<port id="0">
					<dim>8</dim>
					<dim>32</dim>
					<dim>1</dim>
					<dim>1</dim>
				</port>
				<port id="1">
					<dim>8</dim>
					<dim>1</dim>
					<dim>1</dim>
					<dim>1</dim>
				</port>
			</input>
			<output>
				<port id="2" precision="FP16">
					<dim>8</dim>
					<dim>32</dim>
					<dim>1</dim>
					<dim>1</dim>
				</port>
			</output>
		</layer>
		<layer id="173" name="bottleneck1_1/dim_red/conv" type="Convolution" version="opset1">
			<data auto_pad="explicit" dilations="1,1" pads_begin="0,0" pads_end="0,0" strides="1,1"/>
			<input>
				<port id="0">
					<dim>1</dim>
					<dim>32</dim>
					<dim>256</dim>
					<dim>256</dim>
				</port>
				<port id="1">
					<dim>8</dim>
					<dim>32</dim>
					<dim>1</dim>
					<dim>1</dim>
				</port>
			</input>
			<output>
				<port id="2" precision="FP16">
					<dim>1</dim>
					<dim>8</dim>
					<dim>256</dim>
					<dim>256</dim>
				</port>
			</output>
		</layer>
		<layer id="174" name="data_add_248292483473919323" type="Const" version="opset1">
			<data element_type="f16" offset="1945" shape="1,8,1,1" size="16"/>
			<output>
				<port id="0" precision="FP16">
					<dim>1</dim>
					<dim>8</dim>
					<dim>1</dim>
					<dim>1</dim>
				</port>
			</output>
		</layer>
		<layer id="175" name="bottleneck1_1/dim_red/bn/variance/Fused_Add_" type="Add" version="opset1">
			<data auto_broadcast="numpy"/>
			<input>
				<port id="0">
					<dim>1</dim>
					<dim>8</dim>
					<dim>256</dim>
					<dim>256</dim>
				</port>
				<port id="1">
					<dim>1</dim>
					<dim>8</dim>
					<dim>1</dim>
					<dim>1</dim>
				</port>
			</input>
			<output>
				<port id="2" names="bottleneck1_1/dim_red/conv" precision="FP16">
					<dim>1</dim>
					<dim>8</dim>
					<dim>256</dim>
					<dim>256</dim>
				</port>
			</output>
		</layer>
		<layer id="176" name="bottleneck1_1/dim_red/fn" type="Elu" version="opset1">
			<data alpha="1"/>
			<input>
				<port id="0">
					<dim>1</dim>
					<dim>8</dim>
					<dim>256</dim>
					<dim>256</dim>
				</port>
			</input>
			<output>
				<port id="1" names="bottleneck1_1/dim_red/conv" precision="FP16">
					<dim>1</dim>
					<dim>8</dim>
					<dim>256</dim>
					<dim>256</dim>
				</port>
			</output>
		</layer>
		<layer id="177" name="bottleneck1_1/inner/dw1/conv/fq_input_0" type="FakeQuantize" version="opset1">
			<data auto_broadcast="numpy" levels="256"/>
			<input>
				<port id="0">
					<dim>1</dim>
					<dim>8</dim>
					<dim>256</dim>
					<dim>256</dim>
				</port>
				<port id="1">
					<dim>1</dim>
					<dim>8</dim>
					<dim>1</dim>
					<dim>1</dim>
				</port>
				<port id="2">
					<dim>1</dim>
					<dim>8</dim>
					<dim>1</dim>
					<dim>1</dim>
				</port>
				<port id="3">
					<dim>1</dim>
					<dim>8</dim>
					<dim>1</dim>
					<dim>1</dim>
				</port>
				<port id="4">
					<dim>1</dim>
					<dim>8</dim>
					<dim>1</dim>
					<dim>1</dim>
				</port>
			</input>
			<output>
				<port id="5" precision="FP16">
					<dim>1</dim>
					<dim>8</dim>
					<dim>256</dim>
					<dim>256</dim>
				</port>
			</output>
		</layer>
		<layer id="178" name="16758/value1676021507" type="Const" version="opset1">
			<data element_type="i64" offset="1961" shape="5" size="40"/>
			<output>
				<port id="0" precision="I64">
					<dim>5</dim>
				</port>
			</output>
		</layer>
		<layer id="179" name="bottleneck1_1/inner/dw1/bn/mean/Fused_Mul__copy74210001/quantized1239722452" type="Const" version="opset1">
			<data element_type="i8" offset="2001" shape="8,1,3,3" size="72"/>
			<output>
				<port id="0" precision="I8">
					<dim>8</dim>
					<dim>1</dim>
					<dim>3</dim>
					<dim>3</dim>
				</port>
			</output>
		</layer>
		<layer id="180" name="bottleneck1_1/inner/dw1/bn/mean/Fused_Mul__copy74210001/quantized/to_f16" type="Convert" version="opset1">
			<data destination_type="f16"/>
			<input>
				<port id="0">
					<dim>8</dim>
					<dim>1</dim>
					<dim>3</dim>
					<dim>3</dim>
				</port>
			</input>
			<output>
				<port id="1" precision="FP16">
					<dim>8</dim>
					<dim>1</dim>
					<dim>3</dim>
					<dim>3</dim>
				</port>
			</output>
		</layer>
		<layer id="181" name="bottleneck1_1/inner/dw1/conv/fq_weights_1/zero_point1241020565" type="Const" version="opset1">
			<data element_type="f16" offset="2073" shape="8,1,1,1" size="16"/>
			<output>
				<port id="0" precision="FP16">
					<dim>8</dim>
					<dim>1</dim>
					<dim>1</dim>
					<dim>1</dim>
				</port>
			</output>
		</layer>
		<layer id="182" name="bottleneck1_1/inner/dw1/conv/fq_weights_1/minus_zp" type="Subtract" version="opset1">
			<data auto_broadcast="numpy"/>
			<input>
				<port id="0">
					<dim>8</dim>
					<dim>1</dim>
					<dim>3</dim>
					<dim>3</dim>
				</port>
				<port id="1">
					<dim>8</dim>
					<dim>1</dim>
					<dim>1</dim>
					<dim>1</dim>
				</port>
			</input>
			<output>
				<port id="2" precision="FP16">
					<dim>8</dim>
					<dim>1</dim>
					<dim>3</dim>
					<dim>3</dim>
				</port>
			</output>
		</layer>
		<layer id="183" name="bottleneck1_1/inner/dw1/conv/fq_weights_1/scale1240520649" type="Const" version="opset1">
			<data element_type="f16" offset="2089" shape="8,1,1,1" size="16"/>
			<output>
				<port id="0" precision="FP16">
					<dim>8</dim>
					<dim>1</dim>
					<dim>1</dim>
					<dim>1</dim>
				</port>
			</output>
		</layer>
		<layer id="184" name="bottleneck1_1/inner/dw1/conv/fq_weights_1/mulpiply_by_scale" type="Multiply" version="opset1">
			<data auto_broadcast="numpy"/>
			<input>
				<port id="0">
					<dim>8</dim>
					<dim>1</dim>
					<dim>3</dim>
					<dim>3</dim>
				</port>
				<port id="1">
					<dim>8</dim>
					<dim>1</dim>
					<dim>1</dim>
					<dim>1</dim>
				</port>
			</input>
			<output>
				<port id="2" precision="FP16">
					<dim>8</dim>
					<dim>1</dim>
					<dim>3</dim>
					<dim>3</dim>
				</port>
			</output>
		</layer>
		<layer id="185" name="16758" type="Reshape" version="opset1">
			<data special_zero="true"/>
			<input>
				<port id="0">
					<dim>8</dim>
					<dim>1</dim>
					<dim>3</dim>
					<dim>3</dim>
				</port>
				<port id="1">
					<dim>5</dim>
				</port>
			</input>
			<output>
				<port id="2" precision="FP16">
					<dim>8</dim>
					<dim>1</dim>
					<dim>1</dim>
					<dim>3</dim>
					<dim>3</dim>
				</port>
			</output>
		</layer>
		<layer id="186" name="bottleneck1_1/inner/dw1/conv" type="GroupConvolution" version="opset1">
			<data auto_pad="explicit" dilations="1,1" pads_begin="1,1" pads_end="1,1" strides="1,1"/>
			<input>
				<port id="0">
					<dim>1</dim>
					<dim>8</dim>
					<dim>256</dim>
					<dim>256</dim>
				</port>
				<port id="1">
					<dim>8</dim>
					<dim>1</dim>
					<dim>1</dim>
					<dim>3</dim>
					<dim>3</dim>
				</port>
			</input>
			<output>
				<port id="2" precision="FP16">
					<dim>1</dim>
					<dim>8</dim>
					<dim>256</dim>
					<dim>256</dim>
				</port>
			</output>
		</layer>
		<layer id="187" name="data_add_248372484274421384" type="Const" version="opset1">
			<data element_type="f16" offset="2105" shape="1,8,1,1" size="16"/>
			<output>
				<port id="0" precision="FP16">
					<dim>1</dim>
					<dim>8</dim>
					<dim>1</dim>
					<dim>1</dim>
				</port>
			</output>
		</layer>
		<layer id="188" name="bottleneck1_1/inner/dw1/bn/variance/Fused_Add_" type="Add" version="opset1">
			<data auto_broadcast="numpy"/>
			<input>
				<port id="0">
					<dim>1</dim>
					<dim>8</dim>
					<dim>256</dim>
					<dim>256</dim>
				</port>
				<port id="1">
					<dim>1</dim>
					<dim>8</dim>
					<dim>1</dim>
					<dim>1</dim>
				</port>
			</input>
			<output>
				<port id="2" names="bottleneck1_1/inner/dw1/conv" precision="FP16">
					<dim>1</dim>
					<dim>8</dim>
					<dim>256</dim>
					<dim>256</dim>
				</port>
			</output>
		</layer>
		<layer id="189" name="bottleneck1_1/inner/dw1/fn" type="Elu" version="opset1">
			<data alpha="1"/>
			<input>
				<port id="0">
					<dim>1</dim>
					<dim>8</dim>
					<dim>256</dim>
					<dim>256</dim>
				</port>
			</input>
			<output>
				<port id="1" names="bottleneck1_1/inner/dw1/conv" precision="FP16">
					<dim>1</dim>
					<dim>8</dim>
					<dim>256</dim>
					<dim>256</dim>
				</port>
			</output>
		</layer>
		<layer id="190" name="bottleneck1_1/dim_inc/conv/fq_input_0" type="FakeQuantize" version="opset1">
			<data auto_broadcast="numpy" levels="256"/>
			<input>
				<port id="0">
					<dim>1</dim>
					<dim>8</dim>
					<dim>256</dim>
					<dim>256</dim>
				</port>
				<port id="1">
					<dim>1</dim>
					<dim>1</dim>
					<dim>1</dim>
					<dim>1</dim>
				</port>
				<port id="2">
					<dim>1</dim>
					<dim>1</dim>
					<dim>1</dim>
					<dim>1</dim>
				</port>
				<port id="3">
					<dim>1</dim>
					<dim>1</dim>
					<dim>1</dim>
					<dim>1</dim>
				</port>
				<port id="4">
					<dim>1</dim>
					<dim>1</dim>
					<dim>1</dim>
					<dim>1</dim>
				</port>
			</input>
			<output>
				<port id="5" precision="FP16">
					<dim>1</dim>
					<dim>8</dim>
					<dim>256</dim>
					<dim>256</dim>
				</port>
			</output>
		</layer>
		<layer id="191" name="bottleneck1_1/dim_inc/bn/mean/Fused_Mul__copy74710003/quantized1340521795" type="Const" version="opset1">
			<data element_type="i8" offset="2121" shape="32,8,1,1" size="256"/>
			<output>
				<port id="0" precision="I8">
					<dim>32</dim>
					<dim>8</dim>
					<dim>1</dim>
					<dim>1</dim>
				</port>
			</output>
		</layer>
		<layer id="192" name="bottleneck1_1/dim_inc/bn/mean/Fused_Mul__copy74710003/quantized/to_f16" type="Convert" version="opset1">
			<data destination_type="f16"/>
			<input>
				<port id="0">
					<dim>32</dim>
					<dim>8</dim>
					<dim>1</dim>
					<dim>1</dim>
				</port>
			</input>
			<output>
				<port id="1" precision="FP16">
					<dim>32</dim>
					<dim>8</dim>
					<dim>1</dim>
					<dim>1</dim>
				</port>
			</output>
		</layer>
		<layer id="193" name="bottleneck1_1/dim_inc/conv/fq_weights_1/zero_point1341820415" type="Const" version="opset1">
			<data element_type="f16" offset="2377" shape="32,1,1,1" size="64"/>
			<output>
				<port id="0" precision="FP16">
					<dim>32</dim>
					<dim>1</dim>
					<dim>1</dim>
					<dim>1</dim>
				</port>
			</output>
		</layer>
		<layer id="194" name="bottleneck1_1/dim_inc/conv/fq_weights_1/minus_zp" type="Subtract" version="opset1">
			<data auto_broadcast="numpy"/>
			<input>
				<port id="0">
					<dim>32</dim>
					<dim>8</dim>
					<dim>1</dim>
					<dim>1</dim>
				</port>
				<port id="1">
					<dim>32</dim>
					<dim>1</dim>
					<dim>1</dim>
					<dim>1</dim>
				</port>
			</input>
			<output>
				<port id="2" precision="FP16">
					<dim>32</dim>
					<dim>8</dim>
					<dim>1</dim>
					<dim>1</dim>
				</port>
			</output>
		</layer>
		<layer id="195" name="bottleneck1_1/dim_inc/conv/fq_weights_1/scale1341322488" type="Const" version="opset1">
			<data element_type="f16" offset="2441" shape="32,1,1,1" size="64"/>
			<output>
				<port id="0" precision="FP16">
					<dim>32</dim>
					<dim>1</dim>
					<dim>1</dim>
					<dim>1</dim>
				</port>
			</output>
		</layer>
		<layer id="196" name="bottleneck1_1/dim_inc/conv/fq_weights_1/mulpiply_by_scale" type="Multiply" version="opset1">
			<data auto_broadcast="numpy"/>
			<input>
				<port id="0">
					<dim>32</dim>
					<dim>8</dim>
					<dim>1</dim>
					<dim>1</dim>
				</port>
				<port id="1">
					<dim>32</dim>
					<dim>1</dim>
					<dim>1</dim>
					<dim>1</dim>
				</port>
			</input>
			<output>
				<port id="2" precision="FP16">
					<dim>32</dim>
					<dim>8</dim>
					<dim>1</dim>
					<dim>1</dim>
				</port>
			</output>
		</layer>
		<layer id="197" name="bottleneck1_1/dim_inc/conv" type="Convolution" version="opset1">
			<data auto_pad="explicit" dilations="1,1" pads_begin="0,0" pads_end="0,0" strides="1,1"/>
			<input>
				<port id="0">
					<dim>1</dim>
					<dim>8</dim>
					<dim>256</dim>
					<dim>256</dim>
				</port>
				<port id="1">
					<dim>32</dim>
					<dim>8</dim>
					<dim>1</dim>
					<dim>1</dim>
				</port>
			</input>
			<output>
				<port id="2" precision="FP16">
					<dim>1</dim>
					<dim>32</dim>
					<dim>256</dim>
					<dim>256</dim>
				</port>
			</output>
		</layer>
		<layer id="198" name="data_add_248452485074919476" type="Const" version="opset1">
			<data element_type="f16" offset="2505" shape="1,32,1,1" size="64"/>
			<output>
				<port id="0" precision="FP16">
					<dim>1</dim>
					<dim>32</dim>
					<dim>1</dim>
					<dim>1</dim>
				</port>
			</output>
		</layer>
		<layer id="199" name="bottleneck1_1/dim_inc/bn/variance/Fused_Add_" type="Add" version="opset1">
			<data auto_broadcast="numpy"/>
			<input>
				<port id="0">
					<dim>1</dim>
					<dim>32</dim>
					<dim>256</dim>
					<dim>256</dim>
				</port>
				<port id="1">
					<dim>1</dim>
					<dim>32</dim>
					<dim>1</dim>
					<dim>1</dim>
				</port>
			</input>
			<output>
				<port id="2" names="bottleneck1_1/dim_inc/conv" precision="FP16">
					<dim>1</dim>
					<dim>32</dim>
					<dim>256</dim>
					<dim>256</dim>
				</port>
			</output>
		</layer>
		<layer id="200" name="bottleneck1_1/add/fq_input_1" type="FakeQuantize" version="opset1">
			<data auto_broadcast="numpy" levels="256"/>
			<input>
				<port id="0">
					<dim>1</dim>
					<dim>32</dim>
					<dim>256</dim>
					<dim>256</dim>
				</port>
				<port id="1">
					<dim>1</dim>
					<dim>1</dim>
					<dim>1</dim>
					<dim>1</dim>
				</port>
				<port id="2">
					<dim>1</dim>
					<dim>1</dim>
					<dim>1</dim>
					<dim>1</dim>
				</port>
				<port id="3">
					<dim>1</dim>
					<dim>1</dim>
					<dim>1</dim>
					<dim>1</dim>
				</port>
				<port id="4">
					<dim>1</dim>
					<dim>1</dim>
					<dim>1</dim>
					<dim>1</dim>
				</port>
			</input>
			<output>
				<port id="5" precision="FP16">
					<dim>1</dim>
					<dim>32</dim>
					<dim>256</dim>
					<dim>256</dim>
				</port>
			</output>
		</layer>
		<layer id="201" name="bottleneck1_1/add" type="Add" version="opset1">
			<data auto_broadcast="numpy"/>
			<input>
				<port id="0">
					<dim>1</dim>
					<dim>32</dim>
					<dim>256</dim>
					<dim>256</dim>
				</port>
				<port id="1">
					<dim>1</dim>
					<dim>32</dim>
					<dim>256</dim>
					<dim>256</dim>
				</port>
			</input>
			<output>
				<port id="2" names="bottleneck1_1/add" precision="FP16">
					<dim>1</dim>
					<dim>32</dim>
					<dim>256</dim>
					<dim>256</dim>
				</port>
			</output>
		</layer>
		<layer id="202" name="bottleneck1_1/fn" type="Elu" version="opset1">
			<data alpha="1"/>
			<input>
				<port id="0">
					<dim>1</dim>
					<dim>32</dim>
					<dim>256</dim>
					<dim>256</dim>
				</port>
			</input>
			<output>
				<port id="1" names="bottleneck1_1/add" precision="FP16">
					<dim>1</dim>
					<dim>32</dim>
					<dim>256</dim>
					<dim>256</dim>
				</port>
			</output>
		</layer>
		<layer id="203" name="bottleneck1_2/add/fq_input_0" type="FakeQuantize" version="opset1">
			<data auto_broadcast="numpy" levels="256"/>
			<input>
				<port id="0">
					<dim>1</dim>
					<dim>32</dim>
					<dim>256</dim>
					<dim>256</dim>
				</port>
				<port id="1">
					<dim>1</dim>
					<dim>1</dim>
					<dim>1</dim>
					<dim>1</dim>
				</port>
				<port id="2">
					<dim>1</dim>
					<dim>1</dim>
					<dim>1</dim>
					<dim>1</dim>
				</port>
				<port id="3">
					<dim>1</dim>
					<dim>1</dim>
					<dim>1</dim>
					<dim>1</dim>
				</port>
				<port id="4">
					<dim>1</dim>
					<dim>1</dim>
					<dim>1</dim>
					<dim>1</dim>
				</port>
			</input>
			<output>
				<port id="5" precision="FP16">
					<dim>1</dim>
					<dim>32</dim>
					<dim>256</dim>
					<dim>256</dim>
				</port>
			</output>
		</layer>
		<layer id="204" name="3135313920970" type="Const" version="opset1">
			<data element_type="f16" offset="2569" shape="1,1,1,1" size="2"/>
			<output>
				<port id="0" precision="FP16">
					<dim>1</dim>
					<dim>1</dim>
					<dim>1</dim>
					<dim>1</dim>
				</port>
			</output>
		</layer>
		<layer id="205" name="3136314019578" type="Const" version="opset1">
			<data element_type="f16" offset="2571" shape="1,1,1,1" size="2"/>
			<output>
				<port id="0" precision="FP16">
					<dim>1</dim>
					<dim>1</dim>
					<dim>1</dim>
					<dim>1</dim>
				</port>
			</output>
		</layer>
		<layer id="206" name="3137314121393" type="Const" version="opset1">
			<data element_type="f16" offset="2569" shape="1,1,1,1" size="2"/>
			<output>
				<port id="0" precision="FP16">
					<dim>1</dim>
					<dim>1</dim>
					<dim>1</dim>
					<dim>1</dim>
				</port>
			</output>
		</layer>
		<layer id="207" name="3138314219266" type="Const" version="opset1">
			<data element_type="f16" offset="2571" shape="1,1,1,1" size="2"/>
			<output>
				<port id="0" precision="FP16">
					<dim>1</dim>
					<dim>1</dim>
					<dim>1</dim>
					<dim>1</dim>
				</port>
			</output>
		</layer>
		<layer id="208" name="5265526921141" type="Const" version="opset1">
			<data element_type="f16" offset="2573" shape="1,1,1,1" size="2"/>
			<output>
				<port id="0" precision="FP16">
					<dim>1</dim>
					<dim>1</dim>
					<dim>1</dim>
					<dim>1</dim>
				</port>
			</output>
		</layer>
		<layer id="209" name="5266527021849" type="Const" version="opset1">
			<data element_type="f16" offset="2575" shape="1,1,1,1" size="2"/>
			<output>
				<port id="0" precision="FP16">
					<dim>1</dim>
					<dim>1</dim>
					<dim>1</dim>
					<dim>1</dim>
				</port>
			</output>
		</layer>
		<layer id="210" name="5267527120778" type="Const" version="opset1">
			<data element_type="f16" offset="2573" shape="1,1,1,1" size="2"/>
			<output>
				<port id="0" precision="FP16">
					<dim>1</dim>
					<dim>1</dim>
					<dim>1</dim>
					<dim>1</dim>
				</port>
			</output>
		</layer>
		<layer id="211" name="5268527220409" type="Const" version="opset1">
			<data element_type="f16" offset="2575" shape="1,1,1,1" size="2"/>
			<output>
				<port id="0" precision="FP16">
					<dim>1</dim>
					<dim>1</dim>
					<dim>1</dim>
					<dim>1</dim>
				</port>
			</output>
		</layer>
		<layer id="212" name="3245324921189" type="Const" version="opset1">
			<data element_type="f16" offset="2577" shape="1,8,1,1" size="16"/>
			<output>
				<port id="0" precision="FP16">
					<dim>1</dim>
					<dim>8</dim>
					<dim>1</dim>
					<dim>1</dim>
				</port>
			</output>
		</layer>
		<layer id="213" name="3246325022233" type="Const" version="opset1">
			<data element_type="f16" offset="2593" shape="1,8,1,1" size="16"/>
			<output>
				<port id="0" precision="FP16">
					<dim>1</dim>
					<dim>8</dim>
					<dim>1</dim>
					<dim>1</dim>
				</port>
			</output>
		</layer>
		<layer id="214" name="3247325122362" type="Const" version="opset1">
			<data element_type="f16" offset="2577" shape="1,8,1,1" size="16"/>
			<output>
				<port id="0" precision="FP16">
					<dim>1</dim>
					<dim>8</dim>
					<dim>1</dim>
					<dim>1</dim>
				</port>
			</output>
		</layer>
		<layer id="215" name="3248325222542" type="Const" version="opset1">
			<data element_type="f16" offset="2593" shape="1,8,1,1" size="16"/>
			<output>
				<port id="0" precision="FP16">
					<dim>1</dim>
					<dim>8</dim>
					<dim>1</dim>
					<dim>1</dim>
				</port>
			</output>
		</layer>
		<layer id="216" name="bottleneck1_2/dim_red/bn/mean/Fused_Mul__copy75310005/quantized1383722578" type="Const" version="opset1">
			<data element_type="i8" offset="2609" shape="8,32,1,1" size="256"/>
			<output>
				<port id="0" precision="I8">
					<dim>8</dim>
					<dim>32</dim>
					<dim>1</dim>
					<dim>1</dim>
				</port>
			</output>
		</layer>
		<layer id="217" name="bottleneck1_2/dim_red/bn/mean/Fused_Mul__copy75310005/quantized/to_f16" type="Convert" version="opset1">
			<data destination_type="f16"/>
			<input>
				<port id="0">
					<dim>8</dim>
					<dim>32</dim>
					<dim>1</dim>
					<dim>1</dim>
				</port>
			</input>
			<output>
				<port id="1" precision="FP16">
					<dim>8</dim>
					<dim>32</dim>
					<dim>1</dim>
					<dim>1</dim>
				</port>
			</output>
		</layer>
		<layer id="218" name="bottleneck1_2/dim_red/conv/fq_weights_1/zero_point1385022365" type="Const" version="opset1">
			<data element_type="f16" offset="2865" shape="8,1,1,1" size="16"/>
			<output>
				<port id="0" precision="FP16">
					<dim>8</dim>
					<dim>1</dim>
					<dim>1</dim>
					<dim>1</dim>
				</port>
			</output>
		</layer>
		<layer id="219" name="bottleneck1_2/dim_red/conv/fq_weights_1/minus_zp" type="Subtract" version="opset1">
			<data auto_broadcast="numpy"/>
			<input>
				<port id="0">
					<dim>8</dim>
					<dim>32</dim>
					<dim>1</dim>
					<dim>1</dim>
				</port>
				<port id="1">
					<dim>8</dim>
					<dim>1</dim>
					<dim>1</dim>
					<dim>1</dim>
				</port>
			</input>
			<output>
				<port id="2" precision="FP16">
					<dim>8</dim>
					<dim>32</dim>
					<dim>1</dim>
					<dim>1</dim>
				</port>
			</output>
		</layer>
		<layer id="220" name="bottleneck1_2/dim_red/conv/fq_weights_1/scale1384521213" type="Const" version="opset1">
			<data element_type="f16" offset="2881" shape="8,1,1,1" size="16"/>
			<output>
				<port id="0" precision="FP16">
					<dim>8</dim>
					<dim>1</dim>
					<dim>1</dim>
					<dim>1</dim>
				</port>
			</output>
		</layer>
		<layer id="221" name="bottleneck1_2/dim_red/conv/fq_weights_1/mulpiply_by_scale" type="Multiply" version="opset1">
			<data auto_broadcast="numpy"/>
			<input>
				<port id="0">
					<dim>8</dim>
					<dim>32</dim>
					<dim>1</dim>
					<dim>1</dim>
				</port>
				<port id="1">
					<dim>8</dim>
					<dim>1</dim>
					<dim>1</dim>
					<dim>1</dim>
				</port>
			</input>
			<output>
				<port id="2" precision="FP16">
					<dim>8</dim>
					<dim>32</dim>
					<dim>1</dim>
					<dim>1</dim>
				</port>
			</output>
		</layer>
		<layer id="222" name="bottleneck1_2/dim_red/conv" type="Convolution" version="opset1">
			<data auto_pad="explicit" dilations="1,1" pads_begin="0,0" pads_end="0,0" strides="1,1"/>
			<input>
				<port id="0">
					<dim>1</dim>
					<dim>32</dim>
					<dim>256</dim>
					<dim>256</dim>
				</port>
				<port id="1">
					<dim>8</dim>
					<dim>32</dim>
					<dim>1</dim>
					<dim>1</dim>
				</port>
			</input>
			<output>
				<port id="2" precision="FP16">
					<dim>1</dim>
					<dim>8</dim>
					<dim>256</dim>
					<dim>256</dim>
				</port>
			</output>
		</layer>
		<layer id="223" name="data_add_248532485875521540" type="Const" version="opset1">
			<data element_type="f16" offset="2897" shape="1,8,1,1" size="16"/>
			<output>
				<port id="0" precision="FP16">
					<dim>1</dim>
					<dim>8</dim>
					<dim>1</dim>
					<dim>1</dim>
				</port>
			</output>
		</layer>
		<layer id="224" name="bottleneck1_2/dim_red/bn/variance/Fused_Add_" type="Add" version="opset1">
			<data auto_broadcast="numpy"/>
			<input>
				<port id="0">
					<dim>1</dim>
					<dim>8</dim>
					<dim>256</dim>
					<dim>256</dim>
				</port>
				<port id="1">
					<dim>1</dim>
					<dim>8</dim>
					<dim>1</dim>
					<dim>1</dim>
				</port>
			</input>
			<output>
				<port id="2" names="bottleneck1_2/dim_red/conv" precision="FP16">
					<dim>1</dim>
					<dim>8</dim>
					<dim>256</dim>
					<dim>256</dim>
				</port>
			</output>
		</layer>
		<layer id="225" name="bottleneck1_2/dim_red/fn" type="Elu" version="opset1">
			<data alpha="1"/>
			<input>
				<port id="0">
					<dim>1</dim>
					<dim>8</dim>
					<dim>256</dim>
					<dim>256</dim>
				</port>
			</input>
			<output>
				<port id="1" names="bottleneck1_2/dim_red/conv" precision="FP16">
					<dim>1</dim>
					<dim>8</dim>
					<dim>256</dim>
					<dim>256</dim>
				</port>
			</output>
		</layer>
		<layer id="226" name="bottleneck1_2/inner/dw1/conv/fq_input_0" type="FakeQuantize" version="opset1">
			<data auto_broadcast="numpy" levels="256"/>
			<input>
				<port id="0">
					<dim>1</dim>
					<dim>8</dim>
					<dim>256</dim>
					<dim>256</dim>
				</port>
				<port id="1">
					<dim>1</dim>
					<dim>8</dim>
					<dim>1</dim>
					<dim>1</dim>
				</port>
				<port id="2">
					<dim>1</dim>
					<dim>8</dim>
					<dim>1</dim>
					<dim>1</dim>
				</port>
				<port id="3">
					<dim>1</dim>
					<dim>8</dim>
					<dim>1</dim>
					<dim>1</dim>
				</port>
				<port id="4">
					<dim>1</dim>
					<dim>8</dim>
					<dim>1</dim>
					<dim>1</dim>
				</port>
			</input>
			<output>
				<port id="5" precision="FP16">
					<dim>1</dim>
					<dim>8</dim>
					<dim>256</dim>
					<dim>256</dim>
				</port>
			</output>
		</layer>
		<layer id="227" name="16702/value1670422473" type="Const" version="opset1">
			<data element_type="i64" offset="1961" shape="5" size="40"/>
			<output>
				<port id="0" precision="I64">
					<dim>5</dim>
				</port>
			</output>
		</layer>
		<layer id="228" name="bottleneck1_2/inner/dw1/bn/mean/Fused_Mul__copy75810007/quantized1170122605" type="Const" version="opset1">
			<data element_type="i8" offset="2913" shape="8,1,3,3" size="72"/>
			<output>
				<port id="0" precision="I8">
					<dim>8</dim>
					<dim>1</dim>
					<dim>3</dim>
					<dim>3</dim>
				</port>
			</output>
		</layer>
		<layer id="229" name="bottleneck1_2/inner/dw1/bn/mean/Fused_Mul__copy75810007/quantized/to_f16" type="Convert" version="opset1">
			<data destination_type="f16"/>
			<input>
				<port id="0">
					<dim>8</dim>
					<dim>1</dim>
					<dim>3</dim>
					<dim>3</dim>
				</port>
			</input>
			<output>
				<port id="1" precision="FP16">
					<dim>8</dim>
					<dim>1</dim>
					<dim>3</dim>
					<dim>3</dim>
				</port>
			</output>
		</layer>
		<layer id="230" name="bottleneck1_2/inner/dw1/conv/fq_weights_1/zero_point1171420709" type="Const" version="opset1">
			<data element_type="f16" offset="2985" shape="8,1,1,1" size="16"/>
			<output>
				<port id="0" precision="FP16">
					<dim>8</dim>
					<dim>1</dim>
					<dim>1</dim>
					<dim>1</dim>
				</port>
			</output>
		</layer>
		<layer id="231" name="bottleneck1_2/inner/dw1/conv/fq_weights_1/minus_zp" type="Subtract" version="opset1">
			<data auto_broadcast="numpy"/>
			<input>
				<port id="0">
					<dim>8</dim>
					<dim>1</dim>
					<dim>3</dim>
					<dim>3</dim>
				</port>
				<port id="1">
					<dim>8</dim>
					<dim>1</dim>
					<dim>1</dim>
					<dim>1</dim>
				</port>
			</input>
			<output>
				<port id="2" precision="FP16">
					<dim>8</dim>
					<dim>1</dim>
					<dim>3</dim>
					<dim>3</dim>
				</port>
			</output>
		</layer>
		<layer id="232" name="bottleneck1_2/inner/dw1/conv/fq_weights_1/scale1170919650" type="Const" version="opset1">
			<data element_type="f16" offset="3001" shape="8,1,1,1" size="16"/>
			<output>
				<port id="0" precision="FP16">
					<dim>8</dim>
					<dim>1</dim>
					<dim>1</dim>
					<dim>1</dim>
				</port>
			</output>
		</layer>
		<layer id="233" name="bottleneck1_2/inner/dw1/conv/fq_weights_1/mulpiply_by_scale" type="Multiply" version="opset1">
			<data auto_broadcast="numpy"/>
			<input>
				<port id="0">
					<dim>8</dim>
					<dim>1</dim>
					<dim>3</dim>
					<dim>3</dim>
				</port>
				<port id="1">
					<dim>8</dim>
					<dim>1</dim>
					<dim>1</dim>
					<dim>1</dim>
				</port>
			</input>
			<output>
				<port id="2" precision="FP16">
					<dim>8</dim>
					<dim>1</dim>
					<dim>3</dim>
					<dim>3</dim>
				</port>
			</output>
		</layer>
		<layer id="234" name="16702" type="Reshape" version="opset1">
			<data special_zero="true"/>
			<input>
				<port id="0">
					<dim>8</dim>
					<dim>1</dim>
					<dim>3</dim>
					<dim>3</dim>
				</port>
				<port id="1">
					<dim>5</dim>
				</port>
			</input>
			<output>
				<port id="2" precision="FP16">
					<dim>8</dim>
					<dim>1</dim>
					<dim>1</dim>
					<dim>3</dim>
					<dim>3</dim>
				</port>
			</output>
		</layer>
		<layer id="235" name="bottleneck1_2/inner/dw1/conv" type="GroupConvolution" version="opset1">
			<data auto_pad="explicit" dilations="1,1" pads_begin="1,1" pads_end="1,1" strides="1,1"/>
			<input>
				<port id="0">
					<dim>1</dim>
					<dim>8</dim>
					<dim>256</dim>
					<dim>256</dim>
				</port>
				<port id="1">
					<dim>8</dim>
					<dim>1</dim>
					<dim>1</dim>
					<dim>3</dim>
					<dim>3</dim>
				</port>
			</input>
			<output>
				<port id="2" precision="FP16">
					<dim>1</dim>
					<dim>8</dim>
					<dim>256</dim>
					<dim>256</dim>
				</port>
			</output>
		</layer>
		<layer id="236" name="data_add_248612486676020076" type="Const" version="opset1">
			<data element_type="f16" offset="3017" shape="1,8,1,1" size="16"/>
			<output>
				<port id="0" precision="FP16">
					<dim>1</dim>
					<dim>8</dim>
					<dim>1</dim>
					<dim>1</dim>
				</port>
			</output>
		</layer>
		<layer id="237" name="bottleneck1_2/inner/dw1/bn/variance/Fused_Add_" type="Add" version="opset1">
			<data auto_broadcast="numpy"/>
			<input>
				<port id="0">
					<dim>1</dim>
					<dim>8</dim>
					<dim>256</dim>
					<dim>256</dim>
				</port>
				<port id="1">
					<dim>1</dim>
					<dim>8</dim>
					<dim>1</dim>
					<dim>1</dim>
				</port>
			</input>
			<output>
				<port id="2" names="bottleneck1_2/inner/dw1/conv" precision="FP16">
					<dim>1</dim>
					<dim>8</dim>
					<dim>256</dim>
					<dim>256</dim>
				</port>
			</output>
		</layer>
		<layer id="238" name="bottleneck1_2/inner/dw1/fn" type="Elu" version="opset1">
			<data alpha="1"/>
			<input>
				<port id="0">
					<dim>1</dim>
					<dim>8</dim>
					<dim>256</dim>
					<dim>256</dim>
				</port>
			</input>
			<output>
				<port id="1" names="bottleneck1_2/inner/dw1/conv" precision="FP16">
					<dim>1</dim>
					<dim>8</dim>
					<dim>256</dim>
					<dim>256</dim>
				</port>
			</output>
		</layer>
		<layer id="239" name="bottleneck1_2/dim_inc/conv/fq_input_0" type="FakeQuantize" version="opset1">
			<data auto_broadcast="numpy" levels="256"/>
			<input>
				<port id="0">
					<dim>1</dim>
					<dim>8</dim>
					<dim>256</dim>
					<dim>256</dim>
				</port>
				<port id="1">
					<dim>1</dim>
					<dim>1</dim>
					<dim>1</dim>
					<dim>1</dim>
				</port>
				<port id="2">
					<dim>1</dim>
					<dim>1</dim>
					<dim>1</dim>
					<dim>1</dim>
				</port>
				<port id="3">
					<dim>1</dim>
					<dim>1</dim>
					<dim>1</dim>
					<dim>1</dim>
				</port>
				<port id="4">
					<dim>1</dim>
					<dim>1</dim>
					<dim>1</dim>
					<dim>1</dim>
				</port>
			</input>
			<output>
				<port id="5" precision="FP16">
					<dim>1</dim>
					<dim>8</dim>
					<dim>256</dim>
					<dim>256</dim>
				</port>
			</output>
		</layer>
		<layer id="240" name="bottleneck1_2/dim_inc/bn/mean/Fused_Mul__copy76310009/quantized1225321789" type="Const" version="opset1">
			<data element_type="i8" offset="3033" shape="32,8,1,1" size="256"/>
			<output>
				<port id="0" precision="I8">
					<dim>32</dim>
					<dim>8</dim>
					<dim>1</dim>
					<dim>1</dim>
				</port>
			</output>
		</layer>
		<layer id="241" name="bottleneck1_2/dim_inc/bn/mean/Fused_Mul__copy76310009/quantized/to_f16" type="Convert" version="opset1">
			<data destination_type="f16"/>
			<input>
				<port id="0">
					<dim>32</dim>
					<dim>8</dim>
					<dim>1</dim>
					<dim>1</dim>
				</port>
			</input>
			<output>
				<port id="1" precision="FP16">
					<dim>32</dim>
					<dim>8</dim>
					<dim>1</dim>
					<dim>1</dim>
				</port>
			</output>
		</layer>
		<layer id="242" name="bottleneck1_2/dim_inc/conv/fq_weights_1/zero_point1226622623" type="Const" version="opset1">
			<data element_type="f16" offset="3289" shape="32,1,1,1" size="64"/>
			<output>
				<port id="0" precision="FP16">
					<dim>32</dim>
					<dim>1</dim>
					<dim>1</dim>
					<dim>1</dim>
				</port>
			</output>
		</layer>
		<layer id="243" name="bottleneck1_2/dim_inc/conv/fq_weights_1/minus_zp" type="Subtract" version="opset1">
			<data auto_broadcast="numpy"/>
			<input>
				<port id="0">
					<dim>32</dim>
					<dim>8</dim>
					<dim>1</dim>
					<dim>1</dim>
				</port>
				<port id="1">
					<dim>32</dim>
					<dim>1</dim>
					<dim>1</dim>
					<dim>1</dim>
				</port>
			</input>
			<output>
				<port id="2" precision="FP16">
					<dim>32</dim>
					<dim>8</dim>
					<dim>1</dim>
					<dim>1</dim>
				</port>
			</output>
		</layer>
		<layer id="244" name="bottleneck1_2/dim_inc/conv/fq_weights_1/scale1226122695" type="Const" version="opset1">
			<data element_type="f16" offset="3353" shape="32,1,1,1" size="64"/>
			<output>
				<port id="0" precision="FP16">
					<dim>32</dim>
					<dim>1</dim>
					<dim>1</dim>
					<dim>1</dim>
				</port>
			</output>
		</layer>
		<layer id="245" name="bottleneck1_2/dim_inc/conv/fq_weights_1/mulpiply_by_scale" type="Multiply" version="opset1">
			<data auto_broadcast="numpy"/>
			<input>
				<port id="0">
					<dim>32</dim>
					<dim>8</dim>
					<dim>1</dim>
					<dim>1</dim>
				</port>
				<port id="1">
					<dim>32</dim>
					<dim>1</dim>
					<dim>1</dim>
					<dim>1</dim>
				</port>
			</input>
			<output>
				<port id="2" precision="FP16">
					<dim>32</dim>
					<dim>8</dim>
					<dim>1</dim>
					<dim>1</dim>
				</port>
			</output>
		</layer>
		<layer id="246" name="bottleneck1_2/dim_inc/conv" type="Convolution" version="opset1">
			<data auto_pad="explicit" dilations="1,1" pads_begin="0,0" pads_end="0,0" strides="1,1"/>
			<input>
				<port id="0">
					<dim>1</dim>
					<dim>8</dim>
					<dim>256</dim>
					<dim>256</dim>
				</port>
				<port id="1">
					<dim>32</dim>
					<dim>8</dim>
					<dim>1</dim>
					<dim>1</dim>
				</port>
			</input>
			<output>
				<port id="2" precision="FP16">
					<dim>1</dim>
					<dim>32</dim>
					<dim>256</dim>
					<dim>256</dim>
				</port>
			</output>
		</layer>
		<layer id="247" name="data_add_248692487476520058" type="Const" version="opset1">
			<data element_type="f16" offset="3417" shape="1,32,1,1" size="64"/>
			<output>
				<port id="0" precision="FP16">
					<dim>1</dim>
					<dim>32</dim>
					<dim>1</dim>
					<dim>1</dim>
				</port>
			</output>
		</layer>
		<layer id="248" name="bottleneck1_2/dim_inc/bn/variance/Fused_Add_" type="Add" version="opset1">
			<data auto_broadcast="numpy"/>
			<input>
				<port id="0">
					<dim>1</dim>
					<dim>32</dim>
					<dim>256</dim>
					<dim>256</dim>
				</port>
				<port id="1">
					<dim>1</dim>
					<dim>32</dim>
					<dim>1</dim>
					<dim>1</dim>
				</port>
			</input>
			<output>
				<port id="2" names="bottleneck1_2/dim_inc/conv" precision="FP16">
					<dim>1</dim>
					<dim>32</dim>
					<dim>256</dim>
					<dim>256</dim>
				</port>
			</output>
		</layer>
		<layer id="249" name="bottleneck1_2/add/fq_input_1" type="FakeQuantize" version="opset1">
			<data auto_broadcast="numpy" levels="256"/>
			<input>
				<port id="0">
					<dim>1</dim>
					<dim>32</dim>
					<dim>256</dim>
					<dim>256</dim>
				</port>
				<port id="1">
					<dim>1</dim>
					<dim>1</dim>
					<dim>1</dim>
					<dim>1</dim>
				</port>
				<port id="2">
					<dim>1</dim>
					<dim>1</dim>
					<dim>1</dim>
					<dim>1</dim>
				</port>
				<port id="3">
					<dim>1</dim>
					<dim>1</dim>
					<dim>1</dim>
					<dim>1</dim>
				</port>
				<port id="4">
					<dim>1</dim>
					<dim>1</dim>
					<dim>1</dim>
					<dim>1</dim>
				</port>
			</input>
			<output>
				<port id="5" precision="FP16">
					<dim>1</dim>
					<dim>32</dim>
					<dim>256</dim>
					<dim>256</dim>
				</port>
			</output>
		</layer>
		<layer id="250" name="bottleneck1_2/add" type="Add" version="opset1">
			<data auto_broadcast="numpy"/>
			<input>
				<port id="0">
					<dim>1</dim>
					<dim>32</dim>
					<dim>256</dim>
					<dim>256</dim>
				</port>
				<port id="1">
					<dim>1</dim>
					<dim>32</dim>
					<dim>256</dim>
					<dim>256</dim>
				</port>
			</input>
			<output>
				<port id="2" names="bottleneck1_2/add" precision="FP16">
					<dim>1</dim>
					<dim>32</dim>
					<dim>256</dim>
					<dim>256</dim>
				</port>
			</output>
		</layer>
		<layer id="251" name="bottleneck1_2/fn" type="Elu" version="opset1">
			<data alpha="1"/>
			<input>
				<port id="0">
					<dim>1</dim>
					<dim>32</dim>
					<dim>256</dim>
					<dim>256</dim>
				</port>
			</input>
			<output>
				<port id="1" names="bottleneck1_2/add" precision="FP16">
					<dim>1</dim>
					<dim>32</dim>
					<dim>256</dim>
					<dim>256</dim>
				</port>
			</output>
		</layer>
		<layer id="252" name="bottleneck1_3/add/fq_input_0" type="FakeQuantize" version="opset1">
			<data auto_broadcast="numpy" levels="256"/>
			<input>
				<port id="0">
					<dim>1</dim>
					<dim>32</dim>
					<dim>256</dim>
					<dim>256</dim>
				</port>
				<port id="1">
					<dim>1</dim>
					<dim>1</dim>
					<dim>1</dim>
					<dim>1</dim>
				</port>
				<port id="2">
					<dim>1</dim>
					<dim>1</dim>
					<dim>1</dim>
					<dim>1</dim>
				</port>
				<port id="3">
					<dim>1</dim>
					<dim>1</dim>
					<dim>1</dim>
					<dim>1</dim>
				</port>
				<port id="4">
					<dim>1</dim>
					<dim>1</dim>
					<dim>1</dim>
					<dim>1</dim>
				</port>
			</input>
			<output>
				<port id="5" precision="FP16">
					<dim>1</dim>
					<dim>32</dim>
					<dim>256</dim>
					<dim>256</dim>
				</port>
			</output>
		</layer>
		<layer id="253" name="4995499919536" type="Const" version="opset1">
			<data element_type="f16" offset="3481" shape="1,1,1,1" size="2"/>
			<output>
				<port id="0" precision="FP16">
					<dim>1</dim>
					<dim>1</dim>
					<dim>1</dim>
					<dim>1</dim>
				</port>
			</output>
		</layer>
		<layer id="254" name="4996500019584" type="Const" version="opset1">
			<data element_type="f16" offset="3483" shape="1,1,1,1" size="2"/>
			<output>
				<port id="0" precision="FP16">
					<dim>1</dim>
					<dim>1</dim>
					<dim>1</dim>
					<dim>1</dim>
				</port>
			</output>
		</layer>
		<layer id="255" name="4997500119746" type="Const" version="opset1">
			<data element_type="f16" offset="3481" shape="1,1,1,1" size="2"/>
			<output>
				<port id="0" precision="FP16">
					<dim>1</dim>
					<dim>1</dim>
					<dim>1</dim>
					<dim>1</dim>
				</port>
			</output>
		</layer>
		<layer id="256" name="4998500221375" type="Const" version="opset1">
			<data element_type="f16" offset="3483" shape="1,1,1,1" size="2"/>
			<output>
				<port id="0" precision="FP16">
					<dim>1</dim>
					<dim>1</dim>
					<dim>1</dim>
					<dim>1</dim>
				</port>
			</output>
		</layer>
		<layer id="257" name="4685468921519" type="Const" version="opset1">
			<data element_type="f16" offset="4" shape="1,1,1,1" size="2"/>
			<output>
				<port id="0" precision="FP16">
					<dim>1</dim>
					<dim>1</dim>
					<dim>1</dim>
					<dim>1</dim>
				</port>
			</output>
		</layer>
		<layer id="258" name="4686469019428" type="Const" version="opset1">
			<data element_type="f16" offset="1623" shape="1,1,1,1" size="2"/>
			<output>
				<port id="0" precision="FP16">
					<dim>1</dim>
					<dim>1</dim>
					<dim>1</dim>
					<dim>1</dim>
				</port>
			</output>
		</layer>
		<layer id="259" name="4687469121741" type="Const" version="opset1">
			<data element_type="f16" offset="4" shape="1,1,1,1" size="2"/>
			<output>
				<port id="0" precision="FP16">
					<dim>1</dim>
					<dim>1</dim>
					<dim>1</dim>
					<dim>1</dim>
				</port>
			</output>
		</layer>
		<layer id="260" name="4688469220868" type="Const" version="opset1">
			<data element_type="f16" offset="1623" shape="1,1,1,1" size="2"/>
			<output>
				<port id="0" precision="FP16">
					<dim>1</dim>
					<dim>1</dim>
					<dim>1</dim>
					<dim>1</dim>
				</port>
			</output>
		</layer>
		<layer id="261" name="4625462921153" type="Const" version="opset1">
			<data element_type="f16" offset="3485" shape="1,8,1,1" size="16"/>
			<output>
				<port id="0" precision="FP16">
					<dim>1</dim>
					<dim>8</dim>
					<dim>1</dim>
					<dim>1</dim>
				</port>
			</output>
		</layer>
		<layer id="262" name="4626463019500" type="Const" version="opset1">
			<data element_type="f16" offset="3501" shape="1,8,1,1" size="16"/>
			<output>
				<port id="0" precision="FP16">
					<dim>1</dim>
					<dim>8</dim>
					<dim>1</dim>
					<dim>1</dim>
				</port>
			</output>
		</layer>
		<layer id="263" name="4627463121882" type="Const" version="opset1">
			<data element_type="f16" offset="3485" shape="1,8,1,1" size="16"/>
			<output>
				<port id="0" precision="FP16">
					<dim>1</dim>
					<dim>8</dim>
					<dim>1</dim>
					<dim>1</dim>
				</port>
			</output>
		</layer>
		<layer id="264" name="4628463220988" type="Const" version="opset1">
			<data element_type="f16" offset="3501" shape="1,8,1,1" size="16"/>
			<output>
				<port id="0" precision="FP16">
					<dim>1</dim>
					<dim>8</dim>
					<dim>1</dim>
					<dim>1</dim>
				</port>
			</output>
		</layer>
		<layer id="265" name="bottleneck1_3/dim_red/bn/mean/Fused_Mul__copy76910011/quantized1309322188" type="Const" version="opset1">
			<data element_type="i8" offset="3517" shape="8,32,1,1" size="256"/>
			<output>
				<port id="0" precision="I8">
					<dim>8</dim>
					<dim>32</dim>
					<dim>1</dim>
					<dim>1</dim>
				</port>
			</output>
		</layer>
		<layer id="266" name="bottleneck1_3/dim_red/bn/mean/Fused_Mul__copy76910011/quantized/to_f16" type="Convert" version="opset1">
			<data destination_type="f16"/>
			<input>
				<port id="0">
					<dim>8</dim>
					<dim>32</dim>
					<dim>1</dim>
					<dim>1</dim>
				</port>
			</input>
			<output>
				<port id="1" precision="FP16">
					<dim>8</dim>
					<dim>32</dim>
					<dim>1</dim>
					<dim>1</dim>
				</port>
			</output>
		</layer>
		<layer id="267" name="bottleneck1_3/dim_red/conv/fq_weights_1/zero_point1310621303" type="Const" version="opset1">
			<data element_type="f16" offset="3773" shape="8,1,1,1" size="16"/>
			<output>
				<port id="0" precision="FP16">
					<dim>8</dim>
					<dim>1</dim>
					<dim>1</dim>
					<dim>1</dim>
				</port>
			</output>
		</layer>
		<layer id="268" name="bottleneck1_3/dim_red/conv/fq_weights_1/minus_zp" type="Subtract" version="opset1">
			<data auto_broadcast="numpy"/>
			<input>
				<port id="0">
					<dim>8</dim>
					<dim>32</dim>
					<dim>1</dim>
					<dim>1</dim>
				</port>
				<port id="1">
					<dim>8</dim>
					<dim>1</dim>
					<dim>1</dim>
					<dim>1</dim>
				</port>
			</input>
			<output>
				<port id="2" precision="FP16">
					<dim>8</dim>
					<dim>32</dim>
					<dim>1</dim>
					<dim>1</dim>
				</port>
			</output>
		</layer>
		<layer id="269" name="bottleneck1_3/dim_red/conv/fq_weights_1/scale1310122104" type="Const" version="opset1">
			<data element_type="f16" offset="3789" shape="8,1,1,1" size="16"/>
			<output>
				<port id="0" precision="FP16">
					<dim>8</dim>
					<dim>1</dim>
					<dim>1</dim>
					<dim>1</dim>
				</port>
			</output>
		</layer>
		<layer id="270" name="bottleneck1_3/dim_red/conv/fq_weights_1/mulpiply_by_scale" type="Multiply" version="opset1">
			<data auto_broadcast="numpy"/>
			<input>
				<port id="0">
					<dim>8</dim>
					<dim>32</dim>
					<dim>1</dim>
					<dim>1</dim>
				</port>
				<port id="1">
					<dim>8</dim>
					<dim>1</dim>
					<dim>1</dim>
					<dim>1</dim>
				</port>
			</input>
			<output>
				<port id="2" precision="FP16">
					<dim>8</dim>
					<dim>32</dim>
					<dim>1</dim>
					<dim>1</dim>
				</port>
			</output>
		</layer>
		<layer id="271" name="bottleneck1_3/dim_red/conv" type="Convolution" version="opset1">
			<data auto_pad="explicit" dilations="1,1" pads_begin="0,0" pads_end="0,0" strides="1,1"/>
			<input>
				<port id="0">
					<dim>1</dim>
					<dim>32</dim>
					<dim>256</dim>
					<dim>256</dim>
				</port>
				<port id="1">
					<dim>8</dim>
					<dim>32</dim>
					<dim>1</dim>
					<dim>1</dim>
				</port>
			</input>
			<output>
				<port id="2" precision="FP16">
					<dim>1</dim>
					<dim>8</dim>
					<dim>256</dim>
					<dim>256</dim>
				</port>
			</output>
		</layer>
		<layer id="272" name="data_add_248772488277120322" type="Const" version="opset1">
			<data element_type="f16" offset="3805" shape="1,8,1,1" size="16"/>
			<output>
				<port id="0" precision="FP16">
					<dim>1</dim>
					<dim>8</dim>
					<dim>1</dim>
					<dim>1</dim>
				</port>
			</output>
		</layer>
		<layer id="273" name="bottleneck1_3/dim_red/bn/variance/Fused_Add_" type="Add" version="opset1">
			<data auto_broadcast="numpy"/>
			<input>
				<port id="0">
					<dim>1</dim>
					<dim>8</dim>
					<dim>256</dim>
					<dim>256</dim>
				</port>
				<port id="1">
					<dim>1</dim>
					<dim>8</dim>
					<dim>1</dim>
					<dim>1</dim>
				</port>
			</input>
			<output>
				<port id="2" names="bottleneck1_3/dim_red/conv" precision="FP16">
					<dim>1</dim>
					<dim>8</dim>
					<dim>256</dim>
					<dim>256</dim>
				</port>
			</output>
		</layer>
		<layer id="274" name="bottleneck1_3/dim_red/fn" type="Elu" version="opset1">
			<data alpha="1"/>
			<input>
				<port id="0">
					<dim>1</dim>
					<dim>8</dim>
					<dim>256</dim>
					<dim>256</dim>
				</port>
			</input>
			<output>
				<port id="1" names="bottleneck1_3/dim_red/conv" precision="FP16">
					<dim>1</dim>
					<dim>8</dim>
					<dim>256</dim>
					<dim>256</dim>
				</port>
			</output>
		</layer>
		<layer id="275" name="bottleneck1_3/inner/dw1/conv/fq_input_0" type="FakeQuantize" version="opset1">
			<data auto_broadcast="numpy" levels="256"/>
			<input>
				<port id="0">
					<dim>1</dim>
					<dim>8</dim>
					<dim>256</dim>
					<dim>256</dim>
				</port>
				<port id="1">
					<dim>1</dim>
					<dim>8</dim>
					<dim>1</dim>
					<dim>1</dim>
				</port>
				<port id="2">
					<dim>1</dim>
					<dim>8</dim>
					<dim>1</dim>
					<dim>1</dim>
				</port>
				<port id="3">
					<dim>1</dim>
					<dim>8</dim>
					<dim>1</dim>
					<dim>1</dim>
				</port>
				<port id="4">
					<dim>1</dim>
					<dim>8</dim>
					<dim>1</dim>
					<dim>1</dim>
				</port>
			</input>
			<output>
				<port id="5" precision="FP16">
					<dim>1</dim>
					<dim>8</dim>
					<dim>256</dim>
					<dim>256</dim>
				</port>
			</output>
		</layer>
		<layer id="276" name="16742/value1674421378" type="Const" version="opset1">
			<data element_type="i64" offset="1961" shape="5" size="40"/>
			<output>
				<port id="0" precision="I64">
					<dim>5</dim>
				</port>
			</output>
		</layer>
		<layer id="277" name="bottleneck1_3/inner/dw1/bn/mean/Fused_Mul__copy77410013/quantized1213320847" type="Const" version="opset1">
			<data element_type="i8" offset="3821" shape="8,1,3,3" size="72"/>
			<output>
				<port id="0" precision="I8">
					<dim>8</dim>
					<dim>1</dim>
					<dim>3</dim>
					<dim>3</dim>
				</port>
			</output>
		</layer>
		<layer id="278" name="bottleneck1_3/inner/dw1/bn/mean/Fused_Mul__copy77410013/quantized/to_f16" type="Convert" version="opset1">
			<data destination_type="f16"/>
			<input>
				<port id="0">
					<dim>8</dim>
					<dim>1</dim>
					<dim>3</dim>
					<dim>3</dim>
				</port>
			</input>
			<output>
				<port id="1" precision="FP16">
					<dim>8</dim>
					<dim>1</dim>
					<dim>3</dim>
					<dim>3</dim>
				</port>
			</output>
		</layer>
		<layer id="279" name="bottleneck1_3/inner/dw1/conv/fq_weights_1/zero_point1214621486" type="Const" version="opset1">
			<data element_type="f16" offset="3893" shape="8,1,1,1" size="16"/>
			<output>
				<port id="0" precision="FP16">
					<dim>8</dim>
					<dim>1</dim>
					<dim>1</dim>
					<dim>1</dim>
				</port>
			</output>
		</layer>
		<layer id="280" name="bottleneck1_3/inner/dw1/conv/fq_weights_1/minus_zp" type="Subtract" version="opset1">
			<data auto_broadcast="numpy"/>
			<input>
				<port id="0">
					<dim>8</dim>
					<dim>1</dim>
					<dim>3</dim>
					<dim>3</dim>
				</port>
				<port id="1">
					<dim>8</dim>
					<dim>1</dim>
					<dim>1</dim>
					<dim>1</dim>
				</port>
			</input>
			<output>
				<port id="2" precision="FP16">
					<dim>8</dim>
					<dim>1</dim>
					<dim>3</dim>
					<dim>3</dim>
				</port>
			</output>
		</layer>
		<layer id="281" name="bottleneck1_3/inner/dw1/conv/fq_weights_1/scale1214119671" type="Const" version="opset1">
			<data element_type="f16" offset="3909" shape="8,1,1,1" size="16"/>
			<output>
				<port id="0" precision="FP16">
					<dim>8</dim>
					<dim>1</dim>
					<dim>1</dim>
					<dim>1</dim>
				</port>
			</output>
		</layer>
		<layer id="282" name="bottleneck1_3/inner/dw1/conv/fq_weights_1/mulpiply_by_scale" type="Multiply" version="opset1">
			<data auto_broadcast="numpy"/>
			<input>
				<port id="0">
					<dim>8</dim>
					<dim>1</dim>
					<dim>3</dim>
					<dim>3</dim>
				</port>
				<port id="1">
					<dim>8</dim>
					<dim>1</dim>
					<dim>1</dim>
					<dim>1</dim>
				</port>
			</input>
			<output>
				<port id="2" precision="FP16">
					<dim>8</dim>
					<dim>1</dim>
					<dim>3</dim>
					<dim>3</dim>
				</port>
			</output>
		</layer>
		<layer id="283" name="16742" type="Reshape" version="opset1">
			<data special_zero="true"/>
			<input>
				<port id="0">
					<dim>8</dim>
					<dim>1</dim>
					<dim>3</dim>
					<dim>3</dim>
				</port>
				<port id="1">
					<dim>5</dim>
				</port>
			</input>
			<output>
				<port id="2" precision="FP16">
					<dim>8</dim>
					<dim>1</dim>
					<dim>1</dim>
					<dim>3</dim>
					<dim>3</dim>
				</port>
			</output>
		</layer>
		<layer id="284" name="bottleneck1_3/inner/dw1/conv" type="GroupConvolution" version="opset1">
			<data auto_pad="explicit" dilations="1,1" pads_begin="1,1" pads_end="1,1" strides="1,1"/>
			<input>
				<port id="0">
					<dim>1</dim>
					<dim>8</dim>
					<dim>256</dim>
					<dim>256</dim>
				</port>
				<port id="1">
					<dim>8</dim>
					<dim>1</dim>
					<dim>1</dim>
					<dim>3</dim>
					<dim>3</dim>
				</port>
			</input>
			<output>
				<port id="2" precision="FP16">
					<dim>1</dim>
					<dim>8</dim>
					<dim>256</dim>
					<dim>256</dim>
				</port>
			</output>
		</layer>
		<layer id="285" name="data_add_248852489077621090" type="Const" version="opset1">
			<data element_type="f16" offset="3925" shape="1,8,1,1" size="16"/>
			<output>
				<port id="0" precision="FP16">
					<dim>1</dim>
					<dim>8</dim>
					<dim>1</dim>
					<dim>1</dim>
				</port>
			</output>
		</layer>
		<layer id="286" name="bottleneck1_3/inner/dw1/bn/variance/Fused_Add_" type="Add" version="opset1">
			<data auto_broadcast="numpy"/>
			<input>
				<port id="0">
					<dim>1</dim>
					<dim>8</dim>
					<dim>256</dim>
					<dim>256</dim>
				</port>
				<port id="1">
					<dim>1</dim>
					<dim>8</dim>
					<dim>1</dim>
					<dim>1</dim>
				</port>
			</input>
			<output>
				<port id="2" names="bottleneck1_3/inner/dw1/conv" precision="FP16">
					<dim>1</dim>
					<dim>8</dim>
					<dim>256</dim>
					<dim>256</dim>
				</port>
			</output>
		</layer>
		<layer id="287" name="bottleneck1_3/inner/dw1/fn" type="Elu" version="opset1">
			<data alpha="1"/>
			<input>
				<port id="0">
					<dim>1</dim>
					<dim>8</dim>
					<dim>256</dim>
					<dim>256</dim>
				</port>
			</input>
			<output>
				<port id="1" names="bottleneck1_3/inner/dw1/conv" precision="FP16">
					<dim>1</dim>
					<dim>8</dim>
					<dim>256</dim>
					<dim>256</dim>
				</port>
			</output>
		</layer>
		<layer id="288" name="bottleneck1_3/dim_inc/conv/fq_input_0" type="FakeQuantize" version="opset1">
			<data auto_broadcast="numpy" levels="256"/>
			<input>
				<port id="0">
					<dim>1</dim>
					<dim>8</dim>
					<dim>256</dim>
					<dim>256</dim>
				</port>
				<port id="1">
					<dim>1</dim>
					<dim>1</dim>
					<dim>1</dim>
					<dim>1</dim>
				</port>
				<port id="2">
					<dim>1</dim>
					<dim>1</dim>
					<dim>1</dim>
					<dim>1</dim>
				</port>
				<port id="3">
					<dim>1</dim>
					<dim>1</dim>
					<dim>1</dim>
					<dim>1</dim>
				</port>
				<port id="4">
					<dim>1</dim>
					<dim>1</dim>
					<dim>1</dim>
					<dim>1</dim>
				</port>
			</input>
			<output>
				<port id="5" precision="FP16">
					<dim>1</dim>
					<dim>8</dim>
					<dim>256</dim>
					<dim>256</dim>
				</port>
			</output>
		</layer>
		<layer id="289" name="bottleneck1_3/dim_inc/bn/mean/Fused_Mul__copy77910015/quantized1412519800" type="Const" version="opset1">
			<data element_type="i8" offset="3941" shape="32,8,1,1" size="256"/>
			<output>
				<port id="0" precision="I8">
					<dim>32</dim>
					<dim>8</dim>
					<dim>1</dim>
					<dim>1</dim>
				</port>
			</output>
		</layer>
		<layer id="290" name="bottleneck1_3/dim_inc/bn/mean/Fused_Mul__copy77910015/quantized/to_f16" type="Convert" version="opset1">
			<data destination_type="f16"/>
			<input>
				<port id="0">
					<dim>32</dim>
					<dim>8</dim>
					<dim>1</dim>
					<dim>1</dim>
				</port>
			</input>
			<output>
				<port id="1" precision="FP16">
					<dim>32</dim>
					<dim>8</dim>
					<dim>1</dim>
					<dim>1</dim>
				</port>
			</output>
		</layer>
		<layer id="291" name="bottleneck1_3/dim_inc/conv/fq_weights_1/zero_point1413820736" type="Const" version="opset1">
			<data element_type="f16" offset="4197" shape="32,1,1,1" size="64"/>
			<output>
				<port id="0" precision="FP16">
					<dim>32</dim>
					<dim>1</dim>
					<dim>1</dim>
					<dim>1</dim>
				</port>
			</output>
		</layer>
		<layer id="292" name="bottleneck1_3/dim_inc/conv/fq_weights_1/minus_zp" type="Subtract" version="opset1">
			<data auto_broadcast="numpy"/>
			<input>
				<port id="0">
					<dim>32</dim>
					<dim>8</dim>
					<dim>1</dim>
					<dim>1</dim>
				</port>
				<port id="1">
					<dim>32</dim>
					<dim>1</dim>
					<dim>1</dim>
					<dim>1</dim>
				</port>
			</input>
			<output>
				<port id="2" precision="FP16">
					<dim>32</dim>
					<dim>8</dim>
					<dim>1</dim>
					<dim>1</dim>
				</port>
			</output>
		</layer>
		<layer id="293" name="bottleneck1_3/dim_inc/conv/fq_weights_1/scale1413319950" type="Const" version="opset1">
			<data element_type="f16" offset="4261" shape="32,1,1,1" size="64"/>
			<output>
				<port id="0" precision="FP16">
					<dim>32</dim>
					<dim>1</dim>
					<dim>1</dim>
					<dim>1</dim>
				</port>
			</output>
		</layer>
		<layer id="294" name="bottleneck1_3/dim_inc/conv/fq_weights_1/mulpiply_by_scale" type="Multiply" version="opset1">
			<data auto_broadcast="numpy"/>
			<input>
				<port id="0">
					<dim>32</dim>
					<dim>8</dim>
					<dim>1</dim>
					<dim>1</dim>
				</port>
				<port id="1">
					<dim>32</dim>
					<dim>1</dim>
					<dim>1</dim>
					<dim>1</dim>
				</port>
			</input>
			<output>
				<port id="2" precision="FP16">
					<dim>32</dim>
					<dim>8</dim>
					<dim>1</dim>
					<dim>1</dim>
				</port>
			</output>
		</layer>
		<layer id="295" name="bottleneck1_3/dim_inc/conv" type="Convolution" version="opset1">
			<data auto_pad="explicit" dilations="1,1" pads_begin="0,0" pads_end="0,0" strides="1,1"/>
			<input>
				<port id="0">
					<dim>1</dim>
					<dim>8</dim>
					<dim>256</dim>
					<dim>256</dim>
				</port>
				<port id="1">
					<dim>32</dim>
					<dim>8</dim>
					<dim>1</dim>
					<dim>1</dim>
				</port>
			</input>
			<output>
				<port id="2" precision="FP16">
					<dim>1</dim>
					<dim>32</dim>
					<dim>256</dim>
					<dim>256</dim>
				</port>
			</output>
		</layer>
		<layer id="296" name="data_add_248932489878120697" type="Const" version="opset1">
			<data element_type="f16" offset="4325" shape="1,32,1,1" size="64"/>
			<output>
				<port id="0" precision="FP16">
					<dim>1</dim>
					<dim>32</dim>
					<dim>1</dim>
					<dim>1</dim>
				</port>
			</output>
		</layer>
		<layer id="297" name="bottleneck1_3/dim_inc/bn/variance/Fused_Add_" type="Add" version="opset1">
			<data auto_broadcast="numpy"/>
			<input>
				<port id="0">
					<dim>1</dim>
					<dim>32</dim>
					<dim>256</dim>
					<dim>256</dim>
				</port>
				<port id="1">
					<dim>1</dim>
					<dim>32</dim>
					<dim>1</dim>
					<dim>1</dim>
				</port>
			</input>
			<output>
				<port id="2" names="bottleneck1_3/dim_inc/conv" precision="FP16">
					<dim>1</dim>
					<dim>32</dim>
					<dim>256</dim>
					<dim>256</dim>
				</port>
			</output>
		</layer>
		<layer id="298" name="bottleneck1_3/add/fq_input_1" type="FakeQuantize" version="opset1">
			<data auto_broadcast="numpy" levels="256"/>
			<input>
				<port id="0">
					<dim>1</dim>
					<dim>32</dim>
					<dim>256</dim>
					<dim>256</dim>
				</port>
				<port id="1">
					<dim>1</dim>
					<dim>1</dim>
					<dim>1</dim>
					<dim>1</dim>
				</port>
				<port id="2">
					<dim>1</dim>
					<dim>1</dim>
					<dim>1</dim>
					<dim>1</dim>
				</port>
				<port id="3">
					<dim>1</dim>
					<dim>1</dim>
					<dim>1</dim>
					<dim>1</dim>
				</port>
				<port id="4">
					<dim>1</dim>
					<dim>1</dim>
					<dim>1</dim>
					<dim>1</dim>
				</port>
			</input>
			<output>
				<port id="5" precision="FP16">
					<dim>1</dim>
					<dim>32</dim>
					<dim>256</dim>
					<dim>256</dim>
				</port>
			</output>
		</layer>
		<layer id="299" name="bottleneck1_3/add" type="Add" version="opset1">
			<data auto_broadcast="numpy"/>
			<input>
				<port id="0">
					<dim>1</dim>
					<dim>32</dim>
					<dim>256</dim>
					<dim>256</dim>
				</port>
				<port id="1">
					<dim>1</dim>
					<dim>32</dim>
					<dim>256</dim>
					<dim>256</dim>
				</port>
			</input>
			<output>
				<port id="2" names="bottleneck1_3/add" precision="FP16">
					<dim>1</dim>
					<dim>32</dim>
					<dim>256</dim>
					<dim>256</dim>
				</port>
			</output>
		</layer>
		<layer id="300" name="bottleneck1_3/fn" type="Elu" version="opset1">
			<data alpha="1"/>
			<input>
				<port id="0">
					<dim>1</dim>
					<dim>32</dim>
					<dim>256</dim>
					<dim>256</dim>
				</port>
			</input>
			<output>
				<port id="1" names="bottleneck1_3/add" precision="FP16">
					<dim>1</dim>
					<dim>32</dim>
					<dim>256</dim>
					<dim>256</dim>
				</port>
			</output>
		</layer>
		<layer id="301" name="bottleneck1_4/add/fq_input_0" type="FakeQuantize" version="opset1">
			<data auto_broadcast="numpy" levels="256"/>
			<input>
				<port id="0">
					<dim>1</dim>
					<dim>32</dim>
					<dim>256</dim>
					<dim>256</dim>
				</port>
				<port id="1">
					<dim>1</dim>
					<dim>1</dim>
					<dim>1</dim>
					<dim>1</dim>
				</port>
				<port id="2">
					<dim>1</dim>
					<dim>1</dim>
					<dim>1</dim>
					<dim>1</dim>
				</port>
				<port id="3">
					<dim>1</dim>
					<dim>1</dim>
					<dim>1</dim>
					<dim>1</dim>
				</port>
				<port id="4">
					<dim>1</dim>
					<dim>1</dim>
					<dim>1</dim>
					<dim>1</dim>
				</port>
			</input>
			<output>
				<port id="5" precision="FP16">
					<dim>1</dim>
					<dim>32</dim>
					<dim>256</dim>
					<dim>256</dim>
				</port>
			</output>
		</layer>
		<layer id="302" name="4755475921066" type="Const" version="opset1">
			<data element_type="f16" offset="4389" shape="1,1,1,1" size="2"/>
			<output>
				<port id="0" precision="FP16">
					<dim>1</dim>
					<dim>1</dim>
					<dim>1</dim>
					<dim>1</dim>
				</port>
			</output>
		</layer>
		<layer id="303" name="4756476022446" type="Const" version="opset1">
			<data element_type="f16" offset="4391" shape="1,1,1,1" size="2"/>
			<output>
				<port id="0" precision="FP16">
					<dim>1</dim>
					<dim>1</dim>
					<dim>1</dim>
					<dim>1</dim>
				</port>
			</output>
		</layer>
		<layer id="304" name="4757476120040" type="Const" version="opset1">
			<data element_type="f16" offset="4389" shape="1,1,1,1" size="2"/>
			<output>
				<port id="0" precision="FP16">
					<dim>1</dim>
					<dim>1</dim>
					<dim>1</dim>
					<dim>1</dim>
				</port>
			</output>
		</layer>
		<layer id="305" name="4758476221909" type="Const" version="opset1">
			<data element_type="f16" offset="4391" shape="1,1,1,1" size="2"/>
			<output>
				<port id="0" precision="FP16">
					<dim>1</dim>
					<dim>1</dim>
					<dim>1</dim>
					<dim>1</dim>
				</port>
			</output>
		</layer>
		<layer id="306" name="3225322919533" type="Const" version="opset1">
			<data element_type="f16" offset="4" shape="1,1,1,1" size="2"/>
			<output>
				<port id="0" precision="FP16">
					<dim>1</dim>
					<dim>1</dim>
					<dim>1</dim>
					<dim>1</dim>
				</port>
			</output>
		</layer>
		<layer id="307" name="3226323019842" type="Const" version="opset1">
			<data element_type="f16" offset="1623" shape="1,1,1,1" size="2"/>
			<output>
				<port id="0" precision="FP16">
					<dim>1</dim>
					<dim>1</dim>
					<dim>1</dim>
					<dim>1</dim>
				</port>
			</output>
		</layer>
		<layer id="308" name="3227323121813" type="Const" version="opset1">
			<data element_type="f16" offset="4" shape="1,1,1,1" size="2"/>
			<output>
				<port id="0" precision="FP16">
					<dim>1</dim>
					<dim>1</dim>
					<dim>1</dim>
					<dim>1</dim>
				</port>
			</output>
		</layer>
		<layer id="309" name="3228323219953" type="Const" version="opset1">
			<data element_type="f16" offset="1623" shape="1,1,1,1" size="2"/>
			<output>
				<port id="0" precision="FP16">
					<dim>1</dim>
					<dim>1</dim>
					<dim>1</dim>
					<dim>1</dim>
				</port>
			</output>
		</layer>
		<layer id="310" name="2585258919281" type="Const" version="opset1">
			<data element_type="f16" offset="4393" shape="1,8,1,1" size="16"/>
			<output>
				<port id="0" precision="FP16">
					<dim>1</dim>
					<dim>8</dim>
					<dim>1</dim>
					<dim>1</dim>
				</port>
			</output>
		</layer>
		<layer id="311" name="2586259020340" type="Const" version="opset1">
			<data element_type="f16" offset="4409" shape="1,8,1,1" size="16"/>
			<output>
				<port id="0" precision="FP16">
					<dim>1</dim>
					<dim>8</dim>
					<dim>1</dim>
					<dim>1</dim>
				</port>
			</output>
		</layer>
		<layer id="312" name="2587259121699" type="Const" version="opset1">
			<data element_type="f16" offset="4393" shape="1,8,1,1" size="16"/>
			<output>
				<port id="0" precision="FP16">
					<dim>1</dim>
					<dim>8</dim>
					<dim>1</dim>
					<dim>1</dim>
				</port>
			</output>
		</layer>
		<layer id="313" name="2588259220121" type="Const" version="opset1">
			<data element_type="f16" offset="4409" shape="1,8,1,1" size="16"/>
			<output>
				<port id="0" precision="FP16">
					<dim>1</dim>
					<dim>8</dim>
					<dim>1</dim>
					<dim>1</dim>
				</port>
			</output>
		</layer>
		<layer id="314" name="bottleneck1_4/dim_red/bn/mean/Fused_Mul__copy78510017/quantized1237319197" type="Const" version="opset1">
			<data element_type="i8" offset="4425" shape="8,32,1,1" size="256"/>
			<output>
				<port id="0" precision="I8">
					<dim>8</dim>
					<dim>32</dim>
					<dim>1</dim>
					<dim>1</dim>
				</port>
			</output>
		</layer>
		<layer id="315" name="bottleneck1_4/dim_red/bn/mean/Fused_Mul__copy78510017/quantized/to_f16" type="Convert" version="opset1">
			<data destination_type="f16"/>
			<input>
				<port id="0">
					<dim>8</dim>
					<dim>32</dim>
					<dim>1</dim>
					<dim>1</dim>
				</port>
			</input>
			<output>
				<port id="1" precision="FP16">
					<dim>8</dim>
					<dim>32</dim>
					<dim>1</dim>
					<dim>1</dim>
				</port>
			</output>
		</layer>
		<layer id="316" name="bottleneck1_4/dim_red/conv/fq_weights_1/zero_point1238621036" type="Const" version="opset1">
			<data element_type="f16" offset="4681" shape="8,1,1,1" size="16"/>
			<output>
				<port id="0" precision="FP16">
					<dim>8</dim>
					<dim>1</dim>
					<dim>1</dim>
					<dim>1</dim>
				</port>
			</output>
		</layer>
		<layer id="317" name="bottleneck1_4/dim_red/conv/fq_weights_1/minus_zp" type="Subtract" version="opset1">
			<data auto_broadcast="numpy"/>
			<input>
				<port id="0">
					<dim>8</dim>
					<dim>32</dim>
					<dim>1</dim>
					<dim>1</dim>
				</port>
				<port id="1">
					<dim>8</dim>
					<dim>1</dim>
					<dim>1</dim>
					<dim>1</dim>
				</port>
			</input>
			<output>
				<port id="2" precision="FP16">
					<dim>8</dim>
					<dim>32</dim>
					<dim>1</dim>
					<dim>1</dim>
				</port>
			</output>
		</layer>
		<layer id="318" name="bottleneck1_4/dim_red/conv/fq_weights_1/scale1238120757" type="Const" version="opset1">
			<data element_type="f16" offset="4697" shape="8,1,1,1" size="16"/>
			<output>
				<port id="0" precision="FP16">
					<dim>8</dim>
					<dim>1</dim>
					<dim>1</dim>
					<dim>1</dim>
				</port>
			</output>
		</layer>
		<layer id="319" name="bottleneck1_4/dim_red/conv/fq_weights_1/mulpiply_by_scale" type="Multiply" version="opset1">
			<data auto_broadcast="numpy"/>
			<input>
				<port id="0">
					<dim>8</dim>
					<dim>32</dim>
					<dim>1</dim>
					<dim>1</dim>
				</port>
				<port id="1">
					<dim>8</dim>
					<dim>1</dim>
					<dim>1</dim>
					<dim>1</dim>
				</port>
			</input>
			<output>
				<port id="2" precision="FP16">
					<dim>8</dim>
					<dim>32</dim>
					<dim>1</dim>
					<dim>1</dim>
				</port>
			</output>
		</layer>
		<layer id="320" name="bottleneck1_4/dim_red/conv" type="Convolution" version="opset1">
			<data auto_pad="explicit" dilations="1,1" pads_begin="0,0" pads_end="0,0" strides="1,1"/>
			<input>
				<port id="0">
					<dim>1</dim>
					<dim>32</dim>
					<dim>256</dim>
					<dim>256</dim>
				</port>
				<port id="1">
					<dim>8</dim>
					<dim>32</dim>
					<dim>1</dim>
					<dim>1</dim>
				</port>
			</input>
			<output>
				<port id="2" precision="FP16">
					<dim>1</dim>
					<dim>8</dim>
					<dim>256</dim>
					<dim>256</dim>
				</port>
			</output>
		</layer>
		<layer id="321" name="data_add_249012490678720817" type="Const" version="opset1">
			<data element_type="f16" offset="4713" shape="1,8,1,1" size="16"/>
			<output>
				<port id="0" precision="FP16">
					<dim>1</dim>
					<dim>8</dim>
					<dim>1</dim>
					<dim>1</dim>
				</port>
			</output>
		</layer>
		<layer id="322" name="bottleneck1_4/dim_red/bn/variance/Fused_Add_" type="Add" version="opset1">
			<data auto_broadcast="numpy"/>
			<input>
				<port id="0">
					<dim>1</dim>
					<dim>8</dim>
					<dim>256</dim>
					<dim>256</dim>
				</port>
				<port id="1">
					<dim>1</dim>
					<dim>8</dim>
					<dim>1</dim>
					<dim>1</dim>
				</port>
			</input>
			<output>
				<port id="2" names="bottleneck1_4/dim_red/conv" precision="FP16">
					<dim>1</dim>
					<dim>8</dim>
					<dim>256</dim>
					<dim>256</dim>
				</port>
			</output>
		</layer>
		<layer id="323" name="bottleneck1_4/dim_red/fn" type="Elu" version="opset1">
			<data alpha="1"/>
			<input>
				<port id="0">
					<dim>1</dim>
					<dim>8</dim>
					<dim>256</dim>
					<dim>256</dim>
				</port>
			</input>
			<output>
				<port id="1" names="bottleneck1_4/dim_red/conv" precision="FP16">
					<dim>1</dim>
					<dim>8</dim>
					<dim>256</dim>
					<dim>256</dim>
				</port>
			</output>
		</layer>
		<layer id="324" name="bottleneck1_4/inner/dw1/conv/fq_input_0" type="FakeQuantize" version="opset1">
			<data auto_broadcast="numpy" levels="256"/>
			<input>
				<port id="0">
					<dim>1</dim>
					<dim>8</dim>
					<dim>256</dim>
					<dim>256</dim>
				</port>
				<port id="1">
					<dim>1</dim>
					<dim>8</dim>
					<dim>1</dim>
					<dim>1</dim>
				</port>
				<port id="2">
					<dim>1</dim>
					<dim>8</dim>
					<dim>1</dim>
					<dim>1</dim>
				</port>
				<port id="3">
					<dim>1</dim>
					<dim>8</dim>
					<dim>1</dim>
					<dim>1</dim>
				</port>
				<port id="4">
					<dim>1</dim>
					<dim>8</dim>
					<dim>1</dim>
					<dim>1</dim>
				</port>
			</input>
			<output>
				<port id="5" precision="FP16">
					<dim>1</dim>
					<dim>8</dim>
					<dim>256</dim>
					<dim>256</dim>
				</port>
			</output>
		</layer>
		<layer id="325" name="16674/value1667621708" type="Const" version="opset1">
			<data element_type="i64" offset="1961" shape="5" size="40"/>
			<output>
				<port id="0" precision="I64">
					<dim>5</dim>
				</port>
			</output>
		</layer>
		<layer id="326" name="bottleneck1_4/inner/dw1/bn/mean/Fused_Mul__copy79010019/quantized1266120511" type="Const" version="opset1">
			<data element_type="i8" offset="4729" shape="8,1,3,3" size="72"/>
			<output>
				<port id="0" precision="I8">
					<dim>8</dim>
					<dim>1</dim>
					<dim>3</dim>
					<dim>3</dim>
				</port>
			</output>
		</layer>
		<layer id="327" name="bottleneck1_4/inner/dw1/bn/mean/Fused_Mul__copy79010019/quantized/to_f16" type="Convert" version="opset1">
			<data destination_type="f16"/>
			<input>
				<port id="0">
					<dim>8</dim>
					<dim>1</dim>
					<dim>3</dim>
					<dim>3</dim>
				</port>
			</input>
			<output>
				<port id="1" precision="FP16">
					<dim>8</dim>
					<dim>1</dim>
					<dim>3</dim>
					<dim>3</dim>
				</port>
			</output>
		</layer>
		<layer id="328" name="bottleneck1_4/inner/dw1/conv/fq_weights_1/zero_point1267420118" type="Const" version="opset1">
			<data element_type="f16" offset="4801" shape="8,1,1,1" size="16"/>
			<output>
				<port id="0" precision="FP16">
					<dim>8</dim>
					<dim>1</dim>
					<dim>1</dim>
					<dim>1</dim>
				</port>
			</output>
		</layer>
		<layer id="329" name="bottleneck1_4/inner/dw1/conv/fq_weights_1/minus_zp" type="Subtract" version="opset1">
			<data auto_broadcast="numpy"/>
			<input>
				<port id="0">
					<dim>8</dim>
					<dim>1</dim>
					<dim>3</dim>
					<dim>3</dim>
				</port>
				<port id="1">
					<dim>8</dim>
					<dim>1</dim>
					<dim>1</dim>
					<dim>1</dim>
				</port>
			</input>
			<output>
				<port id="2" precision="FP16">
					<dim>8</dim>
					<dim>1</dim>
					<dim>3</dim>
					<dim>3</dim>
				</port>
			</output>
		</layer>
		<layer id="330" name="bottleneck1_4/inner/dw1/conv/fq_weights_1/scale1266921018" type="Const" version="opset1">
			<data element_type="f16" offset="4817" shape="8,1,1,1" size="16"/>
			<output>
				<port id="0" precision="FP16">
					<dim>8</dim>
					<dim>1</dim>
					<dim>1</dim>
					<dim>1</dim>
				</port>
			</output>
		</layer>
		<layer id="331" name="bottleneck1_4/inner/dw1/conv/fq_weights_1/mulpiply_by_scale" type="Multiply" version="opset1">
			<data auto_broadcast="numpy"/>
			<input>
				<port id="0">
					<dim>8</dim>
					<dim>1</dim>
					<dim>3</dim>
					<dim>3</dim>
				</port>
				<port id="1">
					<dim>8</dim>
					<dim>1</dim>
					<dim>1</dim>
					<dim>1</dim>
				</port>
			</input>
			<output>
				<port id="2" precision="FP16">
					<dim>8</dim>
					<dim>1</dim>
					<dim>3</dim>
					<dim>3</dim>
				</port>
			</output>
		</layer>
		<layer id="332" name="16674" type="Reshape" version="opset1">
			<data special_zero="true"/>
			<input>
				<port id="0">
					<dim>8</dim>
					<dim>1</dim>
					<dim>3</dim>
					<dim>3</dim>
				</port>
				<port id="1">
					<dim>5</dim>
				</port>
			</input>
			<output>
				<port id="2" precision="FP16">
					<dim>8</dim>
					<dim>1</dim>
					<dim>1</dim>
					<dim>3</dim>
					<dim>3</dim>
				</port>
			</output>
		</layer>
		<layer id="333" name="bottleneck1_4/inner/dw1/conv" type="GroupConvolution" version="opset1">
			<data auto_pad="explicit" dilations="1,1" pads_begin="1,1" pads_end="1,1" strides="1,1"/>
			<input>
				<port id="0">
					<dim>1</dim>
					<dim>8</dim>
					<dim>256</dim>
					<dim>256</dim>
				</port>
				<port id="1">
					<dim>8</dim>
					<dim>1</dim>
					<dim>1</dim>
					<dim>3</dim>
					<dim>3</dim>
				</port>
			</input>
			<output>
				<port id="2" precision="FP16">
					<dim>1</dim>
					<dim>8</dim>
					<dim>256</dim>
					<dim>256</dim>
				</port>
			</output>
		</layer>
		<layer id="334" name="data_add_249092491479220640" type="Const" version="opset1">
			<data element_type="f16" offset="4833" shape="1,8,1,1" size="16"/>
			<output>
				<port id="0" precision="FP16">
					<dim>1</dim>
					<dim>8</dim>
					<dim>1</dim>
					<dim>1</dim>
				</port>
			</output>
		</layer>
		<layer id="335" name="bottleneck1_4/inner/dw1/bn/variance/Fused_Add_" type="Add" version="opset1">
			<data auto_broadcast="numpy"/>
			<input>
				<port id="0">
					<dim>1</dim>
					<dim>8</dim>
					<dim>256</dim>
					<dim>256</dim>
				</port>
				<port id="1">
					<dim>1</dim>
					<dim>8</dim>
					<dim>1</dim>
					<dim>1</dim>
				</port>
			</input>
			<output>
				<port id="2" names="bottleneck1_4/inner/dw1/conv" precision="FP16">
					<dim>1</dim>
					<dim>8</dim>
					<dim>256</dim>
					<dim>256</dim>
				</port>
			</output>
		</layer>
		<layer id="336" name="bottleneck1_4/inner/dw1/fn" type="Elu" version="opset1">
			<data alpha="1"/>
			<input>
				<port id="0">
					<dim>1</dim>
					<dim>8</dim>
					<dim>256</dim>
					<dim>256</dim>
				</port>
			</input>
			<output>
				<port id="1" names="bottleneck1_4/inner/dw1/conv" precision="FP16">
					<dim>1</dim>
					<dim>8</dim>
					<dim>256</dim>
					<dim>256</dim>
				</port>
			</output>
		</layer>
		<layer id="337" name="bottleneck1_4/dim_inc/conv/fq_input_0" type="FakeQuantize" version="opset1">
			<data auto_broadcast="numpy" levels="256"/>
			<input>
				<port id="0">
					<dim>1</dim>
					<dim>8</dim>
					<dim>256</dim>
					<dim>256</dim>
				</port>
				<port id="1">
					<dim>1</dim>
					<dim>1</dim>
					<dim>1</dim>
					<dim>1</dim>
				</port>
				<port id="2">
					<dim>1</dim>
					<dim>1</dim>
					<dim>1</dim>
					<dim>1</dim>
				</port>
				<port id="3">
					<dim>1</dim>
					<dim>1</dim>
					<dim>1</dim>
					<dim>1</dim>
				</port>
				<port id="4">
					<dim>1</dim>
					<dim>1</dim>
					<dim>1</dim>
					<dim>1</dim>
				</port>
			</input>
			<output>
				<port id="5" precision="FP16">
					<dim>1</dim>
					<dim>8</dim>
					<dim>256</dim>
					<dim>256</dim>
				</port>
			</output>
		</layer>
		<layer id="338" name="bottleneck1_4/dim_inc/bn/mean/Fused_Mul__copy79510021/quantized1362119236" type="Const" version="opset1">
			<data element_type="i8" offset="4849" shape="32,8,1,1" size="256"/>
			<output>
				<port id="0" precision="I8">
					<dim>32</dim>
					<dim>8</dim>
					<dim>1</dim>
					<dim>1</dim>
				</port>
			</output>
		</layer>
		<layer id="339" name="bottleneck1_4/dim_inc/bn/mean/Fused_Mul__copy79510021/quantized/to_f16" type="Convert" version="opset1">
			<data destination_type="f16"/>
			<input>
				<port id="0">
					<dim>32</dim>
					<dim>8</dim>
					<dim>1</dim>
					<dim>1</dim>
				</port>
			</input>
			<output>
				<port id="1" precision="FP16">
					<dim>32</dim>
					<dim>8</dim>
					<dim>1</dim>
					<dim>1</dim>
				</port>
			</output>
		</layer>
		<layer id="340" name="bottleneck1_4/dim_inc/conv/fq_weights_1/zero_point1363420091" type="Const" version="opset1">
			<data element_type="f16" offset="5105" shape="32,1,1,1" size="64"/>
			<output>
				<port id="0" precision="FP16">
					<dim>32</dim>
					<dim>1</dim>
					<dim>1</dim>
					<dim>1</dim>
				</port>
			</output>
		</layer>
		<layer id="341" name="bottleneck1_4/dim_inc/conv/fq_weights_1/minus_zp" type="Subtract" version="opset1">
			<data auto_broadcast="numpy"/>
			<input>
				<port id="0">
					<dim>32</dim>
					<dim>8</dim>
					<dim>1</dim>
					<dim>1</dim>
				</port>
				<port id="1">
					<dim>32</dim>
					<dim>1</dim>
					<dim>1</dim>
					<dim>1</dim>
				</port>
			</input>
			<output>
				<port id="2" precision="FP16">
					<dim>32</dim>
					<dim>8</dim>
					<dim>1</dim>
					<dim>1</dim>
				</port>
			</output>
		</layer>
		<layer id="342" name="bottleneck1_4/dim_inc/conv/fq_weights_1/scale1362920580" type="Const" version="opset1">
			<data element_type="f16" offset="5169" shape="32,1,1,1" size="64"/>
			<output>
				<port id="0" precision="FP16">
					<dim>32</dim>
					<dim>1</dim>
					<dim>1</dim>
					<dim>1</dim>
				</port>
			</output>
		</layer>
		<layer id="343" name="bottleneck1_4/dim_inc/conv/fq_weights_1/mulpiply_by_scale" type="Multiply" version="opset1">
			<data auto_broadcast="numpy"/>
			<input>
				<port id="0">
					<dim>32</dim>
					<dim>8</dim>
					<dim>1</dim>
					<dim>1</dim>
				</port>
				<port id="1">
					<dim>32</dim>
					<dim>1</dim>
					<dim>1</dim>
					<dim>1</dim>
				</port>
			</input>
			<output>
				<port id="2" precision="FP16">
					<dim>32</dim>
					<dim>8</dim>
					<dim>1</dim>
					<dim>1</dim>
				</port>
			</output>
		</layer>
		<layer id="344" name="bottleneck1_4/dim_inc/conv" type="Convolution" version="opset1">
			<data auto_pad="explicit" dilations="1,1" pads_begin="0,0" pads_end="0,0" strides="1,1"/>
			<input>
				<port id="0">
					<dim>1</dim>
					<dim>8</dim>
					<dim>256</dim>
					<dim>256</dim>
				</port>
				<port id="1">
					<dim>32</dim>
					<dim>8</dim>
					<dim>1</dim>
					<dim>1</dim>
				</port>
			</input>
			<output>
				<port id="2" precision="FP16">
					<dim>1</dim>
					<dim>32</dim>
					<dim>256</dim>
					<dim>256</dim>
				</port>
			</output>
		</layer>
		<layer id="345" name="data_add_249172492279720283" type="Const" version="opset1">
			<data element_type="f16" offset="5233" shape="1,32,1,1" size="64"/>
			<output>
				<port id="0" precision="FP16">
					<dim>1</dim>
					<dim>32</dim>
					<dim>1</dim>
					<dim>1</dim>
				</port>
			</output>
		</layer>
		<layer id="346" name="bottleneck1_4/dim_inc/bn/variance/Fused_Add_" type="Add" version="opset1">
			<data auto_broadcast="numpy"/>
			<input>
				<port id="0">
					<dim>1</dim>
					<dim>32</dim>
					<dim>256</dim>
					<dim>256</dim>
				</port>
				<port id="1">
					<dim>1</dim>
					<dim>32</dim>
					<dim>1</dim>
					<dim>1</dim>
				</port>
			</input>
			<output>
				<port id="2" names="bottleneck1_4/dim_inc/conv" precision="FP16">
					<dim>1</dim>
					<dim>32</dim>
					<dim>256</dim>
					<dim>256</dim>
				</port>
			</output>
		</layer>
		<layer id="347" name="bottleneck1_4/add/fq_input_1" type="FakeQuantize" version="opset1">
			<data auto_broadcast="numpy" levels="256"/>
			<input>
				<port id="0">
					<dim>1</dim>
					<dim>32</dim>
					<dim>256</dim>
					<dim>256</dim>
				</port>
				<port id="1">
					<dim>1</dim>
					<dim>1</dim>
					<dim>1</dim>
					<dim>1</dim>
				</port>
				<port id="2">
					<dim>1</dim>
					<dim>1</dim>
					<dim>1</dim>
					<dim>1</dim>
				</port>
				<port id="3">
					<dim>1</dim>
					<dim>1</dim>
					<dim>1</dim>
					<dim>1</dim>
				</port>
				<port id="4">
					<dim>1</dim>
					<dim>1</dim>
					<dim>1</dim>
					<dim>1</dim>
				</port>
			</input>
			<output>
				<port id="5" precision="FP16">
					<dim>1</dim>
					<dim>32</dim>
					<dim>256</dim>
					<dim>256</dim>
				</port>
			</output>
		</layer>
		<layer id="348" name="bottleneck1_4/add" type="Add" version="opset1">
			<data auto_broadcast="numpy"/>
			<input>
				<port id="0">
					<dim>1</dim>
					<dim>32</dim>
					<dim>256</dim>
					<dim>256</dim>
				</port>
				<port id="1">
					<dim>1</dim>
					<dim>32</dim>
					<dim>256</dim>
					<dim>256</dim>
				</port>
			</input>
			<output>
				<port id="2" names="bottleneck1_4/add" precision="FP16">
					<dim>1</dim>
					<dim>32</dim>
					<dim>256</dim>
					<dim>256</dim>
				</port>
			</output>
		</layer>
		<layer id="349" name="bottleneck1_4/fn" type="Elu" version="opset1">
			<data alpha="1"/>
			<input>
				<port id="0">
					<dim>1</dim>
					<dim>32</dim>
					<dim>256</dim>
					<dim>256</dim>
				</port>
			</input>
			<output>
				<port id="1" names="bottleneck1_4/add" precision="FP16">
					<dim>1</dim>
					<dim>32</dim>
					<dim>256</dim>
					<dim>256</dim>
				</port>
			</output>
		</layer>
		<layer id="350" name="bottleneck2_0/dim_red/conv/fq_input_0" type="FakeQuantize" version="opset1">
			<data auto_broadcast="numpy" levels="256"/>
			<input>
				<port id="0">
					<dim>1</dim>
					<dim>32</dim>
					<dim>256</dim>
					<dim>256</dim>
				</port>
				<port id="1">
					<dim>1</dim>
					<dim>1</dim>
					<dim>1</dim>
					<dim>1</dim>
				</port>
				<port id="2">
					<dim>1</dim>
					<dim>1</dim>
					<dim>1</dim>
					<dim>1</dim>
				</port>
				<port id="3">
					<dim>1</dim>
					<dim>1</dim>
					<dim>1</dim>
					<dim>1</dim>
				</port>
				<port id="4">
					<dim>1</dim>
					<dim>1</dim>
					<dim>1</dim>
					<dim>1</dim>
				</port>
			</input>
			<output>
				<port id="5" precision="FP16">
					<dim>1</dim>
					<dim>32</dim>
					<dim>256</dim>
					<dim>256</dim>
				</port>
			</output>
		</layer>
		<layer id="351" name="bottleneck2_0/skip/pooling" type="MaxPool" version="opset1">
			<data auto_pad="explicit" kernel="2,2" pads_begin="0,0" pads_end="0,0" rounding_type="ceil" strides="2,2"/>
			<input>
				<port id="0">
					<dim>1</dim>
					<dim>32</dim>
					<dim>256</dim>
					<dim>256</dim>
				</port>
			</input>
			<output>
				<port id="1" names="bottleneck2_0/skip/pooling" precision="FP16">
					<dim>1</dim>
					<dim>32</dim>
					<dim>128</dim>
					<dim>128</dim>
				</port>
			</output>
		</layer>
		<layer id="352" name="bottleneck2_0/skip/bn/mean/Fused_Mul__copy80210023/quantized1174920862" type="Const" version="opset1">
			<data element_type="i8" offset="5297" shape="64,32,1,1" size="2048"/>
			<output>
				<port id="0" precision="I8">
					<dim>64</dim>
					<dim>32</dim>
					<dim>1</dim>
					<dim>1</dim>
				</port>
			</output>
		</layer>
		<layer id="353" name="bottleneck2_0/skip/bn/mean/Fused_Mul__copy80210023/quantized/to_f16" type="Convert" version="opset1">
			<data destination_type="f16"/>
			<input>
				<port id="0">
					<dim>64</dim>
					<dim>32</dim>
					<dim>1</dim>
					<dim>1</dim>
				</port>
			</input>
			<output>
				<port id="1" precision="FP16">
					<dim>64</dim>
					<dim>32</dim>
					<dim>1</dim>
					<dim>1</dim>
				</port>
			</output>
		</layer>
		<layer id="354" name="bottleneck2_0/skip/conv/fq_weights_1/zero_point1176220739" type="Const" version="opset1">
			<data element_type="f16" offset="7345" shape="64,1,1,1" size="128"/>
			<output>
				<port id="0" precision="FP16">
					<dim>64</dim>
					<dim>1</dim>
					<dim>1</dim>
					<dim>1</dim>
				</port>
			</output>
		</layer>
		<layer id="355" name="bottleneck2_0/skip/conv/fq_weights_1/minus_zp" type="Subtract" version="opset1">
			<data auto_broadcast="numpy"/>
			<input>
				<port id="0">
					<dim>64</dim>
					<dim>32</dim>
					<dim>1</dim>
					<dim>1</dim>
				</port>
				<port id="1">
					<dim>64</dim>
					<dim>1</dim>
					<dim>1</dim>
					<dim>1</dim>
				</port>
			</input>
			<output>
				<port id="2" precision="FP16">
					<dim>64</dim>
					<dim>32</dim>
					<dim>1</dim>
					<dim>1</dim>
				</port>
			</output>
		</layer>
		<layer id="356" name="bottleneck2_0/skip/conv/fq_weights_1/scale1175719647" type="Const" version="opset1">
			<data element_type="f16" offset="7473" shape="64,1,1,1" size="128"/>
			<output>
				<port id="0" precision="FP16">
					<dim>64</dim>
					<dim>1</dim>
					<dim>1</dim>
					<dim>1</dim>
				</port>
			</output>
		</layer>
		<layer id="357" name="bottleneck2_0/skip/conv/fq_weights_1/mulpiply_by_scale" type="Multiply" version="opset1">
			<data auto_broadcast="numpy"/>
			<input>
				<port id="0">
					<dim>64</dim>
					<dim>32</dim>
					<dim>1</dim>
					<dim>1</dim>
				</port>
				<port id="1">
					<dim>64</dim>
					<dim>1</dim>
					<dim>1</dim>
					<dim>1</dim>
				</port>
			</input>
			<output>
				<port id="2" precision="FP16">
					<dim>64</dim>
					<dim>32</dim>
					<dim>1</dim>
					<dim>1</dim>
				</port>
			</output>
		</layer>
		<layer id="358" name="bottleneck2_0/skip/conv" type="Convolution" version="opset1">
			<data auto_pad="explicit" dilations="1,1" pads_begin="0,0" pads_end="0,0" strides="1,1"/>
			<input>
				<port id="0">
					<dim>1</dim>
					<dim>32</dim>
					<dim>128</dim>
					<dim>128</dim>
				</port>
				<port id="1">
					<dim>64</dim>
					<dim>32</dim>
					<dim>1</dim>
					<dim>1</dim>
				</port>
			</input>
			<output>
				<port id="2" precision="FP16">
					<dim>1</dim>
					<dim>64</dim>
					<dim>128</dim>
					<dim>128</dim>
				</port>
			</output>
		</layer>
		<layer id="359" name="data_add_249252493080419911" type="Const" version="opset1">
			<data element_type="f16" offset="7601" shape="1,64,1,1" size="128"/>
			<output>
				<port id="0" precision="FP16">
					<dim>1</dim>
					<dim>64</dim>
					<dim>1</dim>
					<dim>1</dim>
				</port>
			</output>
		</layer>
		<layer id="360" name="bottleneck2_0/skip/bn/variance/Fused_Add_" type="Add" version="opset1">
			<data auto_broadcast="numpy"/>
			<input>
				<port id="0">
					<dim>1</dim>
					<dim>64</dim>
					<dim>128</dim>
					<dim>128</dim>
				</port>
				<port id="1">
					<dim>1</dim>
					<dim>64</dim>
					<dim>1</dim>
					<dim>1</dim>
				</port>
			</input>
			<output>
				<port id="2" names="bottleneck2_0/skip/conv" precision="FP16">
					<dim>1</dim>
					<dim>64</dim>
					<dim>128</dim>
					<dim>128</dim>
				</port>
			</output>
		</layer>
		<layer id="361" name="bottleneck2_0/add/fq_input_0" type="FakeQuantize" version="opset1">
			<data auto_broadcast="numpy" levels="256"/>
			<input>
				<port id="0">
					<dim>1</dim>
					<dim>64</dim>
					<dim>128</dim>
					<dim>128</dim>
				</port>
				<port id="1">
					<dim>1</dim>
					<dim>1</dim>
					<dim>1</dim>
					<dim>1</dim>
				</port>
				<port id="2">
					<dim>1</dim>
					<dim>1</dim>
					<dim>1</dim>
					<dim>1</dim>
				</port>
				<port id="3">
					<dim>1</dim>
					<dim>1</dim>
					<dim>1</dim>
					<dim>1</dim>
				</port>
				<port id="4">
					<dim>1</dim>
					<dim>1</dim>
					<dim>1</dim>
					<dim>1</dim>
				</port>
			</input>
			<output>
				<port id="5" precision="FP16">
					<dim>1</dim>
					<dim>64</dim>
					<dim>128</dim>
					<dim>128</dim>
				</port>
			</output>
		</layer>
		<layer id="362" name="3055305920982" type="Const" version="opset1">
			<data element_type="f16" offset="7729" shape="1,1,1,1" size="2"/>
			<output>
				<port id="0" precision="FP16">
					<dim>1</dim>
					<dim>1</dim>
					<dim>1</dim>
					<dim>1</dim>
				</port>
			</output>
		</layer>
		<layer id="363" name="3056306020754" type="Const" version="opset1">
			<data element_type="f16" offset="7731" shape="1,1,1,1" size="2"/>
			<output>
				<port id="0" precision="FP16">
					<dim>1</dim>
					<dim>1</dim>
					<dim>1</dim>
					<dim>1</dim>
				</port>
			</output>
		</layer>
		<layer id="364" name="3057306120841" type="Const" version="opset1">
			<data element_type="f16" offset="7729" shape="1,1,1,1" size="2"/>
			<output>
				<port id="0" precision="FP16">
					<dim>1</dim>
					<dim>1</dim>
					<dim>1</dim>
					<dim>1</dim>
				</port>
			</output>
		</layer>
		<layer id="365" name="3058306221570" type="Const" version="opset1">
			<data element_type="f16" offset="7731" shape="1,1,1,1" size="2"/>
			<output>
				<port id="0" precision="FP16">
					<dim>1</dim>
					<dim>1</dim>
					<dim>1</dim>
					<dim>1</dim>
				</port>
			</output>
		</layer>
		<layer id="366" name="4115411921096" type="Const" version="opset1">
			<data element_type="f16" offset="7733" shape="1,1,1,1" size="2"/>
			<output>
				<port id="0" precision="FP16">
					<dim>1</dim>
					<dim>1</dim>
					<dim>1</dim>
					<dim>1</dim>
				</port>
			</output>
		</layer>
		<layer id="367" name="4116412019170" type="Const" version="opset1">
			<data element_type="f16" offset="7735" shape="1,1,1,1" size="2"/>
			<output>
				<port id="0" precision="FP16">
					<dim>1</dim>
					<dim>1</dim>
					<dim>1</dim>
					<dim>1</dim>
				</port>
			</output>
		</layer>
		<layer id="368" name="4117412120469" type="Const" version="opset1">
			<data element_type="f16" offset="7733" shape="1,1,1,1" size="2"/>
			<output>
				<port id="0" precision="FP16">
					<dim>1</dim>
					<dim>1</dim>
					<dim>1</dim>
					<dim>1</dim>
				</port>
			</output>
		</layer>
		<layer id="369" name="4118412221282" type="Const" version="opset1">
			<data element_type="f16" offset="7735" shape="1,1,1,1" size="2"/>
			<output>
				<port id="0" precision="FP16">
					<dim>1</dim>
					<dim>1</dim>
					<dim>1</dim>
					<dim>1</dim>
				</port>
			</output>
		</layer>
		<layer id="370" name="3445344921204" type="Const" version="opset1">
			<data element_type="f16" offset="7737" shape="1,16,1,1" size="32"/>
			<output>
				<port id="0" precision="FP16">
					<dim>1</dim>
					<dim>16</dim>
					<dim>1</dim>
					<dim>1</dim>
				</port>
			</output>
		</layer>
		<layer id="371" name="3446345022017" type="Const" version="opset1">
			<data element_type="f16" offset="7769" shape="1,16,1,1" size="32"/>
			<output>
				<port id="0" precision="FP16">
					<dim>1</dim>
					<dim>16</dim>
					<dim>1</dim>
					<dim>1</dim>
				</port>
			</output>
		</layer>
		<layer id="372" name="3447345121333" type="Const" version="opset1">
			<data element_type="f16" offset="7737" shape="1,16,1,1" size="32"/>
			<output>
				<port id="0" precision="FP16">
					<dim>1</dim>
					<dim>16</dim>
					<dim>1</dim>
					<dim>1</dim>
				</port>
			</output>
		</layer>
		<layer id="373" name="3448345222494" type="Const" version="opset1">
			<data element_type="f16" offset="7769" shape="1,16,1,1" size="32"/>
			<output>
				<port id="0" precision="FP16">
					<dim>1</dim>
					<dim>16</dim>
					<dim>1</dim>
					<dim>1</dim>
				</port>
			</output>
		</layer>
		<layer id="374" name="bottleneck2_0/dim_red/bn/mean/Fused_Mul__copy80610025/quantized1381320130" type="Const" version="opset1">
			<data element_type="i8" offset="7801" shape="16,32,1,1" size="512"/>
			<output>
				<port id="0" precision="I8">
					<dim>16</dim>
					<dim>32</dim>
					<dim>1</dim>
					<dim>1</dim>
				</port>
			</output>
		</layer>
		<layer id="375" name="bottleneck2_0/dim_red/bn/mean/Fused_Mul__copy80610025/quantized/to_f16" type="Convert" version="opset1">
			<data destination_type="f16"/>
			<input>
				<port id="0">
					<dim>16</dim>
					<dim>32</dim>
					<dim>1</dim>
					<dim>1</dim>
				</port>
			</input>
			<output>
				<port id="1" precision="FP16">
					<dim>16</dim>
					<dim>32</dim>
					<dim>1</dim>
					<dim>1</dim>
				</port>
			</output>
		</layer>
		<layer id="376" name="bottleneck2_0/dim_red/conv/fq_weights_1/zero_point1382622596" type="Const" version="opset1">
			<data element_type="f16" offset="8313" shape="16,1,1,1" size="32"/>
			<output>
				<port id="0" precision="FP16">
					<dim>16</dim>
					<dim>1</dim>
					<dim>1</dim>
					<dim>1</dim>
				</port>
			</output>
		</layer>
		<layer id="377" name="bottleneck2_0/dim_red/conv/fq_weights_1/minus_zp" type="Subtract" version="opset1">
			<data auto_broadcast="numpy"/>
			<input>
				<port id="0">
					<dim>16</dim>
					<dim>32</dim>
					<dim>1</dim>
					<dim>1</dim>
				</port>
				<port id="1">
					<dim>16</dim>
					<dim>1</dim>
					<dim>1</dim>
					<dim>1</dim>
				</port>
			</input>
			<output>
				<port id="2" precision="FP16">
					<dim>16</dim>
					<dim>32</dim>
					<dim>1</dim>
					<dim>1</dim>
				</port>
			</output>
		</layer>
		<layer id="378" name="bottleneck2_0/dim_red/conv/fq_weights_1/scale1382122182" type="Const" version="opset1">
			<data element_type="f16" offset="8345" shape="16,1,1,1" size="32"/>
			<output>
				<port id="0" precision="FP16">
					<dim>16</dim>
					<dim>1</dim>
					<dim>1</dim>
					<dim>1</dim>
				</port>
			</output>
		</layer>
		<layer id="379" name="bottleneck2_0/dim_red/conv/fq_weights_1/mulpiply_by_scale" type="Multiply" version="opset1">
			<data auto_broadcast="numpy"/>
			<input>
				<port id="0">
					<dim>16</dim>
					<dim>32</dim>
					<dim>1</dim>
					<dim>1</dim>
				</port>
				<port id="1">
					<dim>16</dim>
					<dim>1</dim>
					<dim>1</dim>
					<dim>1</dim>
				</port>
			</input>
			<output>
				<port id="2" precision="FP16">
					<dim>16</dim>
					<dim>32</dim>
					<dim>1</dim>
					<dim>1</dim>
				</port>
			</output>
		</layer>
		<layer id="380" name="bottleneck2_0/dim_red/conv" type="Convolution" version="opset1">
			<data auto_pad="explicit" dilations="1,1" pads_begin="0,0" pads_end="0,0" strides="1,1"/>
			<input>
				<port id="0">
					<dim>1</dim>
					<dim>32</dim>
					<dim>256</dim>
					<dim>256</dim>
				</port>
				<port id="1">
					<dim>16</dim>
					<dim>32</dim>
					<dim>1</dim>
					<dim>1</dim>
				</port>
			</input>
			<output>
				<port id="2" precision="FP16">
					<dim>1</dim>
					<dim>16</dim>
					<dim>256</dim>
					<dim>256</dim>
				</port>
			</output>
		</layer>
		<layer id="381" name="data_add_249332493880819368" type="Const" version="opset1">
			<data element_type="f16" offset="8377" shape="1,16,1,1" size="32"/>
			<output>
				<port id="0" precision="FP16">
					<dim>1</dim>
					<dim>16</dim>
					<dim>1</dim>
					<dim>1</dim>
				</port>
			</output>
		</layer>
		<layer id="382" name="bottleneck2_0/dim_red/bn/variance/Fused_Add_" type="Add" version="opset1">
			<data auto_broadcast="numpy"/>
			<input>
				<port id="0">
					<dim>1</dim>
					<dim>16</dim>
					<dim>256</dim>
					<dim>256</dim>
				</port>
				<port id="1">
					<dim>1</dim>
					<dim>16</dim>
					<dim>1</dim>
					<dim>1</dim>
				</port>
			</input>
			<output>
				<port id="2" names="bottleneck2_0/dim_red/conv" precision="FP16">
					<dim>1</dim>
					<dim>16</dim>
					<dim>256</dim>
					<dim>256</dim>
				</port>
			</output>
		</layer>
		<layer id="383" name="bottleneck2_0/dim_red/fn" type="Elu" version="opset1">
			<data alpha="1"/>
			<input>
				<port id="0">
					<dim>1</dim>
					<dim>16</dim>
					<dim>256</dim>
					<dim>256</dim>
				</port>
			</input>
			<output>
				<port id="1" names="bottleneck2_0/dim_red/conv" precision="FP16">
					<dim>1</dim>
					<dim>16</dim>
					<dim>256</dim>
					<dim>256</dim>
				</port>
			</output>
		</layer>
		<layer id="384" name="bottleneck2_0/inner/dw1/conv/fq_input_0" type="FakeQuantize" version="opset1">
			<data auto_broadcast="numpy" levels="256"/>
			<input>
				<port id="0">
					<dim>1</dim>
					<dim>16</dim>
					<dim>256</dim>
					<dim>256</dim>
				</port>
				<port id="1">
					<dim>1</dim>
					<dim>16</dim>
					<dim>1</dim>
					<dim>1</dim>
				</port>
				<port id="2">
					<dim>1</dim>
					<dim>16</dim>
					<dim>1</dim>
					<dim>1</dim>
…
		<edge from-layer="1550" from-port="0" to-layer="1592" to-port="4"/>
		<edge from-layer="1546" from-port="5" to-layer="1593" to-port="0"/>
		<edge from-layer="1592" from-port="5" to-layer="1593" to-port="1"/>
		<edge from-layer="1593" from-port="2" to-layer="1594" to-port="0"/>
		<edge from-layer="1594" from-port="1" to-layer="1595" to-port="0"/>
		<edge from-layer="1416" from-port="0" to-layer="1595" to-port="1"/>
		<edge from-layer="1417" from-port="0" to-layer="1595" to-port="2"/>
		<edge from-layer="1418" from-port="0" to-layer="1595" to-port="3"/>
		<edge from-layer="1419" from-port="0" to-layer="1595" to-port="4"/>
		<edge from-layer="1608" from-port="0" to-layer="1609" to-port="0"/>
		<edge from-layer="1609" from-port="1" to-layer="1611" to-port="0"/>
		<edge from-layer="1610" from-port="0" to-layer="1611" to-port="1"/>
		<edge from-layer="1611" from-port="2" to-layer="1613" to-port="0"/>
		<edge from-layer="1612" from-port="0" to-layer="1613" to-port="1"/>
		<edge from-layer="1595" from-port="5" to-layer="1614" to-port="0"/>
		<edge from-layer="1613" from-port="2" to-layer="1614" to-port="1"/>
		<edge from-layer="1614" from-port="2" to-layer="1616" to-port="0"/>
		<edge from-layer="1615" from-port="0" to-layer="1616" to-port="1"/>
		<edge from-layer="1616" from-port="2" to-layer="1617" to-port="0"/>
		<edge from-layer="1617" from-port="1" to-layer="1618" to-port="0"/>
		<edge from-layer="1604" from-port="0" to-layer="1618" to-port="1"/>
		<edge from-layer="1605" from-port="0" to-layer="1618" to-port="2"/>
		<edge from-layer="1606" from-port="0" to-layer="1618" to-port="3"/>
		<edge from-layer="1607" from-port="0" to-layer="1618" to-port="4"/>
		<edge from-layer="1620" from-port="0" to-layer="1621" to-port="0"/>
		<edge from-layer="1621" from-port="1" to-layer="1623" to-port="0"/>
		<edge from-layer="1622" from-port="0" to-layer="1623" to-port="1"/>
		<edge from-layer="1623" from-port="2" to-layer="1625" to-port="0"/>
		<edge from-layer="1624" from-port="0" to-layer="1625" to-port="1"/>
		<edge from-layer="1625" from-port="2" to-layer="1626" to-port="0"/>
		<edge from-layer="1619" from-port="0" to-layer="1626" to-port="1"/>
		<edge from-layer="1618" from-port="5" to-layer="1627" to-port="0"/>
		<edge from-layer="1626" from-port="2" to-layer="1627" to-port="1"/>
		<edge from-layer="1627" from-port="2" to-layer="1629" to-port="0"/>
		<edge from-layer="1628" from-port="0" to-layer="1629" to-port="1"/>
		<edge from-layer="1629" from-port="2" to-layer="1630" to-port="0"/>
		<edge from-layer="1630" from-port="1" to-layer="1631" to-port="0"/>
		<edge from-layer="1600" from-port="0" to-layer="1631" to-port="1"/>
		<edge from-layer="1601" from-port="0" to-layer="1631" to-port="2"/>
		<edge from-layer="1602" from-port="0" to-layer="1631" to-port="3"/>
		<edge from-layer="1603" from-port="0" to-layer="1631" to-port="4"/>
		<edge from-layer="1632" from-port="0" to-layer="1633" to-port="0"/>
		<edge from-layer="1633" from-port="1" to-layer="1635" to-port="0"/>
		<edge from-layer="1634" from-port="0" to-layer="1635" to-port="1"/>
		<edge from-layer="1635" from-port="2" to-layer="1637" to-port="0"/>
		<edge from-layer="1636" from-port="0" to-layer="1637" to-port="1"/>
		<edge from-layer="1631" from-port="5" to-layer="1638" to-port="0"/>
		<edge from-layer="1637" from-port="2" to-layer="1638" to-port="1"/>
		<edge from-layer="1638" from-port="2" to-layer="1640" to-port="0"/>
		<edge from-layer="1639" from-port="0" to-layer="1640" to-port="1"/>
		<edge from-layer="1640" from-port="2" to-layer="1641" to-port="0"/>
		<edge from-layer="1596" from-port="0" to-layer="1641" to-port="1"/>
		<edge from-layer="1597" from-port="0" to-layer="1641" to-port="2"/>
		<edge from-layer="1598" from-port="0" to-layer="1641" to-port="3"/>
		<edge from-layer="1599" from-port="0" to-layer="1641" to-port="4"/>
		<edge from-layer="1595" from-port="5" to-layer="1642" to-port="0"/>
		<edge from-layer="1641" from-port="5" to-layer="1642" to-port="1"/>
		<edge from-layer="1642" from-port="2" to-layer="1643" to-port="0"/>
		<edge from-layer="1643" from-port="1" to-layer="1644" to-port="0"/>
		<edge from-layer="1412" from-port="0" to-layer="1644" to-port="1"/>
		<edge from-layer="1413" from-port="0" to-layer="1644" to-port="2"/>
		<edge from-layer="1414" from-port="0" to-layer="1644" to-port="3"/>
		<edge from-layer="1415" from-port="0" to-layer="1644" to-port="4"/>
		<edge from-layer="1657" from-port="0" to-layer="1658" to-port="0"/>
		<edge from-layer="1658" from-port="1" to-layer="1660" to-port="0"/>
		<edge from-layer="1659" from-port="0" to-layer="1660" to-port="1"/>
		<edge from-layer="1660" from-port="2" to-layer="1662" to-port="0"/>
		<edge from-layer="1661" from-port="0" to-layer="1662" to-port="1"/>
		<edge from-layer="1644" from-port="5" to-layer="1663" to-port="0"/>
		<edge from-layer="1662" from-port="2" to-layer="1663" to-port="1"/>
		<edge from-layer="1663" from-port="2" to-layer="1665" to-port="0"/>
		<edge from-layer="1664" from-port="0" to-layer="1665" to-port="1"/>
		<edge from-layer="1665" from-port="2" to-layer="1666" to-port="0"/>
		<edge from-layer="1666" from-port="1" to-layer="1667" to-port="0"/>
		<edge from-layer="1653" from-port="0" to-layer="1667" to-port="1"/>
		<edge from-layer="1654" from-port="0" to-layer="1667" to-port="2"/>
		<edge from-layer="1655" from-port="0" to-layer="1667" to-port="3"/>
		<edge from-layer="1656" from-port="0" to-layer="1667" to-port="4"/>
		<edge from-layer="1669" from-port="0" to-layer="1670" to-port="0"/>
		<edge from-layer="1670" from-port="1" to-layer="1672" to-port="0"/>
		<edge from-layer="1671" from-port="0" to-layer="1672" to-port="1"/>
		<edge from-layer="1672" from-port="2" to-layer="1674" to-port="0"/>
		<edge from-layer="1673" from-port="0" to-layer="1674" to-port="1"/>
		<edge from-layer="1674" from-port="2" to-layer="1675" to-port="0"/>
		<edge from-layer="1668" from-port="0" to-layer="1675" to-port="1"/>
		<edge from-layer="1667" from-port="5" to-layer="1676" to-port="0"/>
		<edge from-layer="1675" from-port="2" to-layer="1676" to-port="1"/>
		<edge from-layer="1676" from-port="2" to-layer="1678" to-port="0"/>
		<edge from-layer="1677" from-port="0" to-layer="1678" to-port="1"/>
		<edge from-layer="1678" from-port="2" to-layer="1679" to-port="0"/>
		<edge from-layer="1679" from-port="1" to-layer="1680" to-port="0"/>
		<edge from-layer="1649" from-port="0" to-layer="1680" to-port="1"/>
		<edge from-layer="1650" from-port="0" to-layer="1680" to-port="2"/>
		<edge from-layer="1651" from-port="0" to-layer="1680" to-port="3"/>
		<edge from-layer="1652" from-port="0" to-layer="1680" to-port="4"/>
		<edge from-layer="1681" from-port="0" to-layer="1682" to-port="0"/>
		<edge from-layer="1682" from-port="1" to-layer="1684" to-port="0"/>
		<edge from-layer="1683" from-port="0" to-layer="1684" to-port="1"/>
		<edge from-layer="1684" from-port="2" to-layer="1686" to-port="0"/>
		<edge from-layer="1685" from-port="0" to-layer="1686" to-port="1"/>
		<edge from-layer="1680" from-port="5" to-layer="1687" to-port="0"/>
		<edge from-layer="1686" from-port="2" to-layer="1687" to-port="1"/>
		<edge from-layer="1687" from-port="2" to-layer="1689" to-port="0"/>
		<edge from-layer="1688" from-port="0" to-layer="1689" to-port="1"/>
		<edge from-layer="1689" from-port="2" to-layer="1690" to-port="0"/>
		<edge from-layer="1645" from-port="0" to-layer="1690" to-port="1"/>
		<edge from-layer="1646" from-port="0" to-layer="1690" to-port="2"/>
		<edge from-layer="1647" from-port="0" to-layer="1690" to-port="3"/>
		<edge from-layer="1648" from-port="0" to-layer="1690" to-port="4"/>
		<edge from-layer="1644" from-port="5" to-layer="1691" to-port="0"/>
		<edge from-layer="1690" from-port="5" to-layer="1691" to-port="1"/>
		<edge from-layer="1691" from-port="2" to-layer="1692" to-port="0"/>
		<edge from-layer="1692" from-port="1" to-layer="1693" to-port="0"/>
		<edge from-layer="1408" from-port="0" to-layer="1693" to-port="1"/>
		<edge from-layer="1409" from-port="0" to-layer="1693" to-port="2"/>
		<edge from-layer="1410" from-port="0" to-layer="1693" to-port="3"/>
		<edge from-layer="1411" from-port="0" to-layer="1693" to-port="4"/>
		<edge from-layer="1706" from-port="0" to-layer="1707" to-port="0"/>
		<edge from-layer="1707" from-port="1" to-layer="1709" to-port="0"/>
		<edge from-layer="1708" from-port="0" to-layer="1709" to-port="1"/>
		<edge from-layer="1709" from-port="2" to-layer="1711" to-port="0"/>
		<edge from-layer="1710" from-port="0" to-layer="1711" to-port="1"/>
		<edge from-layer="1693" from-port="5" to-layer="1712" to-port="0"/>
		<edge from-layer="1711" from-port="2" to-layer="1712" to-port="1"/>
		<edge from-layer="1712" from-port="2" to-layer="1714" to-port="0"/>
		<edge from-layer="1713" from-port="0" to-layer="1714" to-port="1"/>
		<edge from-layer="1714" from-port="2" to-layer="1715" to-port="0"/>
		<edge from-layer="1715" from-port="1" to-layer="1716" to-port="0"/>
		<edge from-layer="1702" from-port="0" to-layer="1716" to-port="1"/>
		<edge from-layer="1703" from-port="0" to-layer="1716" to-port="2"/>
		<edge from-layer="1704" from-port="0" to-layer="1716" to-port="3"/>
		<edge from-layer="1705" from-port="0" to-layer="1716" to-port="4"/>
		<edge from-layer="1718" from-port="0" to-layer="1719" to-port="0"/>
		<edge from-layer="1719" from-port="1" to-layer="1721" to-port="0"/>
		<edge from-layer="1720" from-port="0" to-layer="1721" to-port="1"/>
		<edge from-layer="1721" from-port="2" to-layer="1723" to-port="0"/>
		<edge from-layer="1722" from-port="0" to-layer="1723" to-port="1"/>
		<edge from-layer="1723" from-port="2" to-layer="1724" to-port="0"/>
		<edge from-layer="1717" from-port="0" to-layer="1724" to-port="1"/>
		<edge from-layer="1716" from-port="5" to-layer="1725" to-port="0"/>
		<edge from-layer="1724" from-port="2" to-layer="1725" to-port="1"/>
		<edge from-layer="1725" from-port="2" to-layer="1727" to-port="0"/>
		<edge from-layer="1726" from-port="0" to-layer="1727" to-port="1"/>
		<edge from-layer="1727" from-port="2" to-layer="1728" to-port="0"/>
		<edge from-layer="1728" from-port="1" to-layer="1729" to-port="0"/>
		<edge from-layer="1698" from-port="0" to-layer="1729" to-port="1"/>
		<edge from-layer="1699" from-port="0" to-layer="1729" to-port="2"/>
		<edge from-layer="1700" from-port="0" to-layer="1729" to-port="3"/>
		<edge from-layer="1701" from-port="0" to-layer="1729" to-port="4"/>
		<edge from-layer="1730" from-port="0" to-layer="1731" to-port="0"/>
		<edge from-layer="1731" from-port="1" to-layer="1733" to-port="0"/>
		<edge from-layer="1732" from-port="0" to-layer="1733" to-port="1"/>
		<edge from-layer="1733" from-port="2" to-layer="1735" to-port="0"/>
		<edge from-layer="1734" from-port="0" to-layer="1735" to-port="1"/>
		<edge from-layer="1729" from-port="5" to-layer="1736" to-port="0"/>
		<edge from-layer="1735" from-port="2" to-layer="1736" to-port="1"/>
		<edge from-layer="1736" from-port="2" to-layer="1738" to-port="0"/>
		<edge from-layer="1737" from-port="0" to-layer="1738" to-port="1"/>
		<edge from-layer="1738" from-port="2" to-layer="1739" to-port="0"/>
		<edge from-layer="1694" from-port="0" to-layer="1739" to-port="1"/>
		<edge from-layer="1695" from-port="0" to-layer="1739" to-port="2"/>
		<edge from-layer="1696" from-port="0" to-layer="1739" to-port="3"/>
		<edge from-layer="1697" from-port="0" to-layer="1739" to-port="4"/>
		<edge from-layer="1693" from-port="5" to-layer="1740" to-port="0"/>
		<edge from-layer="1739" from-port="5" to-layer="1740" to-port="1"/>
		<edge from-layer="1740" from-port="2" to-layer="1741" to-port="0"/>
		<edge from-layer="1741" from-port="1" to-layer="1742" to-port="0"/>
		<edge from-layer="1404" from-port="0" to-layer="1742" to-port="1"/>
		<edge from-layer="1405" from-port="0" to-layer="1742" to-port="2"/>
		<edge from-layer="1406" from-port="0" to-layer="1742" to-port="3"/>
		<edge from-layer="1407" from-port="0" to-layer="1742" to-port="4"/>
		<edge from-layer="1755" from-port="0" to-layer="1756" to-port="0"/>
		<edge from-layer="1756" from-port="1" to-layer="1758" to-port="0"/>
		<edge from-layer="1757" from-port="0" to-layer="1758" to-port="1"/>
		<edge from-layer="1758" from-port="2" to-layer="1760" to-port="0"/>
		<edge from-layer="1759" from-port="0" to-layer="1760" to-port="1"/>
		<edge from-layer="1742" from-port="5" to-layer="1761" to-port="0"/>
		<edge from-layer="1760" from-port="2" to-layer="1761" to-port="1"/>
		<edge from-layer="1761" from-port="2" to-layer="1763" to-port="0"/>
		<edge from-layer="1762" from-port="0" to-layer="1763" to-port="1"/>
		<edge from-layer="1763" from-port="2" to-layer="1764" to-port="0"/>
		<edge from-layer="1764" from-port="1" to-layer="1765" to-port="0"/>
		<edge from-layer="1751" from-port="0" to-layer="1765" to-port="1"/>
		<edge from-layer="1752" from-port="0" to-layer="1765" to-port="2"/>
		<edge from-layer="1753" from-port="0" to-layer="1765" to-port="3"/>
		<edge from-layer="1754" from-port="0" to-layer="1765" to-port="4"/>
		<edge from-layer="1767" from-port="0" to-layer="1768" to-port="0"/>
		<edge from-layer="1768" from-port="1" to-layer="1770" to-port="0"/>
		<edge from-layer="1769" from-port="0" to-layer="1770" to-port="1"/>
		<edge from-layer="1770" from-port="2" to-layer="1772" to-port="0"/>
		<edge from-layer="1771" from-port="0" to-layer="1772" to-port="1"/>
		<edge from-layer="1772" from-port="2" to-layer="1773" to-port="0"/>
		<edge from-layer="1766" from-port="0" to-layer="1773" to-port="1"/>
		<edge from-layer="1765" from-port="5" to-layer="1774" to-port="0"/>
		<edge from-layer="1773" from-port="2" to-layer="1774" to-port="1"/>
		<edge from-layer="1774" from-port="2" to-layer="1776" to-port="0"/>
		<edge from-layer="1775" from-port="0" to-layer="1776" to-port="1"/>
		<edge from-layer="1776" from-port="2" to-layer="1777" to-port="0"/>
		<edge from-layer="1777" from-port="1" to-layer="1778" to-port="0"/>
		<edge from-layer="1747" from-port="0" to-layer="1778" to-port="1"/>
		<edge from-layer="1748" from-port="0" to-layer="1778" to-port="2"/>
		<edge from-layer="1749" from-port="0" to-layer="1778" to-port="3"/>
		<edge from-layer="1750" from-port="0" to-layer="1778" to-port="4"/>
		<edge from-layer="1779" from-port="0" to-layer="1780" to-port="0"/>
		<edge from-layer="1780" from-port="1" to-layer="1782" to-port="0"/>
		<edge from-layer="1781" from-port="0" to-layer="1782" to-port="1"/>
		<edge from-layer="1782" from-port="2" to-layer="1784" to-port="0"/>
		<edge from-layer="1783" from-port="0" to-layer="1784" to-port="1"/>
		<edge from-layer="1778" from-port="5" to-layer="1785" to-port="0"/>
		<edge from-layer="1784" from-port="2" to-layer="1785" to-port="1"/>
		<edge from-layer="1785" from-port="2" to-layer="1787" to-port="0"/>
		<edge from-layer="1786" from-port="0" to-layer="1787" to-port="1"/>
		<edge from-layer="1787" from-port="2" to-layer="1788" to-port="0"/>
		<edge from-layer="1743" from-port="0" to-layer="1788" to-port="1"/>
		<edge from-layer="1744" from-port="0" to-layer="1788" to-port="2"/>
		<edge from-layer="1745" from-port="0" to-layer="1788" to-port="3"/>
		<edge from-layer="1746" from-port="0" to-layer="1788" to-port="4"/>
		<edge from-layer="1742" from-port="5" to-layer="1789" to-port="0"/>
		<edge from-layer="1788" from-port="5" to-layer="1789" to-port="1"/>
		<edge from-layer="1789" from-port="2" to-layer="1790" to-port="0"/>
		<edge from-layer="1790" from-port="1" to-layer="1791" to-port="0"/>
		<edge from-layer="1400" from-port="0" to-layer="1791" to-port="1"/>
		<edge from-layer="1401" from-port="0" to-layer="1791" to-port="2"/>
		<edge from-layer="1402" from-port="0" to-layer="1791" to-port="3"/>
		<edge from-layer="1403" from-port="0" to-layer="1791" to-port="4"/>
		<edge from-layer="1804" from-port="0" to-layer="1805" to-port="0"/>
		<edge from-layer="1805" from-port="1" to-layer="1807" to-port="0"/>
		<edge from-layer="1806" from-port="0" to-layer="1807" to-port="1"/>
		<edge from-layer="1807" from-port="2" to-layer="1809" to-port="0"/>
		<edge from-layer="1808" from-port="0" to-layer="1809" to-port="1"/>
		<edge from-layer="1791" from-port="5" to-layer="1810" to-port="0"/>
		<edge from-layer="1809" from-port="2" to-layer="1810" to-port="1"/>
		<edge from-layer="1810" from-port="2" to-layer="1812" to-port="0"/>
		<edge from-layer="1811" from-port="0" to-layer="1812" to-port="1"/>
		<edge from-layer="1812" from-port="2" to-layer="1813" to-port="0"/>
		<edge from-layer="1813" from-port="1" to-layer="1814" to-port="0"/>
		<edge from-layer="1800" from-port="0" to-layer="1814" to-port="1"/>
		<edge from-layer="1801" from-port="0" to-layer="1814" to-port="2"/>
		<edge from-layer="1802" from-port="0" to-layer="1814" to-port="3"/>
		<edge from-layer="1803" from-port="0" to-layer="1814" to-port="4"/>
		<edge from-layer="1816" from-port="0" to-layer="1817" to-port="0"/>
		<edge from-layer="1817" from-port="1" to-layer="1819" to-port="0"/>
		<edge from-layer="1818" from-port="0" to-layer="1819" to-port="1"/>
		<edge from-layer="1819" from-port="2" to-layer="1821" to-port="0"/>
		<edge from-layer="1820" from-port="0" to-layer="1821" to-port="1"/>
		<edge from-layer="1821" from-port="2" to-layer="1822" to-port="0"/>
		<edge from-layer="1815" from-port="0" to-layer="1822" to-port="1"/>
		<edge from-layer="1814" from-port="5" to-layer="1823" to-port="0"/>
		<edge from-layer="1822" from-port="2" to-layer="1823" to-port="1"/>
		<edge from-layer="1823" from-port="2" to-layer="1825" to-port="0"/>
		<edge from-layer="1824" from-port="0" to-layer="1825" to-port="1"/>
		<edge from-layer="1825" from-port="2" to-layer="1826" to-port="0"/>
		<edge from-layer="1826" from-port="1" to-layer="1827" to-port="0"/>
		<edge from-layer="1796" from-port="0" to-layer="1827" to-port="1"/>
		<edge from-layer="1797" from-port="0" to-layer="1827" to-port="2"/>
		<edge from-layer="1798" from-port="0" to-layer="1827" to-port="3"/>
		<edge from-layer="1799" from-port="0" to-layer="1827" to-port="4"/>
		<edge from-layer="1828" from-port="0" to-layer="1829" to-port="0"/>
		<edge from-layer="1829" from-port="1" to-layer="1831" to-port="0"/>
		<edge from-layer="1830" from-port="0" to-layer="1831" to-port="1"/>
		<edge from-layer="1831" from-port="2" to-layer="1833" to-port="0"/>
		<edge from-layer="1832" from-port="0" to-layer="1833" to-port="1"/>
		<edge from-layer="1827" from-port="5" to-layer="1834" to-port="0"/>
		<edge from-layer="1833" from-port="2" to-layer="1834" to-port="1"/>
		<edge from-layer="1834" from-port="2" to-layer="1836" to-port="0"/>
		<edge from-layer="1835" from-port="0" to-layer="1836" to-port="1"/>
		<edge from-layer="1836" from-port="2" to-layer="1837" to-port="0"/>
		<edge from-layer="1792" from-port="0" to-layer="1837" to-port="1"/>
		<edge from-layer="1793" from-port="0" to-layer="1837" to-port="2"/>
		<edge from-layer="1794" from-port="0" to-layer="1837" to-port="3"/>
		<edge from-layer="1795" from-port="0" to-layer="1837" to-port="4"/>
		<edge from-layer="1791" from-port="5" to-layer="1838" to-port="0"/>
		<edge from-layer="1837" from-port="5" to-layer="1838" to-port="1"/>
		<edge from-layer="1838" from-port="2" to-layer="1839" to-port="0"/>
		<edge from-layer="1839" from-port="1" to-layer="1840" to-port="0"/>
		<edge from-layer="1396" from-port="0" to-layer="1840" to-port="1"/>
		<edge from-layer="1397" from-port="0" to-layer="1840" to-port="2"/>
		<edge from-layer="1398" from-port="0" to-layer="1840" to-port="3"/>
		<edge from-layer="1399" from-port="0" to-layer="1840" to-port="4"/>
		<edge from-layer="1853" from-port="0" to-layer="1854" to-port="0"/>
		<edge from-layer="1854" from-port="1" to-layer="1856" to-port="0"/>
		<edge from-layer="1855" from-port="0" to-layer="1856" to-port="1"/>
		<edge from-layer="1856" from-port="2" to-layer="1858" to-port="0"/>
		<edge from-layer="1857" from-port="0" to-layer="1858" to-port="1"/>
		<edge from-layer="1840" from-port="5" to-layer="1859" to-port="0"/>
		<edge from-layer="1858" from-port="2" to-layer="1859" to-port="1"/>
		<edge from-layer="1859" from-port="2" to-layer="1861" to-port="0"/>
		<edge from-layer="1860" from-port="0" to-layer="1861" to-port="1"/>
		<edge from-layer="1861" from-port="2" to-layer="1862" to-port="0"/>
		<edge from-layer="1862" from-port="1" to-layer="1863" to-port="0"/>
		<edge from-layer="1849" from-port="0" to-layer="1863" to-port="1"/>
		<edge from-layer="1850" from-port="0" to-layer="1863" to-port="2"/>
		<edge from-layer="1851" from-port="0" to-layer="1863" to-port="3"/>
		<edge from-layer="1852" from-port="0" to-layer="1863" to-port="4"/>
		<edge from-layer="1865" from-port="0" to-layer="1866" to-port="0"/>
		<edge from-layer="1866" from-port="1" to-layer="1868" to-port="0"/>
		<edge from-layer="1867" from-port="0" to-layer="1868" to-port="1"/>
		<edge from-layer="1868" from-port="2" to-layer="1870" to-port="0"/>
		<edge from-layer="1869" from-port="0" to-layer="1870" to-port="1"/>
		<edge from-layer="1870" from-port="2" to-layer="1871" to-port="0"/>
		<edge from-layer="1864" from-port="0" to-layer="1871" to-port="1"/>
		<edge from-layer="1863" from-port="5" to-layer="1872" to-port="0"/>
		<edge from-layer="1871" from-port="2" to-layer="1872" to-port="1"/>
		<edge from-layer="1872" from-port="2" to-layer="1874" to-port="0"/>
		<edge from-layer="1873" from-port="0" to-layer="1874" to-port="1"/>
		<edge from-layer="1874" from-port="2" to-layer="1875" to-port="0"/>
		<edge from-layer="1875" from-port="1" to-layer="1876" to-port="0"/>
		<edge from-layer="1845" from-port="0" to-layer="1876" to-port="1"/>
		<edge from-layer="1846" from-port="0" to-layer="1876" to-port="2"/>
		<edge from-layer="1847" from-port="0" to-layer="1876" to-port="3"/>
		<edge from-layer="1848" from-port="0" to-layer="1876" to-port="4"/>
		<edge from-layer="1877" from-port="0" to-layer="1878" to-port="0"/>
		<edge from-layer="1878" from-port="1" to-layer="1880" to-port="0"/>
		<edge from-layer="1879" from-port="0" to-layer="1880" to-port="1"/>
		<edge from-layer="1880" from-port="2" to-layer="1882" to-port="0"/>
		<edge from-layer="1881" from-port="0" to-layer="1882" to-port="1"/>
		<edge from-layer="1876" from-port="5" to-layer="1883" to-port="0"/>
		<edge from-layer="1882" from-port="2" to-layer="1883" to-port="1"/>
		<edge from-layer="1883" from-port="2" to-layer="1885" to-port="0"/>
		<edge from-layer="1884" from-port="0" to-layer="1885" to-port="1"/>
		<edge from-layer="1885" from-port="2" to-layer="1886" to-port="0"/>
		<edge from-layer="1841" from-port="0" to-layer="1886" to-port="1"/>
		<edge from-layer="1842" from-port="0" to-layer="1886" to-port="2"/>
		<edge from-layer="1843" from-port="0" to-layer="1886" to-port="3"/>
		<edge from-layer="1844" from-port="0" to-layer="1886" to-port="4"/>
		<edge from-layer="1840" from-port="5" to-layer="1887" to-port="0"/>
		<edge from-layer="1886" from-port="5" to-layer="1887" to-port="1"/>
		<edge from-layer="1887" from-port="2" to-layer="1888" to-port="0"/>
		<edge from-layer="1888" from-port="1" to-layer="1889" to-port="0"/>
		<edge from-layer="1392" from-port="0" to-layer="1889" to-port="1"/>
		<edge from-layer="1393" from-port="0" to-layer="1889" to-port="2"/>
		<edge from-layer="1394" from-port="0" to-layer="1889" to-port="3"/>
		<edge from-layer="1395" from-port="0" to-layer="1889" to-port="4"/>
		<edge from-layer="1902" from-port="0" to-layer="1903" to-port="0"/>
		<edge from-layer="1903" from-port="1" to-layer="1905" to-port="0"/>
		<edge from-layer="1904" from-port="0" to-layer="1905" to-port="1"/>
		<edge from-layer="1905" from-port="2" to-layer="1907" to-port="0"/>
		<edge from-layer="1906" from-port="0" to-layer="1907" to-port="1"/>
		<edge from-layer="1889" from-port="5" to-layer="1908" to-port="0"/>
		<edge from-layer="1907" from-port="2" to-layer="1908" to-port="1"/>
		<edge from-layer="1908" from-port="2" to-layer="1910" to-port="0"/>
		<edge from-layer="1909" from-port="0" to-layer="1910" to-port="1"/>
		<edge from-layer="1910" from-port="2" to-layer="1911" to-port="0"/>
		<edge from-layer="1911" from-port="1" to-layer="1912" to-port="0"/>
		<edge from-layer="1898" from-port="0" to-layer="1912" to-port="1"/>
		<edge from-layer="1899" from-port="0" to-layer="1912" to-port="2"/>
		<edge from-layer="1900" from-port="0" to-layer="1912" to-port="3"/>
		<edge from-layer="1901" from-port="0" to-layer="1912" to-port="4"/>
		<edge from-layer="1914" from-port="0" to-layer="1915" to-port="0"/>
		<edge from-layer="1915" from-port="1" to-layer="1917" to-port="0"/>
		<edge from-layer="1916" from-port="0" to-layer="1917" to-port="1"/>
		<edge from-layer="1917" from-port="2" to-layer="1919" to-port="0"/>
		<edge from-layer="1918" from-port="0" to-layer="1919" to-port="1"/>
		<edge from-layer="1919" from-port="2" to-layer="1920" to-port="0"/>
		<edge from-layer="1913" from-port="0" to-layer="1920" to-port="1"/>
		<edge from-layer="1912" from-port="5" to-layer="1921" to-port="0"/>
		<edge from-layer="1920" from-port="2" to-layer="1921" to-port="1"/>
		<edge from-layer="1921" from-port="2" to-layer="1923" to-port="0"/>
		<edge from-layer="1922" from-port="0" to-layer="1923" to-port="1"/>
		<edge from-layer="1923" from-port="2" to-layer="1924" to-port="0"/>
		<edge from-layer="1924" from-port="1" to-layer="1925" to-port="0"/>
		<edge from-layer="1894" from-port="0" to-layer="1925" to-port="1"/>
		<edge from-layer="1895" from-port="0" to-layer="1925" to-port="2"/>
		<edge from-layer="1896" from-port="0" to-layer="1925" to-port="3"/>
		<edge from-layer="1897" from-port="0" to-layer="1925" to-port="4"/>
		<edge from-layer="1926" from-port="0" to-layer="1927" to-port="0"/>
		<edge from-layer="1927" from-port="1" to-layer="1929" to-port="0"/>
		<edge from-layer="1928" from-port="0" to-layer="1929" to-port="1"/>
		<edge from-layer="1929" from-port="2" to-layer="1931" to-port="0"/>
		<edge from-layer="1930" from-port="0" to-layer="1931" to-port="1"/>
		<edge from-layer="1925" from-port="5" to-layer="1932" to-port="0"/>
		<edge from-layer="1931" from-port="2" to-layer="1932" to-port="1"/>
		<edge from-layer="1932" from-port="2" to-layer="1934" to-port="0"/>
		<edge from-layer="1933" from-port="0" to-layer="1934" to-port="1"/>
		<edge from-layer="1934" from-port="2" to-layer="1935" to-port="0"/>
		<edge from-layer="1890" from-port="0" to-layer="1935" to-port="1"/>
		<edge from-layer="1891" from-port="0" to-layer="1935" to-port="2"/>
		<edge from-layer="1892" from-port="0" to-layer="1935" to-port="3"/>
		<edge from-layer="1893" from-port="0" to-layer="1935" to-port="4"/>
		<edge from-layer="1889" from-port="5" to-layer="1936" to-port="0"/>
		<edge from-layer="1935" from-port="5" to-layer="1936" to-port="1"/>
		<edge from-layer="1936" from-port="2" to-layer="1937" to-port="0"/>
		<edge from-layer="1937" from-port="1" to-layer="1938" to-port="0"/>
		<edge from-layer="1388" from-port="0" to-layer="1938" to-port="1"/>
		<edge from-layer="1389" from-port="0" to-layer="1938" to-port="2"/>
		<edge from-layer="1390" from-port="0" to-layer="1938" to-port="3"/>
		<edge from-layer="1391" from-port="0" to-layer="1938" to-port="4"/>
		<edge from-layer="1951" from-port="0" to-layer="1952" to-port="0"/>
		<edge from-layer="1952" from-port="1" to-layer="1954" to-port="0"/>
		<edge from-layer="1953" from-port="0" to-layer="1954" to-port="1"/>
		<edge from-layer="1954" from-port="2" to-layer="1956" to-port="0"/>
		<edge from-layer="1955" from-port="0" to-layer="1956" to-port="1"/>
		<edge from-layer="1938" from-port="5" to-layer="1957" to-port="0"/>
		<edge from-layer="1956" from-port="2" to-layer="1957" to-port="1"/>
		<edge from-layer="1957" from-port="2" to-layer="1959" to-port="0"/>
		<edge from-layer="1958" from-port="0" to-layer="1959" to-port="1"/>
		<edge from-layer="1959" from-port="2" to-layer="1960" to-port="0"/>
		<edge from-layer="1960" from-port="1" to-layer="1961" to-port="0"/>
		<edge from-layer="1947" from-port="0" to-layer="1961" to-port="1"/>
		<edge from-layer="1948" from-port="0" to-layer="1961" to-port="2"/>
		<edge from-layer="1949" from-port="0" to-layer="1961" to-port="3"/>
		<edge from-layer="1950" from-port="0" to-layer="1961" to-port="4"/>
		<edge from-layer="1963" from-port="0" to-layer="1964" to-port="0"/>
		<edge from-layer="1964" from-port="1" to-layer="1966" to-port="0"/>
		<edge from-layer="1965" from-port="0" to-layer="1966" to-port="1"/>
		<edge from-layer="1966" from-port="2" to-layer="1968" to-port="0"/>
		<edge from-layer="1967" from-port="0" to-layer="1968" to-port="1"/>
		<edge from-layer="1968" from-port="2" to-layer="1969" to-port="0"/>
		<edge from-layer="1962" from-port="0" to-layer="1969" to-port="1"/>
		<edge from-layer="1961" from-port="5" to-layer="1970" to-port="0"/>
		<edge from-layer="1969" from-port="2" to-layer="1970" to-port="1"/>
		<edge from-layer="1970" from-port="2" to-layer="1972" to-port="0"/>
		<edge from-layer="1971" from-port="0" to-layer="1972" to-port="1"/>
		<edge from-layer="1972" from-port="2" to-layer="1973" to-port="0"/>
		<edge from-layer="1973" from-port="1" to-layer="1974" to-port="0"/>
		<edge from-layer="1943" from-port="0" to-layer="1974" to-port="1"/>
		<edge from-layer="1944" from-port="0" to-layer="1974" to-port="2"/>
		<edge from-layer="1945" from-port="0" to-layer="1974" to-port="3"/>
		<edge from-layer="1946" from-port="0" to-layer="1974" to-port="4"/>
		<edge from-layer="1975" from-port="0" to-layer="1976" to-port="0"/>
		<edge from-layer="1976" from-port="1" to-layer="1978" to-port="0"/>
		<edge from-layer="1977" from-port="0" to-layer="1978" to-port="1"/>
		<edge from-layer="1978" from-port="2" to-layer="1980" to-port="0"/>
		<edge from-layer="1979" from-port="0" to-layer="1980" to-port="1"/>
		<edge from-layer="1974" from-port="5" to-layer="1981" to-port="0"/>
		<edge from-layer="1980" from-port="2" to-layer="1981" to-port="1"/>
		<edge from-layer="1981" from-port="2" to-layer="1983" to-port="0"/>
		<edge from-layer="1982" from-port="0" to-layer="1983" to-port="1"/>
		<edge from-layer="1983" from-port="2" to-layer="1984" to-port="0"/>
		<edge from-layer="1939" from-port="0" to-layer="1984" to-port="1"/>
		<edge from-layer="1940" from-port="0" to-layer="1984" to-port="2"/>
		<edge from-layer="1941" from-port="0" to-layer="1984" to-port="3"/>
		<edge from-layer="1942" from-port="0" to-layer="1984" to-port="4"/>
		<edge from-layer="1938" from-port="5" to-layer="1985" to-port="0"/>
		<edge from-layer="1984" from-port="5" to-layer="1985" to-port="1"/>
		<edge from-layer="1985" from-port="2" to-layer="1986" to-port="0"/>
		<edge from-layer="1986" from-port="1" to-layer="1987" to-port="0"/>
		<edge from-layer="1384" from-port="0" to-layer="1987" to-port="1"/>
		<edge from-layer="1385" from-port="0" to-layer="1987" to-port="2"/>
		<edge from-layer="1386" from-port="0" to-layer="1987" to-port="3"/>
		<edge from-layer="1387" from-port="0" to-layer="1987" to-port="4"/>
		<edge from-layer="2000" from-port="0" to-layer="2001" to-port="0"/>
		<edge from-layer="2001" from-port="1" to-layer="2003" to-port="0"/>
		<edge from-layer="2002" from-port="0" to-layer="2003" to-port="1"/>
		<edge from-layer="2003" from-port="2" to-layer="2005" to-port="0"/>
		<edge from-layer="2004" from-port="0" to-layer="2005" to-port="1"/>
		<edge from-layer="1987" from-port="5" to-layer="2006" to-port="0"/>
		<edge from-layer="2005" from-port="2" to-layer="2006" to-port="1"/>
		<edge from-layer="2006" from-port="2" to-layer="2008" to-port="0"/>
		<edge from-layer="2007" from-port="0" to-layer="2008" to-port="1"/>
		<edge from-layer="2008" from-port="2" to-layer="2009" to-port="0"/>
		<edge from-layer="2009" from-port="1" to-layer="2010" to-port="0"/>
		<edge from-layer="1996" from-port="0" to-layer="2010" to-port="1"/>
		<edge from-layer="1997" from-port="0" to-layer="2010" to-port="2"/>
		<edge from-layer="1998" from-port="0" to-layer="2010" to-port="3"/>
		<edge from-layer="1999" from-port="0" to-layer="2010" to-port="4"/>
		<edge from-layer="2012" from-port="0" to-layer="2013" to-port="0"/>
		<edge from-layer="2013" from-port="1" to-layer="2015" to-port="0"/>
		<edge from-layer="2014" from-port="0" to-layer="2015" to-port="1"/>
		<edge from-layer="2015" from-port="2" to-layer="2017" to-port="0"/>
		<edge from-layer="2016" from-port="0" to-layer="2017" to-port="1"/>
		<edge from-layer="2017" from-port="2" to-layer="2018" to-port="0"/>
		<edge from-layer="2011" from-port="0" to-layer="2018" to-port="1"/>
		<edge from-layer="2010" from-port="5" to-layer="2019" to-port="0"/>
		<edge from-layer="2018" from-port="2" to-layer="2019" to-port="1"/>
		<edge from-layer="2019" from-port="2" to-layer="2021" to-port="0"/>
		<edge from-layer="2020" from-port="0" to-layer="2021" to-port="1"/>
		<edge from-layer="2021" from-port="2" to-layer="2022" to-port="0"/>
		<edge from-layer="2022" from-port="1" to-layer="2023" to-port="0"/>
		<edge from-layer="1992" from-port="0" to-layer="2023" to-port="1"/>
		<edge from-layer="1993" from-port="0" to-layer="2023" to-port="2"/>
		<edge from-layer="1994" from-port="0" to-layer="2023" to-port="3"/>
		<edge from-layer="1995" from-port="0" to-layer="2023" to-port="4"/>
		<edge from-layer="2024" from-port="0" to-layer="2025" to-port="0"/>
		<edge from-layer="2025" from-port="1" to-layer="2027" to-port="0"/>
		<edge from-layer="2026" from-port="0" to-layer="2027" to-port="1"/>
		<edge from-layer="2027" from-port="2" to-layer="2029" to-port="0"/>
		<edge from-layer="2028" from-port="0" to-layer="2029" to-port="1"/>
		<edge from-layer="2023" from-port="5" to-layer="2030" to-port="0"/>
		<edge from-layer="2029" from-port="2" to-layer="2030" to-port="1"/>
		<edge from-layer="2030" from-port="2" to-layer="2032" to-port="0"/>
		<edge from-layer="2031" from-port="0" to-layer="2032" to-port="1"/>
		<edge from-layer="2032" from-port="2" to-layer="2033" to-port="0"/>
		<edge from-layer="1988" from-port="0" to-layer="2033" to-port="1"/>
		<edge from-layer="1989" from-port="0" to-layer="2033" to-port="2"/>
		<edge from-layer="1990" from-port="0" to-layer="2033" to-port="3"/>
		<edge from-layer="1991" from-port="0" to-layer="2033" to-port="4"/>
		<edge from-layer="1987" from-port="5" to-layer="2034" to-port="0"/>
		<edge from-layer="2033" from-port="5" to-layer="2034" to-port="1"/>
		<edge from-layer="2034" from-port="2" to-layer="2035" to-port="0"/>
		<edge from-layer="2035" from-port="1" to-layer="2036" to-port="0"/>
		<edge from-layer="1380" from-port="0" to-layer="2036" to-port="1"/>
		<edge from-layer="1381" from-port="0" to-layer="2036" to-port="2"/>
		<edge from-layer="1382" from-port="0" to-layer="2036" to-port="3"/>
		<edge from-layer="1383" from-port="0" to-layer="2036" to-port="4"/>
		<edge from-layer="2037" from-port="0" to-layer="2038" to-port="0"/>
		<edge from-layer="2038" from-port="1" to-layer="2040" to-port="0"/>
		<edge from-layer="2039" from-port="0" to-layer="2040" to-port="1"/>
		<edge from-layer="2040" from-port="2" to-layer="2042" to-port="0"/>
		<edge from-layer="2041" from-port="0" to-layer="2042" to-port="1"/>
		<edge from-layer="2036" from-port="5" to-layer="2043" to-port="0"/>
		<edge from-layer="2042" from-port="2" to-layer="2043" to-port="1"/>
		<edge from-layer="2043" from-port="2" to-layer="2045" to-port="0"/>
		<edge from-layer="2044" from-port="0" to-layer="2045" to-port="1"/>
		<edge from-layer="2045" from-port="2" to-layer="2046" to-port="0"/>
		<edge from-layer="1376" from-port="0" to-layer="2046" to-port="1"/>
		<edge from-layer="1377" from-port="0" to-layer="2046" to-port="2"/>
		<edge from-layer="1378" from-port="0" to-layer="2046" to-port="3"/>
		<edge from-layer="1379" from-port="0" to-layer="2046" to-port="4"/>
		<edge from-layer="2047" from-port="0" to-layer="2048" to-port="0"/>
		<edge from-layer="2048" from-port="1" to-layer="2050" to-port="0"/>
		<edge from-layer="2049" from-port="0" to-layer="2050" to-port="1"/>
		<edge from-layer="2050" from-port="2" to-layer="2052" to-port="0"/>
		<edge from-layer="2051" from-port="0" to-layer="2052" to-port="1"/>
		<edge from-layer="2046" from-port="5" to-layer="2053" to-port="0"/>
		<edge from-layer="2052" from-port="2" to-layer="2053" to-port="1"/>
		<edge from-layer="2053" from-port="2" to-layer="2055" to-port="0"/>
		<edge from-layer="2054" from-port="0" to-layer="2055" to-port="1"/>
		<edge from-layer="2055" from-port="2" to-layer="2057" to-port="0"/>
		<edge from-layer="2056" from-port="0" to-layer="2057" to-port="1"/>
		<edge from-layer="2057" from-port="2" to-layer="2059" to-port="0"/>
		<edge from-layer="2058" from-port="0" to-layer="2059" to-port="1"/>
		<edge from-layer="2064" from-port="0" to-layer="2065" to-port="0"/>
		<edge from-layer="2065" from-port="1" to-layer="2067" to-port="0"/>
		<edge from-layer="2066" from-port="0" to-layer="2067" to-port="1"/>
		<edge from-layer="2067" from-port="2" to-layer="2069" to-port="0"/>
		<edge from-layer="2068" from-port="0" to-layer="2069" to-port="1"/>
		<edge from-layer="2036" from-port="5" to-layer="2070" to-port="0"/>
		<edge from-layer="2069" from-port="2" to-layer="2070" to-port="1"/>
		<edge from-layer="2070" from-port="2" to-layer="2072" to-port="0"/>
		<edge from-layer="2071" from-port="0" to-layer="2072" to-port="1"/>
		<edge from-layer="2072" from-port="2" to-layer="2073" to-port="0"/>
		<edge from-layer="2073" from-port="1" to-layer="2074" to-port="0"/>
		<edge from-layer="2060" from-port="0" to-layer="2074" to-port="1"/>
		<edge from-layer="2061" from-port="0" to-layer="2074" to-port="2"/>
		<edge from-layer="2062" from-port="0" to-layer="2074" to-port="3"/>
		<edge from-layer="2063" from-port="0" to-layer="2074" to-port="4"/>
		<edge from-layer="2075" from-port="0" to-layer="2076" to-port="0"/>
		<edge from-layer="2076" from-port="1" to-layer="2078" to-port="0"/>
		<edge from-layer="2077" from-port="0" to-layer="2078" to-port="1"/>
		<edge from-layer="2078" from-port="2" to-layer="2080" to-port="0"/>
		<edge from-layer="2079" from-port="0" to-layer="2080" to-port="1"/>
		<edge from-layer="2074" from-port="5" to-layer="2081" to-port="0"/>
		<edge from-layer="2080" from-port="2" to-layer="2081" to-port="1"/>
		<edge from-layer="2081" from-port="2" to-layer="2083" to-port="0"/>
		<edge from-layer="2082" from-port="0" to-layer="2083" to-port="1"/>
		<edge from-layer="2083" from-port="2" to-layer="2085" to-port="0"/>
		<edge from-layer="2084" from-port="0" to-layer="2085" to-port="1"/>
		<edge from-layer="2085" from-port="2" to-layer="2087" to-port="0"/>
		<edge from-layer="2086" from-port="0" to-layer="2087" to-port="1"/>
		<edge from-layer="1375" from-port="2" to-layer="2088" to-port="0"/>
		<edge from-layer="2059" from-port="2" to-layer="2088" to-port="1"/>
		<edge from-layer="2087" from-port="2" to-layer="2088" to-port="2"/>
		<edge from-layer="2089" from-port="0" to-layer="2090" to-port="0"/>
		<edge from-layer="2090" from-port="1" to-layer="2092" to-port="0"/>
		<edge from-layer="2091" from-port="0" to-layer="2092" to-port="1"/>
		<edge from-layer="2092" from-port="2" to-layer="2094" to-port="0"/>
		<edge from-layer="2093" from-port="0" to-layer="2094" to-port="1"/>
		<edge from-layer="1362" from-port="5" to-layer="2095" to-port="0"/>
		<edge from-layer="2094" from-port="2" to-layer="2095" to-port="1"/>
		<edge from-layer="2095" from-port="2" to-layer="2097" to-port="0"/>
		<edge from-layer="2096" from-port="0" to-layer="2097" to-port="1"/>
		<edge from-layer="2097" from-port="2" to-layer="2099" to-port="0"/>
		<edge from-layer="2098" from-port="0" to-layer="2099" to-port="1"/>
		<edge from-layer="2099" from-port="2" to-layer="2101" to-port="0"/>
		<edge from-layer="2100" from-port="0" to-layer="2101" to-port="1"/>
		<edge from-layer="2102" from-port="0" to-layer="2103" to-port="0"/>
		<edge from-layer="2103" from-port="1" to-layer="2105" to-port="0"/>
		<edge from-layer="2104" from-port="0" to-layer="2105" to-port="1"/>
		<edge from-layer="2105" from-port="2" to-layer="2107" to-port="0"/>
		<edge from-layer="2106" from-port="0" to-layer="2107" to-port="1"/>
		<edge from-layer="2046" from-port="5" to-layer="2108" to-port="0"/>
		<edge from-layer="2107" from-port="2" to-layer="2108" to-port="1"/>
		<edge from-layer="2108" from-port="2" to-layer="2110" to-port="0"/>
		<edge from-layer="2109" from-port="0" to-layer="2110" to-port="1"/>
		<edge from-layer="2110" from-port="2" to-layer="2112" to-port="0"/>
		<edge from-layer="2111" from-port="0" to-layer="2112" to-port="1"/>
		<edge from-layer="2112" from-port="2" to-layer="2114" to-port="0"/>
		<edge from-layer="2113" from-port="0" to-layer="2114" to-port="1"/>
		<edge from-layer="2115" from-port="0" to-layer="2116" to-port="0"/>
		<edge from-layer="2116" from-port="1" to-layer="2118" to-port="0"/>
		<edge from-layer="2117" from-port="0" to-layer="2118" to-port="1"/>
		<edge from-layer="2118" from-port="2" to-layer="2120" to-port="0"/>
		<edge from-layer="2119" from-port="0" to-layer="2120" to-port="1"/>
		<edge from-layer="2074" from-port="5" to-layer="2121" to-port="0"/>
		<edge from-layer="2120" from-port="2" to-layer="2121" to-port="1"/>
		<edge from-layer="2121" from-port="2" to-layer="2123" to-port="0"/>
		<edge from-layer="2122" from-port="0" to-layer="2123" to-port="1"/>
		<edge from-layer="2123" from-port="2" to-layer="2125" to-port="0"/>
		<edge from-layer="2124" from-port="0" to-layer="2125" to-port="1"/>
		<edge from-layer="2125" from-port="2" to-layer="2127" to-port="0"/>
		<edge from-layer="2126" from-port="0" to-layer="2127" to-port="1"/>
		<edge from-layer="2101" from-port="2" to-layer="2128" to-port="0"/>
		<edge from-layer="2114" from-port="2" to-layer="2128" to-port="1"/>
		<edge from-layer="2127" from-port="2" to-layer="2128" to-port="2"/>
		<edge from-layer="2128" from-port="3" to-layer="2130" to-port="0"/>
		<edge from-layer="2129" from-port="0" to-layer="2130" to-port="1"/>
		<edge from-layer="2130" from-port="2" to-layer="2131" to-port="0"/>
		<edge from-layer="2131" from-port="1" to-layer="2133" to-port="0"/>
		<edge from-layer="2132" from-port="0" to-layer="2133" to-port="1"/>
		<edge from-layer="1361" from-port="2" to-layer="2134" to-port="0"/>
		<edge from-layer="2134" from-port="1" to-layer="2138" to-port="0"/>
		<edge from-layer="2135" from-port="0" to-layer="2138" to-port="1"/>
		<edge from-layer="2136" from-port="0" to-layer="2138" to-port="2"/>
		<edge from-layer="2137" from-port="0" to-layer="2138" to-port="3"/>
		<edge from-layer="127" from-port="2" to-layer="2139" to-port="0"/>
		<edge from-layer="2139" from-port="1" to-layer="2143" to-port="0"/>
		<edge from-layer="2140" from-port="0" to-layer="2143" to-port="1"/>
		<edge from-layer="2141" from-port="0" to-layer="2143" to-port="2"/>
		<edge from-layer="2142" from-port="0" to-layer="2143" to-port="3"/>
		<edge from-layer="2138" from-port="4" to-layer="2144" to-port="0"/>
		<edge from-layer="2143" from-port="4" to-layer="2144" to-port="1"/>
		<edge from-layer="2144" from-port="2" to-layer="2146" to-port="0"/>
		<edge from-layer="2145" from-port="0" to-layer="2146" to-port="1"/>
		<edge from-layer="2045" from-port="2" to-layer="2147" to-port="0"/>
		<edge from-layer="2147" from-port="1" to-layer="2151" to-port="0"/>
		<edge from-layer="2148" from-port="0" to-layer="2151" to-port="1"/>
		<edge from-layer="2149" from-port="0" to-layer="2151" to-port="2"/>
		<edge from-layer="2150" from-port="0" to-layer="2151" to-port="3"/>
		<edge from-layer="127" from-port="2" to-layer="2152" to-port="0"/>
		<edge from-layer="2152" from-port="1" to-layer="2156" to-port="0"/>
		<edge from-layer="2153" from-port="0" to-layer="2156" to-port="1"/>
		<edge from-layer="2154" from-port="0" to-layer="2156" to-port="2"/>
		<edge from-layer="2155" from-port="0" to-layer="2156" to-port="3"/>
		<edge from-layer="2151" from-port="4" to-layer="2157" to-port="0"/>
		<edge from-layer="2156" from-port="4" to-layer="2157" to-port="1"/>
		<edge from-layer="2157" from-port="2" to-layer="2159" to-port="0"/>
		<edge from-layer="2158" from-port="0" to-layer="2159" to-port="1"/>
		<edge from-layer="2073" from-port="1" to-layer="2160" to-port="0"/>
		<edge from-layer="2160" from-port="1" to-layer="2164" to-port="0"/>
		<edge from-layer="2161" from-port="0" to-layer="2164" to-port="1"/>
		<edge from-layer="2162" from-port="0" to-layer="2164" to-port="2"/>
		<edge from-layer="2163" from-port="0" to-layer="2164" to-port="3"/>
		<edge from-layer="127" from-port="2" to-layer="2165" to-port="0"/>
		<edge from-layer="2165" from-port="1" to-layer="2169" to-port="0"/>
		<edge from-layer="2166" from-port="0" to-layer="2169" to-port="1"/>
		<edge from-layer="2167" from-port="0" to-layer="2169" to-port="2"/>
		<edge from-layer="2168" from-port="0" to-layer="2169" to-port="3"/>
		<edge from-layer="2164" from-port="4" to-layer="2170" to-port="0"/>
		<edge from-layer="2169" from-port="4" to-layer="2170" to-port="1"/>
		<edge from-layer="2170" from-port="2" to-layer="2172" to-port="0"/>
		<edge from-layer="2171" from-port="0" to-layer="2172" to-port="1"/>
		<edge from-layer="2146" from-port="2" to-layer="2173" to-port="0"/>
		<edge from-layer="2159" from-port="2" to-layer="2173" to-port="1"/>
		<edge from-layer="2172" from-port="2" to-layer="2173" to-port="2"/>
		<edge from-layer="2088" from-port="3" to-layer="2174" to-port="0"/>
		<edge from-layer="2133" from-port="2" to-layer="2174" to-port="1"/>
		<edge from-layer="2173" from-port="3" to-layer="2174" to-port="2"/>
		<edge from-layer="2174" from-port="3" to-layer="2175" to-port="0"/>
	</edges>
	<meta_data>
		<MO_version value="custom_HEAD_149c43044cb1e8ed8cd4f3f196b23f7b3f129a36"/>
		<cli_parameters>
			<caffe_parser_path value="DIR"/>
			<data_type value="FP16"/>
			<disable_nhwc_to_nchw value="False"/>
			<disable_omitting_optional value="False"/>
			<disable_resnet_optimization value="False"/>
			<disable_weights_compression value="False"/>
			<enable_concat_optimization value="False"/>
			<enable_flattening_nested_params value="False"/>
			<enable_ssd_gluoncv value="False"/>
			<extensions value="DIR"/>
			<framework value="caffe"/>
			<freeze_placeholder_with_value value="{}"/>
			<generate_deprecated_IR_V7 value="False"/>
			<input value="data"/>
			<input_model value="DIR/_iter_200000.caffemodel"/>
			<input_model_is_text value="False"/>
			<input_proto value="DIR/deploy.prototxt"/>
			<input_shape value="[1,3,1024,1024]"/>
			<k value="DIR/CustomLayersMapping.xml"/>
			<keep_shape_ops value="True"/>
			<legacy_ir_generation value="False"/>
			<legacy_mxnet_model value="False"/>
			<log_level value="ERROR"/>
			<mean_scale_values value="{'data': {'mean': array([104., 117., 123.]), 'scale': None}}"/>
			<mean_values value="data[104.0,117.0,123.0]"/>
			<model_name value="person-vehicle-bike-detection-crossroad-0078"/>
			<output value="['detection_out']"/>
			<output_dir value="DIR"/>
			<placeholder_data_types value="{}"/>
			<placeholder_shapes value="{'data': array([   1,    3, 1024, 1024])}"/>
			<progress value="False"/>
			<remove_memory value="False"/>
			<remove_output_softmax value="False"/>
			<reverse_input_channels value="False"/>
			<save_params_from_nd value="False"/>
			<scale_values value="()"/>
			<silent value="False"/>
			<static_shape value="False"/>
			<stream_output value="False"/>
			<transform value=""/>
			<unset unset_cli_parameters="batch, counts, disable_fusing, disable_gfusing, finegrain_fusing, input_checkpoint, input_meta_graph, input_symbol, mean_file, mean_file_offsets, move_to_preprocess, nd_prefix_name, pretrained_model_name, saved_model_dir, saved_model_tags, scale, tensorboard_logdir, tensorflow_custom_layer_libraries, tensorflow_custom_operations_config_update, tensorflow_object_detection_api_pipeline_config, tensorflow_use_custom_operations_config, transformations_config"/>
		</cli_parameters>
	</meta_data>
	<quantization_parameters>
		<config>{
		'compression': {
			'algorithms': [
				{
					'name': 'DefaultQuantization',
					'params': {
						'num_samples_for_tuning': 2000,
						'preset': 'accuracy',
						'stat_subset_size': 300,
						'use_layerwise_tuning': false
					}
				}
			],
			'dump_intermediate_model': true,
			'target_device': 'ANY'
		},
		'engine': {
			'models': [
				{
					'name': 'person-vehicle-bike-detection-crossroad-0078',
					'launchers': [
						{
							'framework': 'dlsdk',
							'adapter': 'ssd',
							'device': 'CPU'
						}
					],
					'datasets': [
						{
							'name': 'crossroad_dataset_0078',
							'data_source': 'PATH',
							'annotation_conversion': {
								'converter': 'crossroad',
								'annotation_file': 'PATH'
							},
							'annotation': 'PATH',
							'dataset_meta': 'PATH',
							'preprocessing': [
								{
									'type': 'resize',
									'dst_width': 1024,
									'dst_height': 1024,
									'interpolation': 'LINEAR'
								}
							],
							'postprocessing': [
								{
									'type': 'resize_prediction_boxes'
								},
								{
									'type': 'cast_to_int'
								},
								{
									'type': 'filter',
									'apply_to': 'annotation',
									'area_ratio': 0.034722222222222224
								},
								{
									'type': 'filter',
									'apply_to': 'prediction',
									'min_confidence': 0.05,
									'is_empty': true
								}
							],
							'metrics': [
								{
									'type': 'map',
									'presenter': 'print_vector',
									'ignore_difficult': true,
									'include_boundaries': true,
									'allow_multiple_matches_per_ignored': true,
									'use_filtered_tp': false
								}
							],
							'_command_line_mapping': {
								'annotation_file': 'PATH'
							}
						}
					]
				}
			],
			'stat_requests_number': null,
			'eval_requests_number': null,
			'type': 'accuracy_checker'
		}
	}</config>
		<version value="1.0"/>
		<cli_params value="{'quantize': None, 'preset': None, 'model': None, 'weights': None, 'name': None, 'ac_config': None, 'max_drop': None, 'evaluate': False, 'output_dir': 'PATH', 'direct_dump': True, 'log_level': 'INFO', 'pbar': False, 'stream_output': False, 'keep_uncompressed_weights': False}"/>
	</quantization_parameters>
</net>
