<?xml version="1.0" ?>
<net name="person-attributes-recognition-crossroad-0234" version="10">
	<layers>
		<layer id="0" name="358335879521" type="Const" version="opset1">
			<data element_type="f16" offset="0" shape="" size="2"/>
			<output>
				<port id="0" precision="FP16"/>
			</output>
		</layer>
		<layer id="1" name="358435889830" type="Const" version="opset1">
			<data element_type="f16" offset="2" shape="" size="2"/>
			<output>
				<port id="0" precision="FP16"/>
			</output>
		</layer>
		<layer id="2" name="358535899980" type="Const" version="opset1">
			<data element_type="f16" offset="0" shape="" size="2"/>
			<output>
				<port id="0" precision="FP16"/>
			</output>
		</layer>
		<layer id="3" name="358635909893" type="Const" version="opset1">
			<data element_type="f16" offset="2" shape="" size="2"/>
			<output>
				<port id="0" precision="FP16"/>
			</output>
		</layer>
		<layer id="4" name="1745174910028" type="Const" version="opset1">
			<data element_type="f16" offset="0" shape="" size="2"/>
			<output>
				<port id="0" precision="FP16"/>
			</output>
		</layer>
		<layer id="5" name="174617509677" type="Const" version="opset1">
			<data element_type="f16" offset="4" shape="" size="2"/>
			<output>
				<port id="0" precision="FP16"/>
			</output>
		</layer>
		<layer id="6" name="1747175111048" type="Const" version="opset1">
			<data element_type="f16" offset="0" shape="" size="2"/>
			<output>
				<port id="0" precision="FP16"/>
			</output>
		</layer>
		<layer id="7" name="1748175210676" type="Const" version="opset1">
			<data element_type="f16" offset="4" shape="" size="2"/>
			<output>
				<port id="0" precision="FP16"/>
			</output>
		</layer>
		<layer id="8" name="1895189910925" type="Const" version="opset1">
			<data element_type="f16" offset="6" shape="" size="2"/>
			<output>
				<port id="0" precision="FP16"/>
			</output>
		</layer>
		<layer id="9" name="1896190010931" type="Const" version="opset1">
			<data element_type="f16" offset="8" shape="" size="2"/>
			<output>
				<port id="0" precision="FP16"/>
			</output>
		</layer>
		<layer id="10" name="189719019908" type="Const" version="opset1">
			<data element_type="f16" offset="6" shape="" size="2"/>
			<output>
				<port id="0" precision="FP16"/>
			</output>
		</layer>
		<layer id="11" name="189819029656" type="Const" version="opset1">
			<data element_type="f16" offset="8" shape="" size="2"/>
			<output>
				<port id="0" precision="FP16"/>
			</output>
		</layer>
		<layer id="12" name="1995199911120" type="Const" version="opset1">
			<data element_type="f16" offset="0" shape="" size="2"/>
			<output>
				<port id="0" precision="FP16"/>
			</output>
		</layer>
		<layer id="13" name="1996200010106" type="Const" version="opset1">
			<data element_type="f16" offset="10" shape="" size="2"/>
			<output>
				<port id="0" precision="FP16"/>
			</output>
		</layer>
		<layer id="14" name="1997200110634" type="Const" version="opset1">
			<data element_type="f16" offset="0" shape="" size="2"/>
			<output>
				<port id="0" precision="FP16"/>
			</output>
		</layer>
		<layer id="15" name="1998200210331" type="Const" version="opset1">
			<data element_type="f16" offset="10" shape="" size="2"/>
			<output>
				<port id="0" precision="FP16"/>
			</output>
		</layer>
		<layer id="16" name="195519599785" type="Const" version="opset1">
			<data element_type="f16" offset="0" shape="" size="2"/>
			<output>
				<port id="0" precision="FP16"/>
			</output>
		</layer>
		<layer id="17" name="1956196010448" type="Const" version="opset1">
			<data element_type="f16" offset="12" shape="" size="2"/>
			<output>
				<port id="0" precision="FP16"/>
			</output>
		</layer>
		<layer id="18" name="1957196111000" type="Const" version="opset1">
			<data element_type="f16" offset="0" shape="" size="2"/>
			<output>
				<port id="0" precision="FP16"/>
			</output>
		</layer>
		<layer id="19" name="1958196210445" type="Const" version="opset1">
			<data element_type="f16" offset="12" shape="" size="2"/>
			<output>
				<port id="0" precision="FP16"/>
			</output>
		</layer>
		<layer id="20" name="146514699644" type="Const" version="opset1">
			<data element_type="f16" offset="0" shape="" size="2"/>
			<output>
				<port id="0" precision="FP16"/>
			</output>
		</layer>
		<layer id="21" name="1466147010121" type="Const" version="opset1">
			<data element_type="f16" offset="14" shape="" size="2"/>
			<output>
				<port id="0" precision="FP16"/>
			</output>
		</layer>
		<layer id="22" name="1467147110589" type="Const" version="opset1">
			<data element_type="f16" offset="0" shape="" size="2"/>
			<output>
				<port id="0" precision="FP16"/>
			</output>
		</layer>
		<layer id="23" name="1468147210277" type="Const" version="opset1">
			<data element_type="f16" offset="14" shape="" size="2"/>
			<output>
				<port id="0" precision="FP16"/>
			</output>
		</layer>
		<layer id="24" name="1755175911003" type="Const" version="opset1">
			<data element_type="f16" offset="16" shape="" size="2"/>
			<output>
				<port id="0" precision="FP16"/>
			</output>
		</layer>
		<layer id="25" name="1756176010079" type="Const" version="opset1">
			<data element_type="f16" offset="18" shape="" size="2"/>
			<output>
				<port id="0" precision="FP16"/>
			</output>
		</layer>
		<layer id="26" name="1757176110292" type="Const" version="opset1">
			<data element_type="f16" offset="16" shape="" size="2"/>
			<output>
				<port id="0" precision="FP16"/>
			</output>
		</layer>
		<layer id="27" name="1758176210310" type="Const" version="opset1">
			<data element_type="f16" offset="18" shape="" size="2"/>
			<output>
				<port id="0" precision="FP16"/>
			</output>
		</layer>
		<layer id="28" name="2315231910994" type="Const" version="opset1">
			<data element_type="f16" offset="0" shape="" size="2"/>
			<output>
				<port id="0" precision="FP16"/>
			</output>
		</layer>
		<layer id="29" name="2316232011051" type="Const" version="opset1">
			<data element_type="f16" offset="20" shape="" size="2"/>
			<output>
				<port id="0" precision="FP16"/>
			</output>
		</layer>
		<layer id="30" name="231723219776" type="Const" version="opset1">
			<data element_type="f16" offset="0" shape="" size="2"/>
			<output>
				<port id="0" precision="FP16"/>
			</output>
		</layer>
		<layer id="31" name="231823229989" type="Const" version="opset1">
			<data element_type="f16" offset="20" shape="" size="2"/>
			<output>
				<port id="0" precision="FP16"/>
			</output>
		</layer>
		<layer id="32" name="261526199728" type="Const" version="opset1">
			<data element_type="f16" offset="0" shape="" size="2"/>
			<output>
				<port id="0" precision="FP16"/>
			</output>
		</layer>
		<layer id="33" name="261626209638" type="Const" version="opset1">
			<data element_type="f16" offset="22" shape="" size="2"/>
			<output>
				<port id="0" precision="FP16"/>
			</output>
		</layer>
		<layer id="34" name="261726219854" type="Const" version="opset1">
			<data element_type="f16" offset="0" shape="" size="2"/>
			<output>
				<port id="0" precision="FP16"/>
			</output>
		</layer>
		<layer id="35" name="2618262210034" type="Const" version="opset1">
			<data element_type="f16" offset="22" shape="" size="2"/>
			<output>
				<port id="0" precision="FP16"/>
			</output>
		</layer>
		<layer id="36" name="1385138911075" type="Const" version="opset1">
			<data element_type="f16" offset="0" shape="" size="2"/>
			<output>
				<port id="0" precision="FP16"/>
			</output>
		</layer>
		<layer id="37" name="1386139010766" type="Const" version="opset1">
			<data element_type="f16" offset="24" shape="" size="2"/>
			<output>
				<port id="0" precision="FP16"/>
			</output>
		</layer>
		<layer id="38" name="1387139110958" type="Const" version="opset1">
			<data element_type="f16" offset="0" shape="" size="2"/>
			<output>
				<port id="0" precision="FP16"/>
			</output>
		</layer>
		<layer id="39" name="1388139210406" type="Const" version="opset1">
			<data element_type="f16" offset="24" shape="" size="2"/>
			<output>
				<port id="0" precision="FP16"/>
			</output>
		</layer>
		<layer id="40" name="2555255910394" type="Const" version="opset1">
			<data element_type="f16" offset="26" shape="" size="2"/>
			<output>
				<port id="0" precision="FP16"/>
			</output>
		</layer>
		<layer id="41" name="2556256010880" type="Const" version="opset1">
			<data element_type="f16" offset="28" shape="" size="2"/>
			<output>
				<port id="0" precision="FP16"/>
			</output>
		</layer>
		<layer id="42" name="255725619659" type="Const" version="opset1">
			<data element_type="f16" offset="26" shape="" size="2"/>
			<output>
				<port id="0" precision="FP16"/>
			</output>
		</layer>
		<layer id="43" name="2558256210988" type="Const" version="opset1">
			<data element_type="f16" offset="28" shape="" size="2"/>
			<output>
				<port id="0" precision="FP16"/>
			</output>
		</layer>
		<layer id="44" name="1545154910361" type="Const" version="opset1">
			<data element_type="f16" offset="0" shape="" size="2"/>
			<output>
				<port id="0" precision="FP16"/>
			</output>
		</layer>
		<layer id="45" name="1546155010133" type="Const" version="opset1">
			<data element_type="f16" offset="30" shape="" size="2"/>
			<output>
				<port id="0" precision="FP16"/>
			</output>
		</layer>
		<layer id="46" name="1547155111006" type="Const" version="opset1">
			<data element_type="f16" offset="0" shape="" size="2"/>
			<output>
				<port id="0" precision="FP16"/>
			</output>
		</layer>
		<layer id="47" name="1548155210565" type="Const" version="opset1">
			<data element_type="f16" offset="30" shape="" size="2"/>
			<output>
				<port id="0" precision="FP16"/>
			</output>
		</layer>
		<layer id="48" name="211521199665" type="Const" version="opset1">
			<data element_type="f16" offset="0" shape="" size="2"/>
			<output>
				<port id="0" precision="FP16"/>
			</output>
		</layer>
		<layer id="49" name="2116212010694" type="Const" version="opset1">
			<data element_type="f16" offset="32" shape="" size="2"/>
			<output>
				<port id="0" precision="FP16"/>
			</output>
		</layer>
		<layer id="50" name="211721219788" type="Const" version="opset1">
			<data element_type="f16" offset="0" shape="" size="2"/>
			<output>
				<port id="0" precision="FP16"/>
			</output>
		</layer>
		<layer id="51" name="2118212210892" type="Const" version="opset1">
			<data element_type="f16" offset="32" shape="" size="2"/>
			<output>
				<port id="0" precision="FP16"/>
			</output>
		</layer>
		<layer id="52" name="2375237910841" type="Const" version="opset1">
			<data element_type="f16" offset="0" shape="" size="2"/>
			<output>
				<port id="0" precision="FP16"/>
			</output>
		</layer>
		<layer id="53" name="237623809755" type="Const" version="opset1">
			<data element_type="f16" offset="34" shape="" size="2"/>
			<output>
				<port id="0" precision="FP16"/>
			</output>
		</layer>
		<layer id="54" name="237723819653" type="Const" version="opset1">
			<data element_type="f16" offset="0" shape="" size="2"/>
			<output>
				<port id="0" precision="FP16"/>
			</output>
		</layer>
		<layer id="55" name="2378238210169" type="Const" version="opset1">
			<data element_type="f16" offset="34" shape="" size="2"/>
			<output>
				<port id="0" precision="FP16"/>
			</output>
		</layer>
		<layer id="56" name="2735273910097" type="Const" version="opset1">
			<data element_type="f16" offset="36" shape="" size="2"/>
			<output>
				<port id="0" precision="FP16"/>
			</output>
		</layer>
		<layer id="57" name="273627409590" type="Const" version="opset1">
			<data element_type="f16" offset="38" shape="" size="2"/>
			<output>
				<port id="0" precision="FP16"/>
			</output>
		</layer>
		<layer id="58" name="273727419533" type="Const" version="opset1">
			<data element_type="f16" offset="36" shape="" size="2"/>
			<output>
				<port id="0" precision="FP16"/>
			</output>
		</layer>
		<layer id="59" name="2738274210388" type="Const" version="opset1">
			<data element_type="f16" offset="38" shape="" size="2"/>
			<output>
				<port id="0" precision="FP16"/>
			</output>
		</layer>
		<layer id="60" name="2675267910076" type="Const" version="opset1">
			<data element_type="f16" offset="0" shape="" size="2"/>
			<output>
				<port id="0" precision="FP16"/>
			</output>
		</layer>
		<layer id="61" name="267626809560" type="Const" version="opset1">
			<data element_type="f16" offset="40" shape="" size="2"/>
			<output>
				<port id="0" precision="FP16"/>
			</output>
		</layer>
		<layer id="62" name="267726819827" type="Const" version="opset1">
			<data element_type="f16" offset="0" shape="" size="2"/>
			<output>
				<port id="0" precision="FP16"/>
			</output>
		</layer>
		<layer id="63" name="2678268210727" type="Const" version="opset1">
			<data element_type="f16" offset="40" shape="" size="2"/>
			<output>
				<port id="0" precision="FP16"/>
			</output>
		</layer>
		<layer id="64" name="2295229910955" type="Const" version="opset1">
			<data element_type="f16" offset="0" shape="" size="2"/>
			<output>
				<port id="0" precision="FP16"/>
			</output>
		</layer>
		<layer id="65" name="2296230010646" type="Const" version="opset1">
			<data element_type="f16" offset="42" shape="" size="2"/>
			<output>
				<port id="0" precision="FP16"/>
			</output>
		</layer>
		<layer id="66" name="2297230110454" type="Const" version="opset1">
			<data element_type="f16" offset="0" shape="" size="2"/>
			<output>
				<port id="0" precision="FP16"/>
			</output>
		</layer>
		<layer id="67" name="2298230210814" type="Const" version="opset1">
			<data element_type="f16" offset="42" shape="" size="2"/>
			<output>
				<port id="0" precision="FP16"/>
			</output>
		</layer>
		<layer id="68" name="158515899680" type="Const" version="opset1">
			<data element_type="f16" offset="0" shape="" size="2"/>
			<output>
				<port id="0" precision="FP16"/>
			</output>
		</layer>
		<layer id="69" name="1586159011045" type="Const" version="opset1">
			<data element_type="f16" offset="44" shape="" size="2"/>
			<output>
				<port id="0" precision="FP16"/>
			</output>
		</layer>
		<layer id="70" name="1587159110919" type="Const" version="opset1">
			<data element_type="f16" offset="0" shape="" size="2"/>
			<output>
				<port id="0" precision="FP16"/>
			</output>
		</layer>
		<layer id="71" name="1588159210799" type="Const" version="opset1">
			<data element_type="f16" offset="44" shape="" size="2"/>
			<output>
				<port id="0" precision="FP16"/>
			</output>
		</layer>
		<layer id="72" name="271527199674" type="Const" version="opset1">
			<data element_type="f16" offset="46" shape="" size="2"/>
			<output>
				<port id="0" precision="FP16"/>
			</output>
		</layer>
		<layer id="73" name="2716272011024" type="Const" version="opset1">
			<data element_type="f16" offset="48" shape="" size="2"/>
			<output>
				<port id="0" precision="FP16"/>
			</output>
		</layer>
		<layer id="74" name="2717272110991" type="Const" version="opset1">
			<data element_type="f16" offset="46" shape="" size="2"/>
			<output>
				<port id="0" precision="FP16"/>
			</output>
		</layer>
		<layer id="75" name="2718272210196" type="Const" version="opset1">
			<data element_type="f16" offset="48" shape="" size="2"/>
			<output>
				<port id="0" precision="FP16"/>
			</output>
		</layer>
		<layer id="76" name="2195219910718" type="Const" version="opset1">
			<data element_type="f16" offset="0" shape="" size="2"/>
			<output>
				<port id="0" precision="FP16"/>
			</output>
		</layer>
		<layer id="77" name="2196220010349" type="Const" version="opset1">
			<data element_type="f16" offset="50" shape="" size="2"/>
			<output>
				<port id="0" precision="FP16"/>
			</output>
		</layer>
		<layer id="78" name="2197220110118" type="Const" version="opset1">
			<data element_type="f16" offset="0" shape="" size="2"/>
			<output>
				<port id="0" precision="FP16"/>
			</output>
		</layer>
		<layer id="79" name="219822029512" type="Const" version="opset1">
			<data element_type="f16" offset="50" shape="" size="2"/>
			<output>
				<port id="0" precision="FP16"/>
			</output>
		</layer>
		<layer id="80" name="1345134910280" type="Const" version="opset1">
			<data element_type="f16" offset="0" shape="" size="2"/>
			<output>
				<port id="0" precision="FP16"/>
			</output>
		</layer>
		<layer id="81" name="1346135010601" type="Const" version="opset1">
			<data element_type="f16" offset="52" shape="" size="2"/>
			<output>
				<port id="0" precision="FP16"/>
			</output>
		</layer>
		<layer id="82" name="134713519503" type="Const" version="opset1">
			<data element_type="f16" offset="0" shape="" size="2"/>
			<output>
				<port id="0" precision="FP16"/>
			</output>
		</layer>
		<layer id="83" name="134813529551" type="Const" version="opset1">
			<data element_type="f16" offset="52" shape="" size="2"/>
			<output>
				<port id="0" precision="FP16"/>
			</output>
		</layer>
		<layer id="84" name="1685168910058" type="Const" version="opset1">
			<data element_type="f16" offset="0" shape="" size="2"/>
			<output>
				<port id="0" precision="FP16"/>
			</output>
		</layer>
		<layer id="85" name="1686169010757" type="Const" version="opset1">
			<data element_type="f16" offset="54" shape="" size="2"/>
			<output>
				<port id="0" precision="FP16"/>
			</output>
		</layer>
		<layer id="86" name="1687169110472" type="Const" version="opset1">
			<data element_type="f16" offset="0" shape="" size="2"/>
			<output>
				<port id="0" precision="FP16"/>
			</output>
		</layer>
		<layer id="87" name="168816929524" type="Const" version="opset1">
			<data element_type="f16" offset="54" shape="" size="2"/>
			<output>
				<port id="0" precision="FP16"/>
			</output>
		</layer>
		<layer id="88" name="249524999572" type="Const" version="opset1">
			<data element_type="f16" offset="56" shape="" size="2"/>
			<output>
				<port id="0" precision="FP16"/>
			</output>
		</layer>
		<layer id="89" name="249625009689" type="Const" version="opset1">
			<data element_type="f16" offset="58" shape="" size="2"/>
			<output>
				<port id="0" precision="FP16"/>
			</output>
		</layer>
		<layer id="90" name="2497250110340" type="Const" version="opset1">
			<data element_type="f16" offset="56" shape="" size="2"/>
			<output>
				<port id="0" precision="FP16"/>
			</output>
		</layer>
		<layer id="91" name="2498250210265" type="Const" version="opset1">
			<data element_type="f16" offset="58" shape="" size="2"/>
			<output>
				<port id="0" precision="FP16"/>
			</output>
		</layer>
		<layer id="92" name="1975197910961" type="Const" version="opset1">
			<data element_type="f16" offset="0" shape="" size="2"/>
			<output>
				<port id="0" precision="FP16"/>
			</output>
		</layer>
		<layer id="93" name="1976198010751" type="Const" version="opset1">
			<data element_type="f16" offset="60" shape="" size="2"/>
			<output>
				<port id="0" precision="FP16"/>
			</output>
		</layer>
		<layer id="94" name="1977198111042" type="Const" version="opset1">
			<data element_type="f16" offset="0" shape="" size="2"/>
			<output>
				<port id="0" precision="FP16"/>
			</output>
		</layer>
		<layer id="95" name="197819829527" type="Const" version="opset1">
			<data element_type="f16" offset="60" shape="" size="2"/>
			<output>
				<port id="0" precision="FP16"/>
			</output>
		</layer>
		<layer id="96" name="1795179910433" type="Const" version="opset1">
			<data element_type="f16" offset="0" shape="" size="2"/>
			<output>
				<port id="0" precision="FP16"/>
			</output>
		</layer>
		<layer id="97" name="1796180010940" type="Const" version="opset1">
			<data element_type="f16" offset="62" shape="" size="2"/>
			<output>
				<port id="0" precision="FP16"/>
			</output>
		</layer>
		<layer id="98" name="1797180110811" type="Const" version="opset1">
			<data element_type="f16" offset="0" shape="" size="2"/>
			<output>
				<port id="0" precision="FP16"/>
			</output>
		</layer>
		<layer id="99" name="179818029668" type="Const" version="opset1">
			<data element_type="f16" offset="62" shape="" size="2"/>
			<output>
				<port id="0" precision="FP16"/>
			</output>
		</layer>
		<layer id="100" name="150515099848" type="Const" version="opset1">
			<data element_type="f16" offset="0" shape="" size="2"/>
			<output>
				<port id="0" precision="FP16"/>
			</output>
		</layer>
		<layer id="101" name="150615109470" type="Const" version="opset1">
			<data element_type="f16" offset="64" shape="" size="2"/>
			<output>
				<port id="0" precision="FP16"/>
			</output>
		</layer>
		<layer id="102" name="1507151110235" type="Const" version="opset1">
			<data element_type="f16" offset="0" shape="" size="2"/>
			<output>
				<port id="0" precision="FP16"/>
			</output>
		</layer>
		<layer id="103" name="1508151210700" type="Const" version="opset1">
			<data element_type="f16" offset="64" shape="" size="2"/>
			<output>
				<port id="0" precision="FP16"/>
			</output>
		</layer>
		<layer id="104" name="233523399686" type="Const" version="opset1">
			<data element_type="f16" offset="66" shape="" size="2"/>
			<output>
				<port id="0" precision="FP16"/>
			</output>
		</layer>
		<layer id="105" name="233623409896" type="Const" version="opset1">
			<data element_type="f16" offset="68" shape="" size="2"/>
			<output>
				<port id="0" precision="FP16"/>
			</output>
		</layer>
		<layer id="106" name="233723419863" type="Const" version="opset1">
			<data element_type="f16" offset="66" shape="" size="2"/>
			<output>
				<port id="0" precision="FP16"/>
			</output>
		</layer>
		<layer id="107" name="233823429485" type="Const" version="opset1">
			<data element_type="f16" offset="68" shape="" size="2"/>
			<output>
				<port id="0" precision="FP16"/>
			</output>
		</layer>
		<layer id="108" name="1835183910130" type="Const" version="opset1">
			<data element_type="f16" offset="0" shape="" size="2"/>
			<output>
				<port id="0" precision="FP16"/>
			</output>
		</layer>
		<layer id="109" name="1836184010559" type="Const" version="opset1">
			<data element_type="f16" offset="70" shape="" size="2"/>
			<output>
				<port id="0" precision="FP16"/>
			</output>
		</layer>
		<layer id="110" name="1837184110223" type="Const" version="opset1">
			<data element_type="f16" offset="0" shape="" size="2"/>
			<output>
				<port id="0" precision="FP16"/>
			</output>
		</layer>
		<layer id="111" name="1838184210061" type="Const" version="opset1">
			<data element_type="f16" offset="70" shape="" size="2"/>
			<output>
				<port id="0" precision="FP16"/>
			</output>
		</layer>
		<layer id="112" name="209520999884" type="Const" version="opset1">
			<data element_type="f16" offset="0" shape="" size="2"/>
			<output>
				<port id="0" precision="FP16"/>
			</output>
		</layer>
		<layer id="113" name="209621009557" type="Const" version="opset1">
			<data element_type="f16" offset="72" shape="" size="2"/>
			<output>
				<port id="0" precision="FP16"/>
			</output>
		</layer>
		<layer id="114" name="2097210110499" type="Const" version="opset1">
			<data element_type="f16" offset="0" shape="" size="2"/>
			<output>
				<port id="0" precision="FP16"/>
			</output>
		</layer>
		<layer id="115" name="209821029671" type="Const" version="opset1">
			<data element_type="f16" offset="72" shape="" size="2"/>
			<output>
				<port id="0" precision="FP16"/>
			</output>
		</layer>
		<layer id="116" name="239523999992" type="Const" version="opset1">
			<data element_type="f16" offset="0" shape="" size="2"/>
			<output>
				<port id="0" precision="FP16"/>
			</output>
		</layer>
		<layer id="117" name="239624009611" type="Const" version="opset1">
			<data element_type="f16" offset="74" shape="" size="2"/>
			<output>
				<port id="0" precision="FP16"/>
			</output>
		</layer>
		<layer id="118" name="2397240110769" type="Const" version="opset1">
			<data element_type="f16" offset="0" shape="" size="2"/>
			<output>
				<port id="0" precision="FP16"/>
			</output>
		</layer>
		<layer id="119" name="2398240210775" type="Const" version="opset1">
			<data element_type="f16" offset="74" shape="" size="2"/>
			<output>
				<port id="0" precision="FP16"/>
			</output>
		</layer>
		<layer id="120" name="1935193910679" type="Const" version="opset1">
			<data element_type="f16" offset="76" shape="" size="2"/>
			<output>
				<port id="0" precision="FP16"/>
			</output>
		</layer>
		<layer id="121" name="1936194010037" type="Const" version="opset1">
			<data element_type="f16" offset="78" shape="" size="2"/>
			<output>
				<port id="0" precision="FP16"/>
			</output>
		</layer>
		<layer id="122" name="1937194110583" type="Const" version="opset1">
			<data element_type="f16" offset="76" shape="" size="2"/>
			<output>
				<port id="0" precision="FP16"/>
			</output>
		</layer>
		<layer id="123" name="1938194210826" type="Const" version="opset1">
			<data element_type="f16" offset="78" shape="" size="2"/>
			<output>
				<port id="0" precision="FP16"/>
			</output>
		</layer>
		<layer id="124" name="2435243910736" type="Const" version="opset1">
			<data element_type="f16" offset="0" shape="" size="2"/>
			<output>
				<port id="0" precision="FP16"/>
			</output>
		</layer>
		<layer id="125" name="2436244010070" type="Const" version="opset1">
			<data element_type="f16" offset="30" shape="" size="2"/>
			<output>
				<port id="0" precision="FP16"/>
			</output>
		</layer>
		<layer id="126" name="2437244110004" type="Const" version="opset1">
			<data element_type="f16" offset="0" shape="" size="2"/>
			<output>
				<port id="0" precision="FP16"/>
			</output>
		</layer>
		<layer id="127" name="2438244211066" type="Const" version="opset1">
			<data element_type="f16" offset="30" shape="" size="2"/>
			<output>
				<port id="0" precision="FP16"/>
			</output>
		</layer>
		<layer id="128" name="1405140910664" type="Const" version="opset1">
			<data element_type="f16" offset="0" shape="" size="2"/>
			<output>
				<port id="0" precision="FP16"/>
			</output>
		</layer>
		<layer id="129" name="140614109914" type="Const" version="opset1">
			<data element_type="f16" offset="80" shape="" size="2"/>
			<output>
				<port id="0" precision="FP16"/>
			</output>
		</layer>
		<layer id="130" name="1407141111063" type="Const" version="opset1">
			<data element_type="f16" offset="0" shape="" size="2"/>
			<output>
				<port id="0" precision="FP16"/>
			</output>
		</layer>
		<layer id="131" name="1408141211111" type="Const" version="opset1">
			<data element_type="f16" offset="80" shape="" size="2"/>
			<output>
				<port id="0" precision="FP16"/>
			</output>
		</layer>
		<layer id="132" name="2535253910451" type="Const" version="opset1">
			<data element_type="f16" offset="0" shape="" size="2"/>
			<output>
				<port id="0" precision="FP16"/>
			</output>
		</layer>
		<layer id="133" name="2536254010844" type="Const" version="opset1">
			<data element_type="f16" offset="82" shape="" size="2"/>
			<output>
				<port id="0" precision="FP16"/>
			</output>
		</layer>
		<layer id="134" name="2537254110850" type="Const" version="opset1">
			<data element_type="f16" offset="0" shape="" size="2"/>
			<output>
				<port id="0" precision="FP16"/>
			</output>
		</layer>
		<layer id="135" name="2538254210886" type="Const" version="opset1">
			<data element_type="f16" offset="82" shape="" size="2"/>
			<output>
				<port id="0" precision="FP16"/>
			</output>
		</layer>
		<layer id="136" name="2575257910421" type="Const" version="opset1">
			<data element_type="f16" offset="84" shape="" size="2"/>
			<output>
				<port id="0" precision="FP16"/>
			</output>
		</layer>
		<layer id="137" name="2576258010607" type="Const" version="opset1">
			<data element_type="f16" offset="86" shape="" size="2"/>
			<output>
				<port id="0" precision="FP16"/>
			</output>
		</layer>
		<layer id="138" name="2577258110622" type="Const" version="opset1">
			<data element_type="f16" offset="84" shape="" size="2"/>
			<output>
				<port id="0" precision="FP16"/>
			</output>
		</layer>
		<layer id="139" name="257825829584" type="Const" version="opset1">
			<data element_type="f16" offset="86" shape="" size="2"/>
			<output>
				<port id="0" precision="FP16"/>
			</output>
		</layer>
		<layer id="140" name="225522599842" type="Const" version="opset1">
			<data element_type="f16" offset="0" shape="" size="2"/>
			<output>
				<port id="0" precision="FP16"/>
			</output>
		</layer>
		<layer id="141" name="2256226010289" type="Const" version="opset1">
			<data element_type="f16" offset="88" shape="" size="2"/>
			<output>
				<port id="0" precision="FP16"/>
			</output>
		</layer>
		<layer id="142" name="2257226111093" type="Const" version="opset1">
			<data element_type="f16" offset="0" shape="" size="2"/>
			<output>
				<port id="0" precision="FP16"/>
			</output>
		</layer>
		<layer id="143" name="225822629716" type="Const" version="opset1">
			<data element_type="f16" offset="88" shape="" size="2"/>
			<output>
				<port id="0" precision="FP16"/>
			</output>
		</layer>
		<layer id="144" name="1645164911099" type="Const" version="opset1">
			<data element_type="f16" offset="0" shape="" size="2"/>
			<output>
				<port id="0" precision="FP16"/>
			</output>
		</layer>
		<layer id="145" name="164616509497" type="Const" version="opset1">
			<data element_type="f16" offset="90" shape="" size="2"/>
			<output>
				<port id="0" precision="FP16"/>
			</output>
		</layer>
		<layer id="146" name="1647165110112" type="Const" version="opset1">
			<data element_type="f16" offset="0" shape="" size="2"/>
			<output>
				<port id="0" precision="FP16"/>
			</output>
		</layer>
		<layer id="147" name="164816529920" type="Const" version="opset1">
			<data element_type="f16" offset="90" shape="" size="2"/>
			<output>
				<port id="0" precision="FP16"/>
			</output>
		</layer>
		<layer id="148" name="251525199944" type="Const" version="opset1">
			<data element_type="f16" offset="0" shape="" size="2"/>
			<output>
				<port id="0" precision="FP16"/>
			</output>
		</layer>
		<layer id="149" name="251625209491" type="Const" version="opset1">
			<data element_type="f16" offset="92" shape="" size="2"/>
			<output>
				<port id="0" precision="FP16"/>
			</output>
		</layer>
		<layer id="150" name="2517252110439" type="Const" version="opset1">
			<data element_type="f16" offset="0" shape="" size="2"/>
			<output>
				<port id="0" precision="FP16"/>
			</output>
		</layer>
		<layer id="151" name="251825229563" type="Const" version="opset1">
			<data element_type="f16" offset="92" shape="" size="2"/>
			<output>
				<port id="0" precision="FP16"/>
			</output>
		</layer>
		<layer id="152" name="1665166910571" type="Const" version="opset1">
			<data element_type="f16" offset="94" shape="" size="2"/>
			<output>
				<port id="0" precision="FP16"/>
			</output>
		</layer>
		<layer id="153" name="166616709779" type="Const" version="opset1">
			<data element_type="f16" offset="96" shape="" size="2"/>
			<output>
				<port id="0" precision="FP16"/>
			</output>
		</layer>
		<layer id="154" name="1667167111141" type="Const" version="opset1">
			<data element_type="f16" offset="94" shape="" size="2"/>
			<output>
				<port id="0" precision="FP16"/>
			</output>
		</layer>
		<layer id="155" name="1668167210136" type="Const" version="opset1">
			<data element_type="f16" offset="96" shape="" size="2"/>
			<output>
				<port id="0" precision="FP16"/>
			</output>
		</layer>
		<layer id="156" name="2775277910865" type="Const" version="opset1">
			<data element_type="f16" offset="0" shape="" size="2"/>
			<output>
				<port id="0" precision="FP16"/>
			</output>
		</layer>
		<layer id="157" name="2776278011150" type="Const" version="opset1">
			<data element_type="f16" offset="98" shape="" size="2"/>
			<output>
				<port id="0" precision="FP16"/>
			</output>
		</layer>
		<layer id="158" name="2777278110703" type="Const" version="opset1">
			<data element_type="f16" offset="0" shape="" size="2"/>
			<output>
				<port id="0" precision="FP16"/>
			</output>
		</layer>
		<layer id="159" name="2778278210409" type="Const" version="opset1">
			<data element_type="f16" offset="98" shape="" size="2"/>
			<output>
				<port id="0" precision="FP16"/>
			</output>
		</layer>
		<layer id="160" name="201520199806" type="Const" version="opset1">
			<data element_type="f16" offset="0" shape="" size="2"/>
			<output>
				<port id="0" precision="FP16"/>
			</output>
		</layer>
		<layer id="161" name="201620209692" type="Const" version="opset1">
			<data element_type="f16" offset="100" shape="" size="2"/>
			<output>
				<port id="0" precision="FP16"/>
			</output>
		</layer>
		<layer id="162" name="2017202110334" type="Const" version="opset1">
			<data element_type="f16" offset="0" shape="" size="2"/>
			<output>
				<port id="0" precision="FP16"/>
			</output>
		</layer>
		<layer id="163" name="201820229800" type="Const" version="opset1">
			<data element_type="f16" offset="100" shape="" size="2"/>
			<output>
				<port id="0" precision="FP16"/>
			</output>
		</layer>
		<layer id="164" name="172517299545" type="Const" version="opset1">
			<data element_type="f16" offset="0" shape="" size="2"/>
			<output>
				<port id="0" precision="FP16"/>
			</output>
		</layer>
		<layer id="165" name="1726173010226" type="Const" version="opset1">
			<data element_type="f16" offset="102" shape="" size="2"/>
			<output>
				<port id="0" precision="FP16"/>
			</output>
		</layer>
		<layer id="166" name="1727173110802" type="Const" version="opset1">
			<data element_type="f16" offset="0" shape="" size="2"/>
			<output>
				<port id="0" precision="FP16"/>
			</output>
		</layer>
		<layer id="167" name="172817329629" type="Const" version="opset1">
			<data element_type="f16" offset="102" shape="" size="2"/>
			<output>
				<port id="0" precision="FP16"/>
			</output>
		</layer>
		<layer id="168" name="1485148910178" type="Const" version="opset1">
			<data element_type="f16" offset="104" shape="" size="2"/>
			<output>
				<port id="0" precision="FP16"/>
			</output>
		</layer>
		<layer id="169" name="148614909878" type="Const" version="opset1">
			<data element_type="f16" offset="106" shape="" size="2"/>
			<output>
				<port id="0" precision="FP16"/>
			</output>
		</layer>
		<layer id="170" name="148714919710" type="Const" version="opset1">
			<data element_type="f16" offset="104" shape="" size="2"/>
			<output>
				<port id="0" precision="FP16"/>
			</output>
		</layer>
		<layer id="171" name="1488149210205" type="Const" version="opset1">
			<data element_type="f16" offset="106" shape="" size="2"/>
			<output>
				<port id="0" precision="FP16"/>
			</output>
		</layer>
		<layer id="172" name="1775177910250" type="Const" version="opset1">
			<data element_type="f16" offset="0" shape="" size="2"/>
			<output>
				<port id="0" precision="FP16"/>
			</output>
		</layer>
		<layer id="173" name="1776178010220" type="Const" version="opset1">
			<data element_type="f16" offset="108" shape="" size="2"/>
			<output>
				<port id="0" precision="FP16"/>
			</output>
		</layer>
		<layer id="174" name="1777178110541" type="Const" version="opset1">
			<data element_type="f16" offset="0" shape="" size="2"/>
			<output>
				<port id="0" precision="FP16"/>
			</output>
		</layer>
		<layer id="175" name="1778178210214" type="Const" version="opset1">
			<data element_type="f16" offset="108" shape="" size="2"/>
			<output>
				<port id="0" precision="FP16"/>
			</output>
		</layer>
		<layer id="176" name="1445144910787" type="Const" version="opset1">
			<data element_type="f16" offset="0" shape="" size="2"/>
			<output>
				<port id="0" precision="FP16"/>
			</output>
		</layer>
		<layer id="177" name="1446145011015" type="Const" version="opset1">
			<data element_type="f16" offset="110" shape="" size="2"/>
			<output>
				<port id="0" precision="FP16"/>
			</output>
		</layer>
		<layer id="178" name="144714519518" type="Const" version="opset1">
			<data element_type="f16" offset="0" shape="" size="2"/>
			<output>
				<port id="0" precision="FP16"/>
			</output>
		</layer>
		<layer id="179" name="144814529725" type="Const" version="opset1">
			<data element_type="f16" offset="110" shape="" size="2"/>
			<output>
				<port id="0" precision="FP16"/>
			</output>
		</layer>
		<layer id="180" name="203520399956" type="Const" version="opset1">
			<data element_type="f16" offset="0" shape="" size="2"/>
			<output>
				<port id="0" precision="FP16"/>
			</output>
		</layer>
		<layer id="181" name="203620409578" type="Const" version="opset1">
			<data element_type="f16" offset="112" shape="" size="2"/>
			<output>
				<port id="0" precision="FP16"/>
			</output>
		</layer>
		<layer id="182" name="2037204110211" type="Const" version="opset1">
			<data element_type="f16" offset="0" shape="" size="2"/>
			<output>
				<port id="0" precision="FP16"/>
			</output>
		</layer>
		<layer id="183" name="203820429605" type="Const" version="opset1">
			<data element_type="f16" offset="112" shape="" size="2"/>
			<output>
				<port id="0" precision="FP16"/>
			</output>
		</layer>
		<layer id="184" name="136513699494" type="Const" version="opset1">
			<data element_type="f16" offset="114" shape="" size="2"/>
			<output>
				<port id="0" precision="FP16"/>
			</output>
		</layer>
		<layer id="185" name="1366137010943" type="Const" version="opset1">
			<data element_type="f16" offset="116" shape="" size="2"/>
			<output>
				<port id="0" precision="FP16"/>
			</output>
		</layer>
		<layer id="186" name="1367137111138" type="Const" version="opset1">
			<data element_type="f16" offset="114" shape="" size="2"/>
			<output>
				<port id="0" precision="FP16"/>
			</output>
		</layer>
		<layer id="187" name="1368137210910" type="Const" version="opset1">
			<data element_type="f16" offset="116" shape="" size="2"/>
			<output>
				<port id="0" precision="FP16"/>
			</output>
		</layer>
		<layer id="188" name="126512699797" type="Const" version="opset1">
			<data element_type="f16" offset="0" shape="" size="2"/>
			<output>
				<port id="0" precision="FP16"/>
			</output>
		</layer>
		<layer id="189" name="1266127010322" type="Const" version="opset1">
			<data element_type="f16" offset="118" shape="" size="2"/>
			<output>
				<port id="0" precision="FP16"/>
			</output>
		</layer>
		<layer id="190" name="126712719791" type="Const" version="opset1">
			<data element_type="f16" offset="0" shape="" size="2"/>
			<output>
				<port id="0" precision="FP16"/>
			</output>
		</layer>
		<layer id="191" name="1268127210835" type="Const" version="opset1">
			<data element_type="f16" offset="118" shape="" size="2"/>
			<output>
				<port id="0" precision="FP16"/>
			</output>
		</layer>
		<layer id="192" name="185518599719" type="Const" version="opset1">
			<data element_type="f16" offset="0" shape="" size="2"/>
			<output>
				<port id="0" precision="FP16"/>
			</output>
		</layer>
		<layer id="193" name="1856186010508" type="Const" version="opset1">
			<data element_type="f16" offset="120" shape="" size="2"/>
			<output>
				<port id="0" precision="FP16"/>
			</output>
		</layer>
		<layer id="194" name="1857186111084" type="Const" version="opset1">
			<data element_type="f16" offset="0" shape="" size="2"/>
			<output>
				<port id="0" precision="FP16"/>
			</output>
		</layer>
		<layer id="195" name="1858186210046" type="Const" version="opset1">
			<data element_type="f16" offset="120" shape="" size="2"/>
			<output>
				<port id="0" precision="FP16"/>
			</output>
		</layer>
		<layer id="196" name="217521799836" type="Const" version="opset1">
			<data element_type="f16" offset="0" shape="" size="2"/>
			<output>
				<port id="0" precision="FP16"/>
			</output>
		</layer>
		<layer id="197" name="2176218010967" type="Const" version="opset1">
			<data element_type="f16" offset="122" shape="" size="2"/>
			<output>
				<port id="0" precision="FP16"/>
			</output>
		</layer>
		<layer id="198" name="2177218110424" type="Const" version="opset1">
			<data element_type="f16" offset="0" shape="" size="2"/>
			<output>
				<port id="0" precision="FP16"/>
			</output>
		</layer>
		<layer id="199" name="2178218210484" type="Const" version="opset1">
			<data element_type="f16" offset="122" shape="" size="2"/>
			<output>
				<port id="0" precision="FP16"/>
			</output>
		</layer>
		<layer id="200" name="1425142910247" type="Const" version="opset1">
			<data element_type="f16" offset="124" shape="" size="2"/>
			<output>
				<port id="0" precision="FP16"/>
			</output>
		</layer>
		<layer id="201" name="1426143010553" type="Const" version="opset1">
			<data element_type="f16" offset="126" shape="" size="2"/>
			<output>
				<port id="0" precision="FP16"/>
			</output>
		</layer>
		<layer id="202" name="1427143110064" type="Const" version="opset1">
			<data element_type="f16" offset="124" shape="" size="2"/>
			<output>
				<port id="0" precision="FP16"/>
			</output>
		</layer>
		<layer id="203" name="142814329812" type="Const" version="opset1">
			<data element_type="f16" offset="126" shape="" size="2"/>
			<output>
				<port id="0" precision="FP16"/>
			</output>
		</layer>
		<layer id="204" name="2635263910643" type="Const" version="opset1">
			<data element_type="f16" offset="0" shape="" size="2"/>
			<output>
				<port id="0" precision="FP16"/>
			</output>
		</layer>
		<layer id="205" name="263626409749" type="Const" version="opset1">
			<data element_type="f16" offset="128" shape="" size="2"/>
			<output>
				<port id="0" precision="FP16"/>
			</output>
		</layer>
		<layer id="206" name="2637264110673" type="Const" version="opset1">
			<data element_type="f16" offset="0" shape="" size="2"/>
			<output>
				<port id="0" precision="FP16"/>
			</output>
		</layer>
		<layer id="207" name="2638264210142" type="Const" version="opset1">
			<data element_type="f16" offset="128" shape="" size="2"/>
			<output>
				<port id="0" precision="FP16"/>
			</output>
		</layer>
		<layer id="208" name="1915191910067" type="Const" version="opset1">
			<data element_type="f16" offset="0" shape="" size="2"/>
			<output>
				<port id="0" precision="FP16"/>
			</output>
		</layer>
		<layer id="209" name="191619209821" type="Const" version="opset1">
			<data element_type="f16" offset="130" shape="" size="2"/>
			<output>
				<port id="0" precision="FP16"/>
			</output>
		</layer>
		<layer id="210" name="1917192110505" type="Const" version="opset1">
			<data element_type="f16" offset="0" shape="" size="2"/>
			<output>
				<port id="0" precision="FP16"/>
			</output>
		</layer>
		<layer id="211" name="191819229740" type="Const" version="opset1">
			<data element_type="f16" offset="130" shape="" size="2"/>
			<output>
				<port id="0" precision="FP16"/>
			</output>
		</layer>
		<layer id="212" name="2075207910337" type="Const" version="opset1">
			<data element_type="f16" offset="0" shape="" size="2"/>
			<output>
				<port id="0" precision="FP16"/>
			</output>
		</layer>
		<layer id="213" name="2076208010469" type="Const" version="opset1">
			<data element_type="f16" offset="132" shape="" size="2"/>
			<output>
				<port id="0" precision="FP16"/>
			</output>
		</layer>
		<layer id="214" name="2077208110379" type="Const" version="opset1">
			<data element_type="f16" offset="0" shape="" size="2"/>
			<output>
				<port id="0" precision="FP16"/>
			</output>
		</layer>
		<layer id="215" name="2078208210976" type="Const" version="opset1">
			<data element_type="f16" offset="132" shape="" size="2"/>
			<output>
				<port id="0" precision="FP16"/>
			</output>
		</layer>
		<layer id="216" name="241524199695" type="Const" version="opset1">
			<data element_type="f16" offset="134" shape="" size="2"/>
			<output>
				<port id="0" precision="FP16"/>
			</output>
		</layer>
		<layer id="217" name="2416242010595" type="Const" version="opset1">
			<data element_type="f16" offset="136" shape="" size="2"/>
			<output>
				<port id="0" precision="FP16"/>
			</output>
		</layer>
		<layer id="218" name="2417242110586" type="Const" version="opset1">
			<data element_type="f16" offset="134" shape="" size="2"/>
			<output>
				<port id="0" precision="FP16"/>
			</output>
		</layer>
		<layer id="219" name="2418242210232" type="Const" version="opset1">
			<data element_type="f16" offset="136" shape="" size="2"/>
			<output>
				<port id="0" precision="FP16"/>
			</output>
		</layer>
		<layer id="220" name="1565156910871" type="Const" version="opset1">
			<data element_type="f16" offset="0" shape="" size="2"/>
			<output>
				<port id="0" precision="FP16"/>
			</output>
		</layer>
		<layer id="221" name="1566157011147" type="Const" version="opset1">
			<data element_type="f16" offset="138" shape="" size="2"/>
			<output>
				<port id="0" precision="FP16"/>
			</output>
		</layer>
		<layer id="222" name="1567157110655" type="Const" version="opset1">
			<data element_type="f16" offset="0" shape="" size="2"/>
			<output>
				<port id="0" precision="FP16"/>
			</output>
		</layer>
		<layer id="223" name="1568157210748" type="Const" version="opset1">
			<data element_type="f16" offset="138" shape="" size="2"/>
			<output>
				<port id="0" precision="FP16"/>
			</output>
		</layer>
		<layer id="224" name="1875187911009" type="Const" version="opset1">
			<data element_type="f16" offset="0" shape="" size="2"/>
			<output>
				<port id="0" precision="FP16"/>
			</output>
		</layer>
		<layer id="225" name="1876188010877" type="Const" version="opset1">
			<data element_type="f16" offset="140" shape="" size="2"/>
			<output>
				<port id="0" precision="FP16"/>
			</output>
		</layer>
		<layer id="226" name="1877188110616" type="Const" version="opset1">
			<data element_type="f16" offset="0" shape="" size="2"/>
			<output>
				<port id="0" precision="FP16"/>
			</output>
		</layer>
		<layer id="227" name="187818829938" type="Const" version="opset1">
			<data element_type="f16" offset="140" shape="" size="2"/>
			<output>
				<port id="0" precision="FP16"/>
			</output>
		</layer>
		<layer id="228" name="2475247910403" type="Const" version="opset1">
			<data element_type="f16" offset="0" shape="" size="2"/>
			<output>
				<port id="0" precision="FP16"/>
			</output>
		</layer>
		<layer id="229" name="2476248010724" type="Const" version="opset1">
			<data element_type="f16" offset="142" shape="" size="2"/>
			<output>
				<port id="0" precision="FP16"/>
			</output>
		</layer>
		<layer id="230" name="2477248110187" type="Const" version="opset1">
			<data element_type="f16" offset="0" shape="" size="2"/>
			<output>
				<port id="0" precision="FP16"/>
			</output>
		</layer>
		<layer id="231" name="2478248210271" type="Const" version="opset1">
			<data element_type="f16" offset="142" shape="" size="2"/>
			<output>
				<port id="0" precision="FP16"/>
			</output>
		</layer>
		<layer id="232" name="2215221910982" type="Const" version="opset1">
			<data element_type="f16" offset="144" shape="" size="2"/>
			<output>
				<port id="0" precision="FP16"/>
			</output>
		</layer>
		<layer id="233" name="2216222010016" type="Const" version="opset1">
			<data element_type="f16" offset="146" shape="" size="2"/>
			<output>
				<port id="0" precision="FP16"/>
			</output>
		</layer>
		<layer id="234" name="2217222111021" type="Const" version="opset1">
			<data element_type="f16" offset="144" shape="" size="2"/>
			<output>
				<port id="0" precision="FP16"/>
			</output>
		</layer>
		<layer id="235" name="2218222210490" type="Const" version="opset1">
			<data element_type="f16" offset="146" shape="" size="2"/>
			<output>
				<port id="0" precision="FP16"/>
			</output>
		</layer>
		<layer id="236" name="160516099746" type="Const" version="opset1">
			<data element_type="f16" offset="0" shape="" size="2"/>
			<output>
				<port id="0" precision="FP16"/>
			</output>
		</layer>
		<layer id="237" name="160616109866" type="Const" version="opset1">
			<data element_type="f16" offset="40" shape="" size="2"/>
			<output>
				<port id="0" precision="FP16"/>
			</output>
		</layer>
		<layer id="238" name="1607161110631" type="Const" version="opset1">
			<data element_type="f16" offset="0" shape="" size="2"/>
			<output>
				<port id="0" precision="FP16"/>
			</output>
		</layer>
		<layer id="239" name="1608161211117" type="Const" version="opset1">
			<data element_type="f16" offset="40" shape="" size="2"/>
			<output>
				<port id="0" precision="FP16"/>
			</output>
		</layer>
		<layer id="240" name="2755275910946" type="Const" version="opset1">
			<data element_type="f16" offset="0" shape="" size="2"/>
			<output>
				<port id="0" precision="FP16"/>
			</output>
		</layer>
		<layer id="241" name="2756276010145" type="Const" version="opset1">
			<data element_type="f16" offset="148" shape="" size="2"/>
			<output>
				<port id="0" precision="FP16"/>
			</output>
		</layer>
		<layer id="242" name="2757276110415" type="Const" version="opset1">
			<data element_type="f16" offset="0" shape="" size="2"/>
			<output>
				<port id="0" precision="FP16"/>
			</output>
		</layer>
		<layer id="243" name="275827629881" type="Const" version="opset1">
			<data element_type="f16" offset="148" shape="" size="2"/>
			<output>
				<port id="0" precision="FP16"/>
			</output>
		</layer>
		<layer id="244" name="215521599662" type="Const" version="opset1">
			<data element_type="f16" offset="0" shape="" size="2"/>
			<output>
				<port id="0" precision="FP16"/>
			</output>
		</layer>
		<layer id="245" name="2156216010805" type="Const" version="opset1">
			<data element_type="f16" offset="150" shape="" size="2"/>
			<output>
				<port id="0" precision="FP16"/>
			</output>
		</layer>
		<layer id="246" name="2157216111105" type="Const" version="opset1">
			<data element_type="f16" offset="0" shape="" size="2"/>
			<output>
				<port id="0" precision="FP16"/>
			</output>
		</layer>
		<layer id="247" name="2158216210166" type="Const" version="opset1">
			<data element_type="f16" offset="150" shape="" size="2"/>
			<output>
				<port id="0" precision="FP16"/>
			</output>
		</layer>
		<layer id="248" name="1325132910562" type="Const" version="opset1">
			<data element_type="f16" offset="152" shape="" size="2"/>
			<output>
				<port id="0" precision="FP16"/>
			</output>
		</layer>
		<layer id="249" name="132613309932" type="Const" version="opset1">
			<data element_type="f16" offset="154" shape="" size="2"/>
			<output>
				<port id="0" precision="FP16"/>
			</output>
		</layer>
		<layer id="250" name="1327133111129" type="Const" version="opset1">
			<data element_type="f16" offset="152" shape="" size="2"/>
			<output>
				<port id="0" precision="FP16"/>
			</output>
		</layer>
		<layer id="251" name="132813329635" type="Const" version="opset1">
			<data element_type="f16" offset="154" shape="" size="2"/>
			<output>
				<port id="0" precision="FP16"/>
			</output>
		</layer>
		<layer id="252" name="1285128910295" type="Const" version="opset1">
			<data element_type="f16" offset="0" shape="" size="2"/>
			<output>
				<port id="0" precision="FP16"/>
			</output>
		</layer>
		<layer id="253" name="128612909509" type="Const" version="opset1">
			<data element_type="f16" offset="60" shape="" size="2"/>
			<output>
				<port id="0" precision="FP16"/>
			</output>
		</layer>
		<layer id="254" name="128712919752" type="Const" version="opset1">
			<data element_type="f16" offset="0" shape="" size="2"/>
			<output>
				<port id="0" precision="FP16"/>
			</output>
		</layer>
		<layer id="255" name="1288129210286" type="Const" version="opset1">
			<data element_type="f16" offset="60" shape="" size="2"/>
			<output>
				<port id="0" precision="FP16"/>
			</output>
		</layer>
		<layer id="256" name="1625162910517" type="Const" version="opset1">
			<data element_type="f16" offset="0" shape="" size="2"/>
			<output>
				<port id="0" precision="FP16"/>
			</output>
		</layer>
		<layer id="257" name="162616309941" type="Const" version="opset1">
			<data element_type="f16" offset="156" shape="" size="2"/>
			<output>
				<port id="0" precision="FP16"/>
			</output>
		</layer>
		<layer id="258" name="162716319575" type="Const" version="opset1">
			<data element_type="f16" offset="0" shape="" size="2"/>
			<output>
				<port id="0" precision="FP16"/>
			</output>
		</layer>
		<layer id="259" name="1628163210658" type="Const" version="opset1">
			<data element_type="f16" offset="156" shape="" size="2"/>
			<output>
				<port id="0" precision="FP16"/>
			</output>
		</layer>
		<layer id="260" name="3563356710853" type="Const" version="opset1">
			<data element_type="f16" offset="0" shape="" size="2"/>
			<output>
				<port id="0" precision="FP16"/>
			</output>
		</layer>
		<layer id="261" name="3564356811054" type="Const" version="opset1">
			<data element_type="f16" offset="158" shape="" size="2"/>
			<output>
				<port id="0" precision="FP16"/>
			</output>
		</layer>
		<layer id="262" name="3565356910763" type="Const" version="opset1">
			<data element_type="f16" offset="0" shape="" size="2"/>
			<output>
				<port id="0" precision="FP16"/>
			</output>
		</layer>
		<layer id="263" name="3566357011033" type="Const" version="opset1">
			<data element_type="f16" offset="158" shape="" size="2"/>
			<output>
				<port id="0" precision="FP16"/>
			</output>
		</layer>
		<layer id="264" name="2595259910556" type="Const" version="opset1">
			<data element_type="f16" offset="160" shape="" size="2"/>
			<output>
				<port id="0" precision="FP16"/>
			</output>
		</layer>
		<layer id="265" name="2596260010847" type="Const" version="opset1">
			<data element_type="f16" offset="162" shape="" size="2"/>
			<output>
				<port id="0" precision="FP16"/>
			</output>
		</layer>
		<layer id="266" name="259726019872" type="Const" version="opset1">
			<data element_type="f16" offset="160" shape="" size="2"/>
			<output>
				<port id="0" precision="FP16"/>
			</output>
		</layer>
		<layer id="267" name="2598260211039" type="Const" version="opset1">
			<data element_type="f16" offset="162" shape="" size="2"/>
			<output>
				<port id="0" precision="FP16"/>
			</output>
		</layer>
		<layer id="268" name="input" type="Parameter" version="opset1">
			<data element_type="f16" shape="1,3,160,80"/>
			<output>
				<port id="0" names="input" precision="FP16">
					<dim>1</dim>
					<dim>3</dim>
					<dim>160</dim>
					<dim>80</dim>
				</port>
			</output>
		</layer>
		<layer id="269" name="data_mul_969340010085" type="Const" version="opset1">
			<data element_type="f16" offset="164" shape="1,3,1,1" size="6"/>
			<output>
				<port id="0" precision="FP16">
					<dim>1</dim>
					<dim>3</dim>
					<dim>1</dim>
					<dim>1</dim>
				</port>
			</output>
		</layer>
		<layer id="270" name="input/scale/Fused_Mul_" type="Multiply" version="opset1">
			<data auto_broadcast="numpy"/>
			<input>
				<port id="0">
					<dim>1</dim>
					<dim>3</dim>
					<dim>160</dim>
					<dim>80</dim>
				</port>
				<port id="1">
					<dim>1</dim>
					<dim>3</dim>
					<dim>1</dim>
					<dim>1</dim>
				</port>
			</input>
			<output>
				<port id="2" precision="FP16">
					<dim>1</dim>
					<dim>3</dim>
					<dim>160</dim>
					<dim>80</dim>
				</port>
			</output>
		</layer>
		<layer id="271" name="data_add_969540210667" type="Const" version="opset1">
			<data element_type="f16" offset="170" shape="1,3,1,1" size="6"/>
			<output>
				<port id="0" precision="FP16">
					<dim>1</dim>
					<dim>3</dim>
					<dim>1</dim>
					<dim>1</dim>
				</port>
			</output>
		</layer>
		<layer id="272" name="input/mean/Fused_Add_" type="Add" version="opset1">
			<data auto_broadcast="numpy"/>
			<input>
				<port id="0">
					<dim>1</dim>
					<dim>3</dim>
					<dim>160</dim>
					<dim>80</dim>
				</port>
				<port id="1">
					<dim>1</dim>
					<dim>3</dim>
					<dim>1</dim>
					<dim>1</dim>
				</port>
			</input>
			<output>
				<port id="2" precision="FP16">
					<dim>1</dim>
					<dim>3</dim>
					<dim>160</dim>
					<dim>80</dim>
				</port>
			</output>
		</layer>
		<layer id="273" name="379/fq_input_0" type="FakeQuantize" version="opset1">
			<data auto_broadcast="numpy" levels="256"/>
			<input>
				<port id="0">
					<dim>1</dim>
					<dim>3</dim>
					<dim>160</dim>
					<dim>80</dim>
				</port>
				<port id="1"/>
				<port id="2"/>
				<port id="3"/>
				<port id="4"/>
			</input>
			<output>
				<port id="5" precision="FP16">
					<dim>1</dim>
					<dim>3</dim>
					<dim>160</dim>
					<dim>80</dim>
				</port>
			</output>
		</layer>
		<layer id="274" name="380/mean/Fused_Mul__copy4045074/quantized717510229" type="Const" version="opset1">
			<data element_type="i8" offset="176" shape="64,3,7,7" size="9408"/>
			<output>
				<port id="0" precision="I8">
					<dim>64</dim>
					<dim>3</dim>
					<dim>7</dim>
					<dim>7</dim>
				</port>
			</output>
		</layer>
		<layer id="275" name="380/mean/Fused_Mul__copy4045074/quantized/to_f16" type="Convert" version="opset1">
			<data destination_type="f16"/>
			<input>
				<port id="0">
					<dim>64</dim>
					<dim>3</dim>
					<dim>7</dim>
					<dim>7</dim>
				</port>
			</input>
			<output>
				<port id="1" precision="FP16">
					<dim>64</dim>
					<dim>3</dim>
					<dim>7</dim>
					<dim>7</dim>
				</port>
			</output>
		</layer>
		<layer id="276" name="379/fq_weights_1/zero_point71889539" type="Const" version="opset1">
			<data element_type="f16" offset="9584" shape="64,1,1,1" size="128"/>
			<output>
				<port id="0" precision="FP16">
					<dim>64</dim>
					<dim>1</dim>
					<dim>1</dim>
					<dim>1</dim>
				</port>
			</output>
		</layer>
		<layer id="277" name="379/fq_weights_1/minus_zp" type="Subtract" version="opset1">
			<data auto_broadcast="numpy"/>
			<input>
				<port id="0">
					<dim>64</dim>
					<dim>3</dim>
					<dim>7</dim>
					<dim>7</dim>
				</port>
				<port id="1">
					<dim>64</dim>
					<dim>1</dim>
					<dim>1</dim>
					<dim>1</dim>
				</port>
			</input>
			<output>
				<port id="2" precision="FP16">
					<dim>64</dim>
					<dim>3</dim>
					<dim>7</dim>
					<dim>7</dim>
				</port>
			</output>
		</layer>
		<layer id="278" name="379/fq_weights_1/scale718310952" type="Const" version="opset1">
			<data element_type="f16" offset="9712" shape="64,1,1,1" size="128"/>
			<output>
				<port id="0" precision="FP16">
					<dim>64</dim>
					<dim>1</dim>
					<dim>1</dim>
					<dim>1</dim>
				</port>
			</output>
		</layer>
		<layer id="279" name="379/fq_weights_1/mulpiply_by_scale" type="Multiply" version="opset1">
			<data auto_broadcast="numpy"/>
			<input>
				<port id="0">
					<dim>64</dim>
					<dim>3</dim>
					<dim>7</dim>
					<dim>7</dim>
				</port>
				<port id="1">
					<dim>64</dim>
					<dim>1</dim>
					<dim>1</dim>
					<dim>1</dim>
				</port>
			</input>
			<output>
				<port id="2" precision="FP16">
					<dim>64</dim>
					<dim>3</dim>
					<dim>7</dim>
					<dim>7</dim>
				</port>
			</output>
		</layer>
		<layer id="280" name="379" type="Convolution" version="opset1">
			<data auto_pad="explicit" dilations="1,1" pads_begin="3,3" pads_end="3,3" strides="2,2"/>
			<input>
				<port id="0">
					<dim>1</dim>
					<dim>3</dim>
					<dim>160</dim>
					<dim>80</dim>
				</port>
				<port id="1">
					<dim>64</dim>
					<dim>3</dim>
					<dim>7</dim>
					<dim>7</dim>
				</port>
			</input>
			<output>
				<port id="2" precision="FP16">
					<dim>1</dim>
					<dim>64</dim>
					<dim>80</dim>
					<dim>40</dim>
				</port>
			</output>
		</layer>
		<layer id="281" name="data_add_969897034069587" type="Const" version="opset1">
			<data element_type="f16" offset="9840" shape="1,64,1,1" size="128"/>
			<output>
				<port id="0" precision="FP16">
					<dim>1</dim>
					<dim>64</dim>
					<dim>1</dim>
					<dim>1</dim>
				</port>
			</output>
		</layer>
		<layer id="282" name="380/variance/Fused_Add_" type="Add" version="opset1">
			<data auto_broadcast="numpy"/>
			<input>
				<port id="0">
					<dim>1</dim>
					<dim>64</dim>
					<dim>80</dim>
					<dim>40</dim>
				</port>
				<port id="1">
					<dim>1</dim>
					<dim>64</dim>
					<dim>1</dim>
					<dim>1</dim>
				</port>
			</input>
			<output>
				<port id="2" names="380" precision="FP16">
					<dim>1</dim>
					<dim>64</dim>
					<dim>80</dim>
					<dim>40</dim>
				</port>
			</output>
		</layer>
		<layer id="283" name="381" type="ReLU" version="opset1">
			<input>
				<port id="0">
					<dim>1</dim>
					<dim>64</dim>
					<dim>80</dim>
					<dim>40</dim>
				</port>
			</input>
			<output>
				<port id="1" names="381" precision="FP16">
					<dim>1</dim>
					<dim>64</dim>
					<dim>80</dim>
					<dim>40</dim>
				</port>
			</output>
		</layer>
		<layer id="284" name="382/fq_input_0" type="FakeQuantize" version="opset1">
			<data auto_broadcast="numpy" levels="256"/>
			<input>
				<port id="0">
					<dim>1</dim>
					<dim>64</dim>
					<dim>80</dim>
					<dim>40</dim>
				</port>
				<port id="1"/>
				<port id="2"/>
				<port id="3"/>
				<port id="4"/>
			</input>
			<output>
				<port id="5" precision="FP16">
					<dim>1</dim>
					<dim>64</dim>
					<dim>80</dim>
					<dim>40</dim>
				</port>
			</output>
		</layer>
		<layer id="285" name="382" type="MaxPool" version="opset1">
			<data auto_pad="explicit" kernel="3,3" pads_begin="1,1" pads_end="1,1" rounding_type="floor" strides="2,2"/>
			<input>
				<port id="0">
					<dim>1</dim>
					<dim>64</dim>
					<dim>80</dim>
					<dim>40</dim>
				</port>
			</input>
			<output>
				<port id="1" names="382" precision="FP16">
					<dim>1</dim>
					<dim>64</dim>
					<dim>40</dim>
					<dim>20</dim>
				</port>
			</output>
		</layer>
		<layer id="286" name="384/mean/Fused_Mul__copy4105076/quantized69359968" type="Const" version="opset1">
			<data element_type="i8" offset="9968" shape="64,64,1,1" size="4096"/>
			<output>
				<port id="0" precision="I8">
					<dim>64</dim>
					<dim>64</dim>
					<dim>1</dim>
					<dim>1</dim>
				</port>
			</output>
		</layer>
		<layer id="287" name="384/mean/Fused_Mul__copy4105076/quantized/to_f16" type="Convert" version="opset1">
			<data destination_type="f16"/>
			<input>
				<port id="0">
					<dim>64</dim>
					<dim>64</dim>
					<dim>1</dim>
					<dim>1</dim>
				</port>
			</input>
			<output>
				<port id="1" precision="FP16">
					<dim>64</dim>
					<dim>64</dim>
					<dim>1</dim>
					<dim>1</dim>
				</port>
			</output>
		</layer>
		<layer id="288" name="383/fq_weights_1/zero_point69489683" type="Const" version="opset1">
			<data element_type="f16" offset="14064" shape="64,1,1,1" size="128"/>
			<output>
				<port id="0" precision="FP16">
					<dim>64</dim>
					<dim>1</dim>
					<dim>1</dim>
					<dim>1</dim>
				</port>
			</output>
		</layer>
		<layer id="289" name="383/fq_weights_1/minus_zp" type="Subtract" version="opset1">
			<data auto_broadcast="numpy"/>
			<input>
				<port id="0">
					<dim>64</dim>
					<dim>64</dim>
					<dim>1</dim>
					<dim>1</dim>
				</port>
				<port id="1">
					<dim>64</dim>
					<dim>1</dim>
					<dim>1</dim>
					<dim>1</dim>
				</port>
			</input>
			<output>
				<port id="2" precision="FP16">
					<dim>64</dim>
					<dim>64</dim>
					<dim>1</dim>
					<dim>1</dim>
				</port>
			</output>
		</layer>
		<layer id="290" name="383/fq_weights_1/scale69439911" type="Const" version="opset1">
			<data element_type="f16" offset="14192" shape="64,1,1,1" size="128"/>
			<output>
				<port id="0" precision="FP16">
					<dim>64</dim>
					<dim>1</dim>
					<dim>1</dim>
					<dim>1</dim>
				</port>
			</output>
		</layer>
		<layer id="291" name="383/fq_weights_1/mulpiply_by_scale" type="Multiply" version="opset1">
			<data auto_broadcast="numpy"/>
			<input>
				<port id="0">
					<dim>64</dim>
					<dim>64</dim>
					<dim>1</dim>
					<dim>1</dim>
				</port>
				<port id="1">
					<dim>64</dim>
					<dim>1</dim>
					<dim>1</dim>
					<dim>1</dim>
				</port>
			</input>
			<output>
				<port id="2" precision="FP16">
					<dim>64</dim>
					<dim>64</dim>
					<dim>1</dim>
					<dim>1</dim>
				</port>
			</output>
		</layer>
		<layer id="292" name="383" type="Convolution" version="opset1">
			<data auto_pad="explicit" dilations="1,1" pads_begin="0,0" pads_end="0,0" strides="1,1"/>
			<input>
				<port id="0">
					<dim>1</dim>
					<dim>64</dim>
					<dim>40</dim>
					<dim>20</dim>
				</port>
				<port id="1">
					<dim>64</dim>
					<dim>64</dim>
					<dim>1</dim>
					<dim>1</dim>
				</port>
			</input>
			<output>
				<port id="2" precision="FP16">
					<dim>1</dim>
					<dim>64</dim>
					<dim>40</dim>
					<dim>20</dim>
				</port>
			</output>
		</layer>
		<layer id="293" name="data_add_9714971941211012" type="Const" version="opset1">
			<data element_type="f16" offset="14320" shape="1,64,1,1" size="128"/>
			<output>
				<port id="0" precision="FP16">
					<dim>1</dim>
					<dim>64</dim>
					<dim>1</dim>
					<dim>1</dim>
				</port>
			</output>
		</layer>
		<layer id="294" name="384/variance/Fused_Add_" type="Add" version="opset1">
			<data auto_broadcast="numpy"/>
			<input>
				<port id="0">
					<dim>1</dim>
					<dim>64</dim>
					<dim>40</dim>
					<dim>20</dim>
				</port>
				<port id="1">
					<dim>1</dim>
					<dim>64</dim>
					<dim>1</dim>
					<dim>1</dim>
				</port>
			</input>
			<output>
				<port id="2" names="384" precision="FP16">
					<dim>1</dim>
					<dim>64</dim>
					<dim>40</dim>
					<dim>20</dim>
				</port>
			</output>
		</layer>
		<layer id="295" name="385" type="ReLU" version="opset1">
			<input>
				<port id="0">
					<dim>1</dim>
					<dim>64</dim>
					<dim>40</dim>
					<dim>20</dim>
				</port>
			</input>
			<output>
				<port id="1" names="385" precision="FP16">
					<dim>1</dim>
					<dim>64</dim>
					<dim>40</dim>
					<dim>20</dim>
				</port>
			</output>
		</layer>
		<layer id="296" name="386/fq_input_0" type="FakeQuantize" version="opset1">
			<data auto_broadcast="numpy" levels="256"/>
			<input>
				<port id="0">
					<dim>1</dim>
					<dim>64</dim>
					<dim>40</dim>
					<dim>20</dim>
				</port>
				<port id="1"/>
				<port id="2"/>
				<port id="3"/>
				<port id="4"/>
			</input>
			<output>
				<port id="5" precision="FP16">
					<dim>1</dim>
					<dim>64</dim>
					<dim>40</dim>
					<dim>20</dim>
				</port>
			</output>
		</layer>
		<layer id="297" name="387/mean/Fused_Mul__copy4155078/quantized638310436" type="Const" version="opset1">
			<data element_type="i8" offset="14448" shape="64,64,3,3" size="36864"/>
			<output>
				<port id="0" precision="I8">
					<dim>64</dim>
					<dim>64</dim>
					<dim>3</dim>
					<dim>3</dim>
				</port>
			</output>
		</layer>
		<layer id="298" name="387/mean/Fused_Mul__copy4155078/quantized/to_f16" type="Convert" version="opset1">
			<data destination_type="f16"/>
			<input>
				<port id="0">
					<dim>64</dim>
					<dim>64</dim>
					<dim>3</dim>
					<dim>3</dim>
				</port>
			</input>
			<output>
				<port id="1" precision="FP16">
					<dim>64</dim>
					<dim>64</dim>
					<dim>3</dim>
					<dim>3</dim>
				</port>
			</output>
		</layer>
		<layer id="299" name="386/fq_weights_1/zero_point639611132" type="Const" version="opset1">
			<data element_type="f16" offset="51312" shape="64,1,1,1" size="128"/>
			<output>
				<port id="0" precision="FP16">
					<dim>64</dim>
					<dim>1</dim>
					<dim>1</dim>
					<dim>1</dim>
				</port>
			</output>
		</layer>
		<layer id="300" name="386/fq_weights_1/minus_zp" type="Subtract" version="opset1">
			<data auto_broadcast="numpy"/>
			<input>
				<port id="0">
					<dim>64</dim>
					<dim>64</dim>
					<dim>3</dim>
					<dim>3</dim>
				</port>
				<port id="1">
					<dim>64</dim>
					<dim>1</dim>
					<dim>1</dim>
					<dim>1</dim>
				</port>
			</input>
			<output>
				<port id="2" precision="FP16">
					<dim>64</dim>
					<dim>64</dim>
					<dim>3</dim>
					<dim>3</dim>
				</port>
			</output>
		</layer>
		<layer id="301" name="386/fq_weights_1/scale639111126" type="Const" version="opset1">
			<data element_type="f16" offset="51440" shape="64,1,1,1" size="128"/>
			<output>
				<port id="0" precision="FP16">
					<dim>64</dim>
					<dim>1</dim>
					<dim>1</dim>
					<dim>1</dim>
				</port>
			</output>
		</layer>
		<layer id="302" name="386/fq_weights_1/mulpiply_by_scale" type="Multiply" version="opset1">
			<data auto_broadcast="numpy"/>
			<input>
				<port id="0">
					<dim>64</dim>
					<dim>64</dim>
					<dim>3</dim>
					<dim>3</dim>
				</port>
				<port id="1">
					<dim>64</dim>
					<dim>1</dim>
					<dim>1</dim>
					<dim>1</dim>
				</port>
			</input>
			<output>
				<port id="2" precision="FP16">
					<dim>64</dim>
					<dim>64</dim>
					<dim>3</dim>
					<dim>3</dim>
				</port>
			</output>
		</layer>
		<layer id="303" name="386" type="Convolution" version="opset1">
			<data auto_pad="explicit" dilations="1,1" pads_begin="1,1" pads_end="1,1" strides="1,1"/>
			<input>
				<port id="0">
					<dim>1</dim>
					<dim>64</dim>
					<dim>40</dim>
					<dim>20</dim>
				</port>
				<port id="1">
					<dim>64</dim>
					<dim>64</dim>
					<dim>3</dim>
					<dim>3</dim>
				</port>
			</input>
			<output>
				<port id="2" precision="FP16">
					<dim>1</dim>
					<dim>64</dim>
					<dim>40</dim>
					<dim>20</dim>
				</port>
			</output>
		</layer>
		<layer id="304" name="data_add_9722972741710148" type="Const" version="opset1">
			<data element_type="f16" offset="51568" shape="1,64,1,1" size="128"/>
			<output>
				<port id="0" precision="FP16">
					<dim>1</dim>
					<dim>64</dim>
					<dim>1</dim>
					<dim>1</dim>
				</port>
			</output>
		</layer>
		<layer id="305" name="387/variance/Fused_Add_" type="Add" version="opset1">
			<data auto_broadcast="numpy"/>
			<input>
				<port id="0">
					<dim>1</dim>
					<dim>64</dim>
					<dim>40</dim>
					<dim>20</dim>
				</port>
				<port id="1">
					<dim>1</dim>
					<dim>64</dim>
					<dim>1</dim>
					<dim>1</dim>
				</port>
			</input>
			<output>
				<port id="2" names="387" precision="FP16">
					<dim>1</dim>
					<dim>64</dim>
					<dim>40</dim>
					<dim>20</dim>
				</port>
			</output>
		</layer>
		<layer id="306" name="388" type="ReLU" version="opset1">
			<input>
				<port id="0">
					<dim>1</dim>
					<dim>64</dim>
					<dim>40</dim>
					<dim>20</dim>
				</port>
			</input>
			<output>
				<port id="1" names="388" precision="FP16">
					<dim>1</dim>
					<dim>64</dim>
					<dim>40</dim>
					<dim>20</dim>
				</port>
			</output>
		</layer>
		<layer id="307" name="389/fq_input_0" type="FakeQuantize" version="opset1">
			<data auto_broadcast="numpy" levels="256"/>
			<input>
				<port id="0">
					<dim>1</dim>
					<dim>64</dim>
					<dim>40</dim>
					<dim>20</dim>
				</port>
				<port id="1"/>
				<port id="2"/>
				<port id="3"/>
				<port id="4"/>
			</input>
			<output>
				<port id="5" precision="FP16">
					<dim>1</dim>
					<dim>64</dim>
					<dim>40</dim>
					<dim>20</dim>
				</port>
			</output>
		</layer>
		<layer id="308" name="390/mean/Fused_Mul__copy4205080/quantized700710427" type="Const" version="opset1">
			<data element_type="i8" offset="51696" shape="256,64,1,1" size="16384"/>
			<output>
				<port id="0" precision="I8">
					<dim>256</dim>
					<dim>64</dim>
					<dim>1</dim>
					<dim>1</dim>
				</port>
			</output>
		</layer>
		<layer id="309" name="390/mean/Fused_Mul__copy4205080/quantized/to_f16" type="Convert" version="opset1">
			<data destination_type="f16"/>
			<input>
				<port id="0">
					<dim>256</dim>
					<dim>64</dim>
					<dim>1</dim>
					<dim>1</dim>
				</port>
			</input>
			<output>
				<port id="1" precision="FP16">
					<dim>256</dim>
					<dim>64</dim>
					<dim>1</dim>
					<dim>1</dim>
				</port>
			</output>
		</layer>
		<layer id="310" name="389/fq_weights_1/zero_point702011018" type="Const" version="opset1">
			<data element_type="f16" offset="68080" shape="256,1,1,1" size="512"/>
			<output>
				<port id="0" precision="FP16">
					<dim>256</dim>
					<dim>1</dim>
					<dim>1</dim>
					<dim>1</dim>
				</port>
			</output>
		</layer>
		<layer id="311" name="389/fq_weights_1/minus_zp" type="Subtract" version="opset1">
			<data auto_broadcast="numpy"/>
			<input>
				<port id="0">
					<dim>256</dim>
					<dim>64</dim>
					<dim>1</dim>
					<dim>1</dim>
				</port>
				<port id="1">
					<dim>256</dim>
					<dim>1</dim>
					<dim>1</dim>
					<dim>1</dim>
				</port>
			</input>
			<output>
				<port id="2" precision="FP16">
					<dim>256</dim>
					<dim>64</dim>
					<dim>1</dim>
					<dim>1</dim>
				</port>
			</output>
		</layer>
		<layer id="312" name="389/fq_weights_1/scale701511057" type="Const" version="opset1">
			<data element_type="f16" offset="68592" shape="256,1,1,1" size="512"/>
			<output>
				<port id="0" precision="FP16">
					<dim>256</dim>
					<dim>1</dim>
					<dim>1</dim>
					<dim>1</dim>
				</port>
			</output>
		</layer>
		<layer id="313" name="389/fq_weights_1/mulpiply_by_scale" type="Multiply" version="opset1">
			<data auto_broadcast="numpy"/>
			<input>
				<port id="0">
					<dim>256</dim>
					<dim>64</dim>
					<dim>1</dim>
					<dim>1</dim>
				</port>
				<port id="1">
					<dim>256</dim>
					<dim>1</dim>
					<dim>1</dim>
					<dim>1</dim>
				</port>
			</input>
			<output>
				<port id="2" precision="FP16">
					<dim>256</dim>
					<dim>64</dim>
					<dim>1</dim>
					<dim>1</dim>
				</port>
			</output>
		</layer>
		<layer id="314" name="389" type="Convolution" version="opset1">
			<data auto_pad="explicit" dilations="1,1" pads_begin="0,0" pads_end="0,0" strides="1,1"/>
			<input>
				<port id="0">
					<dim>1</dim>
					<dim>64</dim>
					<dim>40</dim>
					<dim>20</dim>
				</port>
				<port id="1">
					<dim>256</dim>
					<dim>64</dim>
					<dim>1</dim>
					<dim>1</dim>
				</port>
			</input>
			<output>
				<port id="2" precision="FP16">
					<dim>1</dim>
					<dim>256</dim>
					<dim>40</dim>
					<dim>20</dim>
				</port>
			</output>
		</layer>
		<layer id="315" name="data_add_9730973542210412" type="Const" version="opset1">
			<data element_type="f16" offset="69104" shape="1,256,1,1" size="512"/>
			<output>
				<port id="0" precision="FP16">
					<dim>1</dim>
					<dim>256</dim>
					<dim>1</dim>
					<dim>1</dim>
				</port>
			</output>
		</layer>
		<layer id="316" name="390/variance/Fused_Add_" type="Add" version="opset1">
			<data auto_broadcast="numpy"/>
			<input>
				<port id="0">
					<dim>1</dim>
					<dim>256</dim>
					<dim>40</dim>
					<dim>20</dim>
				</port>
				<port id="1">
					<dim>1</dim>
					<dim>256</dim>
					<dim>1</dim>
					<dim>1</dim>
				</port>
			</input>
			<output>
				<port id="2" names="390" precision="FP16">
					<dim>1</dim>
					<dim>256</dim>
					<dim>40</dim>
					<dim>20</dim>
				</port>
			</output>
		</layer>
		<layer id="317" name="393/fq_input_0" type="FakeQuantize" version="opset1">
			<data auto_broadcast="numpy" levels="256"/>
			<input>
				<port id="0">
					<dim>1</dim>
					<dim>256</dim>
					<dim>40</dim>
					<dim>20</dim>
				</port>
				<port id="1"/>
				<port id="2"/>
				<port id="3"/>
				<port id="4"/>
			</input>
			<output>
				<port id="5" precision="FP16">
					<dim>1</dim>
					<dim>256</dim>
					<dim>40</dim>
					<dim>20</dim>
				</port>
			</output>
		</layer>
		<layer id="318" name="1335133910304" type="Const" version="opset1">
			<data element_type="f16" offset="69616" shape="" size="2"/>
			<output>
				<port id="0" precision="FP16"/>
			</output>
		</layer>
		<layer id="319" name="133613409950" type="Const" version="opset1">
			<data element_type="f16" offset="69618" shape="" size="2"/>
			<output>
				<port id="0" precision="FP16"/>
			</output>
		</layer>
		<layer id="320" name="1337134111078" type="Const" version="opset1">
			<data element_type="f16" offset="69616" shape="" size="2"/>
			<output>
				<port id="0" precision="FP16"/>
			</output>
		</layer>
		<layer id="321" name="1338134210883" type="Const" version="opset1">
			<data element_type="f16" offset="69618" shape="" size="2"/>
			<output>
				<port id="0" precision="FP16"/>
			</output>
		</layer>
		<layer id="322" name="392/mean/Fused_Mul__copy4245082/quantized628710460" type="Const" version="opset1">
			<data element_type="i8" offset="69620" shape="256,64,1,1" size="16384"/>
			<output>
				<port id="0" precision="I8">
					<dim>256</dim>
					<dim>64</dim>
					<dim>1</dim>
					<dim>1</dim>
				</port>
			</output>
		</layer>
		<layer id="323" name="392/mean/Fused_Mul__copy4245082/quantized/to_f16" type="Convert" version="opset1">
			<data destination_type="f16"/>
			<input>
				<port id="0">
					<dim>256</dim>
					<dim>64</dim>
					<dim>1</dim>
					<dim>1</dim>
				</port>
			</input>
			<output>
				<port id="1" precision="FP16">
					<dim>256</dim>
					<dim>64</dim>
					<dim>1</dim>
					<dim>1</dim>
				</port>
			</output>
		</layer>
		<layer id="324" name="391/fq_weights_1/zero_point63009623" type="Const" version="opset1">
			<data element_type="f16" offset="86004" shape="256,1,1,1" size="512"/>
			<output>
				<port id="0" precision="FP16">
					<dim>256</dim>
					<dim>1</dim>
					<dim>1</dim>
					<dim>1</dim>
				</port>
			</output>
		</layer>
		<layer id="325" name="391/fq_weights_1/minus_zp" type="Subtract" version="opset1">
			<data auto_broadcast="numpy"/>
			<input>
				<port id="0">
					<dim>256</dim>
					<dim>64</dim>
					<dim>1</dim>
					<dim>1</dim>
				</port>
				<port id="1">
					<dim>256</dim>
					<dim>1</dim>
					<dim>1</dim>
					<dim>1</dim>
				</port>
			</input>
			<output>
				<port id="2" precision="FP16">
					<dim>256</dim>
					<dim>64</dim>
					<dim>1</dim>
					<dim>1</dim>
				</port>
			</output>
		</layer>
		<layer id="326" name="391/fq_weights_1/scale629510760" type="Const" version="opset1">
			<data element_type="f16" offset="86516" shape="256,1,1,1" size="512"/>
			<output>
				<port id="0" precision="FP16">
					<dim>256</dim>
					<dim>1</dim>
					<dim>1</dim>
					<dim>1</dim>
				</port>
			</output>
		</layer>
		<layer id="327" name="391/fq_weights_1/mulpiply_by_scale" type="Multiply" version="opset1">
			<data auto_broadcast="numpy"/>
			<input>
				<port id="0">
					<dim>256</dim>
					<dim>64</dim>
					<dim>1</dim>
					<dim>1</dim>
				</port>
				<port id="1">
					<dim>256</dim>
					<dim>1</dim>
					<dim>1</dim>
					<dim>1</dim>
				</port>
			</input>
			<output>
				<port id="2" precision="FP16">
					<dim>256</dim>
					<dim>64</dim>
					<dim>1</dim>
					<dim>1</dim>
				</port>
			</output>
		</layer>
		<layer id="328" name="391" type="Convolution" version="opset1">
			<data auto_pad="explicit" dilations="1,1" pads_begin="0,0" pads_end="0,0" strides="1,1"/>
			<input>
				<port id="0">
					<dim>1</dim>
					<dim>64</dim>
					<dim>40</dim>
					<dim>20</dim>
				</port>
				<port id="1">
					<dim>256</dim>
					<dim>64</dim>
					<dim>1</dim>
					<dim>1</dim>
				</port>
			</input>
			<output>
				<port id="2" precision="FP16">
					<dim>1</dim>
					<dim>256</dim>
					<dim>40</dim>
					<dim>20</dim>
				</port>
			</output>
		</layer>
		<layer id="329" name="data_add_9706971142610808" type="Const" version="opset1">
			<data element_type="f16" offset="87028" shape="1,256,1,1" size="512"/>
			<output>
				<port id="0" precision="FP16">
					<dim>1</dim>
					<dim>256</dim>
					<dim>1</dim>
					<dim>1</dim>
				</port>
			</output>
		</layer>
		<layer id="330" name="392/variance/Fused_Add_" type="Add" version="opset1">
			<data auto_broadcast="numpy"/>
			<input>
				<port id="0">
					<dim>1</dim>
					<dim>256</dim>
					<dim>40</dim>
					<dim>20</dim>
				</port>
				<port id="1">
					<dim>1</dim>
					<dim>256</dim>
					<dim>1</dim>
					<dim>1</dim>
				</port>
			</input>
			<output>
				<port id="2" names="392" precision="FP16">
					<dim>1</dim>
					<dim>256</dim>
					<dim>40</dim>
					<dim>20</dim>
				</port>
			</output>
		</layer>
		<layer id="331" name="393/fq_input_1" type="FakeQuantize" version="opset1">
			<data auto_broadcast="numpy" levels="256"/>
			<input>
				<port id="0">
					<dim>1</dim>
					<dim>256</dim>
					<dim>40</dim>
					<dim>20</dim>
				</port>
				<port id="1"/>
				<port id="2"/>
				<port id="3"/>
				<port id="4"/>
			</input>
			<output>
				<port id="5" precision="FP16">
					<dim>1</dim>
					<dim>256</dim>
					<dim>40</dim>
					<dim>20</dim>
				</port>
			</output>
		</layer>
		<layer id="332" name="393" type="Add" version="opset1">
			<data auto_broadcast="numpy"/>
			<input>
				<port id="0">
					<dim>1</dim>
					<dim>256</dim>
					<dim>40</dim>
					<dim>20</dim>
				</port>
				<port id="1">
					<dim>1</dim>
					<dim>256</dim>
					<dim>40</dim>
					<dim>20</dim>
				</port>
			</input>
			<output>
				<port id="2" names="393" precision="FP16">
					<dim>1</dim>
					<dim>256</dim>
					<dim>40</dim>
					<dim>20</dim>
				</port>
			</output>
		</layer>
		<layer id="333" name="394" type="ReLU" version="opset1">
			<input>
				<port id="0">
					<dim>1</dim>
					<dim>256</dim>
					<dim>40</dim>
					<dim>20</dim>
				</port>
			</input>
			<output>
				<port id="1" names="394" precision="FP16">
					<dim>1</dim>
					<dim>256</dim>
					<dim>40</dim>
					<dim>20</dim>
				</port>
			</output>
		</layer>
		<layer id="334" name="395/fq_input_0" type="FakeQuantize" version="opset1">
			<data auto_broadcast="numpy" levels="256"/>
			<input>
				<port id="0">
					<dim>1</dim>
					<dim>256</dim>
					<dim>40</dim>
					<dim>20</dim>
				</port>
				<port id="1"/>
				<port id="2"/>
				<port id="3"/>
				<port id="4"/>
			</input>
			<output>
				<port id="5" precision="FP16">
					<dim>1</dim>
					<dim>256</dim>
					<dim>40</dim>
					<dim>20</dim>
				</port>
			</output>
		</layer>
		<layer id="335" name="396/mean/Fused_Mul__copy4305084/quantized595110139" type="Const" version="opset1">
			<data element_type="i8" offset="87540" shape="64,256,1,1" size="16384"/>
			<output>
				<port id="0" precision="I8">
					<dim>64</dim>
					<dim>256</dim>
					<dim>1</dim>
					<dim>1</dim>
				</port>
			</output>
		</layer>
		<layer id="336" name="396/mean/Fused_Mul__copy4305084/quantized/to_f16" type="Convert" version="opset1">
			<data destination_type="f16"/>
			<input>
				<port id="0">
					<dim>64</dim>
					<dim>256</dim>
					<dim>1</dim>
					<dim>1</dim>
				</port>
			</input>
			<output>
				<port id="1" precision="FP16">
					<dim>64</dim>
					<dim>256</dim>
					<dim>1</dim>
					<dim>1</dim>
				</port>
			</output>
		</layer>
		<layer id="337" name="395/fq_weights_1/zero_point59649743" type="Const" version="opset1">
			<data element_type="f16" offset="103924" shape="64,1,1,1" size="128"/>
			<output>
				<port id="0" precision="FP16">
					<dim>64</dim>
					<dim>1</dim>
					<dim>1</dim>
					<dim>1</dim>
				</port>
			</output>
		</layer>
		<layer id="338" name="395/fq_weights_1/minus_zp" type="Subtract" version="opset1">
			<data auto_broadcast="numpy"/>
			<input>
				<port id="0">
					<dim>64</dim>
					<dim>256</dim>
					<dim>1</dim>
					<dim>1</dim>
				</port>
				<port id="1">
					<dim>64</dim>
					<dim>1</dim>
					<dim>1</dim>
					<dim>1</dim>
				</port>
			</input>
			<output>
				<port id="2" precision="FP16">
					<dim>64</dim>
					<dim>256</dim>
					<dim>1</dim>
					<dim>1</dim>
				</port>
			</output>
		</layer>
		<layer id="339" name="395/fq_weights_1/scale595911123" type="Const" version="opset1">
			<data element_type="f16" offset="104052" shape="64,1,1,1" size="128"/>
			<output>
				<port id="0" precision="FP16">
					<dim>64</dim>
					<dim>1</dim>
					<dim>1</dim>
					<dim>1</dim>
				</port>
			</output>
		</layer>
		<layer id="340" name="395/fq_weights_1/mulpiply_by_scale" type="Multiply" version="opset1">
			<data auto_broadcast="numpy"/>
			<input>
				<port id="0">
					<dim>64</dim>
					<dim>256</dim>
					<dim>1</dim>
					<dim>1</dim>
				</port>
				<port id="1">
					<dim>64</dim>
					<dim>1</dim>
					<dim>1</dim>
					<dim>1</dim>
				</port>
			</input>
			<output>
				<port id="2" precision="FP16">
					<dim>64</dim>
					<dim>256</dim>
					<dim>1</dim>
					<dim>1</dim>
				</port>
			</output>
		</layer>
		<layer id="341" name="395" type="Convolution" version="opset1">
			<data auto_pad="explicit" dilations="1,1" pads_begin="0,0" pads_end="0,0" strides="1,1"/>
			<input>
				<port id="0">
					<dim>1</dim>
					<dim>256</dim>
					<dim>40</dim>
					<dim>20</dim>
				</port>
				<port id="1">
					<dim>64</dim>
					<dim>256</dim>
					<dim>1</dim>
					<dim>1</dim>
				</port>
			</input>
			<output>
				<port id="2" precision="FP16">
					<dim>1</dim>
					<dim>64</dim>
					<dim>40</dim>
					<dim>20</dim>
				</port>
			</output>
		</layer>
		<layer id="342" name="data_add_973897434329566" type="Const" version="opset1">
			<data element_type="f16" offset="104180" shape="1,64,1,1" size="128"/>
			<output>
				<port id="0" precision="FP16">
					<dim>1</dim>
					<dim>64</dim>
					<dim>1</dim>
					<dim>1</dim>
				</port>
			</output>
		</layer>
		<layer id="343" name="396/variance/Fused_Add_" type="Add" version="opset1">
			<data auto_broadcast="numpy"/>
			<input>
				<port id="0">
					<dim>1</dim>
					<dim>64</dim>
					<dim>40</dim>
					<dim>20</dim>
				</port>
				<port id="1">
					<dim>1</dim>
					<dim>64</dim>
					<dim>1</dim>
					<dim>1</dim>
				</port>
			</input>
			<output>
				<port id="2" names="396" precision="FP16">
					<dim>1</dim>
					<dim>64</dim>
					<dim>40</dim>
					<dim>20</dim>
				</port>
			</output>
		</layer>
		<layer id="344" name="397" type="ReLU" version="opset1">
			<input>
				<port id="0">
					<dim>1</dim>
					<dim>64</dim>
					<dim>40</dim>
					<dim>20</dim>
				</port>
			</input>
			<output>
				<port id="1" names="397" precision="FP16">
					<dim>1</dim>
					<dim>64</dim>
					<dim>40</dim>
					<dim>20</dim>
				</port>
			</output>
		</layer>
		<layer id="345" name="398/fq_input_0" type="FakeQuantize" version="opset1">
			<data auto_broadcast="numpy" levels="256"/>
			<input>
				<port id="0">
					<dim>1</dim>
					<dim>64</dim>
					<dim>40</dim>
					<dim>20</dim>
				</port>
				<port id="1"/>
				<port id="2"/>
				<port id="3"/>
				<port id="4"/>
			</input>
			<output>
				<port id="5" precision="FP16">
					<dim>1</dim>
					<dim>64</dim>
					<dim>40</dim>
					<dim>20</dim>
				</port>
			</output>
		</layer>
		<layer id="346" name="399/mean/Fused_Mul__copy4355086/quantized674310691" type="Const" version="opset1">
			<data element_type="i8" offset="104308" shape="64,64,3,3" size="36864"/>
			<output>
				<port id="0" precision="I8">
					<dim>64</dim>
					<dim>64</dim>
					<dim>3</dim>
					<dim>3</dim>
				</port>
			</output>
		</layer>
		<layer id="347" name="399/mean/Fused_Mul__copy4355086/quantized/to_f16" type="Convert" version="opset1">
			<data destination_type="f16"/>
			<input>
				<port id="0">
					<dim>64</dim>
					<dim>64</dim>
					<dim>3</dim>
					<dim>3</dim>
				</port>
			</input>
			<output>
				<port id="1" precision="FP16">
					<dim>64</dim>
					<dim>64</dim>
					<dim>3</dim>
					<dim>3</dim>
				</port>
			</output>
		</layer>
		<layer id="348" name="398/fq_weights_1/zero_point675610730" type="Const" version="opset1">
			<data element_type="f16" offset="141172" shape="64,1,1,1" size="128"/>
			<output>
				<port id="0" precision="FP16">
					<dim>64</dim>
					<dim>1</dim>
					<dim>1</dim>
					<dim>1</dim>
				</port>
			</output>
		</layer>
		<layer id="349" name="398/fq_weights_1/minus_zp" type="Subtract" version="opset1">
			<data auto_broadcast="numpy"/>
			<input>
				<port id="0">
					<dim>64</dim>
					<dim>64</dim>
					<dim>3</dim>
					<dim>3</dim>
				</port>
				<port id="1">
					<dim>64</dim>
					<dim>1</dim>
					<dim>1</dim>
					<dim>1</dim>
				</port>
			</input>
			<output>
				<port id="2" precision="FP16">
					<dim>64</dim>
					<dim>64</dim>
					<dim>3</dim>
					<dim>3</dim>
				</port>
			</output>
		</layer>
		<layer id="350" name="398/fq_weights_1/scale675110733" type="Const" version="opset1">
			<data element_type="f16" offset="141300" shape="64,1,1,1" size="128"/>
			<output>
				<port id="0" precision="FP16">
					<dim>64</dim>
					<dim>1</dim>
					<dim>1</dim>
					<dim>1</dim>
				</port>
			</output>
		</layer>
		<layer id="351" name="398/fq_weights_1/mulpiply_by_scale" type="Multiply" version="opset1">
			<data auto_broadcast="numpy"/>
			<input>
				<port id="0">
					<dim>64</dim>
					<dim>64</dim>
					<dim>3</dim>
					<dim>3</dim>
				</port>
				<port id="1">
					<dim>64</dim>
					<dim>1</dim>
					<dim>1</dim>
					<dim>1</dim>
				</port>
			</input>
			<output>
				<port id="2" precision="FP16">
					<dim>64</dim>
					<dim>64</dim>
					<dim>3</dim>
					<dim>3</dim>
				</port>
			</output>
		</layer>
		<layer id="352" name="398" type="Convolution" version="opset1">
			<data auto_pad="explicit" dilations="1,1" pads_begin="1,1" pads_end="1,1" strides="1,1"/>
			<input>
				<port id="0">
					<dim>1</dim>
					<dim>64</dim>
					<dim>40</dim>
					<dim>20</dim>
				</port>
				<port id="1">
					<dim>64</dim>
					<dim>64</dim>
					<dim>3</dim>
					<dim>3</dim>
				</port>
			</input>
			<output>
				<port id="2" precision="FP16">
					<dim>1</dim>
					<dim>64</dim>
					<dim>40</dim>
					<dim>20</dim>
				</port>
			</output>
		</layer>
		<layer id="353" name="data_add_9746975143710307" type="Const" version="opset1">
			<data element_type="f16" offset="141428" shape="1,64,1,1" size="128"/>
			<output>
				<port id="0" precision="FP16">
					<dim>1</dim>
					<dim>64</dim>
					<dim>1</dim>
					<dim>1</dim>
				</port>
			</output>
		</layer>
		<layer id="354" name="399/variance/Fused_Add_" type="Add" version="opset1">
			<data auto_broadcast="numpy"/>
			<input>
				<port id="0">
					<dim>1</dim>
					<dim>64</dim>
					<dim>40</dim>
					<dim>20</dim>
				</port>
				<port id="1">
					<dim>1</dim>
					<dim>64</dim>
					<dim>1</dim>
					<dim>1</dim>
				</port>
			</input>
			<output>
				<port id="2" names="399" precision="FP16">
					<dim>1</dim>
					<dim>64</dim>
					<dim>40</dim>
					<dim>20</dim>
				</port>
			</output>
		</layer>
		<layer id="355" name="400" type="ReLU" version="opset1">
			<input>
				<port id="0">
					<dim>1</dim>
					<dim>64</dim>
					<dim>40</dim>
					<dim>20</dim>
				</port>
			</input>
			<output>
				<port id="1" names="400" precision="FP16">
					<dim>1</dim>
					<dim>64</dim>
					<dim>40</dim>
					<dim>20</dim>
				</port>
			</output>
		</layer>
		<layer id="356" name="401/fq_input_0" type="FakeQuantize" version="opset1">
			<data auto_broadcast="numpy" levels="256"/>
			<input>
				<port id="0">
					<dim>1</dim>
					<dim>64</dim>
					<dim>40</dim>
					<dim>20</dim>
				</port>
				<port id="1"/>
				<port id="2"/>
				<port id="3"/>
				<port id="4"/>
			</input>
			<output>
				<port id="5" precision="FP16">
					<dim>1</dim>
					<dim>64</dim>
					<dim>40</dim>
					<dim>20</dim>
				</port>
			</output>
		</layer>
		<layer id="357" name="402/mean/Fused_Mul__copy4405088/quantized71519713" type="Const" version="opset1">
			<data element_type="i8" offset="141556" shape="256,64,1,1" size="16384"/>
			<output>
				<port id="0" precision="I8">
					<dim>256</dim>
					<dim>64</dim>
					<dim>1</dim>
					<dim>1</dim>
				</port>
			</output>
		</layer>
		<layer id="358" name="402/mean/Fused_Mul__copy4405088/quantized/to_f16" type="Convert" version="opset1">
			<data destination_type="f16"/>
			<input>
				<port id="0">
					<dim>256</dim>
					<dim>64</dim>
					<dim>1</dim>
					<dim>1</dim>
				</port>
			</input>
			<output>
				<port id="1" precision="FP16">
					<dim>256</dim>
					<dim>64</dim>
					<dim>1</dim>
					<dim>1</dim>
				</port>
			</output>
		</layer>
		<layer id="359" name="401/fq_weights_1/zero_point716410157" type="Const" version="opset1">
			<data element_type="f16" offset="157940" shape="256,1,1,1" size="512"/>
			<output>
				<port id="0" precision="FP16">
					<dim>256</dim>
					<dim>1</dim>
					<dim>1</dim>
					<dim>1</dim>
				</port>
			</output>
		</layer>
		<layer id="360" name="401/fq_weights_1/minus_zp" type="Subtract" version="opset1">
			<data auto_broadcast="numpy"/>
			<input>
				<port id="0">
					<dim>256</dim>
					<dim>64</dim>
					<dim>1</dim>
					<dim>1</dim>
				</port>
				<port id="1">
					<dim>256</dim>
					<dim>1</dim>
					<dim>1</dim>
					<dim>1</dim>
				</port>
			</input>
			<output>
				<port id="2" precision="FP16">
					<dim>256</dim>
					<dim>64</dim>
					<dim>1</dim>
					<dim>1</dim>
				</port>
			</output>
		</layer>
		<layer id="361" name="401/fq_weights_1/scale715910313" type="Const" version="opset1">
			<data element_type="f16" offset="158452" shape="256,1,1,1" size="512"/>
			<output>
				<port id="0" precision="FP16">
					<dim>256</dim>
					<dim>1</dim>
					<dim>1</dim>
					<dim>1</dim>
				</port>
			</output>
		</layer>
		<layer id="362" name="401/fq_weights_1/mulpiply_by_scale" type="Multiply" version="opset1">
			<data auto_broadcast="numpy"/>
			<input>
				<port id="0">
					<dim>256</dim>
					<dim>64</dim>
					<dim>1</dim>
					<dim>1</dim>
				</port>
				<port id="1">
					<dim>256</dim>
					<dim>1</dim>
					<dim>1</dim>
					<dim>1</dim>
				</port>
			</input>
			<output>
				<port id="2" precision="FP16">
					<dim>256</dim>
					<dim>64</dim>
					<dim>1</dim>
					<dim>1</dim>
				</port>
			</output>
		</layer>
		<layer id="363" name="401" type="Convolution" version="opset1">
			<data auto_pad="explicit" dilations="1,1" pads_begin="0,0" pads_end="0,0" strides="1,1"/>
			<input>
				<port id="0">
					<dim>1</dim>
					<dim>64</dim>
					<dim>40</dim>
					<dim>20</dim>
				</port>
				<port id="1">
					<dim>256</dim>
					<dim>64</dim>
					<dim>1</dim>
					<dim>1</dim>
				</port>
			</input>
			<output>
				<port id="2" precision="FP16">
					<dim>1</dim>
					<dim>256</dim>
					<dim>40</dim>
					<dim>20</dim>
				</port>
			</output>
		</layer>
		<layer id="364" name="data_add_9754975944210127" type="Const" version="opset1">
			<data element_type="f16" offset="158964" shape="1,256,1,1" size="512"/>
			<output>
				<port id="0" precision="FP16">
					<dim>1</dim>
					<dim>256</dim>
					<dim>1</dim>
					<dim>1</dim>
				</port>
			</output>
		</layer>
		<layer id="365" name="402/variance/Fused_Add_" type="Add" version="opset1">
			<data auto_broadcast="numpy"/>
			<input>
				<port id="0">
					<dim>1</dim>
					<dim>256</dim>
					<dim>40</dim>
					<dim>20</dim>
				</port>
				<port id="1">
					<dim>1</dim>
					<dim>256</dim>
					<dim>1</dim>
					<dim>1</dim>
				</port>
			</input>
			<output>
				<port id="2" names="402" precision="FP16">
					<dim>1</dim>
					<dim>256</dim>
					<dim>40</dim>
					<dim>20</dim>
				</port>
			</output>
		</layer>
		<layer id="366" name="403/fq_input_0" type="FakeQuantize" version="opset1">
			<data auto_broadcast="numpy" levels="256"/>
			<input>
				<port id="0">
					<dim>1</dim>
					<dim>256</dim>
					<dim>40</dim>
					<dim>20</dim>
				</port>
				<port id="1"/>
				<port id="2"/>
				<port id="3"/>
				<port id="4"/>
			</input>
			<output>
				<port id="5" precision="FP16">
					<dim>1</dim>
					<dim>256</dim>
					<dim>40</dim>
					<dim>20</dim>
				</port>
			</output>
		</layer>
		<layer id="367" name="403" type="Add" version="opset1">
			<data auto_broadcast="numpy"/>
			<input>
				<port id="0">
					<dim>1</dim>
					<dim>256</dim>
					<dim>40</dim>
					<dim>20</dim>
				</port>
				<port id="1">
					<dim>1</dim>
					<dim>256</dim>
					<dim>40</dim>
					<dim>20</dim>
				</port>
			</input>
			<output>
				<port id="2" names="403" precision="FP16">
					<dim>1</dim>
					<dim>256</dim>
					<dim>40</dim>
					<dim>20</dim>
				</port>
			</output>
		</layer>
		<layer id="368" name="404" type="ReLU" version="opset1">
			<input>
				<port id="0">
					<dim>1</dim>
					<dim>256</dim>
					<dim>40</dim>
					<dim>20</dim>
				</port>
			</input>
			<output>
				<port id="1" names="404" precision="FP16">
					<dim>1</dim>
					<dim>256</dim>
					<dim>40</dim>
					<dim>20</dim>
				</port>
			</output>
		</layer>
		<layer id="369" name="405/fq_input_0" type="FakeQuantize" version="opset1">
			<data auto_broadcast="numpy" levels="256"/>
			<input>
				<port id="0">
					<dim>1</dim>
					<dim>256</dim>
					<dim>40</dim>
					<dim>20</dim>
				</port>
				<port id="1"/>
				<port id="2"/>
				<port id="3"/>
				<port id="4"/>
			</input>
			<output>
				<port id="5" precision="FP16">
					<dim>1</dim>
					<dim>256</dim>
					<dim>40</dim>
					<dim>20</dim>
				</port>
			</output>
		</layer>
		<layer id="370" name="406/mean/Fused_Mul__copy4465090/quantized645510610" type="Const" version="opset1">
			<data element_type="i8" offset="159476" shape="64,256,1,1" size="16384"/>
			<output>
				<port id="0" precision="I8">
					<dim>64</dim>
					<dim>256</dim>
					<dim>1</dim>
					<dim>1</dim>
				</port>
			</output>
		</layer>
		<layer id="371" name="406/mean/Fused_Mul__copy4465090/quantized/to_f16" type="Convert" version="opset1">
			<data destination_type="f16"/>
			<input>
				<port id="0">
					<dim>64</dim>
					<dim>256</dim>
					<dim>1</dim>
					<dim>1</dim>
				</port>
			</input>
			<output>
				<port id="1" precision="FP16">
					<dim>64</dim>
					<dim>256</dim>
					<dim>1</dim>
					<dim>1</dim>
				</port>
			</output>
		</layer>
		<layer id="372" name="405/fq_weights_1/zero_point64689971" type="Const" version="opset1">
			<data element_type="f16" offset="175860" shape="64,1,1,1" size="128"/>
			<output>
				<port id="0" precision="FP16">
					<dim>64</dim>
					<dim>1</dim>
					<dim>1</dim>
					<dim>1</dim>
				</port>
			</output>
		</layer>
		<layer id="373" name="405/fq_weights_1/minus_zp" type="Subtract" version="opset1">
			<data auto_broadcast="numpy"/>
			<input>
				<port id="0">
					<dim>64</dim>
					<dim>256</dim>
					<dim>1</dim>
					<dim>1</dim>
				</port>
				<port id="1">
					<dim>64</dim>
					<dim>1</dim>
					<dim>1</dim>
					<dim>1</dim>
				</port>
			</input>
			<output>
				<port id="2" precision="FP16">
					<dim>64</dim>
					<dim>256</dim>
					<dim>1</dim>
					<dim>1</dim>
				</port>
			</output>
		</layer>
		<layer id="374" name="405/fq_weights_1/scale646311114" type="Const" version="opset1">
			<data element_type="f16" offset="175988" shape="64,1,1,1" size="128"/>
			<output>
				<port id="0" precision="FP16">
					<dim>64</dim>
					<dim>1</dim>
					<dim>1</dim>
					<dim>1</dim>
				</port>
			</output>
		</layer>
		<layer id="375" name="405/fq_weights_1/mulpiply_by_scale" type="Multiply" version="opset1">
			<data auto_broadcast="numpy"/>
			<input>
				<port id="0">
					<dim>64</dim>
					<dim>256</dim>
					<dim>1</dim>
					<dim>1</dim>
				</port>
				<port id="1">
					<dim>64</dim>
					<dim>1</dim>
					<dim>1</dim>
					<dim>1</dim>
				</port>
			</input>
			<output>
				<port id="2" precision="FP16">
					<dim>64</dim>
					<dim>256</dim>
					<dim>1</dim>
					<dim>1</dim>
				</port>
			</output>
		</layer>
		<layer id="376" name="405" type="Convolution" version="opset1">
			<data auto_pad="explicit" dilations="1,1" pads_begin="0,0" pads_end="0,0" strides="1,1"/>
			<input>
				<port id="0">
					<dim>1</dim>
					<dim>256</dim>
					<dim>40</dim>
					<dim>20</dim>
				</port>
				<port id="1">
					<dim>64</dim>
					<dim>256</dim>
					<dim>1</dim>
					<dim>1</dim>
				</port>
			</input>
			<output>
				<port id="2" precision="FP16">
					<dim>1</dim>
					<dim>64</dim>
					<dim>40</dim>
					<dim>20</dim>
				</port>
			</output>
		</layer>
		<layer id="377" name="data_add_976297674489869" type="Const" version="opset1">
			<data element_type="f16" offset="176116" shape="1,64,1,1" size="128"/>
			<output>
				<port id="0" precision="FP16">
					<dim>1</dim>
					<dim>64</dim>
					<dim>1</dim>
					<dim>1</dim>
				</port>
			</output>
		</layer>
		<layer id="378" name="406/variance/Fused_Add_" type="Add" version="opset1">
			<data auto_broadcast="numpy"/>
			<input>
				<port id="0">
					<dim>1</dim>
					<dim>64</dim>
					<dim>40</dim>
					<dim>20</dim>
				</port>
				<port id="1">
					<dim>1</dim>
					<dim>64</dim>
					<dim>1</dim>
					<dim>1</dim>
				</port>
			</input>
			<output>
				<port id="2" names="406" precision="FP16">
					<dim>1</dim>
					<dim>64</dim>
					<dim>40</dim>
					<dim>20</dim>
				</port>
			</output>
		</layer>
		<layer id="379" name="407" type="ReLU" version="opset1">
			<input>
				<port id="0">
					<dim>1</dim>
					<dim>64</dim>
					<dim>40</dim>
					<dim>20</dim>
				</port>
			</input>
			<output>
				<port id="1" names="407" precision="FP16">
					<dim>1</dim>
					<dim>64</dim>
					<dim>40</dim>
					<dim>20</dim>
				</port>
			</output>
		</layer>
		<layer id="380" name="408/fq_input_0" type="FakeQuantize" version="opset1">
			<data auto_broadcast="numpy" levels="256"/>
			<input>
				<port id="0">
					<dim>1</dim>
					<dim>64</dim>
					<dim>40</dim>
					<dim>20</dim>
				</port>
				<port id="1"/>
				<port id="2"/>
				<port id="3"/>
				<port id="4"/>
			</input>
			<output>
				<port id="5" precision="FP16">
					<dim>1</dim>
					<dim>64</dim>
					<dim>40</dim>
					<dim>20</dim>
				</port>
			</output>
		</layer>
		<layer id="381" name="409/mean/Fused_Mul__copy4515092/quantized68399506" type="Const" version="opset1">
			<data element_type="i8" offset="176244" shape="64,64,3,3" size="36864"/>
			<output>
				<port id="0" precision="I8">
					<dim>64</dim>
					<dim>64</dim>
					<dim>3</dim>
					<dim>3</dim>
				</port>
			</output>
		</layer>
		<layer id="382" name="409/mean/Fused_Mul__copy4515092/quantized/to_f16" type="Convert" version="opset1">
			<data destination_type="f16"/>
			<input>
				<port id="0">
					<dim>64</dim>
					<dim>64</dim>
					<dim>3</dim>
					<dim>3</dim>
				</port>
			</input>
			<output>
				<port id="1" precision="FP16">
					<dim>64</dim>
					<dim>64</dim>
					<dim>3</dim>
					<dim>3</dim>
				</port>
			</output>
		</layer>
		<layer id="383" name="408/fq_weights_1/zero_point68529962" type="Const" version="opset1">
			<data element_type="f16" offset="213108" shape="64,1,1,1" size="128"/>
			<output>
				<port id="0" precision="FP16">
					<dim>64</dim>
					<dim>1</dim>
					<dim>1</dim>
					<dim>1</dim>
				</port>
			</output>
		</layer>
		<layer id="384" name="408/fq_weights_1/minus_zp" type="Subtract" version="opset1">
			<data auto_broadcast="numpy"/>
			<input>
				<port id="0">
					<dim>64</dim>
					<dim>64</dim>
					<dim>3</dim>
					<dim>3</dim>
				</port>
				<port id="1">
					<dim>64</dim>
					<dim>1</dim>
					<dim>1</dim>
					<dim>1</dim>
				</port>
			</input>
			<output>
				<port id="2" precision="FP16">
					<dim>64</dim>
					<dim>64</dim>
					<dim>3</dim>
					<dim>3</dim>
				</port>
			</output>
		</layer>
		<layer id="385" name="408/fq_weights_1/scale68479515" type="Const" version="opset1">
			<data element_type="f16" offset="213236" shape="64,1,1,1" size="128"/>
			<output>
				<port id="0" precision="FP16">
					<dim>64</dim>
					<dim>1</dim>
					<dim>1</dim>
					<dim>1</dim>
				</port>
			</output>
		</layer>
		<layer id="386" name="408/fq_weights_1/mulpiply_by_scale" type="Multiply" version="opset1">
			<data auto_broadcast="numpy"/>
			<input>
				<port id="0">
					<dim>64</dim>
					<dim>64</dim>
					<dim>3</dim>
					<dim>3</dim>
				</port>
				<port id="1">
					<dim>64</dim>
					<dim>1</dim>
					<dim>1</dim>
					<dim>1</dim>
				</port>
			</input>
			<output>
				<port id="2" precision="FP16">
					<dim>64</dim>
					<dim>64</dim>
					<dim>3</dim>
					<dim>3</dim>
				</port>
			</output>
		</layer>
		<layer id="387" name="408" type="Convolution" version="opset1">
			<data auto_pad="explicit" dilations="1,1" pads_begin="1,1" pads_end="1,1" strides="1,1"/>
			<input>
				<port id="0">
					<dim>1</dim>
					<dim>64</dim>
					<dim>40</dim>
					<dim>20</dim>
				</port>
				<port id="1">
					<dim>64</dim>
					<dim>64</dim>
					<dim>3</dim>
					<dim>3</dim>
				</port>
			</input>
			<output>
				<port id="2" precision="FP16">
					<dim>1</dim>
					<dim>64</dim>
					<dim>40</dim>
					<dim>20</dim>
				</port>
			</output>
		</layer>
		<layer id="388" name="data_add_977097754539734" type="Const" version="opset1">
			<data element_type="f16" offset="213364" shape="1,64,1,1" size="128"/>
			<output>
				<port id="0" precision="FP16">
					<dim>1</dim>
					<dim>64</dim>
					<dim>1</dim>
					<dim>1</dim>
				</port>
			</output>
		</layer>
		<layer id="389" name="409/variance/Fused_Add_" type="Add" version="opset1">
			<data auto_broadcast="numpy"/>
			<input>
				<port id="0">
					<dim>1</dim>
					<dim>64</dim>
					<dim>40</dim>
					<dim>20</dim>
				</port>
				<port id="1">
					<dim>1</dim>
					<dim>64</dim>
					<dim>1</dim>
					<dim>1</dim>
				</port>
			</input>
			<output>
				<port id="2" names="409" precision="FP16">
					<dim>1</dim>
					<dim>64</dim>
					<dim>40</dim>
					<dim>20</dim>
				</port>
			</output>
		</layer>
		<layer id="390" name="410" type="ReLU" version="opset1">
			<input>
				<port id="0">
					<dim>1</dim>
					<dim>64</dim>
					<dim>40</dim>
					<dim>20</dim>
				</port>
			</input>
			<output>
				<port id="1" names="410" precision="FP16">
					<dim>1</dim>
					<dim>64</dim>
					<dim>40</dim>
					<dim>20</dim>
				</port>
			</output>
		</layer>
		<layer id="391" name="411/fq_input_0" type="FakeQuantize" version="opset1">
			<data auto_broadcast="numpy" levels="256"/>
			<input>
				<port id="0">
					<dim>1</dim>
					<dim>64</dim>
					<dim>40</dim>
					<dim>20</dim>
				</port>
				<port id="1"/>
				<port id="2"/>
				<port id="3"/>
				<port id="4"/>
			</input>
			<output>
				<port id="5" precision="FP16">
					<dim>1</dim>
					<dim>64</dim>
					<dim>40</dim>
					<dim>20</dim>
				</port>
			</output>
		</layer>
		<layer id="392" name="412/mean/Fused_Mul__copy4565094/quantized640711072" type="Const" version="opset1">
			<data element_type="i8" offset="213492" shape="256,64,1,1" size="16384"/>
			<output>
				<port id="0" precision="I8">
					<dim>256</dim>
					<dim>64</dim>
					<dim>1</dim>
					<dim>1</dim>
				</port>
			</output>
		</layer>
		<layer id="393" name="412/mean/Fused_Mul__copy4565094/quantized/to_f16" type="Convert" version="opset1">
			<data destination_type="f16"/>
			<input>
				<port id="0">
					<dim>256</dim>
					<dim>64</dim>
					<dim>1</dim>
					<dim>1</dim>
				</port>
			</input>
			<output>
				<port id="1" precision="FP16">
					<dim>256</dim>
					<dim>64</dim>
					<dim>1</dim>
					<dim>1</dim>
				</port>
			</output>
		</layer>
		<layer id="394" name="411/fq_weights_1/zero_point64209902" type="Const" version="opset1">
			<data element_type="f16" offset="229876" shape="256,1,1,1" size="512"/>
			<output>
				<port id="0" precision="FP16">
					<dim>256</dim>
					<dim>1</dim>
					<dim>1</dim>
					<dim>1</dim>
				</port>
			</output>
		</layer>
		<layer id="395" name="411/fq_weights_1/minus_zp" type="Subtract" version="opset1">
			<data auto_broadcast="numpy"/>
			<input>
				<port id="0">
					<dim>256</dim>
					<dim>64</dim>
					<dim>1</dim>
					<dim>1</dim>
				</port>
				<port id="1">
					<dim>256</dim>
					<dim>1</dim>
					<dim>1</dim>
					<dim>1</dim>
				</port>
			</input>
			<output>
				<port id="2" precision="FP16">
					<dim>256</dim>
					<dim>64</dim>
					<dim>1</dim>
					<dim>1</dim>
				</port>
			</output>
		</layer>
		<layer id="396" name="411/fq_weights_1/scale641511036" type="Const" version="opset1">
			<data element_type="f16" offset="230388" shape="256,1,1,1" size="512"/>
			<output>
				<port id="0" precision="FP16">
					<dim>256</dim>
					<dim>1</dim>
					<dim>1</dim>
					<dim>1</dim>
				</port>
			</output>
		</layer>
		<layer id="397" name="411/fq_weights_1/mulpiply_by_scale" type="Multiply" version="opset1">
			<data auto_broadcast="numpy"/>
			<input>
				<port id="0">
					<dim>256</dim>
					<dim>64</dim>
					<dim>1</dim>
					<dim>1</dim>
				</port>
				<port id="1">
					<dim>256</dim>
					<dim>1</dim>
					<dim>1</dim>
					<dim>1</dim>
				</port>
			</input>
			<output>
				<port id="2" precision="FP16">
					<dim>256</dim>
					<dim>64</dim>
					<dim>1</dim>
					<dim>1</dim>
				</port>
			</output>
		</layer>
		<layer id="398" name="411" type="Convolution" version="opset1">
			<data auto_pad="explicit" dilations="1,1" pads_begin="0,0" pads_end="0,0" strides="1,1"/>
			<input>
				<port id="0">
					<dim>1</dim>
					<dim>64</dim>
					<dim>40</dim>
					<dim>20</dim>
				</port>
				<port id="1">
					<dim>256</dim>
					<dim>64</dim>
					<dim>1</dim>
					<dim>1</dim>
				</port>
			</input>
			<output>
				<port id="2" precision="FP16">
					<dim>1</dim>
					<dim>256</dim>
					<dim>40</dim>
					<dim>20</dim>
				</port>
			</output>
		</layer>
		<layer id="399" name="data_add_9778978345810697" type="Const" version="opset1">
			<data element_type="f16" offset="230900" shape="1,256,1,1" size="512"/>
			<output>
				<port id="0" precision="FP16">
					<dim>1</dim>
					<dim>256</dim>
					<dim>1</dim>
					<dim>1</dim>
				</port>
			</output>
		</layer>
		<layer id="400" name="412/variance/Fused_Add_" type="Add" version="opset1">
			<data auto_broadcast="numpy"/>
			<input>
				<port id="0">
					<dim>1</dim>
					<dim>256</dim>
					<dim>40</dim>
					<dim>20</dim>
				</port>
				<port id="1">
					<dim>1</dim>
					<dim>256</dim>
					<dim>1</dim>
					<dim>1</dim>
				</port>
			</input>
			<output>
				<port id="2" names="412" precision="FP16">
					<dim>1</dim>
					<dim>256</dim>
					<dim>40</dim>
					<dim>20</dim>
				</port>
			</output>
		</layer>
		<layer id="401" name="413/fq_input_0" type="FakeQuantize" version="opset1">
			<data auto_broadcast="numpy" levels="256"/>
			<input>
				<port id="0">
					<dim>1</dim>
					<dim>256</dim>
					<dim>40</dim>
					<dim>20</dim>
				</port>
				<port id="1"/>
				<port id="2"/>
				<port id="3"/>
				<port id="4"/>
			</input>
			<output>
				<port id="5" precision="FP16">
					<dim>1</dim>
					<dim>256</dim>
					<dim>40</dim>
					<dim>20</dim>
				</port>
			</output>
		</layer>
		<layer id="402" name="413" type="Add" version="opset1">
			<data auto_broadcast="numpy"/>
			<input>
				<port id="0">
					<dim>1</dim>
					<dim>256</dim>
					<dim>40</dim>
					<dim>20</dim>
				</port>
				<port id="1">
					<dim>1</dim>
					<dim>256</dim>
					<dim>40</dim>
					<dim>20</dim>
				</port>
			</input>
			<output>
				<port id="2" names="413" precision="FP16">
					<dim>1</dim>
					<dim>256</dim>
					<dim>40</dim>
					<dim>20</dim>
				</port>
			</output>
		</layer>
		<layer id="403" name="414" type="ReLU" version="opset1">
			<input>
				<port id="0">
					<dim>1</dim>
					<dim>256</dim>
					<dim>40</dim>
					<dim>20</dim>
				</port>
			</input>
			<output>
				<port id="1" names="414" precision="FP16">
					<dim>1</dim>
					<dim>256</dim>
					<dim>40</dim>
					<dim>20</dim>
				</port>
			</output>
		</layer>
		<layer id="404" name="415/fq_input_0" type="FakeQuantize" version="opset1">
			<data auto_broadcast="numpy" levels="256"/>
			<input>
				<port id="0">
					<dim>1</dim>
					<dim>256</dim>
					<dim>40</dim>
					<dim>20</dim>
				</port>
				<port id="1"/>
				<port id="2"/>
				<port id="3"/>
				<port id="4"/>
			</input>
			<output>
				<port id="5" precision="FP16">
					<dim>1</dim>
					<dim>256</dim>
					<dim>40</dim>
					<dim>20</dim>
				</port>
			</output>
		</layer>
		<layer id="405" name="416/mean/Fused_Mul__copy4625096/quantized707910949" type="Const" version="opset1">
			<data element_type="i8" offset="231412" shape="128,256,1,1" size="32768"/>
			<output>
				<port id="0" precision="I8">
					<dim>128</dim>
					<dim>256</dim>
					<dim>1</dim>
					<dim>1</dim>
				</port>
			</output>
		</layer>
		<layer id="406" name="416/mean/Fused_Mul__copy4625096/quantized/to_f16" type="Convert" version="opset1">
			<data destination_type="f16"/>
			<input>
				<port id="0">
					<dim>128</dim>
					<dim>256</dim>
					<dim>1</dim>
					<dim>1</dim>
				</port>
			</input>
			<output>
				<port id="1" precision="FP16">
					<dim>128</dim>
					<dim>256</dim>
					<dim>1</dim>
					<dim>1</dim>
				</port>
			</output>
		</layer>
		<layer id="407" name="415/fq_weights_1/zero_point709210577" type="Const" version="opset1">
			<data element_type="f16" offset="264180" shape="128,1,1,1" size="256"/>
			<output>
				<port id="0" precision="FP16">
					<dim>128</dim>
					<dim>1</dim>
					<dim>1</dim>
					<dim>1</dim>
				</port>
			</output>
		</layer>
		<layer id="408" name="415/fq_weights_1/minus_zp" type="Subtract" version="opset1">
			<data auto_broadcast="numpy"/>
			<input>
				<port id="0">
					<dim>128</dim>
					<dim>256</dim>
					<dim>1</dim>
					<dim>1</dim>
				</port>
				<port id="1">
					<dim>128</dim>
					<dim>1</dim>
					<dim>1</dim>
					<dim>1</dim>
				</port>
			</input>
			<output>
				<port id="2" precision="FP16">
					<dim>128</dim>
					<dim>256</dim>
					<dim>1</dim>
					<dim>1</dim>
				</port>
			</output>
		</layer>
		<layer id="409" name="415/fq_weights_1/scale70879917" type="Const" version="opset1">
			<data element_type="f16" offset="264436" shape="128,1,1,1" size="256"/>
			<output>
				<port id="0" precision="FP16">
					<dim>128</dim>
					<dim>1</dim>
					<dim>1</dim>
					<dim>1</dim>
				</port>
			</output>
		</layer>
		<layer id="410" name="415/fq_weights_1/mulpiply_by_scale" type="Multiply" version="opset1">
			<data auto_broadcast="numpy"/>
			<input>
				<port id="0">
					<dim>128</dim>
					<dim>256</dim>
					<dim>1</dim>
					<dim>1</dim>
				</port>
				<port id="1">
					<dim>128</dim>
					<dim>1</dim>
					<dim>1</dim>
					<dim>1</dim>
				</port>
			</input>
			<output>
				<port id="2" precision="FP16">
					<dim>128</dim>
					<dim>256</dim>
					<dim>1</dim>
					<dim>1</dim>
				</port>
			</output>
		</layer>
		<layer id="411" name="415" type="Convolution" version="opset1">
			<data auto_pad="explicit" dilations="1,1" pads_begin="0,0" pads_end="0,0" strides="1,1"/>
			<input>
				<port id="0">
					<dim>1</dim>
					<dim>256</dim>
					<dim>40</dim>
					<dim>20</dim>
				</port>
				<port id="1">
					<dim>128</dim>
					<dim>256</dim>
					<dim>1</dim>
					<dim>1</dim>
				</port>
			</input>
			<output>
				<port id="2" precision="FP16">
					<dim>1</dim>
					<dim>128</dim>
					<dim>40</dim>
					<dim>20</dim>
				</port>
			</output>
		</layer>
		<layer id="412" name="data_add_979497994649536" type="Const" version="opset1">
			<data element_type="f16" offset="264692" shape="1,128,1,1" size="256"/>
			<output>
				<port id="0" precision="FP16">
					<dim>1</dim>
					<dim>128</dim>
					<dim>1</dim>
					<dim>1</dim>
				</port>
			</output>
		</layer>
		<layer id="413" name="416/variance/Fused_Add_" type="Add" version="opset1">
			<data auto_broadcast="numpy"/>
			<input>
				<port id="0">
					<dim>1</dim>
					<dim>128</dim>
					<dim>40</dim>
					<dim>20</dim>
				</port>
				<port id="1">
					<dim>1</dim>
					<dim>128</dim>
					<dim>1</dim>
					<dim>1</dim>
				</port>
			</input>
			<output>
				<port id="2" names="416" precision="FP16">
					<dim>1</dim>
					<dim>128</dim>
					<dim>40</dim>
					<dim>20</dim>
				</port>
			</output>
		</layer>
		<layer id="414" name="417" type="ReLU" version="opset1">
			<input>
				<port id="0">
					<dim>1</dim>
					<dim>128</dim>
					<dim>40</dim>
					<dim>20</dim>
				</port>
			</input>
			<output>
				<port id="1" names="417" precision="FP16">
					<dim>1</dim>
					<dim>128</dim>
					<dim>40</dim>
					<dim>20</dim>
				</port>
			</output>
		</layer>
		<layer id="415" name="418/fq_input_0" type="FakeQuantize" version="opset1">
			<data auto_broadcast="numpy" levels="256"/>
			<input>
				<port id="0">
					<dim>1</dim>
					<dim>128</dim>
					<dim>40</dim>
					<dim>20</dim>
				</port>
				<port id="1"/>
				<port id="2"/>
				<port id="3"/>
				<port id="4"/>
			</input>
			<output>
				<port id="5" precision="FP16">
					<dim>1</dim>
					<dim>128</dim>
					<dim>40</dim>
					<dim>20</dim>
				</port>
			</output>
		</layer>
		<layer id="416" name="419/mean/Fused_Mul__copy4675098/quantized67679647" type="Const" version="opset1">
			<data element_type="i8" offset="264948" shape="128,128,3,3" size="147456"/>
			<output>
				<port id="0" precision="I8">
					<dim>128</dim>
					<dim>128</dim>
					<dim>3</dim>
					<dim>3</dim>
				</port>
			</output>
		</layer>
		<layer id="417" name="419/mean/Fused_Mul__copy4675098/quantized/to_f16" type="Convert" version="opset1">
			<data destination_type="f16"/>
			<input>
				<port id="0">
					<dim>128</dim>
					<dim>128</dim>
					<dim>3</dim>
					<dim>3</dim>
				</port>
			</input>
			<output>
				<port id="1" precision="FP16">
					<dim>128</dim>
					<dim>128</dim>
					<dim>3</dim>
					<dim>3</dim>
				</port>
			</output>
		</layer>
		<layer id="418" name="418/fq_weights_1/zero_point678010790" type="Const" version="opset1">
			<data element_type="f16" offset="412404" shape="128,1,1,1" size="256"/>
			<output>
				<port id="0" precision="FP16">
					<dim>128</dim>
					<dim>1</dim>
					<dim>1</dim>
					<dim>1</dim>
				</port>
			</output>
		</layer>
		<layer id="419" name="418/fq_weights_1/minus_zp" type="Subtract" version="opset1">
			<data auto_broadcast="numpy"/>
			<input>
				<port id="0">
					<dim>128</dim>
					<dim>128</dim>
					<dim>3</dim>
					<dim>3</dim>
				</port>
				<port id="1">
					<dim>128</dim>
					<dim>1</dim>
					<dim>1</dim>
					<dim>1</dim>
				</port>
			</input>
			<output>
				<port id="2" precision="FP16">
					<dim>128</dim>
					<dim>128</dim>
					<dim>3</dim>
					<dim>3</dim>
				</port>
			</output>
		</layer>
		<layer id="420" name="418/fq_weights_1/scale677510124" type="Const" version="opset1">
			<data element_type="f16" offset="412660" shape="128,1,1,1" size="256"/>
			<output>
				<port id="0" precision="FP16">
					<dim>128</dim>
					<dim>1</dim>
					<dim>1</dim>
					<dim>1</dim>
				</port>
			</output>
		</layer>
		<layer id="421" name="418/fq_weights_1/mulpiply_by_scale" type="Multiply" version="opset1">
			<data auto_broadcast="numpy"/>
			<input>
				<port id="0">
					<dim>128</dim>
					<dim>128</dim>
					<dim>3</dim>
					<dim>3</dim>
				</port>
				<port id="1">
					<dim>128</dim>
					<dim>1</dim>
					<dim>1</dim>
					<dim>1</dim>
				</port>
			</input>
			<output>
				<port id="2" precision="FP16">
					<dim>128</dim>
					<dim>128</dim>
					<dim>3</dim>
					<dim>3</dim>
				</port>
			</output>
		</layer>
		<layer id="422" name="418" type="Convolution" version="opset1">
			<data auto_pad="explicit" dilations="1,1" pads_begin="1,1" pads_end="1,1" strides="2,2"/>
			<input>
				<port id="0">
					<dim>1</dim>
					<dim>128</dim>
					<dim>40</dim>
					<dim>20</dim>
				</port>
				<port id="1">
					<dim>128</dim>
					<dim>128</dim>
					<dim>3</dim>
					<dim>3</dim>
				</port>
			</input>
			<output>
				<port id="2" precision="FP16">
					<dim>1</dim>
					<dim>128</dim>
					<dim>20</dim>
					<dim>10</dim>
				</port>
			</output>
		</layer>
		<layer id="423" name="data_add_9802980746910628" type="Const" version="opset1">
			<data element_type="f16" offset="412916" shape="1,128,1,1" size="256"/>
			<output>
				<port id="0" precision="FP16">
					<dim>1</dim>
					<dim>128</dim>
					<dim>1</dim>
					<dim>1</dim>
				</port>
			</output>
		</layer>
		<layer id="424" name="419/variance/Fused_Add_" type="Add" version="opset1">
			<data auto_broadcast="numpy"/>
			<input>
				<port id="0">
					<dim>1</dim>
					<dim>128</dim>
					<dim>20</dim>
					<dim>10</dim>
				</port>
				<port id="1">
					<dim>1</dim>
					<dim>128</dim>
					<dim>1</dim>
					<dim>1</dim>
				</port>
			</input>
			<output>
				<port id="2" names="419" precision="FP16">
					<dim>1</dim>
					<dim>128</dim>
					<dim>20</dim>
					<dim>10</dim>
				</port>
			</output>
		</layer>
		<layer id="425" name="420" type="ReLU" version="opset1">
			<input>
				<port id="0">
					<dim>1</dim>
					<dim>128</dim>
					<dim>20</dim>
					<dim>10</dim>
				</port>
			</input>
			<output>
				<port id="1" names="420" precision="FP16">
					<dim>1</dim>
					<dim>128</dim>
					<dim>20</dim>
					<dim>10</dim>
				</port>
			</output>
		</layer>
		<layer id="426" name="421/fq_input_0" type="FakeQuantize" version="opset1">
			<data auto_broadcast="numpy" levels="256"/>
			<input>
				<port id="0">
					<dim>1</dim>
					<dim>128</dim>
					<dim>20</dim>
					<dim>10</dim>
				</port>
				<port id="1"/>
				<port id="2"/>
				<port id="3"/>
				<port id="4"/>
			</input>
			<output>
				<port id="5" precision="FP16">
					<dim>1</dim>
					<dim>128</dim>
					<dim>20</dim>
					<dim>10</dim>
				</port>
			</output>
		</layer>
		<layer id="427" name="422/mean/Fused_Mul__copy4725100/quantized652710253" type="Const" version="opset1">
			<data element_type="i8" offset="413172" shape="512,128,1,1" size="65536"/>
			<output>
				<port id="0" precision="I8">
					<dim>512</dim>
					<dim>128</dim>
					<dim>1</dim>
					<dim>1</dim>
				</port>
			</output>
		</layer>
		<layer id="428" name="422/mean/Fused_Mul__copy4725100/quantized/to_f16" type="Convert" version="opset1">
			<data destination_type="f16"/>
			<input>
				<port id="0">
					<dim>512</dim>
					<dim>128</dim>
					<dim>1</dim>
					<dim>1</dim>
				</port>
			</input>
			<output>
				<port id="1" precision="FP16">
					<dim>512</dim>
					<dim>128</dim>
					<dim>1</dim>
					<dim>1</dim>
				</port>
			</output>
		</layer>
		<layer id="429" name="421/fq_weights_1/zero_point65409965" type="Const" version="opset1">
			<data element_type="f16" offset="478708" shape="512,1,1,1" size="1024"/>
			<output>
				<port id="0" precision="FP16">
					<dim>512</dim>
					<dim>1</dim>
					<dim>1</dim>
					<dim>1</dim>
				</port>
			</output>
		</layer>
		<layer id="430" name="421/fq_weights_1/minus_zp" type="Subtract" version="opset1">
			<data auto_broadcast="numpy"/>
			<input>
				<port id="0">
					<dim>512</dim>
					<dim>128</dim>
					<dim>1</dim>
					<dim>1</dim>
				</port>
				<port id="1">
					<dim>512</dim>
					<dim>1</dim>
					<dim>1</dim>
					<dim>1</dim>
				</port>
			</input>
			<output>
				<port id="2" precision="FP16">
					<dim>512</dim>
					<dim>128</dim>
					<dim>1</dim>
					<dim>1</dim>
				</port>
			</output>
		</layer>
		<layer id="431" name="421/fq_weights_1/scale653510970" type="Const" version="opset1">
			<data element_type="f16" offset="479732" shape="512,1,1,1" size="1024"/>
			<output>
				<port id="0" precision="FP16">
					<dim>512</dim>
					<dim>1</dim>
					<dim>1</dim>
					<dim>1</dim>
				</port>
			</output>
		</layer>
		<layer id="432" name="421/fq_weights_1/mulpiply_by_scale" type="Multiply" version="opset1">
			<data auto_broadcast="numpy"/>
			<input>
				<port id="0">
					<dim>512</dim>
					<dim>128</dim>
					<dim>1</dim>
					<dim>1</dim>
				</port>
				<port id="1">
					<dim>512</dim>
					<dim>1</dim>
					<dim>1</dim>
					<dim>1</dim>
				</port>
			</input>
			<output>
				<port id="2" precision="FP16">
					<dim>512</dim>
					<dim>128</dim>
					<dim>1</dim>
					<dim>1</dim>
				</port>
			</output>
		</layer>
		<layer id="433" name="421" type="Convolution" version="opset1">
			<data auto_pad="explicit" dilations="1,1" pads_begin="0,0" pads_end="0,0" strides="1,1"/>
			<input>
				<port id="0">
					<dim>1</dim>
					<dim>128</dim>
					<dim>20</dim>
					<dim>10</dim>
				</port>
				<port id="1">
					<dim>512</dim>
					<dim>128</dim>
					<dim>1</dim>
					<dim>1</dim>
				</port>
			</input>
			<output>
				<port id="2" precision="FP16">
					<dim>1</dim>
					<dim>512</dim>
					<dim>20</dim>
					<dim>10</dim>
				</port>
			</output>
		</layer>
		<layer id="434" name="data_add_9810981547411135" type="Const" version="opset1">
			<data element_type="f16" offset="480756" shape="1,512,1,1" size="1024"/>
			<output>
				<port id="0" precision="FP16">
					<dim>1</dim>
					<dim>512</dim>
					<dim>1</dim>
					<dim>1</dim>
				</port>
			</output>
		</layer>
		<layer id="435" name="422/variance/Fused_Add_" type="Add" version="opset1">
			<data auto_broadcast="numpy"/>
			<input>
				<port id="0">
					<dim>1</dim>
					<dim>512</dim>
					<dim>20</dim>
					<dim>10</dim>
				</port>
				<port id="1">
					<dim>1</dim>
					<dim>512</dim>
					<dim>1</dim>
					<dim>1</dim>
				</port>
			</input>
			<output>
				<port id="2" names="422" precision="FP16">
					<dim>1</dim>
					<dim>512</dim>
					<dim>20</dim>
					<dim>10</dim>
				</port>
			</output>
		</layer>
		<layer id="436" name="425/fq_input_0" type="FakeQuantize" version="opset1">
			<data auto_broadcast="numpy" levels="256"/>
			<input>
				<port id="0">
					<dim>1</dim>
					<dim>512</dim>
					<dim>20</dim>
					<dim>10</dim>
				</port>
				<port id="1"/>
				<port id="2"/>
				<port id="3"/>
				<port id="4"/>
			</input>
			<output>
				<port id="5" precision="FP16">
					<dim>1</dim>
					<dim>512</dim>
					<dim>20</dim>
					<dim>10</dim>
				</port>
			</output>
		</layer>
		<layer id="437" name="1435143910091" type="Const" version="opset1">
			<data element_type="f16" offset="481780" shape="" size="2"/>
			<output>
				<port id="0" precision="FP16"/>
			</output>
		</layer>
		<layer id="438" name="143614409953" type="Const" version="opset1">
			<data element_type="f16" offset="481782" shape="" size="2"/>
			<output>
				<port id="0" precision="FP16"/>
			</output>
		</layer>
		<layer id="439" name="1437144110172" type="Const" version="opset1">
			<data element_type="f16" offset="481780" shape="" size="2"/>
			<output>
				<port id="0" precision="FP16"/>
			</output>
		</layer>
		<layer id="440" name="143814429614" type="Const" version="opset1">
			<data element_type="f16" offset="481782" shape="" size="2"/>
			<output>
				<port id="0" precision="FP16"/>
			</output>
		</layer>
		<layer id="441" name="424/mean/Fused_Mul__copy4765102/quantized712710898" type="Const" version="opset1">
			<data element_type="i8" offset="481784" shape="512,256,1,1" size="131072"/>
			<output>
				<port id="0" precision="I8">
					<dim>512</dim>
					<dim>256</dim>
					<dim>1</dim>
					<dim>1</dim>
				</port>
			</output>
		</layer>
		<layer id="442" name="424/mean/Fused_Mul__copy4765102/quantized/to_f16" type="Convert" version="opset1">
			<data destination_type="f16"/>
			<input>
				<port id="0">
					<dim>512</dim>
					<dim>256</dim>
					<dim>1</dim>
					<dim>1</dim>
				</port>
			</input>
			<output>
				<port id="1" precision="FP16">
					<dim>512</dim>
					<dim>256</dim>
					<dim>1</dim>
					<dim>1</dim>
				</port>
			</output>
		</layer>
		<layer id="443" name="423/fq_weights_1/zero_point714010550" type="Const" version="opset1">
			<data element_type="f16" offset="612856" shape="512,1,1,1" size="1024"/>
			<output>
				<port id="0" precision="FP16">
					<dim>512</dim>
					<dim>1</dim>
					<dim>1</dim>
					<dim>1</dim>
				</port>
			</output>
		</layer>
		<layer id="444" name="423/fq_weights_1/minus_zp" type="Subtract" version="opset1">
			<data auto_broadcast="numpy"/>
			<input>
				<port id="0">
					<dim>512</dim>
					<dim>256</dim>
					<dim>1</dim>
					<dim>1</dim>
				</port>
				<port id="1">
					<dim>512</dim>
					<dim>1</dim>
					<dim>1</dim>
					<dim>1</dim>
				</port>
			</input>
			<output>
				<port id="2" precision="FP16">
					<dim>512</dim>
					<dim>256</dim>
					<dim>1</dim>
					<dim>1</dim>
				</port>
			</output>
		</layer>
		<layer id="445" name="423/fq_weights_1/scale713510778" type="Const" version="opset1">
			<data element_type="f16" offset="613880" shape="512,1,1,1" size="1024"/>
			<output>
				<port id="0" precision="FP16">
					<dim>512</dim>
					<dim>1</dim>
					<dim>1</dim>
					<dim>1</dim>
				</port>
			</output>
		</layer>
		<layer id="446" name="423/fq_weights_1/mulpiply_by_scale" type="Multiply" version="opset1">
			<data auto_broadcast="numpy"/>
			<input>
				<port id="0">
					<dim>512</dim>
					<dim>256</dim>
					<dim>1</dim>
					<dim>1</dim>
				</port>
				<port id="1">
					<dim>512</dim>
					<dim>1</dim>
					<dim>1</dim>
					<dim>1</dim>
				</port>
			</input>
			<output>
				<port id="2" precision="FP16">
					<dim>512</dim>
					<dim>256</dim>
					<dim>1</dim>
					<dim>1</dim>
				</port>
			</output>
		</layer>
		<layer id="447" name="423" type="Convolution" version="opset1">
			<data auto_pad="explicit" dilations="1,1" pads_begin="0,0" pads_end="0,0" strides="2,2"/>
			<input>
				<port id="0">
					<dim>1</dim>
					<dim>256</dim>
					<dim>40</dim>
					<dim>20</dim>
				</port>
				<port id="1">
					<dim>512</dim>
					<dim>256</dim>
					<dim>1</dim>
					<dim>1</dim>
				</port>
			</input>
			<output>
				<port id="2" precision="FP16">
					<dim>1</dim>
					<dim>512</dim>
					<dim>20</dim>
					<dim>10</dim>
				</port>
			</output>
		</layer>
		<layer id="448" name="data_add_9786979147810514" type="Const" version="opset1">
			<data element_type="f16" offset="614904" shape="1,512,1,1" size="1024"/>
			<output>
				<port id="0" precision="FP16">
					<dim>1</dim>
					<dim>512</dim>
					<dim>1</dim>
					<dim>1</dim>
				</port>
			</output>
		</layer>
		<layer id="449" name="424/variance/Fused_Add_" type="Add" version="opset1">
			<data auto_broadcast="numpy"/>
			<input>
				<port id="0">
					<dim>1</dim>
					<dim>512</dim>
					<dim>20</dim>
					<dim>10</dim>
				</port>
				<port id="1">
					<dim>1</dim>
					<dim>512</dim>
					<dim>1</dim>
					<dim>1</dim>
				</port>
			</input>
			<output>
				<port id="2" names="424" precision="FP16">
					<dim>1</dim>
					<dim>512</dim>
					<dim>20</dim>
					<dim>10</dim>
				</port>
			</output>
		</layer>
		<layer id="450" name="425/fq_input_1" type="FakeQuantize" version="opset1">
			<data auto_broadcast="numpy" levels="256"/>
			<input>
				<port id="0">
					<dim>1</dim>
					<dim>512</dim>
					<dim>20</dim>
					<dim>10</dim>
				</port>
				<port id="1"/>
				<port id="2"/>
				<port id="3"/>
				<port id="4"/>
			</input>
			<output>
				<port id="5" precision="FP16">
					<dim>1</dim>
					<dim>512</dim>
					<dim>20</dim>
					<dim>10</dim>
				</port>
			</output>
		</layer>
		<layer id="451" name="425" type="Add" version="opset1">
			<data auto_broadcast="numpy"/>
			<input>
				<port id="0">
					<dim>1</dim>
					<dim>512</dim>
					<dim>20</dim>
					<dim>10</dim>
				</port>
				<port id="1">
					<dim>1</dim>
					<dim>512</dim>
					<dim>20</dim>
					<dim>10</dim>
				</port>
			</input>
			<output>
				<port id="2" names="425" precision="FP16">
					<dim>1</dim>
					<dim>512</dim>
					<dim>20</dim>
					<dim>10</dim>
				</port>
			</output>
		</layer>
		<layer id="452" name="426" type="ReLU" version="opset1">
			<input>
				<port id="0">
					<dim>1</dim>
					<dim>512</dim>
					<dim>20</dim>
					<dim>10</dim>
				</port>
			</input>
			<output>
				<port id="1" names="426" precision="FP16">
					<dim>1</dim>
					<dim>512</dim>
					<dim>20</dim>
					<dim>10</dim>
				</port>
			</output>
		</layer>
		<layer id="453" name="427/fq_input_0" type="FakeQuantize" version="opset1">
			<data auto_broadcast="numpy" levels="256"/>
			<input>
				<port id="0">
					<dim>1</dim>
					<dim>512</dim>
					<dim>20</dim>
					<dim>10</dim>
				</port>
				<port id="1"/>
				<port id="2"/>
				<port id="3"/>
				<port id="4"/>
			</input>
			<output>
				<port id="5" precision="FP16">
					<dim>1</dim>
					<dim>512</dim>
					<dim>20</dim>
					<dim>10</dim>
				</port>
			</output>
		</layer>
		<layer id="454" name="428/mean/Fused_Mul__copy4825104/quantized59999641" type="Const" version="opset1">
			<data element_type="i8" offset="615928" shape="128,512,1,1" size="65536"/>
			<output>
				<port id="0" precision="I8">
					<dim>128</dim>
					<dim>512</dim>
					<dim>1</dim>
					<dim>1</dim>
				</port>
			</output>
		</layer>
		<layer id="455" name="428/mean/Fused_Mul__copy4825104/quantized/to_f16" type="Convert" version="opset1">
			<data destination_type="f16"/>
			<input>
				<port id="0">
					<dim>128</dim>
					<dim>512</dim>
					<dim>1</dim>
					<dim>1</dim>
				</port>
			</input>
			<output>
				<port id="1" precision="FP16">
					<dim>128</dim>
					<dim>512</dim>
					<dim>1</dim>
					<dim>1</dim>
				</port>
			</output>
		</layer>
		<layer id="456" name="427/fq_weights_1/zero_point601210832" type="Const" version="opset1">
			<data element_type="f16" offset="681464" shape="128,1,1,1" size="256"/>
			<output>
				<port id="0" precision="FP16">
					<dim>128</dim>
					<dim>1</dim>
					<dim>1</dim>
					<dim>1</dim>
				</port>
			</output>
		</layer>
		<layer id="457" name="427/fq_weights_1/minus_zp" type="Subtract" version="opset1">
			<data auto_broadcast="numpy"/>
			<input>
				<port id="0">
					<dim>128</dim>
					<dim>512</dim>
					<dim>1</dim>
					<dim>1</dim>
				</port>
				<port id="1">
					<dim>128</dim>
					<dim>1</dim>
					<dim>1</dim>
					<dim>1</dim>
				</port>
			</input>
			<output>
				<port id="2" precision="FP16">
					<dim>128</dim>
					<dim>512</dim>
					<dim>1</dim>
					<dim>1</dim>
				</port>
			</output>
		</layer>
		<layer id="458" name="427/fq_weights_1/scale600711102" type="Const" version="opset1">
			<data element_type="f16" offset="681720" shape="128,1,1,1" size="256"/>
			<output>
				<port id="0" precision="FP16">
					<dim>128</dim>
					<dim>1</dim>
					<dim>1</dim>
					<dim>1</dim>
				</port>
			</output>
		</layer>
		<layer id="459" name="427/fq_weights_1/mulpiply_by_scale" type="Multiply" version="opset1">
			<data auto_broadcast="numpy"/>
			<input>
				<port id="0">
					<dim>128</dim>
					<dim>512</dim>
					<dim>1</dim>
					<dim>1</dim>
				</port>
				<port id="1">
					<dim>128</dim>
					<dim>1</dim>
					<dim>1</dim>
					<dim>1</dim>
				</port>
			</input>
			<output>
				<port id="2" precision="FP16">
					<dim>128</dim>
					<dim>512</dim>
					<dim>1</dim>
					<dim>1</dim>
				</port>
			</output>
		</layer>
		<layer id="460" name="427" type="Convolution" version="opset1">
			<data auto_pad="explicit" dilations="1,1" pads_begin="0,0" pads_end="0,0" strides="1,1"/>
			<input>
				<port id="0">
					<dim>1</dim>
					<dim>512</dim>
					<dim>20</dim>
					<dim>10</dim>
				</port>
				<port id="1">
					<dim>128</dim>
					<dim>512</dim>
					<dim>1</dim>
					<dim>1</dim>
				</port>
			</input>
			<output>
				<port id="2" precision="FP16">
					<dim>1</dim>
					<dim>128</dim>
					<dim>20</dim>
					<dim>10</dim>
				</port>
			</output>
		</layer>
		<layer id="461" name="data_add_9818982348410913" type="Const" version="opset1">
			<data element_type="f16" offset="681976" shape="1,128,1,1" size="256"/>
			<output>
				<port id="0" precision="FP16">
					<dim>1</dim>
					<dim>128</dim>
					<dim>1</dim>
					<dim>1</dim>
				</port>
			</output>
		</layer>
		<layer id="462" name="428/variance/Fused_Add_" type="Add" version="opset1">
			<data auto_broadcast="numpy"/>
			<input>
				<port id="0">
					<dim>1</dim>
					<dim>128</dim>
					<dim>20</dim>
					<dim>10</dim>
				</port>
				<port id="1">
					<dim>1</dim>
					<dim>128</dim>
					<dim>1</dim>
					<dim>1</dim>
				</port>
			</input>
			<output>
				<port id="2" names="428" precision="FP16">
					<dim>1</dim>
					<dim>128</dim>
					<dim>20</dim>
					<dim>10</dim>
				</port>
			</output>
		</layer>
		<layer id="463" name="429" type="ReLU" version="opset1">
			<input>
				<port id="0">
					<dim>1</dim>
					<dim>128</dim>
					<dim>20</dim>
					<dim>10</dim>
				</port>
			</input>
			<output>
				<port id="1" names="429" precision="FP16">
					<dim>1</dim>
					<dim>128</dim>
					<dim>20</dim>
					<dim>10</dim>
				</port>
			</output>
		</layer>
		<layer id="464" name="430/fq_input_0" type="FakeQuantize" version="opset1">
			<data auto_broadcast="numpy" levels="256"/>
			<input>
				<port id="0">
					<dim>1</dim>
					<dim>128</dim>
					<dim>20</dim>
					<dim>10</dim>
				</port>
				<port id="1"/>
				<port id="2"/>
				<port id="3"/>
				<port id="4"/>
			</input>
			<output>
				<port id="5" precision="FP16">
					<dim>1</dim>
					<dim>128</dim>
					<dim>20</dim>
					<dim>10</dim>
				</port>
			</output>
		</layer>
		<layer id="465" name="431/mean/Fused_Mul__copy4875106/quantized643110619" type="Const" version="opset1">
			<data element_type="i8" offset="682232" shape="128,128,3,3" size="147456"/>
			<output>
				<port id="0" precision="I8">
					<dim>128</dim>
					<dim>128</dim>
					<dim>3</dim>
					<dim>3</dim>
				</port>
			</output>
		</layer>
		<layer id="466" name="431/mean/Fused_Mul__copy4875106/quantized/to_f16" type="Convert" version="opset1">
			<data destination_type="f16"/>
			<input>
				<port id="0">
					<dim>128</dim>
					<dim>128</dim>
					<dim>3</dim>
					<dim>3</dim>
				</port>
			</input>
			<output>
				<port id="1" precision="FP16">
					<dim>128</dim>
					<dim>128</dim>
					<dim>3</dim>
					<dim>3</dim>
				</port>
			</output>
		</layer>
		<layer id="467" name="430/fq_weights_1/zero_point644410487" type="Const" version="opset1">
			<data element_type="f16" offset="829688" shape="128,1,1,1" size="256"/>
			<output>
				<port id="0" precision="FP16">
					<dim>128</dim>
					<dim>1</dim>
					<dim>1</dim>
					<dim>1</dim>
				</port>
			</output>
		</layer>
		<layer id="468" name="430/fq_weights_1/minus_zp" type="Subtract" version="opset1">
			<data auto_broadcast="numpy"/>
			<input>
				<port id="0">
					<dim>128</dim>
					<dim>128</dim>
					<dim>3</dim>
					<dim>3</dim>
				</port>
				<port id="1">
					<dim>128</dim>
					<dim>1</dim>
					<dim>1</dim>
					<dim>1</dim>
				</port>
			</input>
			<output>
				<port id="2" precision="FP16">
					<dim>128</dim>
					<dim>128</dim>
					<dim>3</dim>
					<dim>3</dim>
				</port>
			</output>
		</layer>
		<layer id="469" name="430/fq_weights_1/scale643910463" type="Const" version="opset1">
			<data element_type="f16" offset="829944" shape="128,1,1,1" size="256"/>
			<output>
				<port id="0" precision="FP16">
					<dim>128</dim>
					<dim>1</dim>
					<dim>1</dim>
					<dim>1</dim>
				</port>
			</output>
		</layer>
		<layer id="470" name="430/fq_weights_1/mulpiply_by_scale" type="Multiply" version="opset1">
			<data auto_broadcast="numpy"/>
			<input>
				<port id="0">
					<dim>128</dim>
					<dim>128</dim>
					<dim>3</dim>
					<dim>3</dim>
				</port>
				<port id="1">
					<dim>128</dim>
					<dim>1</dim>
					<dim>1</dim>
					<dim>1</dim>
				</port>
			</input>
			<output>
				<port id="2" precision="FP16">
					<dim>128</dim>
					<dim>128</dim>
					<dim>3</dim>
					<dim>3</dim>
				</port>
			</output>
		</layer>
		<layer id="471" name="430" type="Convolution" version="opset1">
			<data auto_pad="explicit" dilations="1,1" pads_begin="1,1" pads_end="1,1" strides="1,1"/>
			<input>
				<port id="0">
					<dim>1</dim>
					<dim>128</dim>
					<dim>20</dim>
					<dim>10</dim>
				</port>
				<port id="1">
					<dim>128</dim>
					<dim>128</dim>
					<dim>3</dim>
					<dim>3</dim>
				</port>
			</input>
			<output>
				<port id="2" precision="FP16">
					<dim>1</dim>
					<dim>128</dim>
					<dim>20</dim>
					<dim>10</dim>
				</port>
			</output>
		</layer>
		<layer id="472" name="data_add_9826983148910934" type="Const" version="opset1">
			<data element_type="f16" offset="830200" shape="1,128,1,1" size="256"/>
			<output>
				<port id="0" precision="FP16">
					<dim>1</dim>
					<dim>128</dim>
					<dim>1</dim>
					<dim>1</dim>
				</port>
			</output>
		</layer>
		<layer id="473" name="431/variance/Fused_Add_" type="Add" version="opset1">
			<data auto_broadcast="numpy"/>
			<input>
				<port id="0">
					<dim>1</dim>
					<dim>128</dim>
					<dim>20</dim>
					<dim>10</dim>
				</port>
				<port id="1">
					<dim>1</dim>
					<dim>128</dim>
					<dim>1</dim>
					<dim>1</dim>
				</port>
			</input>
			<output>
				<port id="2" names="431" precision="FP16">
					<dim>1</dim>
					<dim>128</dim>
					<dim>20</dim>
					<dim>10</dim>
				</port>
			</output>
		</layer>
		<layer id="474" name="432" type="ReLU" version="opset1">
			<input>
				<port id="0">
					<dim>1</dim>
					<dim>128</dim>
					<dim>20</dim>
					<dim>10</dim>
				</port>
			</input>
			<output>
				<port id="1" names="432" precision="FP16">
					<dim>1</dim>
					<dim>128</dim>
					<dim>20</dim>
					<dim>10</dim>
				</port>
			</output>
		</layer>
		<layer id="475" name="433/fq_input_0" type="FakeQuantize" version="opset1">
			<data auto_broadcast="numpy" levels="256"/>
			<input>
				<port id="0">
					<dim>1</dim>
					<dim>128</dim>
					<dim>20</dim>
					<dim>10</dim>
				</port>
				<port id="1"/>
				<port id="2"/>
				<port id="3"/>
				<port id="4"/>
			</input>
			<output>
				<port id="5" precision="FP16">
					<dim>1</dim>
					<dim>128</dim>
					<dim>20</dim>
					<dim>10</dim>
				</port>
			</output>
		</layer>
		<layer id="476" name="434/mean/Fused_Mul__copy4925108/quantized619110355" type="Const" version="opset1">
			<data element_type="i8" offset="830456" shape="512,128,1,1" size="65536"/>
			<output>
				<port id="0" precision="I8">
					<dim>512</dim>
					<dim>128</dim>
					<dim>1</dim>
					<dim>1</dim>
				</port>
			</output>
		</layer>
		<layer id="477" name="434/mean/Fused_Mul__copy4925108/quantized/to_f16" type="Convert" version="opset1">
			<data destination_type="f16"/>
			<input>
				<port id="0">
					<dim>512</dim>
					<dim>128</dim>
					<dim>1</dim>
					<dim>1</dim>
				</port>
			</input>
			<output>
				<port id="1" precision="FP16">
					<dim>512</dim>
					<dim>128</dim>
					<dim>1</dim>
					<dim>1</dim>
				</port>
			</output>
		</layer>
		<layer id="478" name="433/fq_weights_1/zero_point620410466" type="Const" version="opset1">
			<data element_type="f16" offset="895992" shape="512,1,1,1" size="1024"/>
			<output>
				<port id="0" precision="FP16">
					<dim>512</dim>
					<dim>1</dim>
					<dim>1</dim>
					<dim>1</dim>
				</port>
			</output>
		</layer>
		<layer id="479" name="433/fq_weights_1/minus_zp" type="Subtract" version="opset1">
			<data auto_broadcast="numpy"/>
			<input>
				<port id="0">
					<dim>512</dim>
					<dim>128</dim>
					<dim>1</dim>
					<dim>1</dim>
				</port>
				<port id="1">
					<dim>512</dim>
					<dim>1</dim>
					<dim>1</dim>
					<dim>1</dim>
				</port>
			</input>
			<output>
				<port id="2" precision="FP16">
					<dim>512</dim>
					<dim>128</dim>
					<dim>1</dim>
					<dim>1</dim>
				</port>
			</output>
		</layer>
		<layer id="480" name="433/fq_weights_1/scale619910904" type="Const" version="opset1">
			<data element_type="f16" offset="897016" shape="512,1,1,1" size="1024"/>
			<output>
				<port id="0" precision="FP16">
					<dim>512</dim>
					<dim>1</dim>
					<dim>1</dim>
					<dim>1</dim>
				</port>
			</output>
		</layer>
		<layer id="481" name="433/fq_weights_1/mulpiply_by_scale" type="Multiply" version="opset1">
			<data auto_broadcast="numpy"/>
			<input>
				<port id="0">
					<dim>512</dim>
					<dim>128</dim>
					<dim>1</dim>
					<dim>1</dim>
				</port>
				<port id="1">
					<dim>512</dim>
					<dim>1</dim>
					<dim>1</dim>
					<dim>1</dim>
				</port>
			</input>
			<output>
				<port id="2" precision="FP16">
					<dim>512</dim>
					<dim>128</dim>
					<dim>1</dim>
					<dim>1</dim>
				</port>
			</output>
		</layer>
		<layer id="482" name="433" type="Convolution" version="opset1">
			<data auto_pad="explicit" dilations="1,1" pads_begin="0,0" pads_end="0,0" strides="1,1"/>
			<input>
				<port id="0">
					<dim>1</dim>
					<dim>128</dim>
					<dim>20</dim>
					<dim>10</dim>
				</port>
				<port id="1">
					<dim>512</dim>
					<dim>128</dim>
					<dim>1</dim>
					<dim>1</dim>
				</port>
			</input>
			<output>
				<port id="2" precision="FP16">
					<dim>1</dim>
					<dim>512</dim>
					<dim>20</dim>
					<dim>10</dim>
				</port>
			</output>
		</layer>
		<layer id="483" name="data_add_9834983949410502" type="Const" version="opset1">
			<data element_type="f16" offset="898040" shape="1,512,1,1" size="1024"/>
			<output>
				<port id="0" precision="FP16">
					<dim>1</dim>
					<dim>512</dim>
					<dim>1</dim>
					<dim>1</dim>
				</port>
			</output>
		</layer>
		<layer id="484" name="434/variance/Fused_Add_" type="Add" version="opset1">
			<data auto_broadcast="numpy"/>
			<input>
				<port id="0">
					<dim>1</dim>
					<dim>512</dim>
					<dim>20</dim>
					<dim>10</dim>
				</port>
				<port id="1">
					<dim>1</dim>
					<dim>512</dim>
					<dim>1</dim>
					<dim>1</dim>
				</port>
			</input>
			<output>
				<port id="2" names="434" precision="FP16">
					<dim>1</dim>
					<dim>512</dim>
					<dim>20</dim>
					<dim>10</dim>
				</port>
			</output>
		</layer>
		<layer id="485" name="435/fq_input_0" type="FakeQuantize" version="opset1">
			<data auto_broadcast="numpy" levels="256"/>
			<input>
				<port id="0">
					<dim>1</dim>
					<dim>512</dim>
					<dim>20</dim>
					<dim>10</dim>
				</port>
				<port id="1"/>
				<port id="2"/>
				<port id="3"/>
				<port id="4"/>
			</input>
			<output>
				<port id="5" precision="FP16">
					<dim>1</dim>
					<dim>512</dim>
					<dim>20</dim>
					<dim>10</dim>
				</port>
			</output>
		</layer>
		<layer id="486" name="435" type="Add" version="opset1">
			<data auto_broadcast="numpy"/>
			<input>
				<port id="0">
					<dim>1</dim>
					<dim>512</dim>
					<dim>20</dim>
					<dim>10</dim>
				</port>
				<port id="1">
					<dim>1</dim>
					<dim>512</dim>
					<dim>20</dim>
					<dim>10</dim>
				</port>
			</input>
			<output>
				<port id="2" names="435" precision="FP16">
					<dim>1</dim>
					<dim>512</dim>
					<dim>20</dim>
					<dim>10</dim>
				</port>
			</output>
		</layer>
		<layer id="487" name="436" type="ReLU" version="opset1">
			<input>
				<port id="0">
					<dim>1</dim>
					<dim>512</dim>
					<dim>20</dim>
					<dim>10</dim>
				</port>
			</input>
			<output>
				<port id="1" names="436" precision="FP16">
					<dim>1</dim>
					<dim>512</dim>
					<dim>20</dim>
					<dim>10</dim>
				</port>
			</output>
		</layer>
		<layer id="488" name="437/fq_input_0" type="FakeQuantize" version="opset1">
			<data auto_broadcast="numpy" levels="256"/>
			<input>
				<port id="0">
					<dim>1</dim>
					<dim>512</dim>
					<dim>20</dim>
					<dim>10</dim>
				</port>
				<port id="1"/>
				<port id="2"/>
				<port id="3"/>
				<port id="4"/>
			</input>
			<output>
				<port id="5" precision="FP16">
					<dim>1</dim>
					<dim>512</dim>
					<dim>20</dim>
					<dim>10</dim>
				</port>
			</output>
		</layer>
		<layer id="489" name="438/mean/Fused_Mul__copy4985110/quantized691110598" type="Const" version="opset1">
			<data element_type="i8" offset="899064" shape="128,512,1,1" size="65536"/>
			<output>
				<port id="0" precision="I8">
					<dim>128</dim>
					<dim>512</dim>
					<dim>1</dim>
					<dim>1</dim>
				</port>
			</output>
		</layer>
		<layer id="490" name="438/mean/Fused_Mul__copy4985110/quantized/to_f16" type="Convert" version="opset1">
			<data destination_type="f16"/>
			<input>
				<port id="0">
					<dim>128</dim>
					<dim>512</dim>
					<dim>1</dim>
					<dim>1</dim>
				</port>
			</input>
			<output>
				<port id="1" precision="FP16">
					<dim>128</dim>
					<dim>512</dim>
					<dim>1</dim>
					<dim>1</dim>
				</port>
			</output>
		</layer>
		<layer id="491" name="437/fq_weights_1/zero_point692410592" type="Const" version="opset1">
			<data element_type="f16" offset="964600" shape="128,1,1,1" size="256"/>
			<output>
				<port id="0" precision="FP16">
					<dim>128</dim>
					<dim>1</dim>
					<dim>1</dim>
					<dim>1</dim>
				</port>
			</output>
		</layer>
		<layer id="492" name="437/fq_weights_1/minus_zp" type="Subtract" version="opset1">
			<data auto_broadcast="numpy"/>
			<input>
				<port id="0">
					<dim>128</dim>
					<dim>512</dim>
					<dim>1</dim>
					<dim>1</dim>
				</port>
				<port id="1">
					<dim>128</dim>
					<dim>1</dim>
					<dim>1</dim>
					<dim>1</dim>
				</port>
			</input>
			<output>
				<port id="2" precision="FP16">
					<dim>128</dim>
					<dim>512</dim>
					<dim>1</dim>
					<dim>1</dim>
				</port>
			</output>
		</layer>
		<layer id="493" name="437/fq_weights_1/scale691910493" type="Const" version="opset1">
			<data element_type="f16" offset="964856" shape="128,1,1,1" size="256"/>
			<output>
				<port id="0" precision="FP16">
					<dim>128</dim>
					<dim>1</dim>
					<dim>1</dim>
					<dim>1</dim>
				</port>
			</output>
		</layer>
		<layer id="494" name="437/fq_weights_1/mulpiply_by_scale" type="Multiply" version="opset1">
			<data auto_broadcast="numpy"/>
			<input>
				<port id="0">
					<dim>128</dim>
					<dim>512</dim>
					<dim>1</dim>
					<dim>1</dim>
				</port>
				<port id="1">
					<dim>128</dim>
					<dim>1</dim>
					<dim>1</dim>
					<dim>1</dim>
				</port>
			</input>
			<output>
				<port id="2" precision="FP16">
					<dim>128</dim>
					<dim>512</dim>
					<dim>1</dim>
					<dim>1</dim>
				</port>
			</output>
		</layer>
		<layer id="495" name="437" type="Convolution" version="opset1">
			<data auto_pad="explicit" dilations="1,1" pads_begin="0,0" pads_end="0,0" strides="1,1"/>
			<input>
				<port id="0">
					<dim>1</dim>
					<dim>512</dim>
					<dim>20</dim>
					<dim>10</dim>
				</port>
				<port id="1">
					<dim>128</dim>
					<dim>512</dim>
					<dim>1</dim>
					<dim>1</dim>
				</port>
			</input>
			<output>
				<port id="2" precision="FP16">
					<dim>1</dim>
					<dim>128</dim>
					<dim>20</dim>
					<dim>10</dim>
				</port>
			</output>
		</layer>
		<layer id="496" name="data_add_984298475009737" type="Const" version="opset1">
			<data element_type="f16" offset="965112" shape="1,128,1,1" size="256"/>
			<output>
				<port id="0" precision="FP16">
					<dim>1</dim>
					<dim>128</dim>
					<dim>1</dim>
					<dim>1</dim>
				</port>
			</output>
		</layer>
		<layer id="497" name="438/variance/Fused_Add_" type="Add" version="opset1">
…
		<edge from-layer="523" from-port="5" to-layer="556" to-port="1"/>
		<edge from-layer="556" from-port="2" to-layer="557" to-port="0"/>
		<edge from-layer="557" from-port="1" to-layer="558" to-port="0"/>
		<edge from-layer="148" from-port="0" to-layer="558" to-port="1"/>
		<edge from-layer="149" from-port="0" to-layer="558" to-port="2"/>
		<edge from-layer="150" from-port="0" to-layer="558" to-port="3"/>
		<edge from-layer="151" from-port="0" to-layer="558" to-port="4"/>
		<edge from-layer="559" from-port="0" to-layer="560" to-port="0"/>
		<edge from-layer="560" from-port="1" to-layer="562" to-port="0"/>
		<edge from-layer="561" from-port="0" to-layer="562" to-port="1"/>
		<edge from-layer="562" from-port="2" to-layer="564" to-port="0"/>
		<edge from-layer="563" from-port="0" to-layer="564" to-port="1"/>
		<edge from-layer="558" from-port="5" to-layer="565" to-port="0"/>
		<edge from-layer="564" from-port="2" to-layer="565" to-port="1"/>
		<edge from-layer="565" from-port="2" to-layer="567" to-port="0"/>
		<edge from-layer="566" from-port="0" to-layer="567" to-port="1"/>
		<edge from-layer="567" from-port="2" to-layer="568" to-port="0"/>
		<edge from-layer="568" from-port="1" to-layer="569" to-port="0"/>
		<edge from-layer="144" from-port="0" to-layer="569" to-port="1"/>
		<edge from-layer="145" from-port="0" to-layer="569" to-port="2"/>
		<edge from-layer="146" from-port="0" to-layer="569" to-port="3"/>
		<edge from-layer="147" from-port="0" to-layer="569" to-port="4"/>
		<edge from-layer="570" from-port="0" to-layer="571" to-port="0"/>
		<edge from-layer="571" from-port="1" to-layer="573" to-port="0"/>
		<edge from-layer="572" from-port="0" to-layer="573" to-port="1"/>
		<edge from-layer="573" from-port="2" to-layer="575" to-port="0"/>
		<edge from-layer="574" from-port="0" to-layer="575" to-port="1"/>
		<edge from-layer="569" from-port="5" to-layer="576" to-port="0"/>
		<edge from-layer="575" from-port="2" to-layer="576" to-port="1"/>
		<edge from-layer="576" from-port="2" to-layer="578" to-port="0"/>
		<edge from-layer="577" from-port="0" to-layer="578" to-port="1"/>
		<edge from-layer="578" from-port="2" to-layer="579" to-port="0"/>
		<edge from-layer="579" from-port="1" to-layer="580" to-port="0"/>
		<edge from-layer="140" from-port="0" to-layer="580" to-port="1"/>
		<edge from-layer="141" from-port="0" to-layer="580" to-port="2"/>
		<edge from-layer="142" from-port="0" to-layer="580" to-port="3"/>
		<edge from-layer="143" from-port="0" to-layer="580" to-port="4"/>
		<edge from-layer="581" from-port="0" to-layer="582" to-port="0"/>
		<edge from-layer="582" from-port="1" to-layer="584" to-port="0"/>
		<edge from-layer="583" from-port="0" to-layer="584" to-port="1"/>
		<edge from-layer="584" from-port="2" to-layer="586" to-port="0"/>
		<edge from-layer="585" from-port="0" to-layer="586" to-port="1"/>
		<edge from-layer="580" from-port="5" to-layer="587" to-port="0"/>
		<edge from-layer="586" from-port="2" to-layer="587" to-port="1"/>
		<edge from-layer="587" from-port="2" to-layer="589" to-port="0"/>
		<edge from-layer="588" from-port="0" to-layer="589" to-port="1"/>
		<edge from-layer="589" from-port="2" to-layer="590" to-port="0"/>
		<edge from-layer="136" from-port="0" to-layer="590" to-port="1"/>
		<edge from-layer="137" from-port="0" to-layer="590" to-port="2"/>
		<edge from-layer="138" from-port="0" to-layer="590" to-port="3"/>
		<edge from-layer="139" from-port="0" to-layer="590" to-port="4"/>
		<edge from-layer="595" from-port="0" to-layer="596" to-port="0"/>
		<edge from-layer="596" from-port="1" to-layer="598" to-port="0"/>
		<edge from-layer="597" from-port="0" to-layer="598" to-port="1"/>
		<edge from-layer="598" from-port="2" to-layer="600" to-port="0"/>
		<edge from-layer="599" from-port="0" to-layer="600" to-port="1"/>
		<edge from-layer="558" from-port="5" to-layer="601" to-port="0"/>
		<edge from-layer="600" from-port="2" to-layer="601" to-port="1"/>
		<edge from-layer="601" from-port="2" to-layer="603" to-port="0"/>
		<edge from-layer="602" from-port="0" to-layer="603" to-port="1"/>
		<edge from-layer="603" from-port="2" to-layer="604" to-port="0"/>
		<edge from-layer="591" from-port="0" to-layer="604" to-port="1"/>
		<edge from-layer="592" from-port="0" to-layer="604" to-port="2"/>
		<edge from-layer="593" from-port="0" to-layer="604" to-port="3"/>
		<edge from-layer="594" from-port="0" to-layer="604" to-port="4"/>
		<edge from-layer="590" from-port="5" to-layer="605" to-port="0"/>
		<edge from-layer="604" from-port="5" to-layer="605" to-port="1"/>
		<edge from-layer="605" from-port="2" to-layer="606" to-port="0"/>
		<edge from-layer="606" from-port="1" to-layer="607" to-port="0"/>
		<edge from-layer="132" from-port="0" to-layer="607" to-port="1"/>
		<edge from-layer="133" from-port="0" to-layer="607" to-port="2"/>
		<edge from-layer="134" from-port="0" to-layer="607" to-port="3"/>
		<edge from-layer="135" from-port="0" to-layer="607" to-port="4"/>
		<edge from-layer="608" from-port="0" to-layer="609" to-port="0"/>
		<edge from-layer="609" from-port="1" to-layer="611" to-port="0"/>
		<edge from-layer="610" from-port="0" to-layer="611" to-port="1"/>
		<edge from-layer="611" from-port="2" to-layer="613" to-port="0"/>
		<edge from-layer="612" from-port="0" to-layer="613" to-port="1"/>
		<edge from-layer="607" from-port="5" to-layer="614" to-port="0"/>
		<edge from-layer="613" from-port="2" to-layer="614" to-port="1"/>
		<edge from-layer="614" from-port="2" to-layer="616" to-port="0"/>
		<edge from-layer="615" from-port="0" to-layer="616" to-port="1"/>
		<edge from-layer="616" from-port="2" to-layer="617" to-port="0"/>
		<edge from-layer="617" from-port="1" to-layer="618" to-port="0"/>
		<edge from-layer="128" from-port="0" to-layer="618" to-port="1"/>
		<edge from-layer="129" from-port="0" to-layer="618" to-port="2"/>
		<edge from-layer="130" from-port="0" to-layer="618" to-port="3"/>
		<edge from-layer="131" from-port="0" to-layer="618" to-port="4"/>
		<edge from-layer="619" from-port="0" to-layer="620" to-port="0"/>
		<edge from-layer="620" from-port="1" to-layer="622" to-port="0"/>
		<edge from-layer="621" from-port="0" to-layer="622" to-port="1"/>
		<edge from-layer="622" from-port="2" to-layer="624" to-port="0"/>
		<edge from-layer="623" from-port="0" to-layer="624" to-port="1"/>
		<edge from-layer="618" from-port="5" to-layer="625" to-port="0"/>
		<edge from-layer="624" from-port="2" to-layer="625" to-port="1"/>
		<edge from-layer="625" from-port="2" to-layer="627" to-port="0"/>
		<edge from-layer="626" from-port="0" to-layer="627" to-port="1"/>
		<edge from-layer="627" from-port="2" to-layer="628" to-port="0"/>
		<edge from-layer="628" from-port="1" to-layer="629" to-port="0"/>
		<edge from-layer="124" from-port="0" to-layer="629" to-port="1"/>
		<edge from-layer="125" from-port="0" to-layer="629" to-port="2"/>
		<edge from-layer="126" from-port="0" to-layer="629" to-port="3"/>
		<edge from-layer="127" from-port="0" to-layer="629" to-port="4"/>
		<edge from-layer="630" from-port="0" to-layer="631" to-port="0"/>
		<edge from-layer="631" from-port="1" to-layer="633" to-port="0"/>
		<edge from-layer="632" from-port="0" to-layer="633" to-port="1"/>
		<edge from-layer="633" from-port="2" to-layer="635" to-port="0"/>
		<edge from-layer="634" from-port="0" to-layer="635" to-port="1"/>
		<edge from-layer="629" from-port="5" to-layer="636" to-port="0"/>
		<edge from-layer="635" from-port="2" to-layer="636" to-port="1"/>
		<edge from-layer="636" from-port="2" to-layer="638" to-port="0"/>
		<edge from-layer="637" from-port="0" to-layer="638" to-port="1"/>
		<edge from-layer="638" from-port="2" to-layer="639" to-port="0"/>
		<edge from-layer="120" from-port="0" to-layer="639" to-port="1"/>
		<edge from-layer="121" from-port="0" to-layer="639" to-port="2"/>
		<edge from-layer="122" from-port="0" to-layer="639" to-port="3"/>
		<edge from-layer="123" from-port="0" to-layer="639" to-port="4"/>
		<edge from-layer="639" from-port="5" to-layer="640" to-port="0"/>
		<edge from-layer="607" from-port="5" to-layer="640" to-port="1"/>
		<edge from-layer="640" from-port="2" to-layer="641" to-port="0"/>
		<edge from-layer="641" from-port="1" to-layer="642" to-port="0"/>
		<edge from-layer="116" from-port="0" to-layer="642" to-port="1"/>
		<edge from-layer="117" from-port="0" to-layer="642" to-port="2"/>
		<edge from-layer="118" from-port="0" to-layer="642" to-port="3"/>
		<edge from-layer="119" from-port="0" to-layer="642" to-port="4"/>
		<edge from-layer="643" from-port="0" to-layer="644" to-port="0"/>
		<edge from-layer="644" from-port="1" to-layer="646" to-port="0"/>
		<edge from-layer="645" from-port="0" to-layer="646" to-port="1"/>
		<edge from-layer="646" from-port="2" to-layer="648" to-port="0"/>
		<edge from-layer="647" from-port="0" to-layer="648" to-port="1"/>
		<edge from-layer="642" from-port="5" to-layer="649" to-port="0"/>
		<edge from-layer="648" from-port="2" to-layer="649" to-port="1"/>
		<edge from-layer="649" from-port="2" to-layer="651" to-port="0"/>
		<edge from-layer="650" from-port="0" to-layer="651" to-port="1"/>
		<edge from-layer="651" from-port="2" to-layer="652" to-port="0"/>
		<edge from-layer="652" from-port="1" to-layer="653" to-port="0"/>
		<edge from-layer="112" from-port="0" to-layer="653" to-port="1"/>
		<edge from-layer="113" from-port="0" to-layer="653" to-port="2"/>
		<edge from-layer="114" from-port="0" to-layer="653" to-port="3"/>
		<edge from-layer="115" from-port="0" to-layer="653" to-port="4"/>
		<edge from-layer="654" from-port="0" to-layer="655" to-port="0"/>
		<edge from-layer="655" from-port="1" to-layer="657" to-port="0"/>
		<edge from-layer="656" from-port="0" to-layer="657" to-port="1"/>
		<edge from-layer="657" from-port="2" to-layer="659" to-port="0"/>
		<edge from-layer="658" from-port="0" to-layer="659" to-port="1"/>
		<edge from-layer="653" from-port="5" to-layer="660" to-port="0"/>
		<edge from-layer="659" from-port="2" to-layer="660" to-port="1"/>
		<edge from-layer="660" from-port="2" to-layer="662" to-port="0"/>
		<edge from-layer="661" from-port="0" to-layer="662" to-port="1"/>
		<edge from-layer="662" from-port="2" to-layer="663" to-port="0"/>
		<edge from-layer="663" from-port="1" to-layer="664" to-port="0"/>
		<edge from-layer="108" from-port="0" to-layer="664" to-port="1"/>
		<edge from-layer="109" from-port="0" to-layer="664" to-port="2"/>
		<edge from-layer="110" from-port="0" to-layer="664" to-port="3"/>
		<edge from-layer="111" from-port="0" to-layer="664" to-port="4"/>
		<edge from-layer="665" from-port="0" to-layer="666" to-port="0"/>
		<edge from-layer="666" from-port="1" to-layer="668" to-port="0"/>
		<edge from-layer="667" from-port="0" to-layer="668" to-port="1"/>
		<edge from-layer="668" from-port="2" to-layer="670" to-port="0"/>
		<edge from-layer="669" from-port="0" to-layer="670" to-port="1"/>
		<edge from-layer="664" from-port="5" to-layer="671" to-port="0"/>
		<edge from-layer="670" from-port="2" to-layer="671" to-port="1"/>
		<edge from-layer="671" from-port="2" to-layer="673" to-port="0"/>
		<edge from-layer="672" from-port="0" to-layer="673" to-port="1"/>
		<edge from-layer="673" from-port="2" to-layer="674" to-port="0"/>
		<edge from-layer="104" from-port="0" to-layer="674" to-port="1"/>
		<edge from-layer="105" from-port="0" to-layer="674" to-port="2"/>
		<edge from-layer="106" from-port="0" to-layer="674" to-port="3"/>
		<edge from-layer="107" from-port="0" to-layer="674" to-port="4"/>
		<edge from-layer="674" from-port="5" to-layer="675" to-port="0"/>
		<edge from-layer="642" from-port="5" to-layer="675" to-port="1"/>
		<edge from-layer="675" from-port="2" to-layer="676" to-port="0"/>
		<edge from-layer="676" from-port="1" to-layer="677" to-port="0"/>
		<edge from-layer="100" from-port="0" to-layer="677" to-port="1"/>
		<edge from-layer="101" from-port="0" to-layer="677" to-port="2"/>
		<edge from-layer="102" from-port="0" to-layer="677" to-port="3"/>
		<edge from-layer="103" from-port="0" to-layer="677" to-port="4"/>
		<edge from-layer="678" from-port="0" to-layer="679" to-port="0"/>
		<edge from-layer="679" from-port="1" to-layer="681" to-port="0"/>
		<edge from-layer="680" from-port="0" to-layer="681" to-port="1"/>
		<edge from-layer="681" from-port="2" to-layer="683" to-port="0"/>
		<edge from-layer="682" from-port="0" to-layer="683" to-port="1"/>
		<edge from-layer="677" from-port="5" to-layer="684" to-port="0"/>
		<edge from-layer="683" from-port="2" to-layer="684" to-port="1"/>
		<edge from-layer="684" from-port="2" to-layer="686" to-port="0"/>
		<edge from-layer="685" from-port="0" to-layer="686" to-port="1"/>
		<edge from-layer="686" from-port="2" to-layer="687" to-port="0"/>
		<edge from-layer="687" from-port="1" to-layer="688" to-port="0"/>
		<edge from-layer="96" from-port="0" to-layer="688" to-port="1"/>
		<edge from-layer="97" from-port="0" to-layer="688" to-port="2"/>
		<edge from-layer="98" from-port="0" to-layer="688" to-port="3"/>
		<edge from-layer="99" from-port="0" to-layer="688" to-port="4"/>
		<edge from-layer="689" from-port="0" to-layer="690" to-port="0"/>
		<edge from-layer="690" from-port="1" to-layer="692" to-port="0"/>
		<edge from-layer="691" from-port="0" to-layer="692" to-port="1"/>
		<edge from-layer="692" from-port="2" to-layer="694" to-port="0"/>
		<edge from-layer="693" from-port="0" to-layer="694" to-port="1"/>
		<edge from-layer="688" from-port="5" to-layer="695" to-port="0"/>
		<edge from-layer="694" from-port="2" to-layer="695" to-port="1"/>
		<edge from-layer="695" from-port="2" to-layer="697" to-port="0"/>
		<edge from-layer="696" from-port="0" to-layer="697" to-port="1"/>
		<edge from-layer="697" from-port="2" to-layer="698" to-port="0"/>
		<edge from-layer="698" from-port="1" to-layer="699" to-port="0"/>
		<edge from-layer="92" from-port="0" to-layer="699" to-port="1"/>
		<edge from-layer="93" from-port="0" to-layer="699" to-port="2"/>
		<edge from-layer="94" from-port="0" to-layer="699" to-port="3"/>
		<edge from-layer="95" from-port="0" to-layer="699" to-port="4"/>
		<edge from-layer="700" from-port="0" to-layer="701" to-port="0"/>
		<edge from-layer="701" from-port="1" to-layer="703" to-port="0"/>
		<edge from-layer="702" from-port="0" to-layer="703" to-port="1"/>
		<edge from-layer="703" from-port="2" to-layer="705" to-port="0"/>
		<edge from-layer="704" from-port="0" to-layer="705" to-port="1"/>
		<edge from-layer="699" from-port="5" to-layer="706" to-port="0"/>
		<edge from-layer="705" from-port="2" to-layer="706" to-port="1"/>
		<edge from-layer="706" from-port="2" to-layer="708" to-port="0"/>
		<edge from-layer="707" from-port="0" to-layer="708" to-port="1"/>
		<edge from-layer="708" from-port="2" to-layer="709" to-port="0"/>
		<edge from-layer="88" from-port="0" to-layer="709" to-port="1"/>
		<edge from-layer="89" from-port="0" to-layer="709" to-port="2"/>
		<edge from-layer="90" from-port="0" to-layer="709" to-port="3"/>
		<edge from-layer="91" from-port="0" to-layer="709" to-port="4"/>
		<edge from-layer="709" from-port="5" to-layer="710" to-port="0"/>
		<edge from-layer="677" from-port="5" to-layer="710" to-port="1"/>
		<edge from-layer="710" from-port="2" to-layer="711" to-port="0"/>
		<edge from-layer="711" from-port="1" to-layer="712" to-port="0"/>
		<edge from-layer="84" from-port="0" to-layer="712" to-port="1"/>
		<edge from-layer="85" from-port="0" to-layer="712" to-port="2"/>
		<edge from-layer="86" from-port="0" to-layer="712" to-port="3"/>
		<edge from-layer="87" from-port="0" to-layer="712" to-port="4"/>
		<edge from-layer="713" from-port="0" to-layer="714" to-port="0"/>
		<edge from-layer="714" from-port="1" to-layer="716" to-port="0"/>
		<edge from-layer="715" from-port="0" to-layer="716" to-port="1"/>
		<edge from-layer="716" from-port="2" to-layer="718" to-port="0"/>
		<edge from-layer="717" from-port="0" to-layer="718" to-port="1"/>
		<edge from-layer="712" from-port="5" to-layer="719" to-port="0"/>
		<edge from-layer="718" from-port="2" to-layer="719" to-port="1"/>
		<edge from-layer="719" from-port="2" to-layer="721" to-port="0"/>
		<edge from-layer="720" from-port="0" to-layer="721" to-port="1"/>
		<edge from-layer="721" from-port="2" to-layer="722" to-port="0"/>
		<edge from-layer="722" from-port="1" to-layer="723" to-port="0"/>
		<edge from-layer="80" from-port="0" to-layer="723" to-port="1"/>
		<edge from-layer="81" from-port="0" to-layer="723" to-port="2"/>
		<edge from-layer="82" from-port="0" to-layer="723" to-port="3"/>
		<edge from-layer="83" from-port="0" to-layer="723" to-port="4"/>
		<edge from-layer="724" from-port="0" to-layer="725" to-port="0"/>
		<edge from-layer="725" from-port="1" to-layer="727" to-port="0"/>
		<edge from-layer="726" from-port="0" to-layer="727" to-port="1"/>
		<edge from-layer="727" from-port="2" to-layer="729" to-port="0"/>
		<edge from-layer="728" from-port="0" to-layer="729" to-port="1"/>
		<edge from-layer="723" from-port="5" to-layer="730" to-port="0"/>
		<edge from-layer="729" from-port="2" to-layer="730" to-port="1"/>
		<edge from-layer="730" from-port="2" to-layer="732" to-port="0"/>
		<edge from-layer="731" from-port="0" to-layer="732" to-port="1"/>
		<edge from-layer="732" from-port="2" to-layer="733" to-port="0"/>
		<edge from-layer="733" from-port="1" to-layer="734" to-port="0"/>
		<edge from-layer="76" from-port="0" to-layer="734" to-port="1"/>
		<edge from-layer="77" from-port="0" to-layer="734" to-port="2"/>
		<edge from-layer="78" from-port="0" to-layer="734" to-port="3"/>
		<edge from-layer="79" from-port="0" to-layer="734" to-port="4"/>
		<edge from-layer="735" from-port="0" to-layer="736" to-port="0"/>
		<edge from-layer="736" from-port="1" to-layer="738" to-port="0"/>
		<edge from-layer="737" from-port="0" to-layer="738" to-port="1"/>
		<edge from-layer="738" from-port="2" to-layer="740" to-port="0"/>
		<edge from-layer="739" from-port="0" to-layer="740" to-port="1"/>
		<edge from-layer="734" from-port="5" to-layer="741" to-port="0"/>
		<edge from-layer="740" from-port="2" to-layer="741" to-port="1"/>
		<edge from-layer="741" from-port="2" to-layer="743" to-port="0"/>
		<edge from-layer="742" from-port="0" to-layer="743" to-port="1"/>
		<edge from-layer="743" from-port="2" to-layer="744" to-port="0"/>
		<edge from-layer="72" from-port="0" to-layer="744" to-port="1"/>
		<edge from-layer="73" from-port="0" to-layer="744" to-port="2"/>
		<edge from-layer="74" from-port="0" to-layer="744" to-port="3"/>
		<edge from-layer="75" from-port="0" to-layer="744" to-port="4"/>
		<edge from-layer="744" from-port="5" to-layer="745" to-port="0"/>
		<edge from-layer="712" from-port="5" to-layer="745" to-port="1"/>
		<edge from-layer="745" from-port="2" to-layer="746" to-port="0"/>
		<edge from-layer="746" from-port="1" to-layer="747" to-port="0"/>
		<edge from-layer="68" from-port="0" to-layer="747" to-port="1"/>
		<edge from-layer="69" from-port="0" to-layer="747" to-port="2"/>
		<edge from-layer="70" from-port="0" to-layer="747" to-port="3"/>
		<edge from-layer="71" from-port="0" to-layer="747" to-port="4"/>
		<edge from-layer="748" from-port="0" to-layer="749" to-port="0"/>
		<edge from-layer="749" from-port="1" to-layer="751" to-port="0"/>
		<edge from-layer="750" from-port="0" to-layer="751" to-port="1"/>
		<edge from-layer="751" from-port="2" to-layer="753" to-port="0"/>
		<edge from-layer="752" from-port="0" to-layer="753" to-port="1"/>
		<edge from-layer="747" from-port="5" to-layer="754" to-port="0"/>
		<edge from-layer="753" from-port="2" to-layer="754" to-port="1"/>
		<edge from-layer="754" from-port="2" to-layer="756" to-port="0"/>
		<edge from-layer="755" from-port="0" to-layer="756" to-port="1"/>
		<edge from-layer="756" from-port="2" to-layer="757" to-port="0"/>
		<edge from-layer="757" from-port="1" to-layer="758" to-port="0"/>
		<edge from-layer="64" from-port="0" to-layer="758" to-port="1"/>
		<edge from-layer="65" from-port="0" to-layer="758" to-port="2"/>
		<edge from-layer="66" from-port="0" to-layer="758" to-port="3"/>
		<edge from-layer="67" from-port="0" to-layer="758" to-port="4"/>
		<edge from-layer="759" from-port="0" to-layer="760" to-port="0"/>
		<edge from-layer="760" from-port="1" to-layer="762" to-port="0"/>
		<edge from-layer="761" from-port="0" to-layer="762" to-port="1"/>
		<edge from-layer="762" from-port="2" to-layer="764" to-port="0"/>
		<edge from-layer="763" from-port="0" to-layer="764" to-port="1"/>
		<edge from-layer="758" from-port="5" to-layer="765" to-port="0"/>
		<edge from-layer="764" from-port="2" to-layer="765" to-port="1"/>
		<edge from-layer="765" from-port="2" to-layer="767" to-port="0"/>
		<edge from-layer="766" from-port="0" to-layer="767" to-port="1"/>
		<edge from-layer="767" from-port="2" to-layer="768" to-port="0"/>
		<edge from-layer="768" from-port="1" to-layer="769" to-port="0"/>
		<edge from-layer="60" from-port="0" to-layer="769" to-port="1"/>
		<edge from-layer="61" from-port="0" to-layer="769" to-port="2"/>
		<edge from-layer="62" from-port="0" to-layer="769" to-port="3"/>
		<edge from-layer="63" from-port="0" to-layer="769" to-port="4"/>
		<edge from-layer="770" from-port="0" to-layer="771" to-port="0"/>
		<edge from-layer="771" from-port="1" to-layer="773" to-port="0"/>
		<edge from-layer="772" from-port="0" to-layer="773" to-port="1"/>
		<edge from-layer="773" from-port="2" to-layer="775" to-port="0"/>
		<edge from-layer="774" from-port="0" to-layer="775" to-port="1"/>
		<edge from-layer="769" from-port="5" to-layer="776" to-port="0"/>
		<edge from-layer="775" from-port="2" to-layer="776" to-port="1"/>
		<edge from-layer="776" from-port="2" to-layer="778" to-port="0"/>
		<edge from-layer="777" from-port="0" to-layer="778" to-port="1"/>
		<edge from-layer="778" from-port="2" to-layer="779" to-port="0"/>
		<edge from-layer="56" from-port="0" to-layer="779" to-port="1"/>
		<edge from-layer="57" from-port="0" to-layer="779" to-port="2"/>
		<edge from-layer="58" from-port="0" to-layer="779" to-port="3"/>
		<edge from-layer="59" from-port="0" to-layer="779" to-port="4"/>
		<edge from-layer="779" from-port="5" to-layer="780" to-port="0"/>
		<edge from-layer="747" from-port="5" to-layer="780" to-port="1"/>
		<edge from-layer="780" from-port="2" to-layer="781" to-port="0"/>
		<edge from-layer="781" from-port="1" to-layer="782" to-port="0"/>
		<edge from-layer="52" from-port="0" to-layer="782" to-port="1"/>
		<edge from-layer="53" from-port="0" to-layer="782" to-port="2"/>
		<edge from-layer="54" from-port="0" to-layer="782" to-port="3"/>
		<edge from-layer="55" from-port="0" to-layer="782" to-port="4"/>
		<edge from-layer="783" from-port="0" to-layer="784" to-port="0"/>
		<edge from-layer="784" from-port="1" to-layer="786" to-port="0"/>
		<edge from-layer="785" from-port="0" to-layer="786" to-port="1"/>
		<edge from-layer="786" from-port="2" to-layer="788" to-port="0"/>
		<edge from-layer="787" from-port="0" to-layer="788" to-port="1"/>
		<edge from-layer="782" from-port="5" to-layer="789" to-port="0"/>
		<edge from-layer="788" from-port="2" to-layer="789" to-port="1"/>
		<edge from-layer="789" from-port="2" to-layer="791" to-port="0"/>
		<edge from-layer="790" from-port="0" to-layer="791" to-port="1"/>
		<edge from-layer="791" from-port="2" to-layer="792" to-port="0"/>
		<edge from-layer="792" from-port="1" to-layer="793" to-port="0"/>
		<edge from-layer="48" from-port="0" to-layer="793" to-port="1"/>
		<edge from-layer="49" from-port="0" to-layer="793" to-port="2"/>
		<edge from-layer="50" from-port="0" to-layer="793" to-port="3"/>
		<edge from-layer="51" from-port="0" to-layer="793" to-port="4"/>
		<edge from-layer="794" from-port="0" to-layer="795" to-port="0"/>
		<edge from-layer="795" from-port="1" to-layer="797" to-port="0"/>
		<edge from-layer="796" from-port="0" to-layer="797" to-port="1"/>
		<edge from-layer="797" from-port="2" to-layer="799" to-port="0"/>
		<edge from-layer="798" from-port="0" to-layer="799" to-port="1"/>
		<edge from-layer="793" from-port="5" to-layer="800" to-port="0"/>
		<edge from-layer="799" from-port="2" to-layer="800" to-port="1"/>
		<edge from-layer="800" from-port="2" to-layer="802" to-port="0"/>
		<edge from-layer="801" from-port="0" to-layer="802" to-port="1"/>
		<edge from-layer="802" from-port="2" to-layer="803" to-port="0"/>
		<edge from-layer="803" from-port="1" to-layer="804" to-port="0"/>
		<edge from-layer="44" from-port="0" to-layer="804" to-port="1"/>
		<edge from-layer="45" from-port="0" to-layer="804" to-port="2"/>
		<edge from-layer="46" from-port="0" to-layer="804" to-port="3"/>
		<edge from-layer="47" from-port="0" to-layer="804" to-port="4"/>
		<edge from-layer="805" from-port="0" to-layer="806" to-port="0"/>
		<edge from-layer="806" from-port="1" to-layer="808" to-port="0"/>
		<edge from-layer="807" from-port="0" to-layer="808" to-port="1"/>
		<edge from-layer="808" from-port="2" to-layer="810" to-port="0"/>
		<edge from-layer="809" from-port="0" to-layer="810" to-port="1"/>
		<edge from-layer="804" from-port="5" to-layer="811" to-port="0"/>
		<edge from-layer="810" from-port="2" to-layer="811" to-port="1"/>
		<edge from-layer="811" from-port="2" to-layer="813" to-port="0"/>
		<edge from-layer="812" from-port="0" to-layer="813" to-port="1"/>
		<edge from-layer="813" from-port="2" to-layer="814" to-port="0"/>
		<edge from-layer="40" from-port="0" to-layer="814" to-port="1"/>
		<edge from-layer="41" from-port="0" to-layer="814" to-port="2"/>
		<edge from-layer="42" from-port="0" to-layer="814" to-port="3"/>
		<edge from-layer="43" from-port="0" to-layer="814" to-port="4"/>
		<edge from-layer="819" from-port="0" to-layer="820" to-port="0"/>
		<edge from-layer="820" from-port="1" to-layer="822" to-port="0"/>
		<edge from-layer="821" from-port="0" to-layer="822" to-port="1"/>
		<edge from-layer="822" from-port="2" to-layer="824" to-port="0"/>
		<edge from-layer="823" from-port="0" to-layer="824" to-port="1"/>
		<edge from-layer="782" from-port="5" to-layer="825" to-port="0"/>
		<edge from-layer="824" from-port="2" to-layer="825" to-port="1"/>
		<edge from-layer="825" from-port="2" to-layer="827" to-port="0"/>
		<edge from-layer="826" from-port="0" to-layer="827" to-port="1"/>
		<edge from-layer="827" from-port="2" to-layer="828" to-port="0"/>
		<edge from-layer="815" from-port="0" to-layer="828" to-port="1"/>
		<edge from-layer="816" from-port="0" to-layer="828" to-port="2"/>
		<edge from-layer="817" from-port="0" to-layer="828" to-port="3"/>
		<edge from-layer="818" from-port="0" to-layer="828" to-port="4"/>
		<edge from-layer="814" from-port="5" to-layer="829" to-port="0"/>
		<edge from-layer="828" from-port="5" to-layer="829" to-port="1"/>
		<edge from-layer="829" from-port="2" to-layer="830" to-port="0"/>
		<edge from-layer="830" from-port="1" to-layer="831" to-port="0"/>
		<edge from-layer="36" from-port="0" to-layer="831" to-port="1"/>
		<edge from-layer="37" from-port="0" to-layer="831" to-port="2"/>
		<edge from-layer="38" from-port="0" to-layer="831" to-port="3"/>
		<edge from-layer="39" from-port="0" to-layer="831" to-port="4"/>
		<edge from-layer="832" from-port="0" to-layer="833" to-port="0"/>
		<edge from-layer="833" from-port="1" to-layer="835" to-port="0"/>
		<edge from-layer="834" from-port="0" to-layer="835" to-port="1"/>
		<edge from-layer="835" from-port="2" to-layer="837" to-port="0"/>
		<edge from-layer="836" from-port="0" to-layer="837" to-port="1"/>
		<edge from-layer="831" from-port="5" to-layer="838" to-port="0"/>
		<edge from-layer="837" from-port="2" to-layer="838" to-port="1"/>
		<edge from-layer="838" from-port="2" to-layer="840" to-port="0"/>
		<edge from-layer="839" from-port="0" to-layer="840" to-port="1"/>
		<edge from-layer="840" from-port="2" to-layer="841" to-port="0"/>
		<edge from-layer="841" from-port="1" to-layer="842" to-port="0"/>
		<edge from-layer="32" from-port="0" to-layer="842" to-port="1"/>
		<edge from-layer="33" from-port="0" to-layer="842" to-port="2"/>
		<edge from-layer="34" from-port="0" to-layer="842" to-port="3"/>
		<edge from-layer="35" from-port="0" to-layer="842" to-port="4"/>
		<edge from-layer="843" from-port="0" to-layer="844" to-port="0"/>
		<edge from-layer="844" from-port="1" to-layer="846" to-port="0"/>
		<edge from-layer="845" from-port="0" to-layer="846" to-port="1"/>
		<edge from-layer="846" from-port="2" to-layer="848" to-port="0"/>
		<edge from-layer="847" from-port="0" to-layer="848" to-port="1"/>
		<edge from-layer="842" from-port="5" to-layer="849" to-port="0"/>
		<edge from-layer="848" from-port="2" to-layer="849" to-port="1"/>
		<edge from-layer="849" from-port="2" to-layer="851" to-port="0"/>
		<edge from-layer="850" from-port="0" to-layer="851" to-port="1"/>
		<edge from-layer="851" from-port="2" to-layer="852" to-port="0"/>
		<edge from-layer="852" from-port="1" to-layer="853" to-port="0"/>
		<edge from-layer="28" from-port="0" to-layer="853" to-port="1"/>
		<edge from-layer="29" from-port="0" to-layer="853" to-port="2"/>
		<edge from-layer="30" from-port="0" to-layer="853" to-port="3"/>
		<edge from-layer="31" from-port="0" to-layer="853" to-port="4"/>
		<edge from-layer="854" from-port="0" to-layer="855" to-port="0"/>
		<edge from-layer="855" from-port="1" to-layer="857" to-port="0"/>
		<edge from-layer="856" from-port="0" to-layer="857" to-port="1"/>
		<edge from-layer="857" from-port="2" to-layer="859" to-port="0"/>
		<edge from-layer="858" from-port="0" to-layer="859" to-port="1"/>
		<edge from-layer="853" from-port="5" to-layer="860" to-port="0"/>
		<edge from-layer="859" from-port="2" to-layer="860" to-port="1"/>
		<edge from-layer="860" from-port="2" to-layer="862" to-port="0"/>
		<edge from-layer="861" from-port="0" to-layer="862" to-port="1"/>
		<edge from-layer="862" from-port="2" to-layer="863" to-port="0"/>
		<edge from-layer="24" from-port="0" to-layer="863" to-port="1"/>
		<edge from-layer="25" from-port="0" to-layer="863" to-port="2"/>
		<edge from-layer="26" from-port="0" to-layer="863" to-port="3"/>
		<edge from-layer="27" from-port="0" to-layer="863" to-port="4"/>
		<edge from-layer="863" from-port="5" to-layer="864" to-port="0"/>
		<edge from-layer="831" from-port="5" to-layer="864" to-port="1"/>
		<edge from-layer="864" from-port="2" to-layer="865" to-port="0"/>
		<edge from-layer="865" from-port="1" to-layer="866" to-port="0"/>
		<edge from-layer="20" from-port="0" to-layer="866" to-port="1"/>
		<edge from-layer="21" from-port="0" to-layer="866" to-port="2"/>
		<edge from-layer="22" from-port="0" to-layer="866" to-port="3"/>
		<edge from-layer="23" from-port="0" to-layer="866" to-port="4"/>
		<edge from-layer="867" from-port="0" to-layer="868" to-port="0"/>
		<edge from-layer="868" from-port="1" to-layer="870" to-port="0"/>
		<edge from-layer="869" from-port="0" to-layer="870" to-port="1"/>
		<edge from-layer="870" from-port="2" to-layer="872" to-port="0"/>
		<edge from-layer="871" from-port="0" to-layer="872" to-port="1"/>
		<edge from-layer="866" from-port="5" to-layer="873" to-port="0"/>
		<edge from-layer="872" from-port="2" to-layer="873" to-port="1"/>
		<edge from-layer="873" from-port="2" to-layer="875" to-port="0"/>
		<edge from-layer="874" from-port="0" to-layer="875" to-port="1"/>
		<edge from-layer="875" from-port="2" to-layer="876" to-port="0"/>
		<edge from-layer="876" from-port="1" to-layer="877" to-port="0"/>
		<edge from-layer="16" from-port="0" to-layer="877" to-port="1"/>
		<edge from-layer="17" from-port="0" to-layer="877" to-port="2"/>
		<edge from-layer="18" from-port="0" to-layer="877" to-port="3"/>
		<edge from-layer="19" from-port="0" to-layer="877" to-port="4"/>
		<edge from-layer="878" from-port="0" to-layer="879" to-port="0"/>
		<edge from-layer="879" from-port="1" to-layer="881" to-port="0"/>
		<edge from-layer="880" from-port="0" to-layer="881" to-port="1"/>
		<edge from-layer="881" from-port="2" to-layer="883" to-port="0"/>
		<edge from-layer="882" from-port="0" to-layer="883" to-port="1"/>
		<edge from-layer="877" from-port="5" to-layer="884" to-port="0"/>
		<edge from-layer="883" from-port="2" to-layer="884" to-port="1"/>
		<edge from-layer="884" from-port="2" to-layer="886" to-port="0"/>
		<edge from-layer="885" from-port="0" to-layer="886" to-port="1"/>
		<edge from-layer="886" from-port="2" to-layer="887" to-port="0"/>
		<edge from-layer="887" from-port="1" to-layer="888" to-port="0"/>
		<edge from-layer="12" from-port="0" to-layer="888" to-port="1"/>
		<edge from-layer="13" from-port="0" to-layer="888" to-port="2"/>
		<edge from-layer="14" from-port="0" to-layer="888" to-port="3"/>
		<edge from-layer="15" from-port="0" to-layer="888" to-port="4"/>
		<edge from-layer="889" from-port="0" to-layer="890" to-port="0"/>
		<edge from-layer="890" from-port="1" to-layer="892" to-port="0"/>
		<edge from-layer="891" from-port="0" to-layer="892" to-port="1"/>
		<edge from-layer="892" from-port="2" to-layer="894" to-port="0"/>
		<edge from-layer="893" from-port="0" to-layer="894" to-port="1"/>
		<edge from-layer="888" from-port="5" to-layer="895" to-port="0"/>
		<edge from-layer="894" from-port="2" to-layer="895" to-port="1"/>
		<edge from-layer="895" from-port="2" to-layer="897" to-port="0"/>
		<edge from-layer="896" from-port="0" to-layer="897" to-port="1"/>
		<edge from-layer="897" from-port="2" to-layer="898" to-port="0"/>
		<edge from-layer="8" from-port="0" to-layer="898" to-port="1"/>
		<edge from-layer="9" from-port="0" to-layer="898" to-port="2"/>
		<edge from-layer="10" from-port="0" to-layer="898" to-port="3"/>
		<edge from-layer="11" from-port="0" to-layer="898" to-port="4"/>
		<edge from-layer="898" from-port="5" to-layer="899" to-port="0"/>
		<edge from-layer="866" from-port="5" to-layer="899" to-port="1"/>
		<edge from-layer="899" from-port="2" to-layer="900" to-port="0"/>
		<edge from-layer="900" from-port="1" to-layer="901" to-port="0"/>
		<edge from-layer="4" from-port="0" to-layer="901" to-port="1"/>
		<edge from-layer="5" from-port="0" to-layer="901" to-port="2"/>
		<edge from-layer="6" from-port="0" to-layer="901" to-port="3"/>
		<edge from-layer="7" from-port="0" to-layer="901" to-port="4"/>
		<edge from-layer="900" from-port="1" to-layer="903" to-port="0"/>
		<edge from-layer="903" from-port="1" to-layer="904" to-port="0"/>
		<edge from-layer="904" from-port="1" to-layer="906" to-port="0"/>
		<edge from-layer="905" from-port="0" to-layer="906" to-port="1"/>
		<edge from-layer="902" from-port="0" to-layer="908" to-port="0"/>
		<edge from-layer="906" from-port="2" to-layer="908" to-port="1"/>
		<edge from-layer="907" from-port="0" to-layer="908" to-port="2"/>
		<edge from-layer="901" from-port="5" to-layer="909" to-port="0"/>
		<edge from-layer="908" from-port="3" to-layer="909" to-port="1"/>
		<edge from-layer="909" from-port="2" to-layer="910" to-port="0"/>
		<edge from-layer="0" from-port="0" to-layer="910" to-port="1"/>
		<edge from-layer="1" from-port="0" to-layer="910" to-port="2"/>
		<edge from-layer="2" from-port="0" to-layer="910" to-port="3"/>
		<edge from-layer="3" from-port="0" to-layer="910" to-port="4"/>
		<edge from-layer="912" from-port="0" to-layer="913" to-port="0"/>
		<edge from-layer="913" from-port="1" to-layer="916" to-port="0"/>
		<edge from-layer="914" from-port="0" to-layer="916" to-port="1"/>
		<edge from-layer="915" from-port="0" to-layer="916" to-port="2"/>
		<edge from-layer="911" from-port="0" to-layer="917" to-port="0"/>
		<edge from-layer="916" from-port="3" to-layer="917" to-port="1"/>
		<edge from-layer="910" from-port="5" to-layer="918" to-port="0"/>
		<edge from-layer="917" from-port="2" to-layer="918" to-port="1"/>
		<edge from-layer="919" from-port="0" to-layer="920" to-port="0"/>
		<edge from-layer="920" from-port="1" to-layer="922" to-port="0"/>
		<edge from-layer="921" from-port="0" to-layer="922" to-port="1"/>
		<edge from-layer="922" from-port="2" to-layer="924" to-port="0"/>
		<edge from-layer="923" from-port="0" to-layer="924" to-port="1"/>
		<edge from-layer="918" from-port="2" to-layer="925" to-port="0"/>
		<edge from-layer="924" from-port="2" to-layer="925" to-port="1"/>
		<edge from-layer="925" from-port="2" to-layer="927" to-port="0"/>
		<edge from-layer="926" from-port="0" to-layer="927" to-port="1"/>
		<edge from-layer="927" from-port="2" to-layer="929" to-port="0"/>
		<edge from-layer="928" from-port="0" to-layer="929" to-port="1"/>
		<edge from-layer="929" from-port="2" to-layer="930" to-port="0"/>
		<edge from-layer="927" from-port="2" to-layer="931" to-port="0"/>
		<edge from-layer="930" from-port="1" to-layer="932" to-port="0"/>
		<edge from-layer="931" from-port="1" to-layer="932" to-port="1"/>
		<edge from-layer="932" from-port="2" to-layer="935" to-port="0"/>
		<edge from-layer="933" from-port="0" to-layer="935" to-port="1"/>
		<edge from-layer="934" from-port="0" to-layer="935" to-port="2"/>
		<edge from-layer="935" from-port="3" to-layer="937" to-port="0"/>
		<edge from-layer="936" from-port="0" to-layer="937" to-port="1"/>
		<edge from-layer="938" from-port="0" to-layer="939" to-port="0"/>
		<edge from-layer="939" from-port="1" to-layer="941" to-port="0"/>
		<edge from-layer="940" from-port="0" to-layer="941" to-port="1"/>
		<edge from-layer="941" from-port="2" to-layer="943" to-port="0"/>
		<edge from-layer="942" from-port="0" to-layer="943" to-port="1"/>
		<edge from-layer="918" from-port="2" to-layer="944" to-port="0"/>
		<edge from-layer="943" from-port="2" to-layer="944" to-port="1"/>
		<edge from-layer="944" from-port="2" to-layer="946" to-port="0"/>
		<edge from-layer="945" from-port="0" to-layer="946" to-port="1"/>
		<edge from-layer="946" from-port="2" to-layer="948" to-port="0"/>
		<edge from-layer="947" from-port="0" to-layer="948" to-port="1"/>
		<edge from-layer="948" from-port="2" to-layer="949" to-port="0"/>
		<edge from-layer="946" from-port="2" to-layer="950" to-port="0"/>
		<edge from-layer="949" from-port="1" to-layer="951" to-port="0"/>
		<edge from-layer="950" from-port="1" to-layer="951" to-port="1"/>
		<edge from-layer="951" from-port="2" to-layer="954" to-port="0"/>
		<edge from-layer="952" from-port="0" to-layer="954" to-port="1"/>
		<edge from-layer="953" from-port="0" to-layer="954" to-port="2"/>
		<edge from-layer="954" from-port="3" to-layer="956" to-port="0"/>
		<edge from-layer="955" from-port="0" to-layer="956" to-port="1"/>
		<edge from-layer="957" from-port="0" to-layer="958" to-port="0"/>
		<edge from-layer="958" from-port="1" to-layer="960" to-port="0"/>
		<edge from-layer="959" from-port="0" to-layer="960" to-port="1"/>
		<edge from-layer="960" from-port="2" to-layer="962" to-port="0"/>
		<edge from-layer="961" from-port="0" to-layer="962" to-port="1"/>
		<edge from-layer="918" from-port="2" to-layer="963" to-port="0"/>
		<edge from-layer="962" from-port="2" to-layer="963" to-port="1"/>
		<edge from-layer="963" from-port="2" to-layer="965" to-port="0"/>
		<edge from-layer="964" from-port="0" to-layer="965" to-port="1"/>
		<edge from-layer="965" from-port="2" to-layer="967" to-port="0"/>
		<edge from-layer="966" from-port="0" to-layer="967" to-port="1"/>
		<edge from-layer="967" from-port="2" to-layer="968" to-port="0"/>
		<edge from-layer="965" from-port="2" to-layer="969" to-port="0"/>
		<edge from-layer="968" from-port="1" to-layer="970" to-port="0"/>
		<edge from-layer="969" from-port="1" to-layer="970" to-port="1"/>
		<edge from-layer="970" from-port="2" to-layer="973" to-port="0"/>
		<edge from-layer="971" from-port="0" to-layer="973" to-port="1"/>
		<edge from-layer="972" from-port="0" to-layer="973" to-port="2"/>
		<edge from-layer="973" from-port="3" to-layer="975" to-port="0"/>
		<edge from-layer="974" from-port="0" to-layer="975" to-port="1"/>
		<edge from-layer="976" from-port="0" to-layer="977" to-port="0"/>
		<edge from-layer="977" from-port="1" to-layer="979" to-port="0"/>
		<edge from-layer="978" from-port="0" to-layer="979" to-port="1"/>
		<edge from-layer="979" from-port="2" to-layer="981" to-port="0"/>
		<edge from-layer="980" from-port="0" to-layer="981" to-port="1"/>
		<edge from-layer="918" from-port="2" to-layer="982" to-port="0"/>
		<edge from-layer="981" from-port="2" to-layer="982" to-port="1"/>
		<edge from-layer="982" from-port="2" to-layer="984" to-port="0"/>
		<edge from-layer="983" from-port="0" to-layer="984" to-port="1"/>
		<edge from-layer="984" from-port="2" to-layer="986" to-port="0"/>
		<edge from-layer="985" from-port="0" to-layer="986" to-port="1"/>
		<edge from-layer="986" from-port="2" to-layer="987" to-port="0"/>
		<edge from-layer="984" from-port="2" to-layer="988" to-port="0"/>
		<edge from-layer="987" from-port="1" to-layer="989" to-port="0"/>
		<edge from-layer="988" from-port="1" to-layer="989" to-port="1"/>
		<edge from-layer="989" from-port="2" to-layer="992" to-port="0"/>
		<edge from-layer="990" from-port="0" to-layer="992" to-port="1"/>
		<edge from-layer="991" from-port="0" to-layer="992" to-port="2"/>
		<edge from-layer="992" from-port="3" to-layer="994" to-port="0"/>
		<edge from-layer="993" from-port="0" to-layer="994" to-port="1"/>
		<edge from-layer="995" from-port="0" to-layer="996" to-port="0"/>
		<edge from-layer="996" from-port="1" to-layer="998" to-port="0"/>
		<edge from-layer="997" from-port="0" to-layer="998" to-port="1"/>
		<edge from-layer="998" from-port="2" to-layer="1000" to-port="0"/>
		<edge from-layer="999" from-port="0" to-layer="1000" to-port="1"/>
		<edge from-layer="918" from-port="2" to-layer="1001" to-port="0"/>
		<edge from-layer="1000" from-port="2" to-layer="1001" to-port="1"/>
		<edge from-layer="1001" from-port="2" to-layer="1003" to-port="0"/>
		<edge from-layer="1002" from-port="0" to-layer="1003" to-port="1"/>
		<edge from-layer="1003" from-port="2" to-layer="1005" to-port="0"/>
		<edge from-layer="1004" from-port="0" to-layer="1005" to-port="1"/>
		<edge from-layer="1005" from-port="2" to-layer="1006" to-port="0"/>
		<edge from-layer="1003" from-port="2" to-layer="1007" to-port="0"/>
		<edge from-layer="1006" from-port="1" to-layer="1008" to-port="0"/>
		<edge from-layer="1007" from-port="1" to-layer="1008" to-port="1"/>
		<edge from-layer="1008" from-port="2" to-layer="1011" to-port="0"/>
		<edge from-layer="1009" from-port="0" to-layer="1011" to-port="1"/>
		<edge from-layer="1010" from-port="0" to-layer="1011" to-port="2"/>
		<edge from-layer="1011" from-port="3" to-layer="1013" to-port="0"/>
		<edge from-layer="1012" from-port="0" to-layer="1013" to-port="1"/>
		<edge from-layer="1014" from-port="0" to-layer="1015" to-port="0"/>
		<edge from-layer="1015" from-port="1" to-layer="1017" to-port="0"/>
		<edge from-layer="1016" from-port="0" to-layer="1017" to-port="1"/>
		<edge from-layer="1017" from-port="2" to-layer="1019" to-port="0"/>
		<edge from-layer="1018" from-port="0" to-layer="1019" to-port="1"/>
		<edge from-layer="918" from-port="2" to-layer="1020" to-port="0"/>
		<edge from-layer="1019" from-port="2" to-layer="1020" to-port="1"/>
		<edge from-layer="1020" from-port="2" to-layer="1022" to-port="0"/>
		<edge from-layer="1021" from-port="0" to-layer="1022" to-port="1"/>
		<edge from-layer="1022" from-port="2" to-layer="1024" to-port="0"/>
		<edge from-layer="1023" from-port="0" to-layer="1024" to-port="1"/>
		<edge from-layer="1024" from-port="2" to-layer="1025" to-port="0"/>
		<edge from-layer="1022" from-port="2" to-layer="1026" to-port="0"/>
		<edge from-layer="1025" from-port="1" to-layer="1027" to-port="0"/>
		<edge from-layer="1026" from-port="1" to-layer="1027" to-port="1"/>
		<edge from-layer="1027" from-port="2" to-layer="1030" to-port="0"/>
		<edge from-layer="1028" from-port="0" to-layer="1030" to-port="1"/>
		<edge from-layer="1029" from-port="0" to-layer="1030" to-port="2"/>
		<edge from-layer="1030" from-port="3" to-layer="1032" to-port="0"/>
		<edge from-layer="1031" from-port="0" to-layer="1032" to-port="1"/>
		<edge from-layer="1033" from-port="0" to-layer="1034" to-port="0"/>
		<edge from-layer="1034" from-port="1" to-layer="1036" to-port="0"/>
		<edge from-layer="1035" from-port="0" to-layer="1036" to-port="1"/>
		<edge from-layer="1036" from-port="2" to-layer="1038" to-port="0"/>
		<edge from-layer="1037" from-port="0" to-layer="1038" to-port="1"/>
		<edge from-layer="918" from-port="2" to-layer="1039" to-port="0"/>
		<edge from-layer="1038" from-port="2" to-layer="1039" to-port="1"/>
		<edge from-layer="1039" from-port="2" to-layer="1041" to-port="0"/>
		<edge from-layer="1040" from-port="0" to-layer="1041" to-port="1"/>
		<edge from-layer="1041" from-port="2" to-layer="1043" to-port="0"/>
		<edge from-layer="1042" from-port="0" to-layer="1043" to-port="1"/>
		<edge from-layer="1043" from-port="2" to-layer="1044" to-port="0"/>
		<edge from-layer="1041" from-port="2" to-layer="1045" to-port="0"/>
		<edge from-layer="1044" from-port="1" to-layer="1046" to-port="0"/>
		<edge from-layer="1045" from-port="1" to-layer="1046" to-port="1"/>
		<edge from-layer="1046" from-port="2" to-layer="1049" to-port="0"/>
		<edge from-layer="1047" from-port="0" to-layer="1049" to-port="1"/>
		<edge from-layer="1048" from-port="0" to-layer="1049" to-port="2"/>
		<edge from-layer="1049" from-port="3" to-layer="1051" to-port="0"/>
		<edge from-layer="1050" from-port="0" to-layer="1051" to-port="1"/>
		<edge from-layer="937" from-port="2" to-layer="1052" to-port="0"/>
		<edge from-layer="956" from-port="2" to-layer="1052" to-port="1"/>
		<edge from-layer="975" from-port="2" to-layer="1052" to-port="2"/>
		<edge from-layer="994" from-port="2" to-layer="1052" to-port="3"/>
		<edge from-layer="1013" from-port="2" to-layer="1052" to-port="4"/>
		<edge from-layer="1032" from-port="2" to-layer="1052" to-port="5"/>
		<edge from-layer="1051" from-port="2" to-layer="1052" to-port="6"/>
		<edge from-layer="1052" from-port="7" to-layer="1053" to-port="0"/>
	</edges>
	<meta_data>
		<MO_version value="custom_HEAD_149c43044cb1e8ed8cd4f3f196b23f7b3f129a36"/>
		<cli_parameters>
			<caffe_parser_path value="DIR"/>
			<data_type value="FP16"/>
			<disable_nhwc_to_nchw value="False"/>
			<disable_omitting_optional value="False"/>
			<disable_resnet_optimization value="False"/>
			<disable_weights_compression value="False"/>
			<enable_concat_optimization value="False"/>
			<enable_flattening_nested_params value="False"/>
			<enable_ssd_gluoncv value="False"/>
			<extensions value="DIR"/>
			<framework value="onnx"/>
			<freeze_placeholder_with_value value="{}"/>
			<generate_deprecated_IR_V7 value="False"/>
			<input value="input"/>
			<input_model value="DIR/best_pers_attr_model_resnet50_exp008_epoch0623_compl.onnx"/>
			<input_model_is_text value="False"/>
			<input_shape value="[1,3,160,80]"/>
			<k value="DIR/CustomLayersMapping.xml"/>
			<keep_shape_ops value="True"/>
			<legacy_ir_generation value="False"/>
			<legacy_mxnet_model value="False"/>
			<log_level value="ERROR"/>
			<mean_scale_values value="{'input': {'mean': array([123.675, 116.28 , 103.53 ]), 'scale': array([58.395, 57.12 , 57.375])}}"/>
			<mean_values value="input[123.675,116.28,103.53]"/>
			<model_name value="person-attributes-recognition-crossroad-0234"/>
			<output value="['attributes']"/>
			<output_dir value="DIR"/>
			<placeholder_data_types value="{}"/>
			<placeholder_shapes value="{'input': array([  1,   3, 160,  80])}"/>
			<progress value="False"/>
			<remove_memory value="False"/>
			<remove_output_softmax value="False"/>
			<reverse_input_channels value="True"/>
			<save_params_from_nd value="False"/>
			<scale_values value="input[58.395,57.12,57.375]"/>
			<silent value="False"/>
			<static_shape value="False"/>
			<stream_output value="False"/>
			<transform value=""/>
			<unset unset_cli_parameters="batch, counts, disable_fusing, disable_gfusing, finegrain_fusing, input_checkpoint, input_meta_graph, input_proto, input_symbol, mean_file, mean_file_offsets, move_to_preprocess, nd_prefix_name, pretrained_model_name, saved_model_dir, saved_model_tags, scale, tensorboard_logdir, tensorflow_custom_layer_libraries, tensorflow_custom_operations_config_update, tensorflow_object_detection_api_pipeline_config, tensorflow_use_custom_operations_config, transformations_config"/>
		</cli_parameters>
	</meta_data>
	<quantization_parameters>
		<config>{
		'compression': {
			'algorithms': [
				{
					'name': 'DefaultQuantization',
					'params': {
						'num_samples_for_tuning': 2000,
						'preset': 'performance',
						'stat_subset_size': 300,
						'use_layerwise_tuning': false
					}
				}
			],
			'dump_intermediate_model': true,
			'target_device': 'ANY'
		},
		'engine': {
			'models': [
				{
					'name': 'person-attributes-recognition-crossroad-0234',
					'launchers': [
						{
							'framework': 'dlsdk',
							'adapter': {
								'type': 'person_attributes',
								'attributes_recognition_out': 'attributes'
							},
							'device': 'CPU'
						}
					],
					'datasets': [
						{
							'name': 'person_7_attributes',
							'data_source': 'PATH',
							'annotation_conversion': {
								'converter': 'market15_person_attributes',
								'annotation_file': 'PATH',
								'num_attributes': 7
							},
							'annotation': 'PATH',
							'dataset_meta': 'PATH',
							'preprocessing': [
								{
									'type': 'crop_rect'
								},
								{
									'type': 'resize',
									'dst_width': 80,
									'dst_height': 160
								}
							],
							'metrics': [
								{
									'type': 'f1-score',
									'calculate_average': false,
									'presenter': 'print_vector'
								}
							],
							'_command_line_mapping': {
								'annotation_file': 'PATH'
							}
						}
					]
				}
			],
			'stat_requests_number': null,
			'eval_requests_number': null,
			'type': 'accuracy_checker'
		}
	}</config>
		<version value="1.0"/>
		<cli_params value="{'quantize': None, 'preset': None, 'model': None, 'weights': None, 'name': None, 'ac_config': None, 'max_drop': None, 'evaluate': False, 'output_dir': 'PATH', 'direct_dump': True, 'log_level': 'INFO', 'pbar': False, 'stream_output': False, 'keep_uncompressed_weights': False}"/>
	</quantization_parameters>
</net>
