<?xml version="1.0" ?>
<net name="person-detection-asl-0001" version="10">
	<layers>
		<layer id="0" name="8385838939482" type="Const" version="opset1">
			<data element_type="f16" offset="0" shape="" size="2"/>
			<output>
				<port id="0" precision="FP16"/>
			</output>
		</layer>
		<layer id="1" name="8386839040733" type="Const" version="opset1">
			<data element_type="f16" offset="2" shape="" size="2"/>
			<output>
				<port id="0" precision="FP16"/>
			</output>
		</layer>
		<layer id="2" name="8387839137010" type="Const" version="opset1">
			<data element_type="f16" offset="0" shape="" size="2"/>
			<output>
				<port id="0" precision="FP16"/>
			</output>
		</layer>
		<layer id="3" name="8388839239737" type="Const" version="opset1">
			<data element_type="f16" offset="2" shape="" size="2"/>
			<output>
				<port id="0" precision="FP16"/>
			</output>
		</layer>
		<layer id="4" name="1120/Range_input_port_0/value358738006" type="Const" version="opset1">
			<data element_type="i64" offset="4" shape="" size="8"/>
			<output>
				<port id="0" precision="I64"/>
			</output>
		</layer>
		<layer id="5" name="5940594237580" type="Const" version="opset1">
			<data element_type="f16" offset="12" shape="1,32,1,1" size="64"/>
			<output>
				<port id="0" precision="FP16">
					<dim>1</dim>
					<dim>32</dim>
					<dim>1</dim>
					<dim>1</dim>
				</port>
			</output>
		</layer>
		<layer id="6" name="9545954939944" type="Const" version="opset1">
			<data element_type="f16" offset="0" shape="" size="2"/>
			<output>
				<port id="0" precision="FP16"/>
			</output>
		</layer>
		<layer id="7" name="9546955038822" type="Const" version="opset1">
			<data element_type="f16" offset="76" shape="" size="2"/>
			<output>
				<port id="0" precision="FP16"/>
			</output>
		</layer>
		<layer id="8" name="9547955136974" type="Const" version="opset1">
			<data element_type="f16" offset="0" shape="" size="2"/>
			<output>
				<port id="0" precision="FP16"/>
			</output>
		</layer>
		<layer id="9" name="9548955239104" type="Const" version="opset1">
			<data element_type="f16" offset="76" shape="" size="2"/>
			<output>
				<port id="0" precision="FP16"/>
			</output>
		</layer>
		<layer id="10" name="1117/Range_input_port_0/value357241822" type="Const" version="opset1">
			<data element_type="i64" offset="4" shape="" size="8"/>
			<output>
				<port id="0" precision="I64"/>
			</output>
		</layer>
		<layer id="11" name="5936593840922" type="Const" version="opset1">
			<data element_type="f16" offset="12" shape="1,32,1,1" size="64"/>
			<output>
				<port id="0" precision="FP16">
					<dim>1</dim>
					<dim>32</dim>
					<dim>1</dim>
					<dim>1</dim>
				</port>
			</output>
		</layer>
		<layer id="12" name="9125912939548" type="Const" version="opset1">
			<data element_type="f16" offset="0" shape="" size="2"/>
			<output>
				<port id="0" precision="FP16"/>
			</output>
		</layer>
		<layer id="13" name="9126913038858" type="Const" version="opset1">
			<data element_type="f16" offset="78" shape="" size="2"/>
			<output>
				<port id="0" precision="FP16"/>
			</output>
		</layer>
		<layer id="14" name="9127913141372" type="Const" version="opset1">
			<data element_type="f16" offset="0" shape="" size="2"/>
			<output>
				<port id="0" precision="FP16"/>
			</output>
		</layer>
		<layer id="15" name="9128913241114" type="Const" version="opset1">
			<data element_type="f16" offset="78" shape="" size="2"/>
			<output>
				<port id="0" precision="FP16"/>
			</output>
		</layer>
		<layer id="16" name="1114/Range_input_port_0/value355740454" type="Const" version="opset1">
			<data element_type="i64" offset="4" shape="" size="8"/>
			<output>
				<port id="0" precision="I64"/>
			</output>
		</layer>
		<layer id="17" name="5932593437199" type="Const" version="opset1">
			<data element_type="f16" offset="12" shape="1,32,1,1" size="64"/>
			<output>
				<port id="0" precision="FP16">
					<dim>1</dim>
					<dim>32</dim>
					<dim>1</dim>
					<dim>1</dim>
				</port>
			</output>
		</layer>
		<layer id="18" name="108251082940769" type="Const" version="opset1">
			<data element_type="f16" offset="0" shape="" size="2"/>
			<output>
				<port id="0" precision="FP16"/>
			</output>
		</layer>
		<layer id="19" name="108261083040937" type="Const" version="opset1">
			<data element_type="f16" offset="80" shape="" size="2"/>
			<output>
				<port id="0" precision="FP16"/>
			</output>
		</layer>
		<layer id="20" name="108271083138867" type="Const" version="opset1">
			<data element_type="f16" offset="0" shape="" size="2"/>
			<output>
				<port id="0" precision="FP16"/>
			</output>
		</layer>
		<layer id="21" name="108281083236257" type="Const" version="opset1">
			<data element_type="f16" offset="80" shape="" size="2"/>
			<output>
				<port id="0" precision="FP16"/>
			</output>
		</layer>
		<layer id="22" name="1111/Range_input_port_0/value354236947" type="Const" version="opset1">
			<data element_type="i64" offset="4" shape="" size="8"/>
			<output>
				<port id="0" precision="I64"/>
			</output>
		</layer>
		<layer id="23" name="5928593038819" type="Const" version="opset1">
			<data element_type="f16" offset="12" shape="1,32,1,1" size="64"/>
			<output>
				<port id="0" precision="FP16">
					<dim>1</dim>
					<dim>32</dim>
					<dim>1</dim>
					<dim>1</dim>
				</port>
			</output>
		</layer>
		<layer id="24" name="107951079940910" type="Const" version="opset1">
			<data element_type="f16" offset="82" shape="" size="2"/>
			<output>
				<port id="0" precision="FP16"/>
			</output>
		</layer>
		<layer id="25" name="107961080038573" type="Const" version="opset1">
			<data element_type="f16" offset="84" shape="" size="2"/>
			<output>
				<port id="0" precision="FP16"/>
			</output>
		</layer>
		<layer id="26" name="107971080137295" type="Const" version="opset1">
			<data element_type="f16" offset="82" shape="" size="2"/>
			<output>
				<port id="0" precision="FP16"/>
			</output>
		</layer>
		<layer id="27" name="107981080238315" type="Const" version="opset1">
			<data element_type="f16" offset="84" shape="" size="2"/>
			<output>
				<port id="0" precision="FP16"/>
			</output>
		</layer>
		<layer id="28" name="9585958940829" type="Const" version="opset1">
			<data element_type="f16" offset="86" shape="" size="2"/>
			<output>
				<port id="0" precision="FP16"/>
			</output>
		</layer>
		<layer id="29" name="9586959037382" type="Const" version="opset1">
			<data element_type="f16" offset="88" shape="" size="2"/>
			<output>
				<port id="0" precision="FP16"/>
			</output>
		</layer>
		<layer id="30" name="9587959138555" type="Const" version="opset1">
			<data element_type="f16" offset="86" shape="" size="2"/>
			<output>
				<port id="0" precision="FP16"/>
			</output>
		</layer>
		<layer id="31" name="9588959237256" type="Const" version="opset1">
			<data element_type="f16" offset="88" shape="" size="2"/>
			<output>
				<port id="0" precision="FP16"/>
			</output>
		</layer>
		<layer id="32" name="101051010939086" type="Const" version="opset1">
			<data element_type="f16" offset="90" shape="" size="2"/>
			<output>
				<port id="0" precision="FP16"/>
			</output>
		</layer>
		<layer id="33" name="101061011037487" type="Const" version="opset1">
			<data element_type="f16" offset="92" shape="" size="2"/>
			<output>
				<port id="0" precision="FP16"/>
			</output>
		</layer>
		<layer id="34" name="101071011138747" type="Const" version="opset1">
			<data element_type="f16" offset="90" shape="" size="2"/>
			<output>
				<port id="0" precision="FP16"/>
			</output>
		</layer>
		<layer id="35" name="101081011237100" type="Const" version="opset1">
			<data element_type="f16" offset="92" shape="" size="2"/>
			<output>
				<port id="0" precision="FP16"/>
			</output>
		</layer>
		<layer id="36" name="135511355538615" type="Const" version="opset1">
			<data element_type="f16" offset="0" shape="" size="2"/>
			<output>
				<port id="0" precision="FP16"/>
			</output>
		</layer>
		<layer id="37" name="135521355636308" type="Const" version="opset1">
			<data element_type="f16" offset="94" shape="" size="2"/>
			<output>
				<port id="0" precision="FP16"/>
			</output>
		</layer>
		<layer id="38" name="135531355737322" type="Const" version="opset1">
			<data element_type="f16" offset="0" shape="" size="2"/>
			<output>
				<port id="0" precision="FP16"/>
			</output>
		</layer>
		<layer id="39" name="135541355837700" type="Const" version="opset1">
			<data element_type="f16" offset="94" shape="" size="2"/>
			<output>
				<port id="0" precision="FP16"/>
			</output>
		</layer>
		<layer id="40" name="106451064940304" type="Const" version="opset1">
			<data element_type="f16" offset="96" shape="" size="2"/>
			<output>
				<port id="0" precision="FP16"/>
			</output>
		</layer>
		<layer id="41" name="106461065041726" type="Const" version="opset1">
			<data element_type="f16" offset="98" shape="" size="2"/>
			<output>
				<port id="0" precision="FP16"/>
			</output>
		</layer>
		<layer id="42" name="106471065139116" type="Const" version="opset1">
			<data element_type="f16" offset="96" shape="" size="2"/>
			<output>
				<port id="0" precision="FP16"/>
			</output>
		</layer>
		<layer id="43" name="106481065241465" type="Const" version="opset1">
			<data element_type="f16" offset="98" shape="" size="2"/>
			<output>
				<port id="0" precision="FP16"/>
			</output>
		</layer>
		<layer id="44" name="100651006936671" type="Const" version="opset1">
			<data element_type="f16" offset="100" shape="1,58,1,1" size="116"/>
			<output>
				<port id="0" precision="FP16">
					<dim>1</dim>
					<dim>58</dim>
					<dim>1</dim>
					<dim>1</dim>
				</port>
			</output>
		</layer>
		<layer id="45" name="100661007039011" type="Const" version="opset1">
			<data element_type="f16" offset="216" shape="1,58,1,1" size="116"/>
			<output>
				<port id="0" precision="FP16">
					<dim>1</dim>
					<dim>58</dim>
					<dim>1</dim>
					<dim>1</dim>
				</port>
			</output>
		</layer>
		<layer id="46" name="100671007137205" type="Const" version="opset1">
			<data element_type="f16" offset="100" shape="1,58,1,1" size="116"/>
			<output>
				<port id="0" precision="FP16">
					<dim>1</dim>
					<dim>58</dim>
					<dim>1</dim>
					<dim>1</dim>
				</port>
			</output>
		</layer>
		<layer id="47" name="100681007236395" type="Const" version="opset1">
			<data element_type="f16" offset="216" shape="1,58,1,1" size="116"/>
			<output>
				<port id="0" precision="FP16">
					<dim>1</dim>
					<dim>58</dim>
					<dim>1</dim>
					<dim>1</dim>
				</port>
			</output>
		</layer>
		<layer id="48" name="517/VariadicSplit_input_port_1/value262637715" type="Const" version="opset1">
			<data element_type="i64" offset="332" shape="" size="8"/>
			<output>
				<port id="0" precision="I64"/>
			</output>
		</layer>
		<layer id="49" name="517/VariadicSplit_input_port_2/value262739446" type="Const" version="opset1">
			<data element_type="i64" offset="340" shape="2" size="16"/>
			<output>
				<port id="0" precision="I64">
					<dim>2</dim>
				</port>
			</output>
		</layer>
		<layer id="50" name="136111361536488" type="Const" version="opset1">
			<data element_type="f16" offset="0" shape="" size="2"/>
			<output>
				<port id="0" precision="FP16"/>
			</output>
		</layer>
		<layer id="51" name="136121361638999" type="Const" version="opset1">
			<data element_type="f16" offset="356" shape="" size="2"/>
			<output>
				<port id="0" precision="FP16"/>
			</output>
		</layer>
		<layer id="52" name="136131361740223" type="Const" version="opset1">
			<data element_type="f16" offset="0" shape="" size="2"/>
			<output>
				<port id="0" precision="FP16"/>
			</output>
		</layer>
		<layer id="53" name="136141361836263" type="Const" version="opset1">
			<data element_type="f16" offset="356" shape="" size="2"/>
			<output>
				<port id="0" precision="FP16"/>
			</output>
		</layer>
		<layer id="54" name="9505950939287" type="Const" version="opset1">
			<data element_type="f16" offset="358" shape="" size="2"/>
			<output>
				<port id="0" precision="FP16"/>
			</output>
		</layer>
		<layer id="55" name="9506951038264" type="Const" version="opset1">
			<data element_type="f16" offset="360" shape="" size="2"/>
			<output>
				<port id="0" precision="FP16"/>
			</output>
		</layer>
		<layer id="56" name="9507951139980" type="Const" version="opset1">
			<data element_type="f16" offset="358" shape="" size="2"/>
			<output>
				<port id="0" precision="FP16"/>
			</output>
		</layer>
		<layer id="57" name="9508951240853" type="Const" version="opset1">
			<data element_type="f16" offset="360" shape="" size="2"/>
			<output>
				<port id="0" precision="FP16"/>
			</output>
		</layer>
		<layer id="58" name="101551015941012" type="Const" version="opset1">
			<data element_type="f16" offset="100" shape="1,58,1,1" size="116"/>
			<output>
				<port id="0" precision="FP16">
					<dim>1</dim>
					<dim>58</dim>
					<dim>1</dim>
					<dim>1</dim>
				</port>
			</output>
		</layer>
		<layer id="59" name="101561016040091" type="Const" version="opset1">
			<data element_type="f16" offset="362" shape="1,58,1,1" size="116"/>
			<output>
				<port id="0" precision="FP16">
					<dim>1</dim>
					<dim>58</dim>
					<dim>1</dim>
					<dim>1</dim>
				</port>
			</output>
		</layer>
		<layer id="60" name="101571016136305" type="Const" version="opset1">
			<data element_type="f16" offset="100" shape="1,58,1,1" size="116"/>
			<output>
				<port id="0" precision="FP16">
					<dim>1</dim>
					<dim>58</dim>
					<dim>1</dim>
					<dim>1</dim>
				</port>
			</output>
		</layer>
		<layer id="61" name="101581016237751" type="Const" version="opset1">
			<data element_type="f16" offset="362" shape="1,58,1,1" size="116"/>
			<output>
				<port id="0" precision="FP16">
					<dim>1</dim>
					<dim>58</dim>
					<dim>1</dim>
					<dim>1</dim>
				</port>
			</output>
		</layer>
		<layer id="62" name="477/VariadicSplit_input_port_1/value256641414" type="Const" version="opset1">
			<data element_type="i64" offset="332" shape="" size="8"/>
			<output>
				<port id="0" precision="I64"/>
			</output>
		</layer>
		<layer id="63" name="477/VariadicSplit_input_port_2/value256740097" type="Const" version="opset1">
			<data element_type="i64" offset="340" shape="2" size="16"/>
			<output>
				<port id="0" precision="I64">
					<dim>2</dim>
				</port>
			</output>
		</layer>
		<layer id="64" name="136711367539194" type="Const" version="opset1">
			<data element_type="f16" offset="0" shape="" size="2"/>
			<output>
				<port id="0" precision="FP16"/>
			</output>
		</layer>
		<layer id="65" name="136721367636692" type="Const" version="opset1">
			<data element_type="f16" offset="478" shape="" size="2"/>
			<output>
				<port id="0" precision="FP16"/>
			</output>
		</layer>
		<layer id="66" name="136731367737622" type="Const" version="opset1">
			<data element_type="f16" offset="0" shape="" size="2"/>
			<output>
				<port id="0" precision="FP16"/>
			</output>
		</layer>
		<layer id="67" name="136741367840541" type="Const" version="opset1">
			<data element_type="f16" offset="478" shape="" size="2"/>
			<output>
				<port id="0" precision="FP16"/>
			</output>
		</layer>
		<layer id="68" name="8475847938024" type="Const" version="opset1">
			<data element_type="f16" offset="480" shape="" size="2"/>
			<output>
				<port id="0" precision="FP16"/>
			</output>
		</layer>
		<layer id="69" name="8476848039056" type="Const" version="opset1">
			<data element_type="f16" offset="482" shape="" size="2"/>
			<output>
				<port id="0" precision="FP16"/>
			</output>
		</layer>
		<layer id="70" name="8477848138192" type="Const" version="opset1">
			<data element_type="f16" offset="480" shape="" size="2"/>
			<output>
				<port id="0" precision="FP16"/>
			</output>
		</layer>
		<layer id="71" name="8478848236815" type="Const" version="opset1">
			<data element_type="f16" offset="482" shape="" size="2"/>
			<output>
				<port id="0" precision="FP16"/>
			</output>
		</layer>
		<layer id="72" name="107651076940649" type="Const" version="opset1">
			<data element_type="f16" offset="100" shape="1,58,1,1" size="116"/>
			<output>
				<port id="0" precision="FP16">
					<dim>1</dim>
					<dim>58</dim>
					<dim>1</dim>
					<dim>1</dim>
				</port>
			</output>
		</layer>
		<layer id="73" name="107661077036773" type="Const" version="opset1">
			<data element_type="f16" offset="484" shape="1,58,1,1" size="116"/>
			<output>
				<port id="0" precision="FP16">
					<dim>1</dim>
					<dim>58</dim>
					<dim>1</dim>
					<dim>1</dim>
				</port>
			</output>
		</layer>
		<layer id="74" name="107671077138720" type="Const" version="opset1">
			<data element_type="f16" offset="100" shape="1,58,1,1" size="116"/>
			<output>
				<port id="0" precision="FP16">
					<dim>1</dim>
					<dim>58</dim>
					<dim>1</dim>
					<dim>1</dim>
				</port>
			</output>
		</layer>
		<layer id="75" name="107681077239521" type="Const" version="opset1">
			<data element_type="f16" offset="484" shape="1,58,1,1" size="116"/>
			<output>
				<port id="0" precision="FP16">
					<dim>1</dim>
					<dim>58</dim>
					<dim>1</dim>
					<dim>1</dim>
				</port>
			</output>
		</layer>
		<layer id="76" name="437/VariadicSplit_input_port_1/value250640676" type="Const" version="opset1">
			<data element_type="i64" offset="332" shape="" size="8"/>
			<output>
				<port id="0" precision="I64"/>
			</output>
		</layer>
		<layer id="77" name="437/VariadicSplit_input_port_2/value250739032" type="Const" version="opset1">
			<data element_type="i64" offset="340" shape="2" size="16"/>
			<output>
				<port id="0" precision="I64">
					<dim>2</dim>
				</port>
			</output>
		</layer>
		<layer id="78" name="137311373541729" type="Const" version="opset1">
			<data element_type="f16" offset="0" shape="" size="2"/>
			<output>
				<port id="0" precision="FP16"/>
			</output>
		</layer>
		<layer id="79" name="137321373637481" type="Const" version="opset1">
			<data element_type="f16" offset="600" shape="" size="2"/>
			<output>
				<port id="0" precision="FP16"/>
			</output>
		</layer>
		<layer id="80" name="137331373740493" type="Const" version="opset1">
			<data element_type="f16" offset="0" shape="" size="2"/>
			<output>
				<port id="0" precision="FP16"/>
			</output>
		</layer>
		<layer id="81" name="137341373839161" type="Const" version="opset1">
			<data element_type="f16" offset="600" shape="" size="2"/>
			<output>
				<port id="0" precision="FP16"/>
			</output>
		</layer>
		<layer id="82" name="8515851936938" type="Const" version="opset1">
			<data element_type="f16" offset="602" shape="" size="2"/>
			<output>
				<port id="0" precision="FP16"/>
			</output>
		</layer>
		<layer id="83" name="8516852041531" type="Const" version="opset1">
			<data element_type="f16" offset="604" shape="" size="2"/>
			<output>
				<port id="0" precision="FP16"/>
			</output>
		</layer>
		<layer id="84" name="8517852139743" type="Const" version="opset1">
			<data element_type="f16" offset="602" shape="" size="2"/>
			<output>
				<port id="0" precision="FP16"/>
			</output>
		</layer>
		<layer id="85" name="8518852236407" type="Const" version="opset1">
			<data element_type="f16" offset="604" shape="" size="2"/>
			<output>
				<port id="0" precision="FP16"/>
			</output>
		</layer>
		<layer id="86" name="100451004936809" type="Const" version="opset1">
			<data element_type="f16" offset="100" shape="1,58,1,1" size="116"/>
			<output>
				<port id="0" precision="FP16">
					<dim>1</dim>
					<dim>58</dim>
					<dim>1</dim>
					<dim>1</dim>
				</port>
			</output>
		</layer>
		<layer id="87" name="100461005038297" type="Const" version="opset1">
			<data element_type="f16" offset="606" shape="1,58,1,1" size="116"/>
			<output>
				<port id="0" precision="FP16">
					<dim>1</dim>
					<dim>58</dim>
					<dim>1</dim>
					<dim>1</dim>
				</port>
			</output>
		</layer>
		<layer id="88" name="100471005136338" type="Const" version="opset1">
			<data element_type="f16" offset="100" shape="1,58,1,1" size="116"/>
			<output>
				<port id="0" precision="FP16">
					<dim>1</dim>
					<dim>58</dim>
					<dim>1</dim>
					<dim>1</dim>
				</port>
			</output>
		</layer>
		<layer id="89" name="100481005236404" type="Const" version="opset1">
			<data element_type="f16" offset="606" shape="1,58,1,1" size="116"/>
			<output>
				<port id="0" precision="FP16">
					<dim>1</dim>
					<dim>58</dim>
					<dim>1</dim>
					<dim>1</dim>
				</port>
			</output>
		</layer>
		<layer id="90" name="144411444536119" type="Const" version="opset1">
			<data element_type="f16" offset="0" shape="" size="2"/>
			<output>
				<port id="0" precision="FP16"/>
			</output>
		</layer>
		<layer id="91" name="144421444636563" type="Const" version="opset1">
			<data element_type="f16" offset="722" shape="" size="2"/>
			<output>
				<port id="0" precision="FP16"/>
			</output>
		</layer>
		<layer id="92" name="144431444738408" type="Const" version="opset1">
			<data element_type="f16" offset="0" shape="" size="2"/>
			<output>
				<port id="0" precision="FP16"/>
			</output>
		</layer>
		<layer id="93" name="144441444838912" type="Const" version="opset1">
			<data element_type="f16" offset="722" shape="" size="2"/>
			<output>
				<port id="0" precision="FP16"/>
			</output>
		</layer>
		<layer id="94" name="109651096938009" type="Const" version="opset1">
			<data element_type="f16" offset="724" shape="" size="2"/>
			<output>
				<port id="0" precision="FP16"/>
			</output>
		</layer>
		<layer id="95" name="109661097039347" type="Const" version="opset1">
			<data element_type="f16" offset="726" shape="" size="2"/>
			<output>
				<port id="0" precision="FP16"/>
			</output>
		</layer>
		<layer id="96" name="109671097140637" type="Const" version="opset1">
			<data element_type="f16" offset="724" shape="" size="2"/>
			<output>
				<port id="0" precision="FP16"/>
			</output>
		</layer>
		<layer id="97" name="109681097237247" type="Const" version="opset1">
			<data element_type="f16" offset="726" shape="" size="2"/>
			<output>
				<port id="0" precision="FP16"/>
			</output>
		</layer>
		<layer id="98" name="image" type="Parameter" version="opset1">
			<data element_type="f16" shape="1,3,320,320"/>
			<output>
				<port id="0" names="image" precision="FP16">
					<dim>1</dim>
					<dim>3</dim>
					<dim>320</dim>
					<dim>320</dim>
				</port>
			</output>
		</layer>
		<layer id="99" name="data_mul_38052243139608" type="Const" version="opset1">
			<data element_type="f16" offset="728" shape="1,3,1,1" size="6"/>
			<output>
				<port id="0" precision="FP16">
					<dim>1</dim>
					<dim>3</dim>
					<dim>1</dim>
					<dim>1</dim>
				</port>
			</output>
		</layer>
		<layer id="100" name="image/scale/Fused_Mul_" type="Multiply" version="opset1">
			<data auto_broadcast="numpy"/>
			<input>
				<port id="0">
					<dim>1</dim>
					<dim>3</dim>
					<dim>320</dim>
					<dim>320</dim>
				</port>
				<port id="1">
					<dim>1</dim>
					<dim>3</dim>
					<dim>1</dim>
					<dim>1</dim>
				</port>
			</input>
			<output>
				<port id="2" precision="FP16">
					<dim>1</dim>
					<dim>3</dim>
					<dim>320</dim>
					<dim>320</dim>
				</port>
			</output>
		</layer>
		<layer id="101" name="data_add_38054243341126" type="Const" version="opset1">
			<data element_type="f16" offset="734" shape="1,3,1,1" size="6"/>
			<output>
				<port id="0" precision="FP16">
					<dim>1</dim>
					<dim>3</dim>
					<dim>1</dim>
					<dim>1</dim>
				</port>
			</output>
		</layer>
		<layer id="102" name="image/mean/Fused_Add_" type="Add" version="opset1">
			<data auto_broadcast="numpy"/>
			<input>
				<port id="0">
					<dim>1</dim>
					<dim>3</dim>
					<dim>320</dim>
					<dim>320</dim>
				</port>
				<port id="1">
					<dim>1</dim>
					<dim>3</dim>
					<dim>1</dim>
					<dim>1</dim>
				</port>
			</input>
			<output>
				<port id="2" precision="FP16">
					<dim>1</dim>
					<dim>3</dim>
					<dim>320</dim>
					<dim>320</dim>
				</port>
			</output>
		</layer>
		<layer id="103" name="390/fq_input_0" type="FakeQuantize" version="opset1">
			<data auto_broadcast="numpy" levels="256"/>
			<input>
				<port id="0">
					<dim>1</dim>
					<dim>3</dim>
					<dim>320</dim>
					<dim>320</dim>
				</port>
				<port id="1"/>
				<port id="2"/>
				<port id="3"/>
				<port id="4"/>
			</input>
			<output>
				<port id="5" precision="FP16">
					<dim>1</dim>
					<dim>3</dim>
					<dim>320</dim>
					<dim>320</dim>
				</port>
			</output>
		</layer>
		<layer id="104" name="391/mean/Fused_Mul__copy243522467/quantized2478138765" type="Const" version="opset1">
			<data element_type="i8" offset="740" shape="24,3,3,3" size="648"/>
			<output>
				<port id="0" precision="I8">
					<dim>24</dim>
					<dim>3</dim>
					<dim>3</dim>
					<dim>3</dim>
				</port>
			</output>
		</layer>
		<layer id="105" name="391/mean/Fused_Mul__copy243522467/quantized/to_f16" type="Convert" version="opset1">
			<data destination_type="f16"/>
			<input>
				<port id="0">
					<dim>24</dim>
					<dim>3</dim>
					<dim>3</dim>
					<dim>3</dim>
				</port>
			</input>
			<output>
				<port id="1" precision="FP16">
					<dim>24</dim>
					<dim>3</dim>
					<dim>3</dim>
					<dim>3</dim>
				</port>
			</output>
		</layer>
		<layer id="106" name="390/fq_weights_1/zero_point2479440658" type="Const" version="opset1">
			<data element_type="f16" offset="1388" shape="24,1,1,1" size="48"/>
			<output>
				<port id="0" precision="FP16">
					<dim>24</dim>
					<dim>1</dim>
					<dim>1</dim>
					<dim>1</dim>
				</port>
			</output>
		</layer>
		<layer id="107" name="390/fq_weights_1/minus_zp" type="Subtract" version="opset1">
			<data auto_broadcast="numpy"/>
			<input>
				<port id="0">
					<dim>24</dim>
					<dim>3</dim>
					<dim>3</dim>
					<dim>3</dim>
				</port>
				<port id="1">
					<dim>24</dim>
					<dim>1</dim>
					<dim>1</dim>
					<dim>1</dim>
				</port>
			</input>
			<output>
				<port id="2" precision="FP16">
					<dim>24</dim>
					<dim>3</dim>
					<dim>3</dim>
					<dim>3</dim>
				</port>
			</output>
		</layer>
		<layer id="108" name="390/fq_weights_1/scale2478940805" type="Const" version="opset1">
			<data element_type="f16" offset="1436" shape="24,1,1,1" size="48"/>
			<output>
				<port id="0" precision="FP16">
					<dim>24</dim>
					<dim>1</dim>
					<dim>1</dim>
					<dim>1</dim>
				</port>
			</output>
		</layer>
		<layer id="109" name="390/fq_weights_1/mulpiply_by_scale" type="Multiply" version="opset1">
			<data auto_broadcast="numpy"/>
			<input>
				<port id="0">
					<dim>24</dim>
					<dim>3</dim>
					<dim>3</dim>
					<dim>3</dim>
				</port>
				<port id="1">
					<dim>24</dim>
					<dim>1</dim>
					<dim>1</dim>
					<dim>1</dim>
				</port>
			</input>
			<output>
				<port id="2" precision="FP16">
					<dim>24</dim>
					<dim>3</dim>
					<dim>3</dim>
					<dim>3</dim>
				</port>
			</output>
		</layer>
		<layer id="110" name="390" type="Convolution" version="opset1">
			<data auto_pad="explicit" dilations="1,1" pads_begin="1,1" pads_end="1,1" strides="2,2"/>
			<input>
				<port id="0">
					<dim>1</dim>
					<dim>3</dim>
					<dim>320</dim>
					<dim>320</dim>
				</port>
				<port id="1">
					<dim>24</dim>
					<dim>3</dim>
					<dim>3</dim>
					<dim>3</dim>
				</port>
			</input>
			<output>
				<port id="2" precision="FP16">
					<dim>1</dim>
					<dim>24</dim>
					<dim>160</dim>
					<dim>160</dim>
				</port>
			</output>
		</layer>
		<layer id="111" name="data_add_3805738062243740265" type="Const" version="opset1">
			<data element_type="f16" offset="1484" shape="1,24,1,1" size="48"/>
			<output>
				<port id="0" precision="FP16">
					<dim>1</dim>
					<dim>24</dim>
					<dim>1</dim>
					<dim>1</dim>
				</port>
			</output>
		</layer>
		<layer id="112" name="391/variance/Fused_Add_" type="Add" version="opset1">
			<data auto_broadcast="numpy"/>
			<input>
				<port id="0">
					<dim>1</dim>
					<dim>24</dim>
					<dim>160</dim>
					<dim>160</dim>
				</port>
				<port id="1">
					<dim>1</dim>
					<dim>24</dim>
					<dim>1</dim>
					<dim>1</dim>
				</port>
			</input>
			<output>
				<port id="2" names="391" precision="FP16">
					<dim>1</dim>
					<dim>24</dim>
					<dim>160</dim>
					<dim>160</dim>
				</port>
			</output>
		</layer>
		<layer id="113" name="392" type="ReLU" version="opset1">
			<input>
				<port id="0">
					<dim>1</dim>
					<dim>24</dim>
					<dim>160</dim>
					<dim>160</dim>
				</port>
			</input>
			<output>
				<port id="1" names="392" precision="FP16">
					<dim>1</dim>
					<dim>24</dim>
					<dim>160</dim>
					<dim>160</dim>
				</port>
			</output>
		</layer>
		<layer id="114" name="393/fq_input_0" type="FakeQuantize" version="opset1">
			<data auto_broadcast="numpy" levels="256"/>
			<input>
				<port id="0">
					<dim>1</dim>
					<dim>24</dim>
					<dim>160</dim>
					<dim>160</dim>
				</port>
				<port id="1"/>
				<port id="2"/>
				<port id="3"/>
				<port id="4"/>
			</input>
			<output>
				<port id="5" precision="FP16">
					<dim>1</dim>
					<dim>24</dim>
					<dim>160</dim>
					<dim>160</dim>
				</port>
			</output>
		</layer>
		<layer id="115" name="393" type="MaxPool" version="opset1">
			<data auto_pad="explicit" kernel="3,3" pads_begin="0,0" pads_end="0,0" rounding_type="ceil" strides="2,2"/>
			<input>
				<port id="0">
					<dim>1</dim>
					<dim>24</dim>
					<dim>160</dim>
					<dim>160</dim>
				</port>
			</input>
			<output>
				<port id="1" names="393" precision="FP16">
					<dim>1</dim>
					<dim>24</dim>
					<dim>80</dim>
					<dim>80</dim>
				</port>
			</output>
		</layer>
		<layer id="116" name="400/mean/Fused_Mul__copy245022473/quantized2518939635" type="Const" version="opset1">
			<data element_type="i8" offset="1532" shape="58,24,1,1" size="1392"/>
			<output>
				<port id="0" precision="I8">
					<dim>58</dim>
					<dim>24</dim>
					<dim>1</dim>
					<dim>1</dim>
				</port>
			</output>
		</layer>
		<layer id="117" name="400/mean/Fused_Mul__copy245022473/quantized/to_f16" type="Convert" version="opset1">
			<data destination_type="f16"/>
			<input>
				<port id="0">
					<dim>58</dim>
					<dim>24</dim>
					<dim>1</dim>
					<dim>1</dim>
				</port>
			</input>
			<output>
				<port id="1" precision="FP16">
					<dim>58</dim>
					<dim>24</dim>
					<dim>1</dim>
					<dim>1</dim>
				</port>
			</output>
		</layer>
		<layer id="118" name="399/fq_weights_1/zero_point2520236818" type="Const" version="opset1">
			<data element_type="f16" offset="2924" shape="58,1,1,1" size="116"/>
			<output>
				<port id="0" precision="FP16">
					<dim>58</dim>
					<dim>1</dim>
					<dim>1</dim>
					<dim>1</dim>
				</port>
			</output>
		</layer>
		<layer id="119" name="399/fq_weights_1/minus_zp" type="Subtract" version="opset1">
			<data auto_broadcast="numpy"/>
			<input>
				<port id="0">
					<dim>58</dim>
					<dim>24</dim>
					<dim>1</dim>
					<dim>1</dim>
				</port>
				<port id="1">
					<dim>58</dim>
					<dim>1</dim>
					<dim>1</dim>
					<dim>1</dim>
				</port>
			</input>
			<output>
				<port id="2" precision="FP16">
					<dim>58</dim>
					<dim>24</dim>
					<dim>1</dim>
					<dim>1</dim>
				</port>
			</output>
		</layer>
		<layer id="120" name="399/fq_weights_1/scale2519739905" type="Const" version="opset1">
			<data element_type="f16" offset="3040" shape="58,1,1,1" size="116"/>
			<output>
				<port id="0" precision="FP16">
					<dim>58</dim>
					<dim>1</dim>
					<dim>1</dim>
					<dim>1</dim>
				</port>
			</output>
		</layer>
		<layer id="121" name="399/fq_weights_1/mulpiply_by_scale" type="Multiply" version="opset1">
			<data auto_broadcast="numpy"/>
			<input>
				<port id="0">
					<dim>58</dim>
					<dim>24</dim>
					<dim>1</dim>
					<dim>1</dim>
				</port>
				<port id="1">
					<dim>58</dim>
					<dim>1</dim>
					<dim>1</dim>
					<dim>1</dim>
				</port>
			</input>
			<output>
				<port id="2" precision="FP16">
					<dim>58</dim>
					<dim>24</dim>
					<dim>1</dim>
					<dim>1</dim>
				</port>
			</output>
		</layer>
		<layer id="122" name="399" type="Convolution" version="opset1">
			<data auto_pad="explicit" dilations="1,1" pads_begin="0,0" pads_end="0,0" strides="1,1"/>
			<input>
				<port id="0">
					<dim>1</dim>
					<dim>24</dim>
					<dim>80</dim>
					<dim>80</dim>
				</port>
				<port id="1">
					<dim>58</dim>
					<dim>24</dim>
					<dim>1</dim>
					<dim>1</dim>
				</port>
			</input>
			<output>
				<port id="2" precision="FP16">
					<dim>1</dim>
					<dim>58</dim>
					<dim>80</dim>
					<dim>80</dim>
				</port>
			</output>
		</layer>
		<layer id="123" name="data_add_3806538070245240082" type="Const" version="opset1">
			<data element_type="f16" offset="3156" shape="1,58,1,1" size="116"/>
			<output>
				<port id="0" precision="FP16">
					<dim>1</dim>
					<dim>58</dim>
					<dim>1</dim>
					<dim>1</dim>
				</port>
			</output>
		</layer>
		<layer id="124" name="400/variance/Fused_Add_" type="Add" version="opset1">
			<data auto_broadcast="numpy"/>
			<input>
				<port id="0">
					<dim>1</dim>
					<dim>58</dim>
					<dim>80</dim>
					<dim>80</dim>
				</port>
				<port id="1">
					<dim>1</dim>
					<dim>58</dim>
					<dim>1</dim>
					<dim>1</dim>
				</port>
			</input>
			<output>
				<port id="2" names="400" precision="FP16">
					<dim>1</dim>
					<dim>58</dim>
					<dim>80</dim>
					<dim>80</dim>
				</port>
			</output>
		</layer>
		<layer id="125" name="401" type="ReLU" version="opset1">
			<input>
				<port id="0">
					<dim>1</dim>
					<dim>58</dim>
					<dim>80</dim>
					<dim>80</dim>
				</port>
			</input>
			<output>
				<port id="1" names="401" precision="FP16">
					<dim>1</dim>
					<dim>58</dim>
					<dim>80</dim>
					<dim>80</dim>
				</port>
			</output>
		</layer>
		<layer id="126" name="402/fq_input_0" type="FakeQuantize" version="opset1">
			<data auto_broadcast="numpy" levels="256"/>
			<input>
				<port id="0">
					<dim>1</dim>
					<dim>58</dim>
					<dim>80</dim>
					<dim>80</dim>
				</port>
				<port id="1">
					<dim>1</dim>
					<dim>58</dim>
					<dim>1</dim>
					<dim>1</dim>
				</port>
				<port id="2">
					<dim>1</dim>
					<dim>58</dim>
					<dim>1</dim>
					<dim>1</dim>
				</port>
				<port id="3">
					<dim>1</dim>
					<dim>58</dim>
					<dim>1</dim>
					<dim>1</dim>
				</port>
				<port id="4">
					<dim>1</dim>
					<dim>58</dim>
					<dim>1</dim>
					<dim>1</dim>
				</port>
			</input>
			<output>
				<port id="5" precision="FP16">
					<dim>1</dim>
					<dim>58</dim>
					<dim>80</dim>
					<dim>80</dim>
				</port>
			</output>
		</layer>
		<layer id="127" name="32134/value3213641039" type="Const" version="opset1">
			<data element_type="i64" offset="3272" shape="5" size="40"/>
			<output>
				<port id="0" precision="I64">
					<dim>5</dim>
				</port>
			</output>
		</layer>
		<layer id="128" name="403/mean/Fused_Mul__copy245522475/quantized2526138807" type="Const" version="opset1">
			<data element_type="i8" offset="3312" shape="58,1,3,3" size="522"/>
			<output>
				<port id="0" precision="I8">
					<dim>58</dim>
					<dim>1</dim>
					<dim>3</dim>
					<dim>3</dim>
				</port>
			</output>
		</layer>
		<layer id="129" name="403/mean/Fused_Mul__copy245522475/quantized/to_f16" type="Convert" version="opset1">
			<data destination_type="f16"/>
			<input>
				<port id="0">
					<dim>58</dim>
					<dim>1</dim>
					<dim>3</dim>
					<dim>3</dim>
				</port>
			</input>
			<output>
				<port id="1" precision="FP16">
					<dim>58</dim>
					<dim>1</dim>
					<dim>3</dim>
					<dim>3</dim>
				</port>
			</output>
		</layer>
		<layer id="130" name="402/fq_weights_1/zero_point2527436632" type="Const" version="opset1">
			<data element_type="f16" offset="3834" shape="58,1,1,1" size="116"/>
			<output>
				<port id="0" precision="FP16">
					<dim>58</dim>
					<dim>1</dim>
					<dim>1</dim>
					<dim>1</dim>
				</port>
			</output>
		</layer>
		<layer id="131" name="402/fq_weights_1/minus_zp" type="Subtract" version="opset1">
			<data auto_broadcast="numpy"/>
			<input>
				<port id="0">
					<dim>58</dim>
					<dim>1</dim>
					<dim>3</dim>
					<dim>3</dim>
				</port>
				<port id="1">
					<dim>58</dim>
					<dim>1</dim>
					<dim>1</dim>
					<dim>1</dim>
				</port>
			</input>
			<output>
				<port id="2" precision="FP16">
					<dim>58</dim>
					<dim>1</dim>
					<dim>3</dim>
					<dim>3</dim>
				</port>
			</output>
		</layer>
		<layer id="132" name="402/fq_weights_1/scale2526941468" type="Const" version="opset1">
			<data element_type="f16" offset="3950" shape="58,1,1,1" size="116"/>
			<output>
				<port id="0" precision="FP16">
					<dim>58</dim>
					<dim>1</dim>
					<dim>1</dim>
					<dim>1</dim>
				</port>
			</output>
		</layer>
		<layer id="133" name="402/fq_weights_1/mulpiply_by_scale" type="Multiply" version="opset1">
			<data auto_broadcast="numpy"/>
			<input>
				<port id="0">
					<dim>58</dim>
					<dim>1</dim>
					<dim>3</dim>
					<dim>3</dim>
				</port>
				<port id="1">
					<dim>58</dim>
					<dim>1</dim>
					<dim>1</dim>
					<dim>1</dim>
				</port>
			</input>
			<output>
				<port id="2" precision="FP16">
					<dim>58</dim>
					<dim>1</dim>
					<dim>3</dim>
					<dim>3</dim>
				</port>
			</output>
		</layer>
		<layer id="134" name="32134" type="Reshape" version="opset1">
			<data special_zero="true"/>
			<input>
				<port id="0">
					<dim>58</dim>
					<dim>1</dim>
					<dim>3</dim>
					<dim>3</dim>
				</port>
				<port id="1">
					<dim>5</dim>
				</port>
			</input>
			<output>
				<port id="2" precision="FP16">
					<dim>58</dim>
					<dim>1</dim>
					<dim>1</dim>
					<dim>3</dim>
					<dim>3</dim>
				</port>
			</output>
		</layer>
		<layer id="135" name="402" type="GroupConvolution" version="opset1">
			<data auto_pad="explicit" dilations="1,1" pads_begin="1,1" pads_end="1,1" strides="2,2"/>
			<input>
				<port id="0">
					<dim>1</dim>
					<dim>58</dim>
					<dim>80</dim>
					<dim>80</dim>
				</port>
				<port id="1">
					<dim>58</dim>
					<dim>1</dim>
					<dim>1</dim>
					<dim>3</dim>
					<dim>3</dim>
				</port>
			</input>
			<output>
				<port id="2" precision="FP16">
					<dim>1</dim>
					<dim>58</dim>
					<dim>40</dim>
					<dim>40</dim>
				</port>
			</output>
		</layer>
		<layer id="136" name="data_add_3807338078245741045" type="Const" version="opset1">
			<data element_type="f16" offset="4066" shape="1,58,1,1" size="116"/>
			<output>
				<port id="0" precision="FP16">
					<dim>1</dim>
					<dim>58</dim>
					<dim>1</dim>
					<dim>1</dim>
				</port>
			</output>
		</layer>
		<layer id="137" name="403/variance/Fused_Add_" type="Add" version="opset1">
			<data auto_broadcast="numpy"/>
			<input>
				<port id="0">
					<dim>1</dim>
					<dim>58</dim>
					<dim>40</dim>
					<dim>40</dim>
				</port>
				<port id="1">
					<dim>1</dim>
					<dim>58</dim>
					<dim>1</dim>
					<dim>1</dim>
				</port>
			</input>
			<output>
				<port id="2" names="403" precision="FP16">
					<dim>1</dim>
					<dim>58</dim>
					<dim>40</dim>
					<dim>40</dim>
				</port>
			</output>
		</layer>
		<layer id="138" name="404/fq_input_0" type="FakeQuantize" version="opset1">
			<data auto_broadcast="numpy" levels="256"/>
			<input>
				<port id="0">
					<dim>1</dim>
					<dim>58</dim>
					<dim>40</dim>
					<dim>40</dim>
				</port>
				<port id="1"/>
				<port id="2"/>
				<port id="3"/>
				<port id="4"/>
			</input>
			<output>
				<port id="5" precision="FP16">
					<dim>1</dim>
					<dim>58</dim>
					<dim>40</dim>
					<dim>40</dim>
				</port>
			</output>
		</layer>
		<layer id="139" name="405/mean/Fused_Mul__copy245922477/quantized2734937775" type="Const" version="opset1">
			<data element_type="i8" offset="4182" shape="58,58,1,1" size="3364"/>
			<output>
				<port id="0" precision="I8">
					<dim>58</dim>
					<dim>58</dim>
					<dim>1</dim>
					<dim>1</dim>
				</port>
			</output>
		</layer>
		<layer id="140" name="405/mean/Fused_Mul__copy245922477/quantized/to_f16" type="Convert" version="opset1">
			<data destination_type="f16"/>
			<input>
				<port id="0">
					<dim>58</dim>
					<dim>58</dim>
					<dim>1</dim>
					<dim>1</dim>
				</port>
			</input>
			<output>
				<port id="1" precision="FP16">
					<dim>58</dim>
					<dim>58</dim>
					<dim>1</dim>
					<dim>1</dim>
				</port>
			</output>
		</layer>
		<layer id="141" name="404/fq_weights_1/zero_point2736240007" type="Const" version="opset1">
			<data element_type="f16" offset="7546" shape="58,1,1,1" size="116"/>
			<output>
				<port id="0" precision="FP16">
					<dim>58</dim>
					<dim>1</dim>
					<dim>1</dim>
					<dim>1</dim>
				</port>
			</output>
		</layer>
		<layer id="142" name="404/fq_weights_1/minus_zp" type="Subtract" version="opset1">
			<data auto_broadcast="numpy"/>
			<input>
				<port id="0">
					<dim>58</dim>
					<dim>58</dim>
					<dim>1</dim>
					<dim>1</dim>
				</port>
				<port id="1">
					<dim>58</dim>
					<dim>1</dim>
					<dim>1</dim>
					<dim>1</dim>
				</port>
			</input>
			<output>
				<port id="2" precision="FP16">
					<dim>58</dim>
					<dim>58</dim>
					<dim>1</dim>
					<dim>1</dim>
				</port>
			</output>
		</layer>
		<layer id="143" name="404/fq_weights_1/scale2735740700" type="Const" version="opset1">
			<data element_type="f16" offset="7662" shape="58,1,1,1" size="116"/>
			<output>
				<port id="0" precision="FP16">
					<dim>58</dim>
					<dim>1</dim>
					<dim>1</dim>
					<dim>1</dim>
				</port>
			</output>
		</layer>
		<layer id="144" name="404/fq_weights_1/mulpiply_by_scale" type="Multiply" version="opset1">
			<data auto_broadcast="numpy"/>
			<input>
				<port id="0">
					<dim>58</dim>
					<dim>58</dim>
					<dim>1</dim>
					<dim>1</dim>
				</port>
				<port id="1">
					<dim>58</dim>
					<dim>1</dim>
					<dim>1</dim>
					<dim>1</dim>
				</port>
			</input>
			<output>
				<port id="2" precision="FP16">
					<dim>58</dim>
					<dim>58</dim>
					<dim>1</dim>
					<dim>1</dim>
				</port>
			</output>
		</layer>
		<layer id="145" name="404" type="Convolution" version="opset1">
			<data auto_pad="explicit" dilations="1,1" pads_begin="0,0" pads_end="0,0" strides="1,1"/>
			<input>
				<port id="0">
					<dim>1</dim>
					<dim>58</dim>
					<dim>40</dim>
					<dim>40</dim>
				</port>
				<port id="1">
					<dim>58</dim>
					<dim>58</dim>
					<dim>1</dim>
					<dim>1</dim>
				</port>
			</input>
			<output>
				<port id="2" precision="FP16">
					<dim>1</dim>
					<dim>58</dim>
					<dim>40</dim>
					<dim>40</dim>
				</port>
			</output>
		</layer>
		<layer id="146" name="data_add_3808138086246136356" type="Const" version="opset1">
			<data element_type="f16" offset="7778" shape="1,58,1,1" size="116"/>
			<output>
				<port id="0" precision="FP16">
					<dim>1</dim>
					<dim>58</dim>
					<dim>1</dim>
					<dim>1</dim>
				</port>
			</output>
		</layer>
		<layer id="147" name="405/variance/Fused_Add_" type="Add" version="opset1">
			<data auto_broadcast="numpy"/>
			<input>
				<port id="0">
					<dim>1</dim>
					<dim>58</dim>
					<dim>40</dim>
					<dim>40</dim>
				</port>
				<port id="1">
					<dim>1</dim>
					<dim>58</dim>
					<dim>1</dim>
					<dim>1</dim>
				</port>
			</input>
			<output>
				<port id="2" names="405" precision="FP16">
					<dim>1</dim>
					<dim>58</dim>
					<dim>40</dim>
					<dim>40</dim>
				</port>
			</output>
		</layer>
		<layer id="148" name="406" type="ReLU" version="opset1">
			<input>
				<port id="0">
					<dim>1</dim>
					<dim>58</dim>
					<dim>40</dim>
					<dim>40</dim>
				</port>
			</input>
			<output>
				<port id="1" names="406" precision="FP16">
					<dim>1</dim>
					<dim>58</dim>
					<dim>40</dim>
					<dim>40</dim>
				</port>
			</output>
		</layer>
		<layer id="149" name="407/fq_input_1" type="FakeQuantize" version="opset1">
			<data auto_broadcast="numpy" levels="256"/>
			<input>
				<port id="0">
					<dim>1</dim>
					<dim>58</dim>
					<dim>40</dim>
					<dim>40</dim>
				</port>
				<port id="1"/>
				<port id="2"/>
				<port id="3"/>
				<port id="4"/>
			</input>
			<output>
				<port id="5" precision="FP16">
					<dim>1</dim>
					<dim>58</dim>
					<dim>40</dim>
					<dim>40</dim>
				</port>
			</output>
		</layer>
		<layer id="150" name="137211372536638" type="Const" version="opset1">
			<data element_type="f16" offset="0" shape="" size="2"/>
			<output>
				<port id="0" precision="FP16"/>
			</output>
		</layer>
		<layer id="151" name="137221372641633" type="Const" version="opset1">
			<data element_type="f16" offset="7894" shape="" size="2"/>
			<output>
				<port id="0" precision="FP16"/>
			</output>
		</layer>
		<layer id="152" name="137231372736476" type="Const" version="opset1">
			<data element_type="f16" offset="0" shape="" size="2"/>
			<output>
				<port id="0" precision="FP16"/>
			</output>
		</layer>
		<layer id="153" name="137241372838657" type="Const" version="opset1">
			<data element_type="f16" offset="7894" shape="" size="2"/>
			<output>
				<port id="0" precision="FP16"/>
			</output>
		</layer>
		<layer id="154" name="8495849937514" type="Const" version="opset1">
			<data element_type="f16" offset="7896" shape="" size="2"/>
			<output>
				<port id="0" precision="FP16"/>
			</output>
		</layer>
		<layer id="155" name="8496850038246" type="Const" version="opset1">
			<data element_type="f16" offset="7898" shape="" size="2"/>
			<output>
				<port id="0" precision="FP16"/>
			</output>
		</layer>
		<layer id="156" name="8497850140817" type="Const" version="opset1">
			<data element_type="f16" offset="7896" shape="" size="2"/>
			<output>
				<port id="0" precision="FP16"/>
			</output>
		</layer>
		<layer id="157" name="8498850239503" type="Const" version="opset1">
			<data element_type="f16" offset="7898" shape="" size="2"/>
			<output>
				<port id="0" precision="FP16"/>
			</output>
		</layer>
		<layer id="158" name="32094/value3209640229" type="Const" version="opset1">
			<data element_type="i64" offset="7900" shape="5" size="40"/>
			<output>
				<port id="0" precision="I64">
					<dim>5</dim>
				</port>
			</output>
		</layer>
		<layer id="159" name="395/mean/Fused_Mul__copy244122469/quantized2725341651" type="Const" version="opset1">
			<data element_type="i8" offset="7940" shape="24,1,3,3" size="216"/>
			<output>
				<port id="0" precision="I8">
					<dim>24</dim>
					<dim>1</dim>
					<dim>3</dim>
					<dim>3</dim>
				</port>
			</output>
		</layer>
		<layer id="160" name="395/mean/Fused_Mul__copy244122469/quantized/to_f16" type="Convert" version="opset1">
			<data destination_type="f16"/>
			<input>
				<port id="0">
					<dim>24</dim>
					<dim>1</dim>
					<dim>3</dim>
					<dim>3</dim>
				</port>
			</input>
			<output>
				<port id="1" precision="FP16">
					<dim>24</dim>
					<dim>1</dim>
					<dim>3</dim>
					<dim>3</dim>
				</port>
			</output>
		</layer>
		<layer id="161" name="394/fq_weights_1/zero_point2726636845" type="Const" version="opset1">
			<data element_type="f16" offset="8156" shape="24,1,1,1" size="48"/>
			<output>
				<port id="0" precision="FP16">
					<dim>24</dim>
					<dim>1</dim>
					<dim>1</dim>
					<dim>1</dim>
				</port>
			</output>
		</layer>
		<layer id="162" name="394/fq_weights_1/minus_zp" type="Subtract" version="opset1">
			<data auto_broadcast="numpy"/>
			<input>
				<port id="0">
					<dim>24</dim>
					<dim>1</dim>
					<dim>3</dim>
					<dim>3</dim>
				</port>
				<port id="1">
					<dim>24</dim>
					<dim>1</dim>
					<dim>1</dim>
					<dim>1</dim>
				</port>
			</input>
			<output>
				<port id="2" precision="FP16">
					<dim>24</dim>
					<dim>1</dim>
					<dim>3</dim>
					<dim>3</dim>
				</port>
			</output>
		</layer>
		<layer id="163" name="394/fq_weights_1/scale2726140664" type="Const" version="opset1">
			<data element_type="f16" offset="8204" shape="24,1,1,1" size="48"/>
			<output>
				<port id="0" precision="FP16">
					<dim>24</dim>
					<dim>1</dim>
					<dim>1</dim>
					<dim>1</dim>
				</port>
			</output>
		</layer>
		<layer id="164" name="394/fq_weights_1/mulpiply_by_scale" type="Multiply" version="opset1">
			<data auto_broadcast="numpy"/>
			<input>
				<port id="0">
					<dim>24</dim>
					<dim>1</dim>
					<dim>3</dim>
					<dim>3</dim>
				</port>
				<port id="1">
					<dim>24</dim>
					<dim>1</dim>
					<dim>1</dim>
					<dim>1</dim>
				</port>
			</input>
			<output>
				<port id="2" precision="FP16">
					<dim>24</dim>
					<dim>1</dim>
					<dim>3</dim>
					<dim>3</dim>
				</port>
			</output>
		</layer>
		<layer id="165" name="32094" type="Reshape" version="opset1">
			<data special_zero="true"/>
			<input>
				<port id="0">
					<dim>24</dim>
					<dim>1</dim>
					<dim>3</dim>
					<dim>3</dim>
				</port>
				<port id="1">
					<dim>5</dim>
				</port>
			</input>
			<output>
				<port id="2" precision="FP16">
					<dim>24</dim>
					<dim>1</dim>
					<dim>1</dim>
					<dim>3</dim>
					<dim>3</dim>
				</port>
			</output>
		</layer>
		<layer id="166" name="394" type="GroupConvolution" version="opset1">
			<data auto_pad="explicit" dilations="1,1" pads_begin="1,1" pads_end="1,1" strides="2,2"/>
			<input>
				<port id="0">
					<dim>1</dim>
					<dim>24</dim>
					<dim>80</dim>
					<dim>80</dim>
				</port>
				<port id="1">
					<dim>24</dim>
					<dim>1</dim>
					<dim>1</dim>
					<dim>3</dim>
					<dim>3</dim>
				</port>
			</input>
			<output>
				<port id="2" precision="FP16">
					<dim>1</dim>
					<dim>24</dim>
					<dim>40</dim>
					<dim>40</dim>
				</port>
			</output>
		</layer>
		<layer id="167" name="data_add_3808938094244337886" type="Const" version="opset1">
			<data element_type="f16" offset="8252" shape="1,24,1,1" size="48"/>
			<output>
				<port id="0" precision="FP16">
					<dim>1</dim>
					<dim>24</dim>
					<dim>1</dim>
					<dim>1</dim>
				</port>
			</output>
		</layer>
		<layer id="168" name="395/variance/Fused_Add_" type="Add" version="opset1">
			<data auto_broadcast="numpy"/>
			<input>
				<port id="0">
					<dim>1</dim>
					<dim>24</dim>
					<dim>40</dim>
					<dim>40</dim>
				</port>
				<port id="1">
					<dim>1</dim>
					<dim>24</dim>
					<dim>1</dim>
					<dim>1</dim>
				</port>
			</input>
			<output>
				<port id="2" names="395" precision="FP16">
					<dim>1</dim>
					<dim>24</dim>
					<dim>40</dim>
					<dim>40</dim>
				</port>
			</output>
		</layer>
		<layer id="169" name="396/fq_input_0" type="FakeQuantize" version="opset1">
			<data auto_broadcast="numpy" levels="256"/>
			<input>
				<port id="0">
					<dim>1</dim>
					<dim>24</dim>
					<dim>40</dim>
					<dim>40</dim>
				</port>
				<port id="1"/>
				<port id="2"/>
				<port id="3"/>
				<port id="4"/>
			</input>
			<output>
				<port id="5" precision="FP16">
					<dim>1</dim>
					<dim>24</dim>
					<dim>40</dim>
					<dim>40</dim>
				</port>
			</output>
		</layer>
		<layer id="170" name="397/mean/Fused_Mul__copy244522471/quantized2530936584" type="Const" version="opset1">
			<data element_type="i8" offset="8300" shape="58,24,1,1" size="1392"/>
			<output>
				<port id="0" precision="I8">
					<dim>58</dim>
					<dim>24</dim>
					<dim>1</dim>
					<dim>1</dim>
				</port>
			</output>
		</layer>
		<layer id="171" name="397/mean/Fused_Mul__copy244522471/quantized/to_f16" type="Convert" version="opset1">
			<data destination_type="f16"/>
			<input>
				<port id="0">
					<dim>58</dim>
					<dim>24</dim>
					<dim>1</dim>
					<dim>1</dim>
				</port>
			</input>
			<output>
				<port id="1" precision="FP16">
					<dim>58</dim>
					<dim>24</dim>
					<dim>1</dim>
					<dim>1</dim>
				</port>
			</output>
		</layer>
		<layer id="172" name="396/fq_weights_1/zero_point2532240994" type="Const" version="opset1">
			<data element_type="f16" offset="9692" shape="58,1,1,1" size="116"/>
			<output>
				<port id="0" precision="FP16">
					<dim>58</dim>
					<dim>1</dim>
					<dim>1</dim>
					<dim>1</dim>
				</port>
			</output>
		</layer>
		<layer id="173" name="396/fq_weights_1/minus_zp" type="Subtract" version="opset1">
			<data auto_broadcast="numpy"/>
			<input>
				<port id="0">
					<dim>58</dim>
					<dim>24</dim>
					<dim>1</dim>
					<dim>1</dim>
				</port>
				<port id="1">
					<dim>58</dim>
					<dim>1</dim>
					<dim>1</dim>
					<dim>1</dim>
				</port>
			</input>
			<output>
				<port id="2" precision="FP16">
					<dim>58</dim>
					<dim>24</dim>
					<dim>1</dim>
					<dim>1</dim>
				</port>
			</output>
		</layer>
		<layer id="174" name="396/fq_weights_1/scale2531741720" type="Const" version="opset1">
			<data element_type="f16" offset="9808" shape="58,1,1,1" size="116"/>
			<output>
				<port id="0" precision="FP16">
					<dim>58</dim>
					<dim>1</dim>
					<dim>1</dim>
					<dim>1</dim>
				</port>
			</output>
		</layer>
		<layer id="175" name="396/fq_weights_1/mulpiply_by_scale" type="Multiply" version="opset1">
			<data auto_broadcast="numpy"/>
			<input>
				<port id="0">
					<dim>58</dim>
					<dim>24</dim>
					<dim>1</dim>
					<dim>1</dim>
				</port>
				<port id="1">
					<dim>58</dim>
					<dim>1</dim>
					<dim>1</dim>
					<dim>1</dim>
				</port>
			</input>
			<output>
				<port id="2" precision="FP16">
					<dim>58</dim>
					<dim>24</dim>
					<dim>1</dim>
					<dim>1</dim>
				</port>
			</output>
		</layer>
		<layer id="176" name="396" type="Convolution" version="opset1">
			<data auto_pad="explicit" dilations="1,1" pads_begin="0,0" pads_end="0,0" strides="1,1"/>
			<input>
				<port id="0">
					<dim>1</dim>
					<dim>24</dim>
					<dim>40</dim>
					<dim>40</dim>
				</port>
				<port id="1">
					<dim>58</dim>
					<dim>24</dim>
					<dim>1</dim>
					<dim>1</dim>
				</port>
			</input>
			<output>
				<port id="2" precision="FP16">
					<dim>1</dim>
					<dim>58</dim>
					<dim>40</dim>
					<dim>40</dim>
				</port>
			</output>
		</layer>
		<layer id="177" name="data_add_3809738102244740346" type="Const" version="opset1">
			<data element_type="f16" offset="9924" shape="1,58,1,1" size="116"/>
			<output>
				<port id="0" precision="FP16">
					<dim>1</dim>
					<dim>58</dim>
					<dim>1</dim>
					<dim>1</dim>
				</port>
			</output>
		</layer>
		<layer id="178" name="397/variance/Fused_Add_" type="Add" version="opset1">
			<data auto_broadcast="numpy"/>
			<input>
				<port id="0">
					<dim>1</dim>
					<dim>58</dim>
					<dim>40</dim>
					<dim>40</dim>
				</port>
				<port id="1">
					<dim>1</dim>
					<dim>58</dim>
					<dim>1</dim>
					<dim>1</dim>
				</port>
			</input>
			<output>
				<port id="2" names="397" precision="FP16">
					<dim>1</dim>
					<dim>58</dim>
					<dim>40</dim>
					<dim>40</dim>
				</port>
			</output>
		</layer>
		<layer id="179" name="398" type="ReLU" version="opset1">
			<input>
				<port id="0">
					<dim>1</dim>
					<dim>58</dim>
					<dim>40</dim>
					<dim>40</dim>
				</port>
			</input>
			<output>
				<port id="1" names="398" precision="FP16">
					<dim>1</dim>
					<dim>58</dim>
					<dim>40</dim>
					<dim>40</dim>
				</port>
			</output>
		</layer>
		<layer id="180" name="407/fq_input_0" type="FakeQuantize" version="opset1">
			<data auto_broadcast="numpy" levels="256"/>
			<input>
				<port id="0">
					<dim>1</dim>
					<dim>58</dim>
					<dim>40</dim>
					<dim>40</dim>
				</port>
				<port id="1"/>
				<port id="2"/>
				<port id="3"/>
				<port id="4"/>
			</input>
			<output>
				<port id="5" precision="FP16">
					<dim>1</dim>
					<dim>58</dim>
					<dim>40</dim>
					<dim>40</dim>
				</port>
			</output>
		</layer>
		<layer id="181" name="407" type="Concat" version="opset1">
			<data axis="1"/>
			<input>
				<port id="0">
					<dim>1</dim>
					<dim>58</dim>
					<dim>40</dim>
					<dim>40</dim>
				</port>
				<port id="1">
					<dim>1</dim>
					<dim>58</dim>
					<dim>40</dim>
					<dim>40</dim>
				</port>
			</input>
			<output>
				<port id="2" names="407" precision="FP16">
					<dim>1</dim>
					<dim>116</dim>
					<dim>40</dim>
					<dim>40</dim>
				</port>
			</output>
		</layer>
		<layer id="182" name="409" type="ShapeOf" version="opset3">
			<data output_type="i64"/>
			<input>
				<port id="0">
					<dim>1</dim>
					<dim>116</dim>
					<dim>40</dim>
					<dim>40</dim>
				</port>
			</input>
			<output>
				<port id="1" names="409" precision="I64">
					<dim>4</dim>
				</port>
			</output>
		</layer>
		<layer id="183" name="4082466" type="Const" version="opset1">
			<data element_type="i32" offset="10040" shape="" size="4"/>
			<output>
				<port id="0" names="408" precision="I32"/>
			</output>
		</layer>
		<layer id="184" name="410/axis2467" type="Const" version="opset1">
			<data element_type="i64" offset="10044" shape="" size="8"/>
			<output>
				<port id="0" precision="I64"/>
			</output>
		</layer>
		<layer id="185" name="4102938" type="Gather" version="opset7">
			<data batch_dims="0"/>
			<input>
				<port id="0">
					<dim>4</dim>
				</port>
				<port id="1"/>
				<port id="2"/>
			</input>
			<output>
				<port id="3" names="410" precision="I64"/>
			</output>
		</layer>
		<layer id="186" name="423/Dims246941048" type="Const" version="opset1">
			<data element_type="i64" offset="10044" shape="1" size="8"/>
			<output>
				<port id="0" precision="I64">
					<dim>1</dim>
				</port>
			</output>
		</layer>
		<layer id="187" name="423/Unsqueeze" type="Unsqueeze" version="opset1">
			<input>
				<port id="0"/>
				<port id="1">
					<dim>1</dim>
				</port>
			</input>
			<output>
				<port id="2" names="423" precision="I64">
					<dim>1</dim>
				</port>
			</output>
		</layer>
		<layer id="188" name="424/Unsqueeze247138279" type="Const" version="opset1">
			<data element_type="i64" offset="4" shape="1" size="8"/>
			<output>
				<port id="0" names="424" precision="I64">
					<dim>1</dim>
				</port>
			</output>
		</layer>
		<layer id="189" name="412" type="ShapeOf" version="opset3">
			<data output_type="i64"/>
			<input>
				<port id="0">
					<dim>1</dim>
					<dim>116</dim>
					<dim>40</dim>
					<dim>40</dim>
				</port>
			</input>
			<output>
				<port id="1" names="412" precision="I64">
					<dim>4</dim>
				</port>
			</output>
		</layer>
		<layer id="190" name="4112473" type="Const" version="opset1">
			<data element_type="i32" offset="10052" shape="" size="4"/>
			<output>
				<port id="0" names="411" precision="I32"/>
			</output>
		</layer>
		<layer id="191" name="413/axis2474" type="Const" version="opset1">
			<data element_type="i64" offset="10044" shape="" size="8"/>
			<output>
				<port id="0" precision="I64"/>
			</output>
		</layer>
		<layer id="192" name="4132954" type="Gather" version="opset7">
			<data batch_dims="0"/>
			<input>
				<port id="0">
					<dim>4</dim>
				</port>
				<port id="1"/>
				<port id="2"/>
			</input>
			<output>
				<port id="3" names="413" precision="I64"/>
			</output>
		</layer>
		<layer id="193" name="420247641150" type="Const" version="opset1">
			<data element_type="i64" offset="4" shape="" size="8"/>
			<output>
				<port id="0" names="420" precision="I64"/>
			</output>
		</layer>
		<layer id="194" name="421" type="Divide" version="opset1">
			<data auto_broadcast="numpy"/>
			<input>
				<port id="0"/>
				<port id="1"/>
			</input>
			<output>
				<port id="2" names="421" precision="I64"/>
			</output>
		</layer>
		<layer id="195" name="425/Dims247841858" type="Const" version="opset1">
			<data element_type="i64" offset="10044" shape="1" size="8"/>
			<output>
				<port id="0" precision="I64">
					<dim>1</dim>
				</port>
			</output>
		</layer>
		<layer id="196" name="425/Unsqueeze" type="Unsqueeze" version="opset1">
			<input>
				<port id="0"/>
				<port id="1">
					<dim>1</dim>
				</port>
			</input>
			<output>
				<port id="2" names="425" precision="I64">
					<dim>1</dim>
				</port>
			</output>
		</layer>
		<layer id="197" name="415" type="ShapeOf" version="opset3">
			<data output_type="i64"/>
			<input>
				<port id="0">
					<dim>1</dim>
					<dim>116</dim>
					<dim>40</dim>
					<dim>40</dim>
				</port>
			</input>
			<output>
				<port id="1" names="415" precision="I64">
					<dim>4</dim>
				</port>
			</output>
		</layer>
		<layer id="198" name="4142481" type="Const" version="opset1">
			<data element_type="i32" offset="10056" shape="" size="4"/>
			<output>
				<port id="0" names="414" precision="I32"/>
			</output>
		</layer>
		<layer id="199" name="416/axis2482" type="Const" version="opset1">
			<data element_type="i64" offset="10044" shape="" size="8"/>
			<output>
				<port id="0" precision="I64"/>
			</output>
		</layer>
		<layer id="200" name="4162936" type="Gather" version="opset7">
			<data batch_dims="0"/>
			<input>
				<port id="0">
					<dim>4</dim>
				</port>
				<port id="1"/>
				<port id="2"/>
			</input>
			<output>
				<port id="3" names="416" precision="I64"/>
			</output>
		</layer>
		<layer id="201" name="426/Dims248436836" type="Const" version="opset1">
			<data element_type="i64" offset="10044" shape="1" size="8"/>
			<output>
				<port id="0" precision="I64">
					<dim>1</dim>
				</port>
			</output>
		</layer>
		<layer id="202" name="426/Unsqueeze" type="Unsqueeze" version="opset1">
			<input>
				<port id="0"/>
				<port id="1">
					<dim>1</dim>
				</port>
			</input>
			<output>
				<port id="2" names="426" precision="I64">
					<dim>1</dim>
				</port>
			</output>
		</layer>
		<layer id="203" name="418" type="ShapeOf" version="opset3">
			<data output_type="i64"/>
			<input>
				<port id="0">
					<dim>1</dim>
					<dim>116</dim>
					<dim>40</dim>
					<dim>40</dim>
				</port>
			</input>
			<output>
				<port id="1" names="418" precision="I64">
					<dim>4</dim>
				</port>
			</output>
		</layer>
		<layer id="204" name="4172487" type="Const" version="opset1">
			<data element_type="i32" offset="10060" shape="" size="4"/>
			<output>
				<port id="0" names="417" precision="I32"/>
			</output>
		</layer>
		<layer id="205" name="419/axis2488" type="Const" version="opset1">
			<data element_type="i64" offset="10044" shape="" size="8"/>
			<output>
				<port id="0" precision="I64"/>
			</output>
		</layer>
		<layer id="206" name="4192868" type="Gather" version="opset7">
			<data batch_dims="0"/>
			<input>
				<port id="0">
					<dim>4</dim>
				</port>
				<port id="1"/>
				<port id="2"/>
			</input>
			<output>
				<port id="3" names="419" precision="I64"/>
			</output>
		</layer>
		<layer id="207" name="427/Dims249041153" type="Const" version="opset1">
			<data element_type="i64" offset="10044" shape="1" size="8"/>
			<output>
				<port id="0" precision="I64">
					<dim>1</dim>
				</port>
			</output>
		</layer>
		<layer id="208" name="427/Unsqueeze" type="Unsqueeze" version="opset1">
			<input>
				<port id="0"/>
				<port id="1">
					<dim>1</dim>
				</port>
			</input>
			<output>
				<port id="2" names="427" precision="I64">
					<dim>1</dim>
				</port>
			</output>
		</layer>
		<layer id="209" name="428" type="Concat" version="opset1">
			<data axis="0"/>
			<input>
				<port id="0">
					<dim>1</dim>
				</port>
				<port id="1">
					<dim>1</dim>
				</port>
				<port id="2">
					<dim>1</dim>
				</port>
				<port id="3">
					<dim>1</dim>
				</port>
				<port id="4">
					<dim>1</dim>
				</port>
			</input>
			<output>
				<port id="5" names="428" precision="I64">
					<dim>5</dim>
				</port>
			</output>
		</layer>
		<layer id="210" name="429" type="Reshape" version="opset1">
			<data special_zero="true"/>
			<input>
				<port id="0">
					<dim>1</dim>
					<dim>116</dim>
					<dim>40</dim>
					<dim>40</dim>
				</port>
				<port id="1">
					<dim>5</dim>
				</port>
			</input>
			<output>
				<port id="2" names="429" precision="FP16">
					<dim>1</dim>
					<dim>2</dim>
					<dim>58</dim>
					<dim>40</dim>
					<dim>40</dim>
				</port>
			</output>
		</layer>
		<layer id="211" name="16962494" type="Const" version="opset1">
			<data element_type="i64" offset="10064" shape="5" size="40"/>
			<output>
				<port id="0" precision="I64">
					<dim>5</dim>
				</port>
			</output>
		</layer>
		<layer id="212" name="430" type="Transpose" version="opset1">
			<input>
				<port id="0">
					<dim>1</dim>
					<dim>2</dim>
					<dim>58</dim>
					<dim>40</dim>
					<dim>40</dim>
				</port>
				<port id="1">
					<dim>5</dim>
				</port>
			</input>
			<output>
				<port id="2" names="430" precision="FP16">
					<dim>1</dim>
					<dim>58</dim>
					<dim>2</dim>
					<dim>40</dim>
					<dim>40</dim>
				</port>
			</output>
		</layer>
		<layer id="213" name="431/Dims249640718" type="Const" version="opset1">
			<data element_type="i64" offset="10044" shape="1" size="8"/>
			<output>
				<port id="0" precision="I64">
					<dim>1</dim>
				</port>
			</output>
		</layer>
		<layer id="214" name="431/Unsqueeze" type="Unsqueeze" version="opset1">
			<input>
				<port id="0"/>
				<port id="1">
					<dim>1</dim>
				</port>
			</input>
			<output>
				<port id="2" names="431" precision="I64">
					<dim>1</dim>
				</port>
			</output>
		</layer>
		<layer id="215" name="432/Dims249836275" type="Const" version="opset1">
			<data element_type="i64" offset="10044" shape="1" size="8"/>
			<output>
				<port id="0" precision="I64">
					<dim>1</dim>
				</port>
			</output>
		</layer>
		<layer id="216" name="432/Unsqueeze" type="Unsqueeze" version="opset1">
			<input>
				<port id="0"/>
				<port id="1">
					<dim>1</dim>
				</port>
			</input>
			<output>
				<port id="2" names="432" precision="I64">
					<dim>1</dim>
				</port>
			</output>
		</layer>
		<layer id="217" name="433/Dims250040571" type="Const" version="opset1">
			<data element_type="i64" offset="10044" shape="1" size="8"/>
			<output>
				<port id="0" precision="I64">
					<dim>1</dim>
				</port>
			</output>
		</layer>
		<layer id="218" name="433/Unsqueeze" type="Unsqueeze" version="opset1">
			<input>
				<port id="0"/>
				<port id="1">
					<dim>1</dim>
				</port>
			</input>
			<output>
				<port id="2" names="433" precision="I64">
					<dim>1</dim>
				</port>
			</output>
		</layer>
		<layer id="219" name="434/Dims250241480" type="Const" version="opset1">
			<data element_type="i64" offset="10044" shape="1" size="8"/>
			<output>
				<port id="0" precision="I64">
					<dim>1</dim>
				</port>
			</output>
		</layer>
		<layer id="220" name="434/Unsqueeze" type="Unsqueeze" version="opset1">
			<input>
				<port id="0"/>
				<port id="1">
					<dim>1</dim>
				</port>
			</input>
			<output>
				<port id="2" names="434" precision="I64">
					<dim>1</dim>
				</port>
			</output>
		</layer>
		<layer id="221" name="435" type="Concat" version="opset1">
			<data axis="0"/>
			<input>
				<port id="0">
					<dim>1</dim>
				</port>
				<port id="1">
					<dim>1</dim>
				</port>
				<port id="2">
					<dim>1</dim>
				</port>
				<port id="3">
					<dim>1</dim>
				</port>
			</input>
			<output>
				<port id="4" names="435" precision="I64">
					<dim>4</dim>
				</port>
			</output>
		</layer>
		<layer id="222" name="436" type="Reshape" version="opset1">
			<data special_zero="true"/>
			<input>
				<port id="0">
					<dim>1</dim>
					<dim>58</dim>
					<dim>2</dim>
					<dim>40</dim>
					<dim>40</dim>
				</port>
				<port id="1">
					<dim>4</dim>
				</port>
			</input>
			<output>
				<port id="2" names="436" precision="FP16">
					<dim>1</dim>
					<dim>116</dim>
					<dim>40</dim>
					<dim>40</dim>
				</port>
			</output>
		</layer>
		<layer id="223" name="437/VariadicSplit" type="VariadicSplit" version="opset1">
			<input>
				<port id="0">
					<dim>1</dim>
					<dim>116</dim>
					<dim>40</dim>
					<dim>40</dim>
				</port>
				<port id="1"/>
				<port id="2">
					<dim>2</dim>
				</port>
			</input>
			<output>
				<port id="3" names="437" precision="FP16">
					<dim>1</dim>
					<dim>58</dim>
					<dim>40</dim>
					<dim>40</dim>
				</port>
				<port id="4" names="438" precision="FP16">
					<dim>1</dim>
					<dim>58</dim>
					<dim>40</dim>
					<dim>40</dim>
				</port>
			</output>
		</layer>
		<layer id="224" name="440/mean/Fused_Mul__copy251022500/quantized2694141867" type="Const" version="opset1">
			<data element_type="i8" offset="10104" shape="58,58,1,1" size="3364"/>
			<output>
				<port id="0" precision="I8">
					<dim>58</dim>
					<dim>58</dim>
					<dim>1</dim>
					<dim>1</dim>
				</port>
			</output>
		</layer>
		<layer id="225" name="440/mean/Fused_Mul__copy251022500/quantized/to_f16" type="Convert" version="opset1">
			<data destination_type="f16"/>
			<input>
				<port id="0">
					<dim>58</dim>
					<dim>58</dim>
					<dim>1</dim>
					<dim>1</dim>
				</port>
			</input>
			<output>
				<port id="1" precision="FP16">
					<dim>58</dim>
					<dim>58</dim>
					<dim>1</dim>
					<dim>1</dim>
				</port>
			</output>
		</layer>
		<layer id="226" name="439/fq_weights_1/zero_point2695438486" type="Const" version="opset1">
			<data element_type="f16" offset="13468" shape="58,1,1,1" size="116"/>
			<output>
				<port id="0" precision="FP16">
					<dim>58</dim>
					<dim>1</dim>
					<dim>1</dim>
					<dim>1</dim>
				</port>
			</output>
		</layer>
		<layer id="227" name="439/fq_weights_1/minus_zp" type="Subtract" version="opset1">
			<data auto_broadcast="numpy"/>
			<input>
				<port id="0">
					<dim>58</dim>
					<dim>58</dim>
					<dim>1</dim>
					<dim>1</dim>
				</port>
				<port id="1">
					<dim>58</dim>
					<dim>1</dim>
					<dim>1</dim>
					<dim>1</dim>
				</port>
			</input>
			<output>
				<port id="2" precision="FP16">
					<dim>58</dim>
					<dim>58</dim>
					<dim>1</dim>
					<dim>1</dim>
				</port>
			</output>
		</layer>
		<layer id="228" name="439/fq_weights_1/scale2694941282" type="Const" version="opset1">
			<data element_type="f16" offset="13584" shape="58,1,1,1" size="116"/>
			<output>
				<port id="0" precision="FP16">
					<dim>58</dim>
					<dim>1</dim>
					<dim>1</dim>
					<dim>1</dim>
				</port>
			</output>
		</layer>
		<layer id="229" name="439/fq_weights_1/mulpiply_by_scale" type="Multiply" version="opset1">
			<data auto_broadcast="numpy"/>
			<input>
				<port id="0">
					<dim>58</dim>
					<dim>58</dim>
					<dim>1</dim>
					<dim>1</dim>
				</port>
				<port id="1">
					<dim>58</dim>
					<dim>1</dim>
					<dim>1</dim>
					<dim>1</dim>
				</port>
			</input>
			<output>
				<port id="2" precision="FP16">
					<dim>58</dim>
					<dim>58</dim>
					<dim>1</dim>
					<dim>1</dim>
				</port>
			</output>
		</layer>
		<layer id="230" name="439" type="Convolution" version="opset1">
			<data auto_pad="explicit" dilations="1,1" pads_begin="0,0" pads_end="0,0" strides="1,1"/>
			<input>
				<port id="0">
					<dim>1</dim>
					<dim>58</dim>
					<dim>40</dim>
					<dim>40</dim>
				</port>
				<port id="1">
					<dim>58</dim>
					<dim>58</dim>
					<dim>1</dim>
					<dim>1</dim>
				</port>
			</input>
			<output>
				<port id="2" precision="FP16">
					<dim>1</dim>
					<dim>58</dim>
					<dim>40</dim>
					<dim>40</dim>
				</port>
			</output>
		</layer>
		<layer id="231" name="data_add_3810538110251236380" type="Const" version="opset1">
			<data element_type="f16" offset="13700" shape="1,58,1,1" size="116"/>
			<output>
				<port id="0" precision="FP16">
					<dim>1</dim>
					<dim>58</dim>
					<dim>1</dim>
					<dim>1</dim>
				</port>
			</output>
		</layer>
		<layer id="232" name="440/variance/Fused_Add_" type="Add" version="opset1">
			<data auto_broadcast="numpy"/>
			<input>
				<port id="0">
					<dim>1</dim>
					<dim>58</dim>
					<dim>40</dim>
					<dim>40</dim>
				</port>
				<port id="1">
					<dim>1</dim>
					<dim>58</dim>
					<dim>1</dim>
					<dim>1</dim>
				</port>
			</input>
			<output>
				<port id="2" names="440" precision="FP16">
					<dim>1</dim>
					<dim>58</dim>
					<dim>40</dim>
					<dim>40</dim>
				</port>
			</output>
		</layer>
		<layer id="233" name="441" type="ReLU" version="opset1">
			<input>
				<port id="0">
					<dim>1</dim>
					<dim>58</dim>
					<dim>40</dim>
					<dim>40</dim>
				</port>
			</input>
			<output>
				<port id="1" names="441" precision="FP16">
					<dim>1</dim>
					<dim>58</dim>
					<dim>40</dim>
					<dim>40</dim>
				</port>
			</output>
		</layer>
		<layer id="234" name="442/fq_input_0" type="FakeQuantize" version="opset1">
			<data auto_broadcast="numpy" levels="256"/>
			<input>
				<port id="0">
					<dim>1</dim>
					<dim>58</dim>
					<dim>40</dim>
					<dim>40</dim>
				</port>
				<port id="1">
					<dim>1</dim>
					<dim>58</dim>
					<dim>1</dim>
					<dim>1</dim>
				</port>
				<port id="2">
					<dim>1</dim>
					<dim>58</dim>
					<dim>1</dim>
					<dim>1</dim>
				</port>
				<port id="3">
					<dim>1</dim>
					<dim>58</dim>
					<dim>1</dim>
					<dim>1</dim>
				</port>
				<port id="4">
					<dim>1</dim>
					<dim>58</dim>
					<dim>1</dim>
					<dim>1</dim>
				</port>
			</input>
			<output>
				<port id="5" precision="FP16">
					<dim>1</dim>
					<dim>58</dim>
					<dim>40</dim>
					<dim>40</dim>
				</port>
			</output>
		</layer>
		<layer id="235" name="32122/value3212436152" type="Const" version="opset1">
			<data element_type="i64" offset="3272" shape="5" size="40"/>
			<output>
				<port id="0" precision="I64">
					<dim>5</dim>
				</port>
			</output>
		</layer>
		<layer id="236" name="443/mean/Fused_Mul__copy251522502/quantized2732540544" type="Const" version="opset1">
			<data element_type="i8" offset="13816" shape="58,1,3,3" size="522"/>
			<output>
				<port id="0" precision="I8">
					<dim>58</dim>
					<dim>1</dim>
					<dim>3</dim>
					<dim>3</dim>
				</port>
			</output>
		</layer>
		<layer id="237" name="443/mean/Fused_Mul__copy251522502/quantized/to_f16" type="Convert" version="opset1">
			<data destination_type="f16"/>
			<input>
				<port id="0">
					<dim>58</dim>
					<dim>1</dim>
					<dim>3</dim>
					<dim>3</dim>
				</port>
			</input>
			<output>
				<port id="1" precision="FP16">
					<dim>58</dim>
					<dim>1</dim>
					<dim>3</dim>
					<dim>3</dim>
				</port>
			</output>
		</layer>
		<layer id="238" name="442/fq_weights_1/zero_point2733840787" type="Const" version="opset1">
			<data element_type="f16" offset="14338" shape="58,1,1,1" size="116"/>
			<output>
				<port id="0" precision="FP16">
					<dim>58</dim>
					<dim>1</dim>
					<dim>1</dim>
					<dim>1</dim>
				</port>
			</output>
		</layer>
		<layer id="239" name="442/fq_weights_1/minus_zp" type="Subtract" version="opset1">
			<data auto_broadcast="numpy"/>
			<input>
				<port id="0">
					<dim>58</dim>
					<dim>1</dim>
					<dim>3</dim>
					<dim>3</dim>
				</port>
				<port id="1">
					<dim>58</dim>
					<dim>1</dim>
					<dim>1</dim>
					<dim>1</dim>
				</port>
			</input>
			<output>
				<port id="2" precision="FP16">
					<dim>58</dim>
					<dim>1</dim>
					<dim>3</dim>
					<dim>3</dim>
				</port>
			</output>
		</layer>
		<layer id="240" name="442/fq_weights_1/scale2733336959" type="Const" version="opset1">
			<data element_type="f16" offset="14454" shape="58,1,1,1" size="116"/>
			<output>
				<port id="0" precision="FP16">
					<dim>58</dim>
					<dim>1</dim>
					<dim>1</dim>
					<dim>1</dim>
				</port>
			</output>
		</layer>
		<layer id="241" name="442/fq_weights_1/mulpiply_by_scale" type="Multiply" version="opset1">
			<data auto_broadcast="numpy"/>
			<input>
				<port id="0">
					<dim>58</dim>
					<dim>1</dim>
					<dim>3</dim>
					<dim>3</dim>
				</port>
				<port id="1">
					<dim>58</dim>
					<dim>1</dim>
					<dim>1</dim>
					<dim>1</dim>
				</port>
			</input>
			<output>
				<port id="2" precision="FP16">
					<dim>58</dim>
					<dim>1</dim>
					<dim>3</dim>
					<dim>3</dim>
				</port>
			</output>
		</layer>
		<layer id="242" name="32122" type="Reshape" version="opset1">
			<data special_zero="true"/>
			<input>
				<port id="0">
					<dim>58</dim>
					<dim>1</dim>
					<dim>3</dim>
					<dim>3</dim>
				</port>
				<port id="1">
					<dim>5</dim>
				</port>
			</input>
			<output>
				<port id="2" precision="FP16">
					<dim>58</dim>
					<dim>1</dim>
					<dim>1</dim>
					<dim>3</dim>
					<dim>3</dim>
				</port>
			</output>
		</layer>
		<layer id="243" name="442" type="GroupConvolution" version="opset1">
			<data auto_pad="explicit" dilations="1,1" pads_begin="1,1" pads_end="1,1" strides="1,1"/>
			<input>
				<port id="0">
					<dim>1</dim>
					<dim>58</dim>
					<dim>40</dim>
					<dim>40</dim>
				</port>
				<port id="1">
					<dim>58</dim>
					<dim>1</dim>
					<dim>1</dim>
					<dim>3</dim>
					<dim>3</dim>
				</port>
			</input>
			<output>
				<port id="2" precision="FP16">
					<dim>1</dim>
					<dim>58</dim>
					<dim>40</dim>
					<dim>40</dim>
				</port>
			</output>
		</layer>
		<layer id="244" name="data_add_3811338118251741201" type="Const" version="opset1">
			<data element_type="f16" offset="14570" shape="1,58,1,1" size="116"/>
			<output>
				<port id="0" precision="FP16">
					<dim>1</dim>
					<dim>58</dim>
					<dim>1</dim>
					<dim>1</dim>
				</port>
			</output>
		</layer>
		<layer id="245" name="443/variance/Fused_Add_" type="Add" version="opset1">
			<data auto_broadcast="numpy"/>
			<input>
				<port id="0">
					<dim>1</dim>
					<dim>58</dim>
					<dim>40</dim>
					<dim>40</dim>
				</port>
				<port id="1">
					<dim>1</dim>
					<dim>58</dim>
					<dim>1</dim>
					<dim>1</dim>
				</port>
			</input>
			<output>
				<port id="2" names="443" precision="FP16">
					<dim>1</dim>
					<dim>58</dim>
					<dim>40</dim>
					<dim>40</dim>
				</port>
			</output>
		</layer>
		<layer id="246" name="444/fq_input_0" type="FakeQuantize" version="opset1">
			<data auto_broadcast="numpy" levels="256"/>
			<input>
				<port id="0">
					<dim>1</dim>
					<dim>58</dim>
					<dim>40</dim>
					<dim>40</dim>
				</port>
				<port id="1"/>
				<port id="2"/>
				<port id="3"/>
				<port id="4"/>
			</input>
			<output>
				<port id="5" precision="FP16">
					<dim>1</dim>
					<dim>58</dim>
					<dim>40</dim>
					<dim>40</dim>
				</port>
			</output>
		</layer>
		<layer id="247" name="445/mean/Fused_Mul__copy251922504/quantized2514140592" type="Const" version="opset1">
			<data element_type="i8" offset="14686" shape="58,58,1,1" size="3364"/>
			<output>
				<port id="0" precision="I8">
					<dim>58</dim>
					<dim>58</dim>
					<dim>1</dim>
					<dim>1</dim>
				</port>
			</output>
		</layer>
		<layer id="248" name="445/mean/Fused_Mul__copy251922504/quantized/to_f16" type="Convert" version="opset1">
			<data destination_type="f16"/>
			<input>
				<port id="0">
					<dim>58</dim>
					<dim>58</dim>
					<dim>1</dim>
					<dim>1</dim>
				</port>
			</input>
			<output>
				<port id="1" precision="FP16">
					<dim>58</dim>
					<dim>58</dim>
					<dim>1</dim>
					<dim>1</dim>
				</port>
			</output>
		</layer>
		<layer id="249" name="444/fq_weights_1/zero_point2515441072" type="Const" version="opset1">
			<data element_type="f16" offset="18050" shape="58,1,1,1" size="116"/>
			<output>
				<port id="0" precision="FP16">
					<dim>58</dim>
					<dim>1</dim>
					<dim>1</dim>
					<dim>1</dim>
				</port>
			</output>
		</layer>
		<layer id="250" name="444/fq_weights_1/minus_zp" type="Subtract" version="opset1">
			<data auto_broadcast="numpy"/>
			<input>
				<port id="0">
					<dim>58</dim>
					<dim>58</dim>
					<dim>1</dim>
					<dim>1</dim>
				</port>
				<port id="1">
					<dim>58</dim>
					<dim>1</dim>
					<dim>1</dim>
					<dim>1</dim>
				</port>
			</input>
			<output>
				<port id="2" precision="FP16">
					<dim>58</dim>
					<dim>58</dim>
					<dim>1</dim>
					<dim>1</dim>
				</port>
			</output>
		</layer>
		<layer id="251" name="444/fq_weights_1/scale2514937730" type="Const" version="opset1">
			<data element_type="f16" offset="18166" shape="58,1,1,1" size="116"/>
			<output>
				<port id="0" precision="FP16">
					<dim>58</dim>
					<dim>1</dim>
					<dim>1</dim>
					<dim>1</dim>
				</port>
			</output>
		</layer>
		<layer id="252" name="444/fq_weights_1/mulpiply_by_scale" type="Multiply" version="opset1">
			<data auto_broadcast="numpy"/>
			<input>
				<port id="0">
					<dim>58</dim>
					<dim>58</dim>
					<dim>1</dim>
					<dim>1</dim>
				</port>
				<port id="1">
					<dim>58</dim>
					<dim>1</dim>
					<dim>1</dim>
					<dim>1</dim>
				</port>
			</input>
			<output>
				<port id="2" precision="FP16">
					<dim>58</dim>
					<dim>58</dim>
					<dim>1</dim>
					<dim>1</dim>
				</port>
			</output>
		</layer>
		<layer id="253" name="444" type="Convolution" version="opset1">
			<data auto_pad="explicit" dilations="1,1" pads_begin="0,0" pads_end="0,0" strides="1,1"/>
			<input>
				<port id="0">
					<dim>1</dim>
					<dim>58</dim>
					<dim>40</dim>
					<dim>40</dim>
				</port>
				<port id="1">
					<dim>58</dim>
					<dim>58</dim>
					<dim>1</dim>
					<dim>1</dim>
				</port>
			</input>
			<output>
				<port id="2" precision="FP16">
					<dim>1</dim>
					<dim>58</dim>
					<dim>40</dim>
					<dim>40</dim>
				</port>
			</output>
		</layer>
		<layer id="254" name="data_add_3812138126252138084" type="Const" version="opset1">
			<data element_type="f16" offset="18282" shape="1,58,1,1" size="116"/>
			<output>
				<port id="0" precision="FP16">
					<dim>1</dim>
					<dim>58</dim>
					<dim>1</dim>
					<dim>1</dim>
				</port>
			</output>
		</layer>
		<layer id="255" name="445/variance/Fused_Add_" type="Add" version="opset1">
			<data auto_broadcast="numpy"/>
			<input>
				<port id="0">
					<dim>1</dim>
					<dim>58</dim>
					<dim>40</dim>
					<dim>40</dim>
				</port>
				<port id="1">
					<dim>1</dim>
					<dim>58</dim>
					<dim>1</dim>
					<dim>1</dim>
				</port>
			</input>
			<output>
				<port id="2" names="445" precision="FP16">
					<dim>1</dim>
					<dim>58</dim>
					<dim>40</dim>
					<dim>40</dim>
				</port>
			</output>
		</layer>
		<layer id="256" name="446" type="ReLU" version="opset1">
			<input>
				<port id="0">
					<dim>1</dim>
					<dim>58</dim>
					<dim>40</dim>
					<dim>40</dim>
				</port>
			</input>
			<output>
				<port id="1" names="446" precision="FP16">
					<dim>1</dim>
					<dim>58</dim>
					<dim>40</dim>
					<dim>40</dim>
				</port>
			</output>
		</layer>
		<layer id="257" name="447/fq_input_1" type="FakeQuantize" version="opset1">
			<data auto_broadcast="numpy" levels="256"/>
			<input>
				<port id="0">
					<dim>1</dim>
					<dim>58</dim>
					<dim>40</dim>
					<dim>40</dim>
				</port>
				<port id="1"/>
				<port id="2"/>
				<port id="3"/>
				<port id="4"/>
			</input>
			<output>
				<port id="5" precision="FP16">
					<dim>1</dim>
					<dim>58</dim>
					<dim>40</dim>
					<dim>40</dim>
				</port>
			</output>
		</layer>
		<layer id="258" name="447" type="Concat" version="opset1">
			<data axis="1"/>
			<input>
				<port id="0">
					<dim>1</dim>
					<dim>58</dim>
					<dim>40</dim>
					<dim>40</dim>
				</port>
				<port id="1">
					<dim>1</dim>
					<dim>58</dim>
					<dim>40</dim>
					<dim>40</dim>
				</port>
			</input>
			<output>
				<port id="2" names="447" precision="FP16">
					<dim>1</dim>
					<dim>116</dim>
					<dim>40</dim>
					<dim>40</dim>
				</port>
			</output>
		</layer>
		<layer id="259" name="449" type="ShapeOf" version="opset3">
			<data output_type="i64"/>
			<input>
				<port id="0">
					<dim>1</dim>
					<dim>116</dim>
					<dim>40</dim>
					<dim>40</dim>
				</port>
			</input>
			<output>
				<port id="1" names="449" precision="I64">
					<dim>4</dim>
				</port>
			</output>
		</layer>
		<layer id="260" name="4482526" type="Const" version="opset1">
			<data element_type="i32" offset="10040" shape="" size="4"/>
			<output>
				<port id="0" names="448" precision="I32"/>
			</output>
		</layer>
		<layer id="261" name="450/axis2527" type="Const" version="opset1">
			<data element_type="i64" offset="10044" shape="" size="8"/>
			<output>
				<port id="0" precision="I64"/>
			</output>
		</layer>
		<layer id="262" name="4502908" type="Gather" version="opset7">
			<data batch_dims="0"/>
			<input>
				<port id="0">
					<dim>4</dim>
				</port>
				<port id="1"/>
				<port id="2"/>
			</input>
			<output>
				<port id="3" names="450" precision="I64"/>
			</output>
		</layer>
		<layer id="263" name="463/Dims252936131" type="Const" version="opset1">
			<data element_type="i64" offset="10044" shape="1" size="8"/>
			<output>
				<port id="0" precision="I64">
					<dim>1</dim>
				</port>
			</output>
		</layer>
		<layer id="264" name="463/Unsqueeze" type="Unsqueeze" version="opset1">
			<input>
				<port id="0"/>
				<port id="1">
					<dim>1</dim>
				</port>
			</input>
			<output>
				<port id="2" names="463" precision="I64">
					<dim>1</dim>
				</port>
			</output>
		</layer>
		<layer id="265" name="464/Unsqueeze253139788" type="Const" version="opset1">
			<data element_type="i64" offset="4" shape="1" size="8"/>
			<output>
				<port id="0" names="464" precision="I64">
					<dim>1</dim>
				</port>
			</output>
		</layer>
		<layer id="266" name="452" type="ShapeOf" version="opset3">
			<data output_type="i64"/>
			<input>
				<port id="0">
					<dim>1</dim>
					<dim>116</dim>
					<dim>40</dim>
					<dim>40</dim>
				</port>
			</input>
			<output>
				<port id="1" names="452" precision="I64">
					<dim>4</dim>
				</port>
			</output>
		</layer>
		<layer id="267" name="4512533" type="Const" version="opset1">
			<data element_type="i32" offset="10052" shape="" size="4"/>
			<output>
				<port id="0" names="451" precision="I32"/>
			</output>
		</layer>
		<layer id="268" name="453/axis2534" type="Const" version="opset1">
			<data element_type="i64" offset="10044" shape="" size="8"/>
			<output>
				<port id="0" precision="I64"/>
			</output>
		</layer>
		<layer id="269" name="4532952" type="Gather" version="opset7">
			<data batch_dims="0"/>
			<input>
				<port id="0">
					<dim>4</dim>
				</port>
				<port id="1"/>
				<port id="2"/>
			</input>
			<output>
				<port id="3" names="453" precision="I64"/>
			</output>
		</layer>
		<layer id="270" name="460253639092" type="Const" version="opset1">
			<data element_type="i64" offset="4" shape="" size="8"/>
			<output>
				<port id="0" names="460" precision="I64"/>
			</output>
		</layer>
		<layer id="271" name="461" type="Divide" version="opset1">
			<data auto_broadcast="numpy"/>
			<input>
				<port id="0"/>
				<port id="1"/>
			</input>
			<output>
				<port id="2" names="461" precision="I64"/>
			</output>
		</layer>
		<layer id="272" name="465/Dims253841219" type="Const" version="opset1">
			<data element_type="i64" offset="10044" shape="1" size="8"/>
			<output>
				<port id="0" precision="I64">
					<dim>1</dim>
				</port>
			</output>
		</layer>
		<layer id="273" name="465/Unsqueeze" type="Unsqueeze" version="opset1">
			<input>
				<port id="0"/>
				<port id="1">
					<dim>1</dim>
				</port>
			</input>
			<output>
				<port id="2" names="465" precision="I64">
					<dim>1</dim>
				</port>
			</output>
		</layer>
		<layer id="274" name="455" type="ShapeOf" version="opset3">
			<data output_type="i64"/>
			<input>
				<port id="0">
					<dim>1</dim>
					<dim>116</dim>
					<dim>40</dim>
					<dim>40</dim>
				</port>
			</input>
			<output>
				<port id="1" names="455" precision="I64">
					<dim>4</dim>
				</port>
			</output>
		</layer>
		<layer id="275" name="4542541" type="Const" version="opset1">
			<data element_type="i32" offset="10056" shape="" size="4"/>
			<output>
				<port id="0" names="454" precision="I32"/>
			</output>
		</layer>
		<layer id="276" name="456/axis2542" type="Const" version="opset1">
			<data element_type="i64" offset="10044" shape="" size="8"/>
			<output>
				<port id="0" precision="I64"/>
			</output>
		</layer>
		<layer id="277" name="4562984" type="Gather" version="opset7">
			<data batch_dims="0"/>
			<input>
				<port id="0">
					<dim>4</dim>
				</port>
				<port id="1"/>
				<port id="2"/>
			</input>
			<output>
				<port id="3" names="456" precision="I64"/>
			</output>
		</layer>
		<layer id="278" name="466/Dims254436680" type="Const" version="opset1">
			<data element_type="i64" offset="10044" shape="1" size="8"/>
			<output>
				<port id="0" precision="I64">
					<dim>1</dim>
				</port>
			</output>
		</layer>
		<layer id="279" name="466/Unsqueeze" type="Unsqueeze" version="opset1">
			<input>
				<port id="0"/>
				<port id="1">
					<dim>1</dim>
				</port>
			</input>
			<output>
				<port id="2" names="466" precision="I64">
					<dim>1</dim>
				</port>
			</output>
		</layer>
		<layer id="280" name="458" type="ShapeOf" version="opset3">
			<data output_type="i64"/>
			<input>
				<port id="0">
					<dim>1</dim>
					<dim>116</dim>
					<dim>40</dim>
					<dim>40</dim>
				</port>
			</input>
			<output>
				<port id="1" names="458" precision="I64">
					<dim>4</dim>
				</port>
			</output>
		</layer>
		<layer id="281" name="4572547" type="Const" version="opset1">
			<data element_type="i32" offset="10060" shape="" size="4"/>
			<output>
				<port id="0" names="457" precision="I32"/>
			</output>
		</layer>
		<layer id="282" name="459/axis2548" type="Const" version="opset1">
			<data element_type="i64" offset="10044" shape="" size="8"/>
			<output>
				<port id="0" precision="I64"/>
			</output>
		</layer>
		<layer id="283" name="4592970" type="Gather" version="opset7">
			<data batch_dims="0"/>
			<input>
				<port id="0">
					<dim>4</dim>
				</port>
				<port id="1"/>
				<port id="2"/>
			</input>
			<output>
				<port id="3" names="459" precision="I64"/>
			</output>
		</layer>
		<layer id="284" name="467/Dims255041609" type="Const" version="opset1">
			<data element_type="i64" offset="10044" shape="1" size="8"/>
			<output>
				<port id="0" precision="I64">
					<dim>1</dim>
				</port>
			</output>
		</layer>
		<layer id="285" name="467/Unsqueeze" type="Unsqueeze" version="opset1">
			<input>
				<port id="0"/>
				<port id="1">
					<dim>1</dim>
				</port>
			</input>
			<output>
				<port id="2" names="467" precision="I64">
					<dim>1</dim>
				</port>
			</output>
		</layer>
		<layer id="286" name="468" type="Concat" version="opset1">
			<data axis="0"/>
			<input>
				<port id="0">
					<dim>1</dim>
				</port>
				<port id="1">
					<dim>1</dim>
				</port>
				<port id="2">
					<dim>1</dim>
				</port>
				<port id="3">
					<dim>1</dim>
				</port>
				<port id="4">
					<dim>1</dim>
				</port>
			</input>
			<output>
				<port id="5" names="468" precision="I64">
					<dim>5</dim>
				</port>
			</output>
		</layer>
		<layer id="287" name="469" type="Reshape" version="opset1">
			<data special_zero="true"/>
			<input>
				<port id="0">
					<dim>1</dim>
					<dim>116</dim>
					<dim>40</dim>
					<dim>40</dim>
				</port>
				<port id="1">
					<dim>5</dim>
				</port>
			</input>
			<output>
				<port id="2" names="469" precision="FP16">
					<dim>1</dim>
					<dim>2</dim>
					<dim>58</dim>
					<dim>40</dim>
					<dim>40</dim>
				</port>
			</output>
		</layer>
		<layer id="288" name="17072554" type="Const" version="opset1">
			<data element_type="i64" offset="10064" shape="5" size="40"/>
			<output>
				<port id="0" precision="I64">
					<dim>5</dim>
				</port>
			</output>
		</layer>
		<layer id="289" name="470" type="Transpose" version="opset1">
			<input>
				<port id="0">
					<dim>1</dim>
					<dim>2</dim>
					<dim>58</dim>
					<dim>40</dim>
					<dim>40</dim>
				</port>
				<port id="1">
					<dim>5</dim>
				</port>
			</input>
			<output>
				<port id="2" names="470" precision="FP16">
					<dim>1</dim>
					<dim>58</dim>
					<dim>2</dim>
					<dim>40</dim>
					<dim>40</dim>
				</port>
			</output>
		</layer>
		<layer id="290" name="471/Dims255640652" type="Const" version="opset1">
			<data element_type="i64" offset="10044" shape="1" size="8"/>
			<output>
				<port id="0" precision="I64">
					<dim>1</dim>
				</port>
			</output>
		</layer>
		<layer id="291" name="471/Unsqueeze" type="Unsqueeze" version="opset1">
			<input>
				<port id="0"/>
				<port id="1">
					<dim>1</dim>
				</port>
			</input>
			<output>
				<port id="2" names="471" precision="I64">
					<dim>1</dim>
				</port>
			</output>
		</layer>
		<layer id="292" name="472/Dims255838870" type="Const" version="opset1">
			<data element_type="i64" offset="10044" shape="1" size="8"/>
			<output>
				<port id="0" precision="I64">
					<dim>1</dim>
				</port>
			</output>
		</layer>
		<layer id="293" name="472/Unsqueeze" type="Unsqueeze" version="opset1">
			<input>
				<port id="0"/>
				<port id="1">
					<dim>1</dim>
				</port>
			</input>
			<output>
				<port id="2" names="472" precision="I64">
					<dim>1</dim>
				</port>
			</output>
		</layer>
		<layer id="294" name="473/Dims256040130" type="Const" version="opset1">
			<data element_type="i64" offset="10044" shape="1" size="8"/>
			<output>
				<port id="0" precision="I64">
					<dim>1</dim>
				</port>
			</output>
		</layer>
		<layer id="295" name="473/Unsqueeze" type="Unsqueeze" version="opset1">
			<input>
				<port id="0"/>
				<port id="1">
					<dim>1</dim>
				</port>
			</input>
			<output>
				<port id="2" names="473" precision="I64">
					<dim>1</dim>
				</port>
			</output>
		</layer>
		<layer id="296" name="474/Dims256240055" type="Const" version="opset1">
			<data element_type="i64" offset="10044" shape="1" size="8"/>
			<output>
				<port id="0" precision="I64">
					<dim>1</dim>
				</port>
			</output>
		</layer>
		<layer id="297" name="474/Unsqueeze" type="Unsqueeze" version="opset1">
			<input>
				<port id="0"/>
				<port id="1">
					<dim>1</dim>
				</port>
			</input>
			<output>
				<port id="2" names="474" precision="I64">
					<dim>1</dim>
				</port>
			</output>
		</layer>
		<layer id="298" name="475" type="Concat" version="opset1">
			<data axis="0"/>
			<input>
				<port id="0">
					<dim>1</dim>
				</port>
				<port id="1">
					<dim>1</dim>
				</port>
				<port id="2">
					<dim>1</dim>
				</port>
				<port id="3">
					<dim>1</dim>
				</port>
			</input>
			<output>
				<port id="4" names="475" precision="I64">
					<dim>4</dim>
				</port>
			</output>
		</layer>
		<layer id="299" name="476" type="Reshape" version="opset1">
			<data special_zero="true"/>
			<input>
				<port id="0">
					<dim>1</dim>
					<dim>58</dim>
					<dim>2</dim>
					<dim>40</dim>
					<dim>40</dim>
				</port>
				<port id="1">
					<dim>4</dim>
				</port>
			</input>
			<output>
				<port id="2" names="476" precision="FP16">
					<dim>1</dim>
					<dim>116</dim>
					<dim>40</dim>
					<dim>40</dim>
				</port>
			</output>
		</layer>
		<layer id="300" name="477/VariadicSplit" type="VariadicSplit" version="opset1">
			<input>
				<port id="0">
					<dim>1</dim>
					<dim>116</dim>
					<dim>40</dim>
					<dim>40</dim>
				</port>
				<port id="1"/>
				<port id="2">
					<dim>2</dim>
				</port>
			</input>
			<output>
				<port id="3" names="477" precision="FP16">
					<dim>1</dim>
					<dim>58</dim>
					<dim>40</dim>
					<dim>40</dim>
				</port>
				<port id="4" names="478" precision="FP16">
					<dim>1</dim>
					<dim>58</dim>
					<dim>40</dim>
					<dim>40</dim>
				</port>
			</output>
		</layer>
		<layer id="301" name="480/mean/Fused_Mul__copy257022527/quantized2502137799" type="Const" version="opset1">
			<data element_type="i8" offset="18398" shape="58,58,1,1" size="3364"/>
			<output>
				<port id="0" precision="I8">
					<dim>58</dim>
					<dim>58</dim>
					<dim>1</dim>
					<dim>1</dim>
				</port>
			</output>
		</layer>
		<layer id="302" name="480/mean/Fused_Mul__copy257022527/quantized/to_f16" type="Convert" version="opset1">
			<data destination_type="f16"/>
			<input>
				<port id="0">
					<dim>58</dim>
					<dim>58</dim>
					<dim>1</dim>
					<dim>1</dim>
				</port>
			</input>
			<output>
				<port id="1" precision="FP16">
					<dim>58</dim>
					<dim>58</dim>
					<dim>1</dim>
					<dim>1</dim>
				</port>
			</output>
		</layer>
		<layer id="303" name="479/fq_weights_1/zero_point2503436314" type="Const" version="opset1">
			<data element_type="f16" offset="21762" shape="58,1,1,1" size="116"/>
			<output>
				<port id="0" precision="FP16">
					<dim>58</dim>
					<dim>1</dim>
					<dim>1</dim>
					<dim>1</dim>
				</port>
			</output>
		</layer>
		<layer id="304" name="479/fq_weights_1/minus_zp" type="Subtract" version="opset1">
			<data auto_broadcast="numpy"/>
			<input>
				<port id="0">
					<dim>58</dim>
					<dim>58</dim>
					<dim>1</dim>
					<dim>1</dim>
				</port>
				<port id="1">
					<dim>58</dim>
					<dim>1</dim>
					<dim>1</dim>
					<dim>1</dim>
				</port>
			</input>
			<output>
				<port id="2" precision="FP16">
					<dim>58</dim>
					<dim>58</dim>
					<dim>1</dim>
					<dim>1</dim>
				</port>
			</output>
		</layer>
		<layer id="305" name="479/fq_weights_1/scale2502940520" type="Const" version="opset1">
			<data element_type="f16" offset="21878" shape="58,1,1,1" size="116"/>
			<output>
				<port id="0" precision="FP16">
					<dim>58</dim>
					<dim>1</dim>
					<dim>1</dim>
					<dim>1</dim>
				</port>
			</output>
		</layer>
		<layer id="306" name="479/fq_weights_1/mulpiply_by_scale" type="Multiply" version="opset1">
			<data auto_broadcast="numpy"/>
			<input>
				<port id="0">
					<dim>58</dim>
					<dim>58</dim>
					<dim>1</dim>
					<dim>1</dim>
				</port>
				<port id="1">
					<dim>58</dim>
					<dim>1</dim>
					<dim>1</dim>
					<dim>1</dim>
				</port>
			</input>
			<output>
				<port id="2" precision="FP16">
					<dim>58</dim>
					<dim>58</dim>
					<dim>1</dim>
					<dim>1</dim>
				</port>
			</output>
		</layer>
		<layer id="307" name="479" type="Convolution" version="opset1">
			<data auto_pad="explicit" dilations="1,1" pads_begin="0,0" pads_end="0,0" strides="1,1"/>
			<input>
				<port id="0">
					<dim>1</dim>
					<dim>58</dim>
					<dim>40</dim>
					<dim>40</dim>
				</port>
				<port id="1">
					<dim>58</dim>
					<dim>58</dim>
					<dim>1</dim>
					<dim>1</dim>
				</port>
			</input>
			<output>
				<port id="2" precision="FP16">
					<dim>1</dim>
					<dim>58</dim>
					<dim>40</dim>
					<dim>40</dim>
				</port>
			</output>
		</layer>
		<layer id="308" name="data_add_3812938134257239749" type="Const" version="opset1">
			<data element_type="f16" offset="21994" shape="1,58,1,1" size="116"/>
			<output>
				<port id="0" precision="FP16">
					<dim>1</dim>
					<dim>58</dim>
					<dim>1</dim>
					<dim>1</dim>
				</port>
			</output>
		</layer>
		<layer id="309" name="480/variance/Fused_Add_" type="Add" version="opset1">
			<data auto_broadcast="numpy"/>
			<input>
				<port id="0">
					<dim>1</dim>
					<dim>58</dim>
					<dim>40</dim>
					<dim>40</dim>
				</port>
				<port id="1">
					<dim>1</dim>
					<dim>58</dim>
					<dim>1</dim>
					<dim>1</dim>
				</port>
			</input>
			<output>
				<port id="2" names="480" precision="FP16">
					<dim>1</dim>
					<dim>58</dim>
					<dim>40</dim>
					<dim>40</dim>
				</port>
			</output>
		</layer>
		<layer id="310" name="481" type="ReLU" version="opset1">
			<input>
				<port id="0">
					<dim>1</dim>
					<dim>58</dim>
					<dim>40</dim>
					<dim>40</dim>
				</port>
			</input>
			<output>
				<port id="1" names="481" precision="FP16">
					<dim>1</dim>
					<dim>58</dim>
					<dim>40</dim>
					<dim>40</dim>
				</port>
			</output>
		</layer>
		<layer id="311" name="482/fq_input_0" type="FakeQuantize" version="opset1">
			<data auto_broadcast="numpy" levels="256"/>
			<input>
				<port id="0">
					<dim>1</dim>
					<dim>58</dim>
					<dim>40</dim>
					<dim>40</dim>
				</port>
				<port id="1">
					<dim>1</dim>
					<dim>58</dim>
					<dim>1</dim>
					<dim>1</dim>
				</port>
				<port id="2">
					<dim>1</dim>
					<dim>58</dim>
					<dim>1</dim>
					<dim>1</dim>
				</port>
				<port id="3">
					<dim>1</dim>
					<dim>58</dim>
					<dim>1</dim>
					<dim>1</dim>
				</port>
				<port id="4">
					<dim>1</dim>
					<dim>58</dim>
					<dim>1</dim>
					<dim>1</dim>
				</port>
			</input>
			<output>
				<port id="5" precision="FP16">
					<dim>1</dim>
					<dim>58</dim>
					<dim>40</dim>
					<dim>40</dim>
				</port>
			</output>
		</layer>
		<layer id="312" name="32142/value3214437628" type="Const" version="opset1">
			<data element_type="i64" offset="3272" shape="5" size="40"/>
			<output>
				<port id="0" precision="I64">
					<dim>5</dim>
				</port>
			</output>
		</layer>
		<layer id="313" name="483/mean/Fused_Mul__copy257522529/quantized2737340412" type="Const" version="opset1">
			<data element_type="i8" offset="22110" shape="58,1,3,3" size="522"/>
			<output>
				<port id="0" precision="I8">
					<dim>58</dim>
					<dim>1</dim>
					<dim>3</dim>
					<dim>3</dim>
				</port>
			</output>
		</layer>
		<layer id="314" name="483/mean/Fused_Mul__copy257522529/quantized/to_f16" type="Convert" version="opset1">
			<data destination_type="f16"/>
			<input>
				<port id="0">
					<dim>58</dim>
					<dim>1</dim>
					<dim>3</dim>
					<dim>3</dim>
				</port>
			</input>
			<output>
				<port id="1" precision="FP16">
					<dim>58</dim>
					<dim>1</dim>
					<dim>3</dim>
					<dim>3</dim>
				</port>
			</output>
		</layer>
		<layer id="315" name="482/fq_weights_1/zero_point2738640838" type="Const" version="opset1">
			<data element_type="f16" offset="22632" shape="58,1,1,1" size="116"/>
			<output>
				<port id="0" precision="FP16">
					<dim>58</dim>
					<dim>1</dim>
					<dim>1</dim>
					<dim>1</dim>
				</port>
			</output>
		</layer>
		<layer id="316" name="482/fq_weights_1/minus_zp" type="Subtract" version="opset1">
			<data auto_broadcast="numpy"/>
			<input>
				<port id="0">
					<dim>58</dim>
					<dim>1</dim>
					<dim>3</dim>
					<dim>3</dim>
				</port>
				<port id="1">
					<dim>58</dim>
					<dim>1</dim>
					<dim>1</dim>
					<dim>1</dim>
				</port>
			</input>
			<output>
				<port id="2" precision="FP16">
					<dim>58</dim>
					<dim>1</dim>
					<dim>3</dim>
					<dim>3</dim>
				</port>
			</output>
		</layer>
		<layer id="317" name="482/fq_weights_1/scale2738139098" type="Const" version="opset1">
			<data element_type="f16" offset="22748" shape="58,1,1,1" size="116"/>
			<output>
				<port id="0" precision="FP16">
					<dim>58</dim>
					<dim>1</dim>
					<dim>1</dim>
					<dim>1</dim>
				</port>
			</output>
		</layer>
		<layer id="318" name="482/fq_weights_1/mulpiply_by_scale" type="Multiply" version="opset1">
			<data auto_broadcast="numpy"/>
			<input>
				<port id="0">
					<dim>58</dim>
					<dim>1</dim>
					<dim>3</dim>
					<dim>3</dim>
				</port>
				<port id="1">
					<dim>58</dim>
					<dim>1</dim>
					<dim>1</dim>
					<dim>1</dim>
				</port>
			</input>
			<output>
				<port id="2" precision="FP16">
					<dim>58</dim>
					<dim>1</dim>
					<dim>3</dim>
					<dim>3</dim>
				</port>
			</output>
		</layer>
		<layer id="319" name="32142" type="Reshape" version="opset1">
			<data special_zero="true"/>
			<input>
				<port id="0">
					<dim>58</dim>
					<dim>1</dim>
					<dim>3</dim>
					<dim>3</dim>
				</port>
				<port id="1">
					<dim>5</dim>
				</port>
			</input>
			<output>
				<port id="2" precision="FP16">
					<dim>58</dim>
					<dim>1</dim>
					<dim>1</dim>
					<dim>3</dim>
					<dim>3</dim>
				</port>
			</output>
		</layer>
		<layer id="320" name="482" type="GroupConvolution" version="opset1">
			<data auto_pad="explicit" dilations="1,1" pads_begin="1,1" pads_end="1,1" strides="1,1"/>
			<input>
				<port id="0">
					<dim>1</dim>
					<dim>58</dim>
					<dim>40</dim>
					<dim>40</dim>
				</port>
				<port id="1">
					<dim>58</dim>
					<dim>1</dim>
					<dim>1</dim>
					<dim>3</dim>
					<dim>3</dim>
				</port>
			</input>
			<output>
				<port id="2" precision="FP16">
					<dim>1</dim>
					<dim>58</dim>
					<dim>40</dim>
					<dim>40</dim>
				</port>
			</output>
		</layer>
		<layer id="321" name="data_add_3813738142257741327" type="Const" version="opset1">
			<data element_type="f16" offset="22864" shape="1,58,1,1" size="116"/>
			<output>
				<port id="0" precision="FP16">
					<dim>1</dim>
					<dim>58</dim>
					<dim>1</dim>
					<dim>1</dim>
				</port>
			</output>
		</layer>
		<layer id="322" name="483/variance/Fused_Add_" type="Add" version="opset1">
			<data auto_broadcast="numpy"/>
			<input>
				<port id="0">
					<dim>1</dim>
					<dim>58</dim>
					<dim>40</dim>
					<dim>40</dim>
				</port>
				<port id="1">
					<dim>1</dim>
					<dim>58</dim>
					<dim>1</dim>
					<dim>1</dim>
				</port>
			</input>
			<output>
				<port id="2" names="483" precision="FP16">
					<dim>1</dim>
					<dim>58</dim>
					<dim>40</dim>
					<dim>40</dim>
				</port>
			</output>
		</layer>
		<layer id="323" name="484/fq_input_0" type="FakeQuantize" version="opset1">
			<data auto_broadcast="numpy" levels="256"/>
			<input>
				<port id="0">
					<dim>1</dim>
					<dim>58</dim>
					<dim>40</dim>
					<dim>40</dim>
				</port>
				<port id="1"/>
				<port id="2"/>
				<port id="3"/>
				<port id="4"/>
			</input>
			<output>
				<port id="5" precision="FP16">
					<dim>1</dim>
					<dim>58</dim>
					<dim>40</dim>
					<dim>40</dim>
				</port>
			</output>
		</layer>
		<layer id="324" name="485/mean/Fused_Mul__copy257922531/quantized2506941846" type="Const" version="opset1">
			<data element_type="i8" offset="22980" shape="58,58,1,1" size="3364"/>
			<output>
				<port id="0" precision="I8">
					<dim>58</dim>
					<dim>58</dim>
					<dim>1</dim>
					<dim>1</dim>
				</port>
			</output>
		</layer>
		<layer id="325" name="485/mean/Fused_Mul__copy257922531/quantized/to_f16" type="Convert" version="opset1">
			<data destination_type="f16"/>
			<input>
				<port id="0">
					<dim>58</dim>
					<dim>58</dim>
					<dim>1</dim>
					<dim>1</dim>
				</port>
			</input>
			<output>
				<port id="1" precision="FP16">
					<dim>58</dim>
					<dim>58</dim>
					<dim>1</dim>
					<dim>1</dim>
				</port>
			</output>
		</layer>
		<layer id="326" name="484/fq_weights_1/zero_point2508240802" type="Const" version="opset1">
			<data element_type="f16" offset="26344" shape="58,1,1,1" size="116"/>
			<output>
				<port id="0" precision="FP16">
					<dim>58</dim>
					<dim>1</dim>
					<dim>1</dim>
					<dim>1</dim>
				</port>
			</output>
		</layer>
		<layer id="327" name="484/fq_weights_1/minus_zp" type="Subtract" version="opset1">
			<data auto_broadcast="numpy"/>
			<input>
				<port id="0">
					<dim>58</dim>
					<dim>58</dim>
					<dim>1</dim>
					<dim>1</dim>
				</port>
				<port id="1">
					<dim>58</dim>
					<dim>1</dim>
					<dim>1</dim>
					<dim>1</dim>
				</port>
			</input>
			<output>
				<port id="2" precision="FP16">
					<dim>58</dim>
					<dim>58</dim>
					<dim>1</dim>
					<dim>1</dim>
				</port>
			</output>
		</layer>
		<layer id="328" name="484/fq_weights_1/scale2507740238" type="Const" version="opset1">
			<data element_type="f16" offset="26460" shape="58,1,1,1" size="116"/>
			<output>
				<port id="0" precision="FP16">
					<dim>58</dim>
					<dim>1</dim>
					<dim>1</dim>
					<dim>1</dim>
				</port>
			</output>
		</layer>
		<layer id="329" name="484/fq_weights_1/mulpiply_by_scale" type="Multiply" version="opset1">
			<data auto_broadcast="numpy"/>
			<input>
				<port id="0">
					<dim>58</dim>
					<dim>58</dim>
					<dim>1</dim>
					<dim>1</dim>
				</port>
				<port id="1">
					<dim>58</dim>
					<dim>1</dim>
					<dim>1</dim>
					<dim>1</dim>
				</port>
			</input>
			<output>
				<port id="2" precision="FP16">
					<dim>58</dim>
					<dim>58</dim>
					<dim>1</dim>
					<dim>1</dim>
				</port>
			</output>
		</layer>
		<layer id="330" name="484" type="Convolution" version="opset1">
			<data auto_pad="explicit" dilations="1,1" pads_begin="0,0" pads_end="0,0" strides="1,1"/>
			<input>
				<port id="0">
					<dim>1</dim>
					<dim>58</dim>
					<dim>40</dim>
					<dim>40</dim>
				</port>
				<port id="1">
					<dim>58</dim>
					<dim>58</dim>
					<dim>1</dim>
					<dim>1</dim>
				</port>
			</input>
			<output>
				<port id="2" precision="FP16">
					<dim>1</dim>
					<dim>58</dim>
					<dim>40</dim>
					<dim>40</dim>
				</port>
			</output>
		</layer>
		<layer id="331" name="data_add_3814538150258140556" type="Const" version="opset1">
			<data element_type="f16" offset="26576" shape="1,58,1,1" size="116"/>
			<output>
				<port id="0" precision="FP16">
					<dim>1</dim>
					<dim>58</dim>
					<dim>1</dim>
					<dim>1</dim>
				</port>
			</output>
		</layer>
		<layer id="332" name="485/variance/Fused_Add_" type="Add" version="opset1">
			<data auto_broadcast="numpy"/>
			<input>
				<port id="0">
					<dim>1</dim>
					<dim>58</dim>
					<dim>40</dim>
					<dim>40</dim>
				</port>
				<port id="1">
					<dim>1</dim>
					<dim>58</dim>
					<dim>1</dim>
					<dim>1</dim>
				</port>
			</input>
			<output>
				<port id="2" names="485" precision="FP16">
					<dim>1</dim>
					<dim>58</dim>
					<dim>40</dim>
					<dim>40</dim>
				</port>
			</output>
		</layer>
		<layer id="333" name="486" type="ReLU" version="opset1">
			<input>
				<port id="0">
					<dim>1</dim>
					<dim>58</dim>
					<dim>40</dim>
					<dim>40</dim>
				</port>
			</input>
			<output>
				<port id="1" names="486" precision="FP16">
					<dim>1</dim>
					<dim>58</dim>
					<dim>40</dim>
					<dim>40</dim>
				</port>
			</output>
		</layer>
		<layer id="334" name="487/fq_input_1" type="FakeQuantize" version="opset1">
			<data auto_broadcast="numpy" levels="256"/>
			<input>
				<port id="0">
					<dim>1</dim>
					<dim>58</dim>
					<dim>40</dim>
					<dim>40</dim>
				</port>
				<port id="1"/>
				<port id="2"/>
				<port id="3"/>
				<port id="4"/>
			</input>
			<output>
				<port id="5" precision="FP16">
					<dim>1</dim>
					<dim>58</dim>
					<dim>40</dim>
					<dim>40</dim>
				</port>
			</output>
		</layer>
		<layer id="335" name="487" type="Concat" version="opset1">
			<data axis="1"/>
			<input>
				<port id="0">
					<dim>1</dim>
					<dim>58</dim>
					<dim>40</dim>
					<dim>40</dim>
				</port>
				<port id="1">
					<dim>1</dim>
					<dim>58</dim>
					<dim>40</dim>
					<dim>40</dim>
				</port>
			</input>
			<output>
				<port id="2" names="487" precision="FP16">
					<dim>1</dim>
					<dim>116</dim>
					<dim>40</dim>
					<dim>40</dim>
				</port>
			</output>
		</layer>
		<layer id="336" name="489" type="ShapeOf" version="opset3">
			<data output_type="i64"/>
			<input>
				<port id="0">
					<dim>1</dim>
					<dim>116</dim>
					<dim>40</dim>
					<dim>40</dim>
				</port>
			</input>
			<output>
				<port id="1" names="489" precision="I64">
					<dim>4</dim>
				</port>
			</output>
		</layer>
		<layer id="337" name="4882586" type="Const" version="opset1">
			<data element_type="i32" offset="10040" shape="" size="4"/>
			<output>
				<port id="0" names="488" precision="I32"/>
			</output>
		</layer>
		<layer id="338" name="490/axis2587" type="Const" version="opset1">
			<data element_type="i64" offset="10044" shape="" size="8"/>
			<output>
				<port id="0" precision="I64"/>
			</output>
		</layer>
		<layer id="339" name="4902918" type="Gather" version="opset7">
			<data batch_dims="0"/>
			<input>
				<port id="0">
					<dim>4</dim>
				</port>
				<port id="1"/>
				<port id="2"/>
			</input>
			<output>
				<port id="3" names="490" precision="I64"/>
			</output>
		</layer>
		<layer id="340" name="503/Dims258938753" type="Const" version="opset1">
			<data element_type="i64" offset="10044" shape="1" size="8"/>
			<output>
				<port id="0" precision="I64">
					<dim>1</dim>
				</port>
			</output>
		</layer>
		<layer id="341" name="503/Unsqueeze" type="Unsqueeze" version="opset1">
			<input>
				<port id="0"/>
				<port id="1">
					<dim>1</dim>
				</port>
			</input>
			<output>
				<port id="2" names="503" precision="I64">
					<dim>1</dim>
				</port>
			</output>
		</layer>
		<layer id="342" name="504/Unsqueeze259140814" type="Const" version="opset1">
			<data element_type="i64" offset="4" shape="1" size="8"/>
			<output>
				<port id="0" names="504" precision="I64">
					<dim>1</dim>
				</port>
			</output>
		</layer>
		<layer id="343" name="492" type="ShapeOf" version="opset3">
			<data output_type="i64"/>
			<input>
				<port id="0">
					<dim>1</dim>
					<dim>116</dim>
					<dim>40</dim>
					<dim>40</dim>
				</port>
			</input>
			<output>
				<port id="1" names="492" precision="I64">
					<dim>4</dim>
				</port>
			</output>
		</layer>
		<layer id="344" name="4912593" type="Const" version="opset1">
			<data element_type="i32" offset="10052" shape="" size="4"/>
			<output>
				<port id="0" names="491" precision="I32"/>
			</output>
		</layer>
		<layer id="345" name="493/axis2594" type="Const" version="opset1">
			<data element_type="i64" offset="10044" shape="" size="8"/>
			<output>
				<port id="0" precision="I64"/>
			</output>
		</layer>
		<layer id="346" name="4932982" type="Gather" version="opset7">
			<data batch_dims="0"/>
			<input>
				<port id="0">
					<dim>4</dim>
				</port>
				<port id="1"/>
				<port id="2"/>
			</input>
			<output>
				<port id="3" names="493" precision="I64"/>
			</output>
		</layer>
		<layer id="347" name="500259636341" type="Const" version="opset1">
			<data element_type="i64" offset="4" shape="" size="8"/>
			<output>
				<port id="0" names="500" precision="I64"/>
			</output>
		</layer>
		<layer id="348" name="501" type="Divide" version="opset1">
			<data auto_broadcast="numpy"/>
			<input>
				<port id="0"/>
				<port id="1"/>
			</input>
			<output>
				<port id="2" names="501" precision="I64"/>
			</output>
		</layer>
		<layer id="349" name="505/Dims259839479" type="Const" version="opset1">
			<data element_type="i64" offset="10044" shape="1" size="8"/>
			<output>
				<port id="0" precision="I64">
					<dim>1</dim>
				</port>
			</output>
		</layer>
		<layer id="350" name="505/Unsqueeze" type="Unsqueeze" version="opset1">
			<input>
				<port id="0"/>
				<port id="1">
					<dim>1</dim>
				</port>
			</input>
			<output>
				<port id="2" names="505" precision="I64">
					<dim>1</dim>
				</port>
			</output>
		</layer>
		<layer id="351" name="495" type="ShapeOf" version="opset3">
			<data output_type="i64"/>
			<input>
				<port id="0">
					<dim>1</dim>
					<dim>116</dim>
					<dim>40</dim>
					<dim>40</dim>
				</port>
			</input>
			<output>
				<port id="1" names="495" precision="I64">
					<dim>4</dim>
				</port>
			</output>
		</layer>
		<layer id="352" name="4942601" type="Const" version="opset1">
			<data element_type="i32" offset="10056" shape="" size="4"/>
			<output>
				<port id="0" names="494" precision="I32"/>
			</output>
		</layer>
		<layer id="353" name="496/axis2602" type="Const" version="opset1">
			<data element_type="i64" offset="10044" shape="" size="8"/>
			<output>
				<port id="0" precision="I64"/>
			</output>
		</layer>
		<layer id="354" name="4962744" type="Gather" version="opset7">
			<data batch_dims="0"/>
			<input>
				<port id="0">
					<dim>4</dim>
				</port>
				<port id="1"/>
				<port id="2"/>
			</input>
			<output>
				<port id="3" names="496" precision="I64"/>
			</output>
		</layer>
		<layer id="355" name="506/Dims260440295" type="Const" version="opset1">
			<data element_type="i64" offset="10044" shape="1" size="8"/>
			<output>
				<port id="0" precision="I64">
					<dim>1</dim>
				</port>
			</output>
		</layer>
		<layer id="356" name="506/Unsqueeze" type="Unsqueeze" version="opset1">
			<input>
				<port id="0"/>
				<port id="1">
					<dim>1</dim>
				</port>
			</input>
			<output>
				<port id="2" names="506" precision="I64">
					<dim>1</dim>
				</port>
			</output>
		</layer>
		<layer id="357" name="498" type="ShapeOf" version="opset3">
			<data output_type="i64"/>
			<input>
				<port id="0">
					<dim>1</dim>
					<dim>116</dim>
					<dim>40</dim>
					<dim>40</dim>
				</port>
			</input>
			<output>
				<port id="1" names="498" precision="I64">
					<dim>4</dim>
				</port>
			</output>
		</layer>
		<layer id="358" name="4972607" type="Const" version="opset1">
			<data element_type="i32" offset="10060" shape="" size="4"/>
			<output>
				<port id="0" names="497" precision="I32"/>
			</output>
		</layer>
		<layer id="359" name="499/axis2608" type="Const" version="opset1">
			<data element_type="i64" offset="10044" shape="" size="8"/>
			<output>
				<port id="0" precision="I64"/>
			</output>
		</layer>
		<layer id="360" name="4992722" type="Gather" version="opset7">
			<data batch_dims="0"/>
			<input>
				<port id="0">
					<dim>4</dim>
				</port>
				<port id="1"/>
				<port id="2"/>
			</input>
			<output>
				<port id="3" names="499" precision="I64"/>
			</output>
		</layer>
		<layer id="361" name="507/Dims261039416" type="Const" version="opset1">
			<data element_type="i64" offset="10044" shape="1" size="8"/>
			<output>
				<port id="0" precision="I64">
					<dim>1</dim>
				</port>
			</output>
		</layer>
		<layer id="362" name="507/Unsqueeze" type="Unsqueeze" version="opset1">
			<input>
				<port id="0"/>
				<port id="1">
					<dim>1</dim>
				</port>
			</input>
			<output>
				<port id="2" names="507" precision="I64">
					<dim>1</dim>
				</port>
			</output>
		</layer>
		<layer id="363" name="508" type="Concat" version="opset1">
			<data axis="0"/>
			<input>
				<port id="0">
					<dim>1</dim>
				</port>
				<port id="1">
					<dim>1</dim>
				</port>
				<port id="2">
					<dim>1</dim>
				</port>
				<port id="3">
					<dim>1</dim>
				</port>
				<port id="4">
					<dim>1</dim>
				</port>
			</input>
			<output>
				<port id="5" names="508" precision="I64">
					<dim>5</dim>
				</port>
			</output>
		</layer>
		<layer id="364" name="509" type="Reshape" version="opset1">
			<data special_zero="true"/>
			<input>
				<port id="0">
					<dim>1</dim>
					<dim>116</dim>
					<dim>40</dim>
					<dim>40</dim>
				</port>
				<port id="1">
					<dim>5</dim>
				</port>
			</input>
			<output>
				<port id="2" names="509" precision="FP16">
					<dim>1</dim>
					<dim>2</dim>
					<dim>58</dim>
					<dim>40</dim>
					<dim>40</dim>
				</port>
			</output>
		</layer>
		<layer id="365" name="17052614" type="Const" version="opset1">
			<data element_type="i64" offset="10064" shape="5" size="40"/>
			<output>
				<port id="0" precision="I64">
					<dim>5</dim>
				</port>
			</output>
		</layer>
		<layer id="366" name="510" type="Transpose" version="opset1">
			<input>
				<port id="0">
					<dim>1</dim>
					<dim>2</dim>
					<dim>58</dim>
					<dim>40</dim>
					<dim>40</dim>
				</port>
				<port id="1">
					<dim>5</dim>
				</port>
			</input>
			<output>
				<port id="2" names="510" precision="FP16">
					<dim>1</dim>
					<dim>58</dim>
					<dim>2</dim>
					<dim>40</dim>
					<dim>40</dim>
				</port>
			</output>
		</layer>
		<layer id="367" name="511/Dims261636626" type="Const" version="opset1">
			<data element_type="i64" offset="10044" shape="1" size="8"/>
			<output>
				<port id="0" precision="I64">
					<dim>1</dim>
				</port>
			</output>
		</layer>
		<layer id="368" name="511/Unsqueeze" type="Unsqueeze" version="opset1">
			<input>
				<port id="0"/>
				<port id="1">
					<dim>1</dim>
				</port>
			</input>
			<output>
				<port id="2" names="511" precision="I64">
					<dim>1</dim>
				</port>
			</output>
		</layer>
		<layer id="369" name="512/Dims261837463" type="Const" version="opset1">
			<data element_type="i64" offset="10044" shape="1" size="8"/>
			<output>
				<port id="0" precision="I64">
					<dim>1</dim>
				</port>
			</output>
		</layer>
		<layer id="370" name="512/Unsqueeze" type="Unsqueeze" version="opset1">
			<input>
				<port id="0"/>
				<port id="1">
					<dim>1</dim>
				</port>
			</input>
			<output>
				<port id="2" names="512" precision="I64">
					<dim>1</dim>
				</port>
			</output>
		</layer>
		<layer id="371" name="513/Dims262041111" type="Const" version="opset1">
			<data element_type="i64" offset="10044" shape="1" size="8"/>
			<output>
				<port id="0" precision="I64">
					<dim>1</dim>
				</port>
			</output>
		</layer>
		<layer id="372" name="513/Unsqueeze" type="Unsqueeze" version="opset1">
			<input>
				<port id="0"/>
				<port id="1">
					<dim>1</dim>
				</port>
			</input>
			<output>
				<port id="2" names="513" precision="I64">
					<dim>1</dim>
				</port>
			</output>
		</layer>
		<layer id="373" name="514/Dims262239464" type="Const" version="opset1">
			<data element_type="i64" offset="10044" shape="1" size="8"/>
			<output>
				<port id="0" precision="I64">
					<dim>1</dim>
				</port>
			</output>
		</layer>
		<layer id="374" name="514/Unsqueeze" type="Unsqueeze" version="opset1">
			<input>
				<port id="0"/>
				<port id="1">
					<dim>1</dim>
				</port>
			</input>
			<output>
				<port id="2" names="514" precision="I64">
					<dim>1</dim>
				</port>
			</output>
		</layer>
		<layer id="375" name="515" type="Concat" version="opset1">
			<data axis="0"/>
			<input>
				<port id="0">
					<dim>1</dim>
				</port>
				<port id="1">
					<dim>1</dim>
				</port>
				<port id="2">
					<dim>1</dim>
				</port>
				<port id="3">
					<dim>1</dim>
				</port>
			</input>
			<output>
				<port id="4" names="515" precision="I64">
					<dim>4</dim>
				</port>
			</output>
		</layer>
		<layer id="376" name="516" type="Reshape" version="opset1">
			<data special_zero="true"/>
			<input>
				<port id="0">
					<dim>1</dim>
					<dim>58</dim>
					<dim>2</dim>
					<dim>40</dim>
					<dim>40</dim>
				</port>
				<port id="1">
					<dim>4</dim>
				</port>
			</input>
			<output>
				<port id="2" names="516" precision="FP16">
					<dim>1</dim>
					<dim>116</dim>
					<dim>40</dim>
					<dim>40</dim>
				</port>
			</output>
		</layer>
		<layer id="377" name="517/VariadicSplit" type="VariadicSplit" version="opset1">
			<input>
				<port id="0">
					<dim>1</dim>
					<dim>116</dim>
					<dim>40</dim>
					<dim>40</dim>
				</port>
				<port id="1"/>
				<port id="2">
					<dim>2</dim>
				</port>
			</input>
			<output>
				<port id="3" names="517" precision="FP16">
					<dim>1</dim>
					<dim>58</dim>
					<dim>40</dim>
					<dim>40</dim>
				</port>
				<port id="4" names="518" precision="FP16">
					<dim>1</dim>
					<dim>58</dim>
					<dim>40</dim>
					<dim>40</dim>
				</port>
			</output>
		</layer>
		<layer id="378" name="520/mean/Fused_Mul__copy263022554/quantized2590941063" type="Const" version="opset1">
			<data element_type="i8" offset="26692" shape="58,58,1,1" size="3364"/>
			<output>
				<port id="0" precision="I8">
					<dim>58</dim>
					<dim>58</dim>
					<dim>1</dim>
					<dim>1</dim>
				</port>
			</output>
		</layer>
		<layer id="379" name="520/mean/Fused_Mul__copy263022554/quantized/to_f16" type="Convert" version="opset1">
			<data destination_type="f16"/>
			<input>
				<port id="0">
					<dim>58</dim>
					<dim>58</dim>
					<dim>1</dim>
					<dim>1</dim>
				</port>
			</input>
			<output>
				<port id="1" precision="FP16">
					<dim>58</dim>
					<dim>58</dim>
					<dim>1</dim>
					<dim>1</dim>
				</port>
			</output>
		</layer>
		<layer id="380" name="519/fq_weights_1/zero_point2592241756" type="Const" version="opset1">
			<data element_type="f16" offset="30056" shape="58,1,1,1" size="116"/>
			<output>
				<port id="0" precision="FP16">
					<dim>58</dim>
					<dim>1</dim>
					<dim>1</dim>
					<dim>1</dim>
				</port>
			</output>
		</layer>
		<layer id="381" name="519/fq_weights_1/minus_zp" type="Subtract" version="opset1">
			<data auto_broadcast="numpy"/>
			<input>
				<port id="0">
					<dim>58</dim>
					<dim>58</dim>
					<dim>1</dim>
					<dim>1</dim>
				</port>
				<port id="1">
					<dim>58</dim>
					<dim>1</dim>
					<dim>1</dim>
					<dim>1</dim>
				</port>
			</input>
			<output>
				<port id="2" precision="FP16">
					<dim>58</dim>
					<dim>58</dim>
					<dim>1</dim>
					<dim>1</dim>
				</port>
			</output>
		</layer>
		<layer id="382" name="519/fq_weights_1/scale2591740796" type="Const" version="opset1">
			<data element_type="f16" offset="30172" shape="58,1,1,1" size="116"/>
			<output>
				<port id="0" precision="FP16">
					<dim>58</dim>
					<dim>1</dim>
					<dim>1</dim>
					<dim>1</dim>
				</port>
			</output>
		</layer>
		<layer id="383" name="519/fq_weights_1/mulpiply_by_scale" type="Multiply" version="opset1">
			<data auto_broadcast="numpy"/>
			<input>
				<port id="0">
					<dim>58</dim>
					<dim>58</dim>
					<dim>1</dim>
					<dim>1</dim>
				</port>
				<port id="1">
					<dim>58</dim>
					<dim>1</dim>
					<dim>1</dim>
					<dim>1</dim>
				</port>
			</input>
			<output>
				<port id="2" precision="FP16">
					<dim>58</dim>
					<dim>58</dim>
					<dim>1</dim>
					<dim>1</dim>
				</port>
			</output>
		</layer>
		<layer id="384" name="519" type="Convolution" version="opset1">
			<data auto_pad="explicit" dilations="1,1" pads_begin="0,0" pads_end="0,0" strides="1,1"/>
			<input>
				<port id="0">
					<dim>1</dim>
					<dim>58</dim>
					<dim>40</dim>
					<dim>40</dim>
				</port>
				<port id="1">
					<dim>58</dim>
					<dim>58</dim>
					<dim>1</dim>
					<dim>1</dim>
				</port>
			</input>
			<output>
				<port id="2" precision="FP16">
					<dim>1</dim>
					<dim>58</dim>
					<dim>40</dim>
					<dim>40</dim>
				</port>
			</output>
		</layer>
		<layer id="385" name="data_add_3815338158263240916" type="Const" version="opset1">
			<data element_type="f16" offset="30288" shape="1,58,1,1" size="116"/>
			<output>
				<port id="0" precision="FP16">
					<dim>1</dim>
					<dim>58</dim>
					<dim>1</dim>
					<dim>1</dim>
				</port>
			</output>
		</layer>
		<layer id="386" name="520/variance/Fused_Add_" type="Add" version="opset1">
			<data auto_broadcast="numpy"/>
			<input>
				<port id="0">
					<dim>1</dim>
					<dim>58</dim>
					<dim>40</dim>
					<dim>40</dim>
				</port>
				<port id="1">
					<dim>1</dim>
					<dim>58</dim>
					<dim>1</dim>
					<dim>1</dim>
				</port>
			</input>
			<output>
				<port id="2" names="520" precision="FP16">
					<dim>1</dim>
					<dim>58</dim>
					<dim>40</dim>
					<dim>40</dim>
				</port>
			</output>
		</layer>
		<layer id="387" name="521" type="ReLU" version="opset1">
			<input>
				<port id="0">
					<dim>1</dim>
					<dim>58</dim>
					<dim>40</dim>
					<dim>40</dim>
				</port>
			</input>
			<output>
				<port id="1" names="521" precision="FP16">
					<dim>1</dim>
					<dim>58</dim>
					<dim>40</dim>
					<dim>40</dim>
				</port>
			</output>
		</layer>
		<layer id="388" name="522/fq_input_0" type="FakeQuantize" version="opset1">
			<data auto_broadcast="numpy" levels="256"/>
			<input>
				<port id="0">
					<dim>1</dim>
					<dim>58</dim>
					<dim>40</dim>
					<dim>40</dim>
				</port>
				<port id="1">
					<dim>1</dim>
					<dim>58</dim>
					<dim>1</dim>
					<dim>1</dim>
				</port>
				<port id="2">
					<dim>1</dim>
					<dim>58</dim>
					<dim>1</dim>
					<dim>1</dim>
				</port>
				<port id="3">
					<dim>1</dim>
					<dim>58</dim>
					<dim>1</dim>
					<dim>1</dim>
				</port>
				<port id="4">
					<dim>1</dim>
					<dim>58</dim>
					<dim>1</dim>
					<dim>1</dim>
				</port>
			</input>
			<output>
				<port id="5" precision="FP16">
					<dim>1</dim>
					<dim>58</dim>
					<dim>40</dim>
					<dim>40</dim>
				</port>
			</output>
		</layer>
		<layer id="389" name="32098/value3210039002" type="Const" version="opset1">
			<data element_type="i64" offset="3272" shape="5" size="40"/>
			<output>
				<port id="0" precision="I64">
					<dim>5</dim>
				</port>
			</output>
		</layer>
		<layer id="390" name="523/mean/Fused_Mul__copy263522556/quantized2691737133" type="Const" version="opset1">
			<data element_type="i8" offset="30404" shape="58,1,3,3" size="522"/>
			<output>
				<port id="0" precision="I8">
					<dim>58</dim>
					<dim>1</dim>
					<dim>3</dim>
					<dim>3</dim>
				</port>
			</output>
		</layer>
		<layer id="391" name="523/mean/Fused_Mul__copy263522556/quantized/to_f16" type="Convert" version="opset1">
			<data destination_type="f16"/>
			<input>
				<port id="0">
					<dim>58</dim>
					<dim>1</dim>
					<dim>3</dim>
					<dim>3</dim>
				</port>
			</input>
			<output>
				<port id="1" precision="FP16">
					<dim>58</dim>
					<dim>1</dim>
					<dim>3</dim>
					<dim>3</dim>
				</port>
			</output>
		</layer>
		<layer id="392" name="522/fq_weights_1/zero_point2693036881" type="Const" version="opset1">
			<data element_type="f16" offset="30926" shape="58,1,1,1" size="116"/>
			<output>
				<port id="0" precision="FP16">
					<dim>58</dim>
					<dim>1</dim>
					<dim>1</dim>
					<dim>1</dim>
				</port>
			</output>
		</layer>
		<layer id="393" name="522/fq_weights_1/minus_zp" type="Subtract" version="opset1">
			<data auto_broadcast="numpy"/>
			<input>
				<port id="0">
					<dim>58</dim>
					<dim>1</dim>
					<dim>3</dim>
					<dim>3</dim>
				</port>
				<port id="1">
					<dim>58</dim>
					<dim>1</dim>
					<dim>1</dim>
					<dim>1</dim>
				</port>
			</input>
			<output>
				<port id="2" precision="FP16">
					<dim>58</dim>
					<dim>1</dim>
					<dim>3</dim>
					<dim>3</dim>
				</port>
			</output>
		</layer>
		<layer id="394" name="522/fq_weights_1/scale2692538504" type="Const" version="opset1">
			<data element_type="f16" offset="31042" shape="58,1,1,1" size="116"/>
			<output>
				<port id="0" precision="FP16">
					<dim>58</dim>
					<dim>1</dim>
					<dim>1</dim>
					<dim>1</dim>
				</port>
			</output>
		</layer>
		<layer id="395" name="522/fq_weights_1/mulpiply_by_scale" type="Multiply" version="opset1">
			<data auto_broadcast="numpy"/>
			<input>
				<port id="0">
					<dim>58</dim>
					<dim>1</dim>
					<dim>3</dim>
					<dim>3</dim>
				</port>
				<port id="1">
					<dim>58</dim>
					<dim>1</dim>
					<dim>1</dim>
					<dim>1</dim>
				</port>
			</input>
			<output>
				<port id="2" precision="FP16">
					<dim>58</dim>
					<dim>1</dim>
					<dim>3</dim>
					<dim>3</dim>
				</port>
			</output>
		</layer>
		<layer id="396" name="32098" type="Reshape" version="opset1">
			<data special_zero="true"/>
			<input>
				<port id="0">
					<dim>58</dim>
					<dim>1</dim>
					<dim>3</dim>
					<dim>3</dim>
				</port>
				<port id="1">
					<dim>5</dim>
				</port>
			</input>
			<output>
				<port id="2" precision="FP16">
					<dim>58</dim>
					<dim>1</dim>
					<dim>1</dim>
					<dim>3</dim>
					<dim>3</dim>
				</port>
			</output>
		</layer>
		<layer id="397" name="522" type="GroupConvolution" version="opset1">
			<data auto_pad="explicit" dilations="1,1" pads_begin="1,1" pads_end="1,1" strides="1,1"/>
			<input>
				<port id="0">
					<dim>1</dim>
					<dim>58</dim>
					<dim>40</dim>
					<dim>40</dim>
				</port>
				<port id="1">
					<dim>58</dim>
					<dim>1</dim>
					<dim>1</dim>
					<dim>3</dim>
					<dim>3</dim>
				</port>
			</input>
			<output>
				<port id="2" precision="FP16">
					<dim>1</dim>
					<dim>58</dim>
					<dim>40</dim>
					<dim>40</dim>
				</port>
			</output>
		</layer>
		<layer id="398" name="data_add_3816138166263739671" type="Const" version="opset1">
			<data element_type="f16" offset="31158" shape="1,58,1,1" size="116"/>
			<output>
				<port id="0" precision="FP16">
					<dim>1</dim>
					<dim>58</dim>
					<dim>1</dim>
					<dim>1</dim>
				</port>
			</output>
		</layer>
		<layer id="399" name="523/variance/Fused_Add_" type="Add" version="opset1">
			<data auto_broadcast="numpy"/>
			<input>
				<port id="0">
					<dim>1</dim>
					<dim>58</dim>
					<dim>40</dim>
					<dim>40</dim>
				</port>
				<port id="1">
					<dim>1</dim>
					<dim>58</dim>
					<dim>1</dim>
					<dim>1</dim>
				</port>
			</input>
			<output>
				<port id="2" names="523" precision="FP16">
					<dim>1</dim>
					<dim>58</dim>
					<dim>40</dim>
					<dim>40</dim>
				</port>
			</output>
		</layer>
		<layer id="400" name="524/fq_input_0" type="FakeQuantize" version="opset1">
			<data auto_broadcast="numpy" levels="256"/>
			<input>
				<port id="0">
					<dim>1</dim>
					<dim>58</dim>
					<dim>40</dim>
					<dim>40</dim>
				</port>
				<port id="1"/>
				<port id="2"/>
				<port id="3"/>
				<port id="4"/>
			</input>
			<output>
				<port id="5" precision="FP16">
					<dim>1</dim>
					<dim>58</dim>
					<dim>40</dim>
					<dim>40</dim>
				</port>
			</output>
		</layer>
		<layer id="401" name="525/mean/Fused_Mul__copy263922558/quantized2646139425" type="Const" version="opset1">
			<data element_type="i8" offset="31274" shape="58,58,1,1" size="3364"/>
			<output>
				<port id="0" precision="I8">
					<dim>58</dim>
					<dim>58</dim>
					<dim>1</dim>
					<dim>1</dim>
				</port>
			</output>
		</layer>
		<layer id="402" name="525/mean/Fused_Mul__copy263922558/quantized/to_f16" type="Convert" version="opset1">
			<data destination_type="f16"/>
			<input>
				<port id="0">
					<dim>58</dim>
					<dim>58</dim>
					<dim>1</dim>
					<dim>1</dim>
				</port>
			</input>
			<output>
				<port id="1" precision="FP16">
					<dim>58</dim>
					<dim>58</dim>
					<dim>1</dim>
					<dim>1</dim>
				</port>
			</output>
		</layer>
		<layer id="403" name="524/fq_weights_1/zero_point2647441435" type="Const" version="opset1">
			<data element_type="f16" offset="34638" shape="58,1,1,1" size="116"/>
			<output>
				<port id="0" precision="FP16">
					<dim>58</dim>
					<dim>1</dim>
					<dim>1</dim>
					<dim>1</dim>
				</port>
			</output>
		</layer>
		<layer id="404" name="524/fq_weights_1/minus_zp" type="Subtract" version="opset1">
			<data auto_broadcast="numpy"/>
			<input>
				<port id="0">
					<dim>58</dim>
					<dim>58</dim>
					<dim>1</dim>
					<dim>1</dim>
				</port>
				<port id="1">
					<dim>58</dim>
					<dim>1</dim>
					<dim>1</dim>
					<dim>1</dim>
				</port>
			</input>
			<output>
				<port id="2" precision="FP16">
					<dim>58</dim>
					<dim>58</dim>
					<dim>1</dim>
					<dim>1</dim>
				</port>
			</output>
		</layer>
		<layer id="405" name="524/fq_weights_1/scale2646938432" type="Const" version="opset1">
			<data element_type="f16" offset="34754" shape="58,1,1,1" size="116"/>
			<output>
				<port id="0" precision="FP16">
					<dim>58</dim>
					<dim>1</dim>
					<dim>1</dim>
					<dim>1</dim>
				</port>
			</output>
		</layer>
		<layer id="406" name="524/fq_weights_1/mulpiply_by_scale" type="Multiply" version="opset1">
			<data auto_broadcast="numpy"/>
			<input>
				<port id="0">
					<dim>58</dim>
					<dim>58</dim>
					<dim>1</dim>
					<dim>1</dim>
				</port>
				<port id="1">
					<dim>58</dim>
					<dim>1</dim>
					<dim>1</dim>
					<dim>1</dim>
				</port>
			</input>
			<output>
				<port id="2" precision="FP16">
					<dim>58</dim>
					<dim>58</dim>
					<dim>1</dim>
					<dim>1</dim>
				</port>
			</output>
		</layer>
		<layer id="407" name="524" type="Convolution" version="opset1">
			<data auto_pad="explicit" dilations="1,1" pads_begin="0,0" pads_end="0,0" strides="1,1"/>
			<input>
				<port id="0">
					<dim>1</dim>
					<dim>58</dim>
					<dim>40</dim>
					<dim>40</dim>
				</port>
				<port id="1">
					<dim>58</dim>
					<dim>58</dim>
					<dim>1</dim>
					<dim>1</dim>
				</port>
			</input>
			<output>
				<port id="2" precision="FP16">
					<dim>1</dim>
					<dim>58</dim>
					<dim>40</dim>
					<dim>40</dim>
				</port>
			</output>
		</layer>
		<layer id="408" name="data_add_3816938174264136113" type="Const" version="opset1">
			<data element_type="f16" offset="34870" shape="1,58,1,1" size="116"/>
			<output>
				<port id="0" precision="FP16">
					<dim>1</dim>
					<dim>58</dim>
					<dim>1</dim>
					<dim>1</dim>
				</port>
			</output>
		</layer>
		<layer id="409" name="525/variance/Fused_Add_" type="Add" version="opset1">
			<data auto_broadcast="numpy"/>
			<input>
				<port id="0">
					<dim>1</dim>
					<dim>58</dim>
					<dim>40</dim>
					<dim>40</dim>
				</port>
				<port id="1">
					<dim>1</dim>
					<dim>58</dim>
					<dim>1</dim>
					<dim>1</dim>
				</port>
			</input>
			<output>
				<port id="2" names="525" precision="FP16">
					<dim>1</dim>
					<dim>58</dim>
					<dim>40</dim>
					<dim>40</dim>
				</port>
			</output>
		</layer>
		<layer id="410" name="526" type="ReLU" version="opset1">
			<input>
				<port id="0">
					<dim>1</dim>
					<dim>58</dim>
					<dim>40</dim>
					<dim>40</dim>
				</port>
			</input>
			<output>
				<port id="1" names="526" precision="FP16">
					<dim>1</dim>
					<dim>58</dim>
					<dim>40</dim>
					<dim>40</dim>
				</port>
			</output>
		</layer>
		<layer id="411" name="527/fq_input_1" type="FakeQuantize" version="opset1">
			<data auto_broadcast="numpy" levels="256"/>
			<input>
				<port id="0">
					<dim>1</dim>
					<dim>58</dim>
					<dim>40</dim>
					<dim>40</dim>
				</port>
				<port id="1"/>
				<port id="2"/>
				<port id="3"/>
				<port id="4"/>
			</input>
			<output>
				<port id="5" precision="FP16">
					<dim>1</dim>
					<dim>58</dim>
					<dim>40</dim>
					<dim>40</dim>
				</port>
			</output>
		</layer>
		<layer id="412" name="527" type="Concat" version="opset1">
			<data axis="1"/>
			<input>
				<port id="0">
					<dim>1</dim>
					<dim>58</dim>
					<dim>40</dim>
					<dim>40</dim>
				</port>
				<port id="1">
					<dim>1</dim>
					<dim>58</dim>
					<dim>40</dim>
					<dim>40</dim>
				</port>
			</input>
			<output>
				<port id="2" names="527" precision="FP16">
					<dim>1</dim>
					<dim>116</dim>
					<dim>40</dim>
					<dim>40</dim>
				</port>
			</output>
		</layer>
		<layer id="413" name="529" type="ShapeOf" version="opset3">
			<data output_type="i64"/>
			<input>
				<port id="0">
					<dim>1</dim>
					<dim>116</dim>
					<dim>40</dim>
					<dim>40</dim>
				</port>
			</input>
			<output>
				<port id="1" names="529" precision="I64">
					<dim>4</dim>
				</port>
			</output>
		</layer>
		<layer id="414" name="5282646" type="Const" version="opset1">
			<data element_type="i32" offset="10040" shape="" size="4"/>
			<output>
				<port id="0" names="528" precision="I32"/>
			</output>
		</layer>
		<layer id="415" name="530/axis2647" type="Const" version="opset1">
			<data element_type="i64" offset="10044" shape="" size="8"/>
			<output>
				<port id="0" precision="I64"/>
			</output>
		</layer>
		<layer id="416" name="5302750" type="Gather" version="opset7">
			<data batch_dims="0"/>
			<input>
				<port id="0">
					<dim>4</dim>
				</port>
				<port id="1"/>
				<port id="2"/>
			</input>
			<output>
				<port id="3" names="530" precision="I64"/>
			</output>
		</layer>
		<layer id="417" name="543/Dims264941234" type="Const" version="opset1">
			<data element_type="i64" offset="10044" shape="1" size="8"/>
			<output>
				<port id="0" precision="I64">
					<dim>1</dim>
				</port>
			</output>
		</layer>
		<layer id="418" name="543/Unsqueeze" type="Unsqueeze" version="opset1">
			<input>
				<port id="0"/>
				<port id="1">
					<dim>1</dim>
				</port>
			</input>
			<output>
				<port id="2" names="543" precision="I64">
					<dim>1</dim>
				</port>
			</output>
		</layer>
		<layer id="419" name="544/Unsqueeze265136824" type="Const" version="opset1">
			<data element_type="i64" offset="4" shape="1" size="8"/>
			<output>
				<port id="0" names="544" precision="I64">
					<dim>1</dim>
				</port>
			</output>
		</layer>
		<layer id="420" name="532" type="ShapeOf" version="opset3">
			<data output_type="i64"/>
			<input>
				<port id="0">
					<dim>1</dim>
					<dim>116</dim>
					<dim>40</dim>
					<dim>40</dim>
				</port>
			</input>
			<output>
				<port id="1" names="532" precision="I64">
					<dim>4</dim>
				</port>
			</output>
		</layer>
		<layer id="421" name="5312653" type="Const" version="opset1">
			<data element_type="i32" offset="10052" shape="" size="4"/>
			<output>
				<port id="0" names="531" precision="I32"/>
			</output>
		</layer>
		<layer id="422" name="533/axis2654" type="Const" version="opset1">
			<data element_type="i64" offset="10044" shape="" size="8"/>
			<output>
				<port id="0" precision="I64"/>
			</output>
		</layer>
		<layer id="423" name="5332866" type="Gather" version="opset7">
			<data batch_dims="0"/>
			<input>
				<port id="0">
					<dim>4</dim>
				</port>
				<port id="1"/>
				<port id="2"/>
			</input>
			<output>
				<port id="3" names="533" precision="I64"/>
			</output>
		</layer>
		<layer id="424" name="540265638333" type="Const" version="opset1">
			<data element_type="i64" offset="4" shape="" size="8"/>
			<output>
				<port id="0" names="540" precision="I64"/>
			</output>
		</layer>
		<layer id="425" name="541" type="Divide" version="opset1">
			<data auto_broadcast="numpy"/>
			<input>
				<port id="0"/>
				<port id="1"/>
			</input>
			<output>
				<port id="2" names="541" precision="I64"/>
			</output>
		</layer>
		<layer id="426" name="545/Dims265837181" type="Const" version="opset1">
			<data element_type="i64" offset="10044" shape="1" size="8"/>
			<output>
				<port id="0" precision="I64">
					<dim>1</dim>
				</port>
			</output>
		</layer>
		<layer id="427" name="545/Unsqueeze" type="Unsqueeze" version="opset1">
			<input>
				<port id="0"/>
				<port id="1">
					<dim>1</dim>
				</port>
			</input>
			<output>
				<port id="2" names="545" precision="I64">
					<dim>1</dim>
				</port>
			</output>
		</layer>
		<layer id="428" name="535" type="ShapeOf" version="opset3">
			<data output_type="i64"/>
			<input>
				<port id="0">
					<dim>1</dim>
					<dim>116</dim>
					<dim>40</dim>
					<dim>40</dim>
				</port>
			</input>
			<output>
				<port id="1" names="535" precision="I64">
					<dim>4</dim>
				</port>
			</output>
		</layer>
		<layer id="429" name="5342661" type="Const" version="opset1">
			<data element_type="i32" offset="10056" shape="" size="4"/>
			<output>
				<port id="0" names="534" precision="I32"/>
			</output>
		</layer>
		<layer id="430" name="536/axis2662" type="Const" version="opset1">
			<data element_type="i64" offset="10044" shape="" size="8"/>
			<output>
				<port id="0" precision="I64"/>
			</output>
		</layer>
		<layer id="431" name="5362842" type="Gather" version="opset7">
			<data batch_dims="0"/>
			<input>
				<port id="0">
					<dim>4</dim>
				</port>
				<port id="1"/>
				<port id="2"/>
			</input>
			<output>
				<port id="3" names="536" precision="I64"/>
			</output>
		</layer>
		<layer id="432" name="546/Dims266439956" type="Const" version="opset1">
			<data element_type="i64" offset="10044" shape="1" size="8"/>
			<output>
				<port id="0" precision="I64">
					<dim>1</dim>
				</port>
			</output>
		</layer>
		<layer id="433" name="546/Unsqueeze" type="Unsqueeze" version="opset1">
			<input>
				<port id="0"/>
				<port id="1">
					<dim>1</dim>
				</port>
			</input>
			<output>
				<port id="2" names="546" precision="I64">
					<dim>1</dim>
				</port>
			</output>
		</layer>
		<layer id="434" name="538" type="ShapeOf" version="opset3">
			<data output_type="i64"/>
			<input>
				<port id="0">
					<dim>1</dim>
					<dim>116</dim>
					<dim>40</dim>
					<dim>40</dim>
				</port>
			</input>
			<output>
				<port id="1" names="538" precision="I64">
					<dim>4</dim>
				</port>
			</output>
		</layer>
		<layer id="435" name="5372667" type="Const" version="opset1">
			<data element_type="i32" offset="10060" shape="" size="4"/>
			<output>
				<port id="0" names="537" precision="I32"/>
			</output>
		</layer>
		<layer id="436" name="539/axis2668" type="Const" version="opset1">
			<data element_type="i64" offset="10044" shape="" size="8"/>
			<output>
				<port id="0" precision="I64"/>
			</output>
		</layer>
		<layer id="437" name="5392962" type="Gather" version="opset7">
			<data batch_dims="0"/>
			<input>
				<port id="0">
					<dim>4</dim>
				</port>
				<port id="1"/>
				<port id="2"/>
			</input>
			<output>
				<port id="3" names="539" precision="I64"/>
			</output>
		</layer>
		<layer id="438" name="547/Dims267039062" type="Const" version="opset1">
			<data element_type="i64" offset="10044" shape="1" size="8"/>
			<output>
				<port id="0" precision="I64">
					<dim>1</dim>
				</port>
			</output>
		</layer>
		<layer id="439" name="547/Unsqueeze" type="Unsqueeze" version="opset1">
			<input>
				<port id="0"/>
				<port id="1">
					<dim>1</dim>
				</port>
			</input>
			<output>
				<port id="2" names="547" precision="I64">
					<dim>1</dim>
				</port>
			</output>
		</layer>
		<layer id="440" name="548" type="Concat" version="opset1">
			<data axis="0"/>
			<input>
				<port id="0">
					<dim>1</dim>
				</port>
				<port id="1">
					<dim>1</dim>
				</port>
				<port id="2">
					<dim>1</dim>
				</port>
				<port id="3">
					<dim>1</dim>
				</port>
				<port id="4">
					<dim>1</dim>
				</port>
			</input>
			<output>
				<port id="5" names="548" precision="I64">
					<dim>5</dim>
				</port>
			</output>
		</layer>
		<layer id="441" name="549" type="Reshape" version="opset1">
			<data special_zero="true"/>
			<input>
				<port id="0">
					<dim>1</dim>
					<dim>116</dim>
					<dim>40</dim>
					<dim>40</dim>
				</port>
				<port id="1">
					<dim>5</dim>
				</port>
			</input>
			<output>
				<port id="2" names="549" precision="FP16">
					<dim>1</dim>
					<dim>2</dim>
					<dim>58</dim>
					<dim>40</dim>
					<dim>40</dim>
				</port>
			</output>
		</layer>
		<layer id="442" name="16932674" type="Const" version="opset1">
			<data element_type="i64" offset="10064" shape="5" size="40"/>
			<output>
				<port id="0" precision="I64">
					<dim>5</dim>
				</port>
			</output>
		</layer>
		<layer id="443" name="550" type="Transpose" version="opset1">
			<input>
				<port id="0">
					<dim>1</dim>
					<dim>2</dim>
					<dim>58</dim>
					<dim>40</dim>
					<dim>40</dim>
				</port>
				<port id="1">
					<dim>5</dim>
				</port>
			</input>
			<output>
				<port id="2" names="550" precision="FP16">
					<dim>1</dim>
					<dim>58</dim>
					<dim>2</dim>
					<dim>40</dim>
					<dim>40</dim>
				</port>
			</output>
		</layer>
		<layer id="444" name="551/Dims267638534" type="Const" version="opset1">
			<data element_type="i64" offset="10044" shape="1" size="8"/>
			<output>
				<port id="0" precision="I64">
					<dim>1</dim>
				</port>
			</output>
		</layer>
		<layer id="445" name="551/Unsqueeze" type="Unsqueeze" version="opset1">
			<input>
				<port id="0"/>
				<port id="1">
					<dim>1</dim>
				</port>
			</input>
			<output>
				<port id="2" names="551" precision="I64">
					<dim>1</dim>
				</port>
			</output>
		</layer>
		<layer id="446" name="552/Dims267840526" type="Const" version="opset1">
			<data element_type="i64" offset="10044" shape="1" size="8"/>
			<output>
				<port id="0" precision="I64">
					<dim>1</dim>
				</port>
			</output>
		</layer>
		<layer id="447" name="552/Unsqueeze" type="Unsqueeze" version="opset1">
			<input>
				<port id="0"/>
				<port id="1">
					<dim>1</dim>
				</port>
			</input>
			<output>
				<port id="2" names="552" precision="I64">
					<dim>1</dim>
				</port>
			</output>
		</layer>
		<layer id="448" name="553/Dims268036368" type="Const" version="opset1">
			<data element_type="i64" offset="10044" shape="1" size="8"/>
			<output>
				<port id="0" precision="I64">
					<dim>1</dim>
				</port>
			</output>
		</layer>
		<layer id="449" name="553/Unsqueeze" type="Unsqueeze" version="opset1">
			<input>
				<port id="0"/>
				<port id="1">
					<dim>1</dim>
				</port>
			</input>
			<output>
				<port id="2" names="553" precision="I64">
					<dim>1</dim>
				</port>
			</output>
		</layer>
		<layer id="450" name="554/Dims268236956" type="Const" version="opset1">
			<data element_type="i64" offset="10044" shape="1" size="8"/>
			<output>
				<port id="0" precision="I64">
					<dim>1</dim>
				</port>
			</output>
		</layer>
		<layer id="451" name="554/Unsqueeze" type="Unsqueeze" version="opset1">
			<input>
				<port id="0"/>
				<port id="1">
					<dim>1</dim>
				</port>
			</input>
			<output>
				<port id="2" names="554" precision="I64">
					<dim>1</dim>
				</port>
			</output>
		</layer>
		<layer id="452" name="555" type="Concat" version="opset1">
			<data axis="0"/>
			<input>
				<port id="0">
					<dim>1</dim>
				</port>
				<port id="1">
					<dim>1</dim>
				</port>
				<port id="2">
					<dim>1</dim>
				</port>
				<port id="3">
					<dim>1</dim>
				</port>
			</input>
			<output>
				<port id="4" names="555" precision="I64">
					<dim>4</dim>
				</port>
			</output>
		</layer>
		<layer id="453" name="556" type="Reshape" version="opset1">
			<data special_zero="true"/>
			<input>
				<port id="0">
					<dim>1</dim>
					<dim>58</dim>
					<dim>2</dim>
					<dim>40</dim>
					<dim>40</dim>
				</port>
				<port id="1">
					<dim>4</dim>
				</port>
			</input>
			<output>
				<port id="2" names="556" precision="FP16">
					<dim>1</dim>
					<dim>116</dim>
					<dim>40</dim>
					<dim>40</dim>
				</port>
			</output>
		</layer>
		<layer id="454" name="neck.lateral_convs.0.conv.weight268622579/quantized2713340709" type="Const" version="opset1">
			<data element_type="i8" offset="34986" shape="48,116,1,1" size="5568"/>
			<output>
				<port id="0" precision="I8">
					<dim>48</dim>
					<dim>116</dim>
					<dim>1</dim>
					<dim>1</dim>
				</port>
			</output>
		</layer>
		<layer id="455" name="neck.lateral_convs.0.conv.weight268622579/quantized/to_f16" type="Convert" version="opset1">
			<data destination_type="f16"/>
			<input>
				<port id="0">
					<dim>48</dim>
					<dim>116</dim>
					<dim>1</dim>
					<dim>1</dim>
				</port>
			</input>
			<output>
				<port id="1" precision="FP16">
					<dim>48</dim>
					<dim>116</dim>
					<dim>1</dim>
					<dim>1</dim>
				</port>
			</output>
		</layer>
		<layer id="456" name="1043/WithoutBiases/fq_weights_1/zero_point2714639773" type="Const" version="opset1">
			<data element_type="f16" offset="40554" shape="48,1,1,1" size="96"/>
			<output>
				<port id="0" precision="FP16">
					<dim>48</dim>
					<dim>1</dim>
					<dim>1</dim>
					<dim>1</dim>
				</port>
			</output>
		</layer>
		<layer id="457" name="1043/WithoutBiases/fq_weights_1/minus_zp" type="Subtract" version="opset1">
			<data auto_broadcast="numpy"/>
			<input>
				<port id="0">
					<dim>48</dim>
					<dim>116</dim>
					<dim>1</dim>
					<dim>1</dim>
				</port>
				<port id="1">
…
		<edge from-layer="3304" from-port="1" to-layer="3305" to-port="0"/>
		<edge from-layer="3178" from-port="0" to-layer="3305" to-port="1"/>
		<edge from-layer="3179" from-port="0" to-layer="3305" to-port="2"/>
		<edge from-layer="3180" from-port="0" to-layer="3305" to-port="3"/>
		<edge from-layer="3181" from-port="0" to-layer="3305" to-port="4"/>
		<edge from-layer="3306" from-port="0" to-layer="3307" to-port="0"/>
		<edge from-layer="3307" from-port="1" to-layer="3309" to-port="0"/>
		<edge from-layer="3308" from-port="0" to-layer="3309" to-port="1"/>
		<edge from-layer="3309" from-port="2" to-layer="3311" to-port="0"/>
		<edge from-layer="3310" from-port="0" to-layer="3311" to-port="1"/>
		<edge from-layer="3305" from-port="5" to-layer="3312" to-port="0"/>
		<edge from-layer="3311" from-port="2" to-layer="3312" to-port="1"/>
		<edge from-layer="3312" from-port="2" to-layer="3314" to-port="0"/>
		<edge from-layer="3313" from-port="0" to-layer="3314" to-port="1"/>
		<edge from-layer="3314" from-port="2" to-layer="3315" to-port="0"/>
		<edge from-layer="3315" from-port="1" to-layer="3318" to-port="0"/>
		<edge from-layer="3316" from-port="0" to-layer="3318" to-port="1"/>
		<edge from-layer="3317" from-port="0" to-layer="3318" to-port="2"/>
		<edge from-layer="3318" from-port="3" to-layer="3320" to-port="0"/>
		<edge from-layer="3319" from-port="0" to-layer="3320" to-port="1"/>
		<edge from-layer="3320" from-port="2" to-layer="3322" to-port="0"/>
		<edge from-layer="3321" from-port="0" to-layer="3322" to-port="1"/>
		<edge from-layer="3172" from-port="1" to-layer="3324" to-port="0"/>
		<edge from-layer="3322" from-port="2" to-layer="3325" to-port="0"/>
		<edge from-layer="3324" from-port="1" to-layer="3325" to-port="1"/>
		<edge from-layer="3323" from-port="0" to-layer="3325" to-port="2"/>
		<edge from-layer="3325" from-port="3" to-layer="3328" to-port="0"/>
		<edge from-layer="3326" from-port="0" to-layer="3328" to-port="1"/>
		<edge from-layer="3327" from-port="0" to-layer="3328" to-port="2"/>
		<edge from-layer="3177" from-port="3" to-layer="3329" to-port="0"/>
		<edge from-layer="3328" from-port="3" to-layer="3329" to-port="1"/>
		<edge from-layer="3329" from-port="2" to-layer="3330" to-port="0"/>
		<edge from-layer="3330" from-port="1" to-layer="3332" to-port="0"/>
		<edge from-layer="3331" from-port="0" to-layer="3332" to-port="1"/>
		<edge from-layer="3174" from-port="3" to-layer="3335" to-port="0"/>
		<edge from-layer="3333" from-port="0" to-layer="3335" to-port="1"/>
		<edge from-layer="3334" from-port="0" to-layer="3335" to-port="2"/>
		<edge from-layer="3325" from-port="3" to-layer="3338" to-port="0"/>
		<edge from-layer="3336" from-port="0" to-layer="3338" to-port="1"/>
		<edge from-layer="3337" from-port="0" to-layer="3338" to-port="2"/>
		<edge from-layer="3335" from-port="3" to-layer="3339" to-port="0"/>
		<edge from-layer="3338" from-port="3" to-layer="3339" to-port="1"/>
		<edge from-layer="3339" from-port="2" to-layer="3340" to-port="0"/>
		<edge from-layer="3340" from-port="1" to-layer="3342" to-port="0"/>
		<edge from-layer="3341" from-port="0" to-layer="3342" to-port="1"/>
		<edge from-layer="3174" from-port="3" to-layer="3345" to-port="0"/>
		<edge from-layer="3343" from-port="0" to-layer="3345" to-port="1"/>
		<edge from-layer="3344" from-port="0" to-layer="3345" to-port="2"/>
		<edge from-layer="3325" from-port="3" to-layer="3348" to-port="0"/>
		<edge from-layer="3346" from-port="0" to-layer="3348" to-port="1"/>
		<edge from-layer="3347" from-port="0" to-layer="3348" to-port="2"/>
		<edge from-layer="3345" from-port="3" to-layer="3349" to-port="0"/>
		<edge from-layer="3348" from-port="3" to-layer="3349" to-port="1"/>
		<edge from-layer="3349" from-port="2" to-layer="3350" to-port="0"/>
		<edge from-layer="3350" from-port="1" to-layer="3352" to-port="0"/>
		<edge from-layer="3351" from-port="0" to-layer="3352" to-port="1"/>
		<edge from-layer="3174" from-port="3" to-layer="3355" to-port="0"/>
		<edge from-layer="3353" from-port="0" to-layer="3355" to-port="1"/>
		<edge from-layer="3354" from-port="0" to-layer="3355" to-port="2"/>
		<edge from-layer="3325" from-port="3" to-layer="3358" to-port="0"/>
		<edge from-layer="3356" from-port="0" to-layer="3358" to-port="1"/>
		<edge from-layer="3357" from-port="0" to-layer="3358" to-port="2"/>
		<edge from-layer="3355" from-port="3" to-layer="3359" to-port="0"/>
		<edge from-layer="3358" from-port="3" to-layer="3359" to-port="1"/>
		<edge from-layer="3359" from-port="2" to-layer="3360" to-port="0"/>
		<edge from-layer="3360" from-port="1" to-layer="3362" to-port="0"/>
		<edge from-layer="3361" from-port="0" to-layer="3362" to-port="1"/>
		<edge from-layer="3332" from-port="2" to-layer="3363" to-port="0"/>
		<edge from-layer="3342" from-port="2" to-layer="3363" to-port="1"/>
		<edge from-layer="3352" from-port="2" to-layer="3363" to-port="2"/>
		<edge from-layer="3362" from-port="2" to-layer="3363" to-port="3"/>
		<edge from-layer="2566" from-port="3" to-layer="3366" to-port="0"/>
		<edge from-layer="3366" from-port="1" to-layer="3367" to-port="0"/>
		<edge from-layer="3364" from-port="0" to-layer="3368" to-port="0"/>
		<edge from-layer="3367" from-port="1" to-layer="3368" to-port="1"/>
		<edge from-layer="3365" from-port="0" to-layer="3368" to-port="2"/>
		<edge from-layer="3368" from-port="3" to-layer="3371" to-port="0"/>
		<edge from-layer="3369" from-port="0" to-layer="3371" to-port="1"/>
		<edge from-layer="3370" from-port="0" to-layer="3371" to-port="2"/>
		<edge from-layer="3396" from-port="0" to-layer="3397" to-port="0"/>
		<edge from-layer="3397" from-port="1" to-layer="3399" to-port="0"/>
		<edge from-layer="3398" from-port="0" to-layer="3399" to-port="1"/>
		<edge from-layer="3399" from-port="2" to-layer="3401" to-port="0"/>
		<edge from-layer="3400" from-port="0" to-layer="3401" to-port="1"/>
		<edge from-layer="2397" from-port="5" to-layer="3402" to-port="0"/>
		<edge from-layer="3401" from-port="2" to-layer="3402" to-port="1"/>
		<edge from-layer="3402" from-port="2" to-layer="3403" to-port="0"/>
		<edge from-layer="3395" from-port="0" to-layer="3403" to-port="1"/>
		<edge from-layer="3403" from-port="2" to-layer="3404" to-port="0"/>
		<edge from-layer="3404" from-port="1" to-layer="3405" to-port="0"/>
		<edge from-layer="3405" from-port="1" to-layer="3407" to-port="0"/>
		<edge from-layer="3406" from-port="0" to-layer="3407" to-port="1"/>
		<edge from-layer="3394" from-port="0" to-layer="3409" to-port="0"/>
		<edge from-layer="3407" from-port="2" to-layer="3409" to-port="1"/>
		<edge from-layer="3408" from-port="0" to-layer="3409" to-port="2"/>
		<edge from-layer="3403" from-port="2" to-layer="3414" to-port="0"/>
		<edge from-layer="3410" from-port="0" to-layer="3414" to-port="1"/>
		<edge from-layer="3411" from-port="0" to-layer="3414" to-port="2"/>
		<edge from-layer="3412" from-port="0" to-layer="3414" to-port="3"/>
		<edge from-layer="3413" from-port="0" to-layer="3414" to-port="4"/>
		<edge from-layer="3414" from-port="5" to-layer="3415" to-port="0"/>
		<edge from-layer="3409" from-port="3" to-layer="3415" to-port="1"/>
		<edge from-layer="3415" from-port="2" to-layer="3417" to-port="0"/>
		<edge from-layer="3416" from-port="0" to-layer="3417" to-port="1"/>
		<edge from-layer="3417" from-port="2" to-layer="3419" to-port="0"/>
		<edge from-layer="3418" from-port="0" to-layer="3419" to-port="1"/>
		<edge from-layer="3419" from-port="2" to-layer="3420" to-port="0"/>
		<edge from-layer="3420" from-port="1" to-layer="3421" to-port="0"/>
		<edge from-layer="3390" from-port="0" to-layer="3421" to-port="1"/>
		<edge from-layer="3391" from-port="0" to-layer="3421" to-port="2"/>
		<edge from-layer="3392" from-port="0" to-layer="3421" to-port="3"/>
		<edge from-layer="3393" from-port="0" to-layer="3421" to-port="4"/>
		<edge from-layer="3422" from-port="0" to-layer="3423" to-port="0"/>
		<edge from-layer="3423" from-port="1" to-layer="3425" to-port="0"/>
		<edge from-layer="3424" from-port="0" to-layer="3425" to-port="1"/>
		<edge from-layer="3425" from-port="2" to-layer="3427" to-port="0"/>
		<edge from-layer="3426" from-port="0" to-layer="3427" to-port="1"/>
		<edge from-layer="3421" from-port="5" to-layer="3428" to-port="0"/>
		<edge from-layer="3427" from-port="2" to-layer="3428" to-port="1"/>
		<edge from-layer="3428" from-port="2" to-layer="3429" to-port="0"/>
		<edge from-layer="3389" from-port="0" to-layer="3429" to-port="1"/>
		<edge from-layer="3429" from-port="2" to-layer="3430" to-port="0"/>
		<edge from-layer="3430" from-port="1" to-layer="3431" to-port="0"/>
		<edge from-layer="3431" from-port="1" to-layer="3433" to-port="0"/>
		<edge from-layer="3432" from-port="0" to-layer="3433" to-port="1"/>
		<edge from-layer="3388" from-port="0" to-layer="3435" to-port="0"/>
		<edge from-layer="3433" from-port="2" to-layer="3435" to-port="1"/>
		<edge from-layer="3434" from-port="0" to-layer="3435" to-port="2"/>
		<edge from-layer="3429" from-port="2" to-layer="3440" to-port="0"/>
		<edge from-layer="3436" from-port="0" to-layer="3440" to-port="1"/>
		<edge from-layer="3437" from-port="0" to-layer="3440" to-port="2"/>
		<edge from-layer="3438" from-port="0" to-layer="3440" to-port="3"/>
		<edge from-layer="3439" from-port="0" to-layer="3440" to-port="4"/>
		<edge from-layer="3440" from-port="5" to-layer="3441" to-port="0"/>
		<edge from-layer="3435" from-port="3" to-layer="3441" to-port="1"/>
		<edge from-layer="3441" from-port="2" to-layer="3443" to-port="0"/>
		<edge from-layer="3442" from-port="0" to-layer="3443" to-port="1"/>
		<edge from-layer="3443" from-port="2" to-layer="3445" to-port="0"/>
		<edge from-layer="3444" from-port="0" to-layer="3445" to-port="1"/>
		<edge from-layer="3445" from-port="2" to-layer="3446" to-port="0"/>
		<edge from-layer="3446" from-port="1" to-layer="3447" to-port="0"/>
		<edge from-layer="3384" from-port="0" to-layer="3447" to-port="1"/>
		<edge from-layer="3385" from-port="0" to-layer="3447" to-port="2"/>
		<edge from-layer="3386" from-port="0" to-layer="3447" to-port="3"/>
		<edge from-layer="3387" from-port="0" to-layer="3447" to-port="4"/>
		<edge from-layer="3448" from-port="0" to-layer="3449" to-port="0"/>
		<edge from-layer="3449" from-port="1" to-layer="3451" to-port="0"/>
		<edge from-layer="3450" from-port="0" to-layer="3451" to-port="1"/>
		<edge from-layer="3451" from-port="2" to-layer="3453" to-port="0"/>
		<edge from-layer="3452" from-port="0" to-layer="3453" to-port="1"/>
		<edge from-layer="3447" from-port="5" to-layer="3454" to-port="0"/>
		<edge from-layer="3453" from-port="2" to-layer="3454" to-port="1"/>
		<edge from-layer="3454" from-port="2" to-layer="3455" to-port="0"/>
		<edge from-layer="3383" from-port="0" to-layer="3455" to-port="1"/>
		<edge from-layer="3455" from-port="2" to-layer="3456" to-port="0"/>
		<edge from-layer="3456" from-port="1" to-layer="3457" to-port="0"/>
		<edge from-layer="3457" from-port="1" to-layer="3459" to-port="0"/>
		<edge from-layer="3458" from-port="0" to-layer="3459" to-port="1"/>
		<edge from-layer="3382" from-port="0" to-layer="3461" to-port="0"/>
		<edge from-layer="3459" from-port="2" to-layer="3461" to-port="1"/>
		<edge from-layer="3460" from-port="0" to-layer="3461" to-port="2"/>
		<edge from-layer="3455" from-port="2" to-layer="3466" to-port="0"/>
		<edge from-layer="3462" from-port="0" to-layer="3466" to-port="1"/>
		<edge from-layer="3463" from-port="0" to-layer="3466" to-port="2"/>
		<edge from-layer="3464" from-port="0" to-layer="3466" to-port="3"/>
		<edge from-layer="3465" from-port="0" to-layer="3466" to-port="4"/>
		<edge from-layer="3466" from-port="5" to-layer="3467" to-port="0"/>
		<edge from-layer="3461" from-port="3" to-layer="3467" to-port="1"/>
		<edge from-layer="3467" from-port="2" to-layer="3469" to-port="0"/>
		<edge from-layer="3468" from-port="0" to-layer="3469" to-port="1"/>
		<edge from-layer="3469" from-port="2" to-layer="3471" to-port="0"/>
		<edge from-layer="3470" from-port="0" to-layer="3471" to-port="1"/>
		<edge from-layer="3471" from-port="2" to-layer="3472" to-port="0"/>
		<edge from-layer="3472" from-port="1" to-layer="3473" to-port="0"/>
		<edge from-layer="3378" from-port="0" to-layer="3473" to-port="1"/>
		<edge from-layer="3379" from-port="0" to-layer="3473" to-port="2"/>
		<edge from-layer="3380" from-port="0" to-layer="3473" to-port="3"/>
		<edge from-layer="3381" from-port="0" to-layer="3473" to-port="4"/>
		<edge from-layer="3474" from-port="0" to-layer="3475" to-port="0"/>
		<edge from-layer="3475" from-port="1" to-layer="3477" to-port="0"/>
		<edge from-layer="3476" from-port="0" to-layer="3477" to-port="1"/>
		<edge from-layer="3477" from-port="2" to-layer="3479" to-port="0"/>
		<edge from-layer="3478" from-port="0" to-layer="3479" to-port="1"/>
		<edge from-layer="3473" from-port="5" to-layer="3480" to-port="0"/>
		<edge from-layer="3479" from-port="2" to-layer="3480" to-port="1"/>
		<edge from-layer="3480" from-port="2" to-layer="3481" to-port="0"/>
		<edge from-layer="3377" from-port="0" to-layer="3481" to-port="1"/>
		<edge from-layer="3481" from-port="2" to-layer="3482" to-port="0"/>
		<edge from-layer="3482" from-port="1" to-layer="3483" to-port="0"/>
		<edge from-layer="3483" from-port="1" to-layer="3485" to-port="0"/>
		<edge from-layer="3484" from-port="0" to-layer="3485" to-port="1"/>
		<edge from-layer="3376" from-port="0" to-layer="3487" to-port="0"/>
		<edge from-layer="3485" from-port="2" to-layer="3487" to-port="1"/>
		<edge from-layer="3486" from-port="0" to-layer="3487" to-port="2"/>
		<edge from-layer="3481" from-port="2" to-layer="3492" to-port="0"/>
		<edge from-layer="3488" from-port="0" to-layer="3492" to-port="1"/>
		<edge from-layer="3489" from-port="0" to-layer="3492" to-port="2"/>
		<edge from-layer="3490" from-port="0" to-layer="3492" to-port="3"/>
		<edge from-layer="3491" from-port="0" to-layer="3492" to-port="4"/>
		<edge from-layer="3492" from-port="5" to-layer="3493" to-port="0"/>
		<edge from-layer="3487" from-port="3" to-layer="3493" to-port="1"/>
		<edge from-layer="3493" from-port="2" to-layer="3495" to-port="0"/>
		<edge from-layer="3494" from-port="0" to-layer="3495" to-port="1"/>
		<edge from-layer="3495" from-port="2" to-layer="3497" to-port="0"/>
		<edge from-layer="3496" from-port="0" to-layer="3497" to-port="1"/>
		<edge from-layer="3497" from-port="2" to-layer="3498" to-port="0"/>
		<edge from-layer="3498" from-port="1" to-layer="3499" to-port="0"/>
		<edge from-layer="3372" from-port="0" to-layer="3499" to-port="1"/>
		<edge from-layer="3373" from-port="0" to-layer="3499" to-port="2"/>
		<edge from-layer="3374" from-port="0" to-layer="3499" to-port="3"/>
		<edge from-layer="3375" from-port="0" to-layer="3499" to-port="4"/>
		<edge from-layer="3500" from-port="0" to-layer="3501" to-port="0"/>
		<edge from-layer="3501" from-port="1" to-layer="3503" to-port="0"/>
		<edge from-layer="3502" from-port="0" to-layer="3503" to-port="1"/>
		<edge from-layer="3503" from-port="2" to-layer="3505" to-port="0"/>
		<edge from-layer="3504" from-port="0" to-layer="3505" to-port="1"/>
		<edge from-layer="3499" from-port="5" to-layer="3506" to-port="0"/>
		<edge from-layer="3505" from-port="2" to-layer="3506" to-port="1"/>
		<edge from-layer="3506" from-port="2" to-layer="3508" to-port="0"/>
		<edge from-layer="3507" from-port="0" to-layer="3508" to-port="1"/>
		<edge from-layer="3508" from-port="2" to-layer="3509" to-port="0"/>
		<edge from-layer="3509" from-port="1" to-layer="3512" to-port="0"/>
		<edge from-layer="3510" from-port="0" to-layer="3512" to-port="1"/>
		<edge from-layer="3511" from-port="0" to-layer="3512" to-port="2"/>
		<edge from-layer="3512" from-port="3" to-layer="3514" to-port="0"/>
		<edge from-layer="3513" from-port="0" to-layer="3514" to-port="1"/>
		<edge from-layer="3514" from-port="2" to-layer="3516" to-port="0"/>
		<edge from-layer="3515" from-port="0" to-layer="3516" to-port="1"/>
		<edge from-layer="3366" from-port="1" to-layer="3518" to-port="0"/>
		<edge from-layer="3516" from-port="2" to-layer="3519" to-port="0"/>
		<edge from-layer="3518" from-port="1" to-layer="3519" to-port="1"/>
		<edge from-layer="3517" from-port="0" to-layer="3519" to-port="2"/>
		<edge from-layer="3519" from-port="3" to-layer="3522" to-port="0"/>
		<edge from-layer="3520" from-port="0" to-layer="3522" to-port="1"/>
		<edge from-layer="3521" from-port="0" to-layer="3522" to-port="2"/>
		<edge from-layer="3371" from-port="3" to-layer="3523" to-port="0"/>
		<edge from-layer="3522" from-port="3" to-layer="3523" to-port="1"/>
		<edge from-layer="3523" from-port="2" to-layer="3524" to-port="0"/>
		<edge from-layer="3524" from-port="1" to-layer="3526" to-port="0"/>
		<edge from-layer="3525" from-port="0" to-layer="3526" to-port="1"/>
		<edge from-layer="3368" from-port="3" to-layer="3529" to-port="0"/>
		<edge from-layer="3527" from-port="0" to-layer="3529" to-port="1"/>
		<edge from-layer="3528" from-port="0" to-layer="3529" to-port="2"/>
		<edge from-layer="3519" from-port="3" to-layer="3532" to-port="0"/>
		<edge from-layer="3530" from-port="0" to-layer="3532" to-port="1"/>
		<edge from-layer="3531" from-port="0" to-layer="3532" to-port="2"/>
		<edge from-layer="3529" from-port="3" to-layer="3533" to-port="0"/>
		<edge from-layer="3532" from-port="3" to-layer="3533" to-port="1"/>
		<edge from-layer="3533" from-port="2" to-layer="3534" to-port="0"/>
		<edge from-layer="3534" from-port="1" to-layer="3536" to-port="0"/>
		<edge from-layer="3535" from-port="0" to-layer="3536" to-port="1"/>
		<edge from-layer="3368" from-port="3" to-layer="3539" to-port="0"/>
		<edge from-layer="3537" from-port="0" to-layer="3539" to-port="1"/>
		<edge from-layer="3538" from-port="0" to-layer="3539" to-port="2"/>
		<edge from-layer="3519" from-port="3" to-layer="3542" to-port="0"/>
		<edge from-layer="3540" from-port="0" to-layer="3542" to-port="1"/>
		<edge from-layer="3541" from-port="0" to-layer="3542" to-port="2"/>
		<edge from-layer="3539" from-port="3" to-layer="3543" to-port="0"/>
		<edge from-layer="3542" from-port="3" to-layer="3543" to-port="1"/>
		<edge from-layer="3543" from-port="2" to-layer="3544" to-port="0"/>
		<edge from-layer="3544" from-port="1" to-layer="3546" to-port="0"/>
		<edge from-layer="3545" from-port="0" to-layer="3546" to-port="1"/>
		<edge from-layer="3368" from-port="3" to-layer="3549" to-port="0"/>
		<edge from-layer="3547" from-port="0" to-layer="3549" to-port="1"/>
		<edge from-layer="3548" from-port="0" to-layer="3549" to-port="2"/>
		<edge from-layer="3519" from-port="3" to-layer="3552" to-port="0"/>
		<edge from-layer="3550" from-port="0" to-layer="3552" to-port="1"/>
		<edge from-layer="3551" from-port="0" to-layer="3552" to-port="2"/>
		<edge from-layer="3549" from-port="3" to-layer="3553" to-port="0"/>
		<edge from-layer="3552" from-port="3" to-layer="3553" to-port="1"/>
		<edge from-layer="3553" from-port="2" to-layer="3554" to-port="0"/>
		<edge from-layer="3554" from-port="1" to-layer="3556" to-port="0"/>
		<edge from-layer="3555" from-port="0" to-layer="3556" to-port="1"/>
		<edge from-layer="3526" from-port="2" to-layer="3557" to-port="0"/>
		<edge from-layer="3536" from-port="2" to-layer="3557" to-port="1"/>
		<edge from-layer="3546" from-port="2" to-layer="3557" to-port="2"/>
		<edge from-layer="3556" from-port="2" to-layer="3557" to-port="3"/>
		<edge from-layer="2780" from-port="3" to-layer="3560" to-port="0"/>
		<edge from-layer="3560" from-port="1" to-layer="3561" to-port="0"/>
		<edge from-layer="3558" from-port="0" to-layer="3562" to-port="0"/>
		<edge from-layer="3561" from-port="1" to-layer="3562" to-port="1"/>
		<edge from-layer="3559" from-port="0" to-layer="3562" to-port="2"/>
		<edge from-layer="3562" from-port="3" to-layer="3565" to-port="0"/>
		<edge from-layer="3563" from-port="0" to-layer="3565" to-port="1"/>
		<edge from-layer="3564" from-port="0" to-layer="3565" to-port="2"/>
		<edge from-layer="3590" from-port="0" to-layer="3591" to-port="0"/>
		<edge from-layer="3591" from-port="1" to-layer="3593" to-port="0"/>
		<edge from-layer="3592" from-port="0" to-layer="3593" to-port="1"/>
		<edge from-layer="3593" from-port="2" to-layer="3595" to-port="0"/>
		<edge from-layer="3594" from-port="0" to-layer="3595" to-port="1"/>
		<edge from-layer="2611" from-port="5" to-layer="3596" to-port="0"/>
		<edge from-layer="3595" from-port="2" to-layer="3596" to-port="1"/>
		<edge from-layer="3596" from-port="2" to-layer="3597" to-port="0"/>
		<edge from-layer="3589" from-port="0" to-layer="3597" to-port="1"/>
		<edge from-layer="3597" from-port="2" to-layer="3598" to-port="0"/>
		<edge from-layer="3598" from-port="1" to-layer="3599" to-port="0"/>
		<edge from-layer="3599" from-port="1" to-layer="3601" to-port="0"/>
		<edge from-layer="3600" from-port="0" to-layer="3601" to-port="1"/>
		<edge from-layer="3588" from-port="0" to-layer="3603" to-port="0"/>
		<edge from-layer="3601" from-port="2" to-layer="3603" to-port="1"/>
		<edge from-layer="3602" from-port="0" to-layer="3603" to-port="2"/>
		<edge from-layer="3597" from-port="2" to-layer="3608" to-port="0"/>
		<edge from-layer="3604" from-port="0" to-layer="3608" to-port="1"/>
		<edge from-layer="3605" from-port="0" to-layer="3608" to-port="2"/>
		<edge from-layer="3606" from-port="0" to-layer="3608" to-port="3"/>
		<edge from-layer="3607" from-port="0" to-layer="3608" to-port="4"/>
		<edge from-layer="3608" from-port="5" to-layer="3609" to-port="0"/>
		<edge from-layer="3603" from-port="3" to-layer="3609" to-port="1"/>
		<edge from-layer="3609" from-port="2" to-layer="3611" to-port="0"/>
		<edge from-layer="3610" from-port="0" to-layer="3611" to-port="1"/>
		<edge from-layer="3611" from-port="2" to-layer="3613" to-port="0"/>
		<edge from-layer="3612" from-port="0" to-layer="3613" to-port="1"/>
		<edge from-layer="3613" from-port="2" to-layer="3614" to-port="0"/>
		<edge from-layer="3614" from-port="1" to-layer="3615" to-port="0"/>
		<edge from-layer="3584" from-port="0" to-layer="3615" to-port="1"/>
		<edge from-layer="3585" from-port="0" to-layer="3615" to-port="2"/>
		<edge from-layer="3586" from-port="0" to-layer="3615" to-port="3"/>
		<edge from-layer="3587" from-port="0" to-layer="3615" to-port="4"/>
		<edge from-layer="3616" from-port="0" to-layer="3617" to-port="0"/>
		<edge from-layer="3617" from-port="1" to-layer="3619" to-port="0"/>
		<edge from-layer="3618" from-port="0" to-layer="3619" to-port="1"/>
		<edge from-layer="3619" from-port="2" to-layer="3621" to-port="0"/>
		<edge from-layer="3620" from-port="0" to-layer="3621" to-port="1"/>
		<edge from-layer="3615" from-port="5" to-layer="3622" to-port="0"/>
		<edge from-layer="3621" from-port="2" to-layer="3622" to-port="1"/>
		<edge from-layer="3622" from-port="2" to-layer="3623" to-port="0"/>
		<edge from-layer="3583" from-port="0" to-layer="3623" to-port="1"/>
		<edge from-layer="3623" from-port="2" to-layer="3624" to-port="0"/>
		<edge from-layer="3624" from-port="1" to-layer="3625" to-port="0"/>
		<edge from-layer="3625" from-port="1" to-layer="3627" to-port="0"/>
		<edge from-layer="3626" from-port="0" to-layer="3627" to-port="1"/>
		<edge from-layer="3582" from-port="0" to-layer="3629" to-port="0"/>
		<edge from-layer="3627" from-port="2" to-layer="3629" to-port="1"/>
		<edge from-layer="3628" from-port="0" to-layer="3629" to-port="2"/>
		<edge from-layer="3623" from-port="2" to-layer="3634" to-port="0"/>
		<edge from-layer="3630" from-port="0" to-layer="3634" to-port="1"/>
		<edge from-layer="3631" from-port="0" to-layer="3634" to-port="2"/>
		<edge from-layer="3632" from-port="0" to-layer="3634" to-port="3"/>
		<edge from-layer="3633" from-port="0" to-layer="3634" to-port="4"/>
		<edge from-layer="3634" from-port="5" to-layer="3635" to-port="0"/>
		<edge from-layer="3629" from-port="3" to-layer="3635" to-port="1"/>
		<edge from-layer="3635" from-port="2" to-layer="3637" to-port="0"/>
		<edge from-layer="3636" from-port="0" to-layer="3637" to-port="1"/>
		<edge from-layer="3637" from-port="2" to-layer="3639" to-port="0"/>
		<edge from-layer="3638" from-port="0" to-layer="3639" to-port="1"/>
		<edge from-layer="3639" from-port="2" to-layer="3640" to-port="0"/>
		<edge from-layer="3640" from-port="1" to-layer="3641" to-port="0"/>
		<edge from-layer="3578" from-port="0" to-layer="3641" to-port="1"/>
		<edge from-layer="3579" from-port="0" to-layer="3641" to-port="2"/>
		<edge from-layer="3580" from-port="0" to-layer="3641" to-port="3"/>
		<edge from-layer="3581" from-port="0" to-layer="3641" to-port="4"/>
		<edge from-layer="3642" from-port="0" to-layer="3643" to-port="0"/>
		<edge from-layer="3643" from-port="1" to-layer="3645" to-port="0"/>
		<edge from-layer="3644" from-port="0" to-layer="3645" to-port="1"/>
		<edge from-layer="3645" from-port="2" to-layer="3647" to-port="0"/>
		<edge from-layer="3646" from-port="0" to-layer="3647" to-port="1"/>
		<edge from-layer="3641" from-port="5" to-layer="3648" to-port="0"/>
		<edge from-layer="3647" from-port="2" to-layer="3648" to-port="1"/>
		<edge from-layer="3648" from-port="2" to-layer="3649" to-port="0"/>
		<edge from-layer="3577" from-port="0" to-layer="3649" to-port="1"/>
		<edge from-layer="3649" from-port="2" to-layer="3650" to-port="0"/>
		<edge from-layer="3650" from-port="1" to-layer="3651" to-port="0"/>
		<edge from-layer="3651" from-port="1" to-layer="3653" to-port="0"/>
		<edge from-layer="3652" from-port="0" to-layer="3653" to-port="1"/>
		<edge from-layer="3576" from-port="0" to-layer="3655" to-port="0"/>
		<edge from-layer="3653" from-port="2" to-layer="3655" to-port="1"/>
		<edge from-layer="3654" from-port="0" to-layer="3655" to-port="2"/>
		<edge from-layer="3649" from-port="2" to-layer="3660" to-port="0"/>
		<edge from-layer="3656" from-port="0" to-layer="3660" to-port="1"/>
		<edge from-layer="3657" from-port="0" to-layer="3660" to-port="2"/>
		<edge from-layer="3658" from-port="0" to-layer="3660" to-port="3"/>
		<edge from-layer="3659" from-port="0" to-layer="3660" to-port="4"/>
		<edge from-layer="3660" from-port="5" to-layer="3661" to-port="0"/>
		<edge from-layer="3655" from-port="3" to-layer="3661" to-port="1"/>
		<edge from-layer="3661" from-port="2" to-layer="3663" to-port="0"/>
		<edge from-layer="3662" from-port="0" to-layer="3663" to-port="1"/>
		<edge from-layer="3663" from-port="2" to-layer="3665" to-port="0"/>
		<edge from-layer="3664" from-port="0" to-layer="3665" to-port="1"/>
		<edge from-layer="3665" from-port="2" to-layer="3666" to-port="0"/>
		<edge from-layer="3666" from-port="1" to-layer="3667" to-port="0"/>
		<edge from-layer="3572" from-port="0" to-layer="3667" to-port="1"/>
		<edge from-layer="3573" from-port="0" to-layer="3667" to-port="2"/>
		<edge from-layer="3574" from-port="0" to-layer="3667" to-port="3"/>
		<edge from-layer="3575" from-port="0" to-layer="3667" to-port="4"/>
		<edge from-layer="3668" from-port="0" to-layer="3669" to-port="0"/>
		<edge from-layer="3669" from-port="1" to-layer="3671" to-port="0"/>
		<edge from-layer="3670" from-port="0" to-layer="3671" to-port="1"/>
		<edge from-layer="3671" from-port="2" to-layer="3673" to-port="0"/>
		<edge from-layer="3672" from-port="0" to-layer="3673" to-port="1"/>
		<edge from-layer="3667" from-port="5" to-layer="3674" to-port="0"/>
		<edge from-layer="3673" from-port="2" to-layer="3674" to-port="1"/>
		<edge from-layer="3674" from-port="2" to-layer="3675" to-port="0"/>
		<edge from-layer="3571" from-port="0" to-layer="3675" to-port="1"/>
		<edge from-layer="3675" from-port="2" to-layer="3676" to-port="0"/>
		<edge from-layer="3676" from-port="1" to-layer="3677" to-port="0"/>
		<edge from-layer="3677" from-port="1" to-layer="3679" to-port="0"/>
		<edge from-layer="3678" from-port="0" to-layer="3679" to-port="1"/>
		<edge from-layer="3570" from-port="0" to-layer="3681" to-port="0"/>
		<edge from-layer="3679" from-port="2" to-layer="3681" to-port="1"/>
		<edge from-layer="3680" from-port="0" to-layer="3681" to-port="2"/>
		<edge from-layer="3675" from-port="2" to-layer="3686" to-port="0"/>
		<edge from-layer="3682" from-port="0" to-layer="3686" to-port="1"/>
		<edge from-layer="3683" from-port="0" to-layer="3686" to-port="2"/>
		<edge from-layer="3684" from-port="0" to-layer="3686" to-port="3"/>
		<edge from-layer="3685" from-port="0" to-layer="3686" to-port="4"/>
		<edge from-layer="3686" from-port="5" to-layer="3687" to-port="0"/>
		<edge from-layer="3681" from-port="3" to-layer="3687" to-port="1"/>
		<edge from-layer="3687" from-port="2" to-layer="3689" to-port="0"/>
		<edge from-layer="3688" from-port="0" to-layer="3689" to-port="1"/>
		<edge from-layer="3689" from-port="2" to-layer="3691" to-port="0"/>
		<edge from-layer="3690" from-port="0" to-layer="3691" to-port="1"/>
		<edge from-layer="3691" from-port="2" to-layer="3692" to-port="0"/>
		<edge from-layer="3692" from-port="1" to-layer="3693" to-port="0"/>
		<edge from-layer="3566" from-port="0" to-layer="3693" to-port="1"/>
		<edge from-layer="3567" from-port="0" to-layer="3693" to-port="2"/>
		<edge from-layer="3568" from-port="0" to-layer="3693" to-port="3"/>
		<edge from-layer="3569" from-port="0" to-layer="3693" to-port="4"/>
		<edge from-layer="3694" from-port="0" to-layer="3695" to-port="0"/>
		<edge from-layer="3695" from-port="1" to-layer="3697" to-port="0"/>
		<edge from-layer="3696" from-port="0" to-layer="3697" to-port="1"/>
		<edge from-layer="3697" from-port="2" to-layer="3699" to-port="0"/>
		<edge from-layer="3698" from-port="0" to-layer="3699" to-port="1"/>
		<edge from-layer="3693" from-port="5" to-layer="3700" to-port="0"/>
		<edge from-layer="3699" from-port="2" to-layer="3700" to-port="1"/>
		<edge from-layer="3700" from-port="2" to-layer="3702" to-port="0"/>
		<edge from-layer="3701" from-port="0" to-layer="3702" to-port="1"/>
		<edge from-layer="3702" from-port="2" to-layer="3703" to-port="0"/>
		<edge from-layer="3703" from-port="1" to-layer="3706" to-port="0"/>
		<edge from-layer="3704" from-port="0" to-layer="3706" to-port="1"/>
		<edge from-layer="3705" from-port="0" to-layer="3706" to-port="2"/>
		<edge from-layer="3706" from-port="3" to-layer="3708" to-port="0"/>
		<edge from-layer="3707" from-port="0" to-layer="3708" to-port="1"/>
		<edge from-layer="3708" from-port="2" to-layer="3710" to-port="0"/>
		<edge from-layer="3709" from-port="0" to-layer="3710" to-port="1"/>
		<edge from-layer="3560" from-port="1" to-layer="3712" to-port="0"/>
		<edge from-layer="3710" from-port="2" to-layer="3713" to-port="0"/>
		<edge from-layer="3712" from-port="1" to-layer="3713" to-port="1"/>
		<edge from-layer="3711" from-port="0" to-layer="3713" to-port="2"/>
		<edge from-layer="3713" from-port="3" to-layer="3716" to-port="0"/>
		<edge from-layer="3714" from-port="0" to-layer="3716" to-port="1"/>
		<edge from-layer="3715" from-port="0" to-layer="3716" to-port="2"/>
		<edge from-layer="3565" from-port="3" to-layer="3717" to-port="0"/>
		<edge from-layer="3716" from-port="3" to-layer="3717" to-port="1"/>
		<edge from-layer="3717" from-port="2" to-layer="3718" to-port="0"/>
		<edge from-layer="3718" from-port="1" to-layer="3720" to-port="0"/>
		<edge from-layer="3719" from-port="0" to-layer="3720" to-port="1"/>
		<edge from-layer="3562" from-port="3" to-layer="3723" to-port="0"/>
		<edge from-layer="3721" from-port="0" to-layer="3723" to-port="1"/>
		<edge from-layer="3722" from-port="0" to-layer="3723" to-port="2"/>
		<edge from-layer="3713" from-port="3" to-layer="3726" to-port="0"/>
		<edge from-layer="3724" from-port="0" to-layer="3726" to-port="1"/>
		<edge from-layer="3725" from-port="0" to-layer="3726" to-port="2"/>
		<edge from-layer="3723" from-port="3" to-layer="3727" to-port="0"/>
		<edge from-layer="3726" from-port="3" to-layer="3727" to-port="1"/>
		<edge from-layer="3727" from-port="2" to-layer="3728" to-port="0"/>
		<edge from-layer="3728" from-port="1" to-layer="3730" to-port="0"/>
		<edge from-layer="3729" from-port="0" to-layer="3730" to-port="1"/>
		<edge from-layer="3562" from-port="3" to-layer="3733" to-port="0"/>
		<edge from-layer="3731" from-port="0" to-layer="3733" to-port="1"/>
		<edge from-layer="3732" from-port="0" to-layer="3733" to-port="2"/>
		<edge from-layer="3713" from-port="3" to-layer="3736" to-port="0"/>
		<edge from-layer="3734" from-port="0" to-layer="3736" to-port="1"/>
		<edge from-layer="3735" from-port="0" to-layer="3736" to-port="2"/>
		<edge from-layer="3733" from-port="3" to-layer="3737" to-port="0"/>
		<edge from-layer="3736" from-port="3" to-layer="3737" to-port="1"/>
		<edge from-layer="3737" from-port="2" to-layer="3738" to-port="0"/>
		<edge from-layer="3738" from-port="1" to-layer="3740" to-port="0"/>
		<edge from-layer="3739" from-port="0" to-layer="3740" to-port="1"/>
		<edge from-layer="3562" from-port="3" to-layer="3743" to-port="0"/>
		<edge from-layer="3741" from-port="0" to-layer="3743" to-port="1"/>
		<edge from-layer="3742" from-port="0" to-layer="3743" to-port="2"/>
		<edge from-layer="3713" from-port="3" to-layer="3746" to-port="0"/>
		<edge from-layer="3744" from-port="0" to-layer="3746" to-port="1"/>
		<edge from-layer="3745" from-port="0" to-layer="3746" to-port="2"/>
		<edge from-layer="3743" from-port="3" to-layer="3747" to-port="0"/>
		<edge from-layer="3746" from-port="3" to-layer="3747" to-port="1"/>
		<edge from-layer="3747" from-port="2" to-layer="3748" to-port="0"/>
		<edge from-layer="3748" from-port="1" to-layer="3750" to-port="0"/>
		<edge from-layer="3749" from-port="0" to-layer="3750" to-port="1"/>
		<edge from-layer="3720" from-port="2" to-layer="3751" to-port="0"/>
		<edge from-layer="3730" from-port="2" to-layer="3751" to-port="1"/>
		<edge from-layer="3740" from-port="2" to-layer="3751" to-port="2"/>
		<edge from-layer="3750" from-port="2" to-layer="3751" to-port="3"/>
		<edge from-layer="2975" from-port="4" to-layer="3752" to-port="0"/>
		<edge from-layer="3169" from-port="4" to-layer="3752" to-port="1"/>
		<edge from-layer="3363" from-port="4" to-layer="3752" to-port="2"/>
		<edge from-layer="3557" from-port="4" to-layer="3752" to-port="3"/>
		<edge from-layer="3751" from-port="4" to-layer="3752" to-port="4"/>
		<edge from-layer="3752" from-port="5" to-layer="3754" to-port="0"/>
		<edge from-layer="3753" from-port="0" to-layer="3754" to-port="1"/>
		<edge from-layer="3754" from-port="2" to-layer="3756" to-port="0"/>
		<edge from-layer="3755" from-port="0" to-layer="3756" to-port="1"/>
		<edge from-layer="2784" from-port="1" to-layer="3758" to-port="0"/>
		<edge from-layer="1894" from-port="1" to-layer="3759" to-port="0"/>
		<edge from-layer="3758" from-port="1" to-layer="3759" to-port="1"/>
		<edge from-layer="3757" from-port="0" to-layer="3759" to-port="2"/>
		<edge from-layer="2978" from-port="1" to-layer="3761" to-port="0"/>
		<edge from-layer="2102" from-port="1" to-layer="3762" to-port="0"/>
		<edge from-layer="3761" from-port="1" to-layer="3762" to-port="1"/>
		<edge from-layer="3760" from-port="0" to-layer="3762" to-port="2"/>
		<edge from-layer="3172" from-port="1" to-layer="3764" to-port="0"/>
		<edge from-layer="2310" from-port="1" to-layer="3765" to-port="0"/>
		<edge from-layer="3764" from-port="1" to-layer="3765" to-port="1"/>
		<edge from-layer="3763" from-port="0" to-layer="3765" to-port="2"/>
		<edge from-layer="3366" from-port="1" to-layer="3767" to-port="0"/>
		<edge from-layer="2518" from-port="1" to-layer="3768" to-port="0"/>
		<edge from-layer="3767" from-port="1" to-layer="3768" to-port="1"/>
		<edge from-layer="3766" from-port="0" to-layer="3768" to-port="2"/>
		<edge from-layer="3560" from-port="1" to-layer="3770" to-port="0"/>
		<edge from-layer="2732" from-port="1" to-layer="3771" to-port="0"/>
		<edge from-layer="3770" from-port="1" to-layer="3771" to-port="1"/>
		<edge from-layer="3769" from-port="0" to-layer="3771" to-port="2"/>
		<edge from-layer="3759" from-port="3" to-layer="3772" to-port="0"/>
		<edge from-layer="3762" from-port="3" to-layer="3772" to-port="1"/>
		<edge from-layer="3765" from-port="3" to-layer="3772" to-port="2"/>
		<edge from-layer="3768" from-port="3" to-layer="3772" to-port="3"/>
		<edge from-layer="3771" from-port="3" to-layer="3772" to-port="4"/>
		<edge from-layer="2784" from-port="1" to-layer="3774" to-port="0"/>
		<edge from-layer="1911" from-port="1" to-layer="3775" to-port="0"/>
		<edge from-layer="3774" from-port="1" to-layer="3775" to-port="1"/>
		<edge from-layer="3773" from-port="0" to-layer="3775" to-port="2"/>
		<edge from-layer="2978" from-port="1" to-layer="3777" to-port="0"/>
		<edge from-layer="2119" from-port="1" to-layer="3778" to-port="0"/>
		<edge from-layer="3777" from-port="1" to-layer="3778" to-port="1"/>
		<edge from-layer="3776" from-port="0" to-layer="3778" to-port="2"/>
		<edge from-layer="3172" from-port="1" to-layer="3780" to-port="0"/>
		<edge from-layer="2327" from-port="1" to-layer="3781" to-port="0"/>
		<edge from-layer="3780" from-port="1" to-layer="3781" to-port="1"/>
		<edge from-layer="3779" from-port="0" to-layer="3781" to-port="2"/>
		<edge from-layer="3366" from-port="1" to-layer="3783" to-port="0"/>
		<edge from-layer="2535" from-port="1" to-layer="3784" to-port="0"/>
		<edge from-layer="3783" from-port="1" to-layer="3784" to-port="1"/>
		<edge from-layer="3782" from-port="0" to-layer="3784" to-port="2"/>
		<edge from-layer="3560" from-port="1" to-layer="3786" to-port="0"/>
		<edge from-layer="2749" from-port="1" to-layer="3787" to-port="0"/>
		<edge from-layer="3786" from-port="1" to-layer="3787" to-port="1"/>
		<edge from-layer="3785" from-port="0" to-layer="3787" to-port="2"/>
		<edge from-layer="3775" from-port="3" to-layer="3788" to-port="0"/>
		<edge from-layer="3778" from-port="3" to-layer="3788" to-port="1"/>
		<edge from-layer="3781" from-port="3" to-layer="3788" to-port="2"/>
		<edge from-layer="3784" from-port="3" to-layer="3788" to-port="3"/>
		<edge from-layer="3787" from-port="3" to-layer="3788" to-port="4"/>
		<edge from-layer="3788" from-port="5" to-layer="3789" to-port="0"/>
		<edge from-layer="3789" from-port="1" to-layer="3792" to-port="0"/>
		<edge from-layer="3790" from-port="0" to-layer="3792" to-port="1"/>
		<edge from-layer="3791" from-port="0" to-layer="3792" to-port="2"/>
		<edge from-layer="3792" from-port="3" to-layer="3794" to-port="0"/>
		<edge from-layer="3793" from-port="0" to-layer="3794" to-port="1"/>
		<edge from-layer="3794" from-port="2" to-layer="3796" to-port="0"/>
		<edge from-layer="3795" from-port="0" to-layer="3796" to-port="1"/>
		<edge from-layer="3788" from-port="5" to-layer="3797" to-port="0"/>
		<edge from-layer="3796" from-port="2" to-layer="3797" to-port="1"/>
		<edge from-layer="3772" from-port="5" to-layer="3798" to-port="0"/>
		<edge from-layer="3797" from-port="2" to-layer="3799" to-port="0"/>
		<edge from-layer="3798" from-port="1" to-layer="3799" to-port="1"/>
		<edge from-layer="3772" from-port="5" to-layer="3800" to-port="0"/>
		<edge from-layer="3799" from-port="2" to-layer="3800" to-port="1"/>
		<edge from-layer="3800" from-port="2" to-layer="3802" to-port="0"/>
		<edge from-layer="3801" from-port="0" to-layer="3802" to-port="1"/>
		<edge from-layer="3802" from-port="2" to-layer="3804" to-port="0"/>
		<edge from-layer="3803" from-port="0" to-layer="3804" to-port="1"/>
		<edge from-layer="3756" from-port="2" to-layer="3808" to-port="0"/>
		<edge from-layer="3804" from-port="2" to-layer="3808" to-port="1"/>
		<edge from-layer="3807" from-port="0" to-layer="3808" to-port="2"/>
		<edge from-layer="3805" from-port="0" to-layer="3808" to-port="3"/>
		<edge from-layer="3806" from-port="0" to-layer="3808" to-port="4"/>
		<edge from-layer="3808" from-port="5" to-layer="3811" to-port="0"/>
		<edge from-layer="3809" from-port="0" to-layer="3811" to-port="1"/>
		<edge from-layer="3810" from-port="0" to-layer="3811" to-port="2"/>
		<edge from-layer="3811" from-port="4" to-layer="3812" to-port="0"/>
		<edge from-layer="3756" from-port="2" to-layer="3814" to-port="0"/>
		<edge from-layer="3813" from-port="0" to-layer="3814" to-port="1"/>
		<edge from-layer="3756" from-port="2" to-layer="3816" to-port="0"/>
		<edge from-layer="3816" from-port="1" to-layer="3820" to-port="0"/>
		<edge from-layer="3817" from-port="0" to-layer="3820" to-port="1"/>
		<edge from-layer="3818" from-port="0" to-layer="3820" to-port="2"/>
		<edge from-layer="3819" from-port="0" to-layer="3820" to-port="3"/>
		<edge from-layer="3820" from-port="4" to-layer="3822" to-port="0"/>
		<edge from-layer="3821" from-port="0" to-layer="3822" to-port="1"/>
		<edge from-layer="3811" from-port="3" to-layer="3823" to-port="0"/>
		<edge from-layer="3822" from-port="2" to-layer="3823" to-port="1"/>
		<edge from-layer="3823" from-port="2" to-layer="3824" to-port="0"/>
		<edge from-layer="3811" from-port="5" to-layer="3824" to-port="1"/>
		<edge from-layer="3824" from-port="2" to-layer="3825" to-port="0"/>
		<edge from-layer="3814" from-port="2" to-layer="3826" to-port="0"/>
		<edge from-layer="3825" from-port="1" to-layer="3826" to-port="1"/>
		<edge from-layer="3815" from-port="0" to-layer="3826" to-port="2"/>
		<edge from-layer="3826" from-port="3" to-layer="3828" to-port="0"/>
		<edge from-layer="3827" from-port="0" to-layer="3828" to-port="1"/>
		<edge from-layer="3804" from-port="2" to-layer="3830" to-port="0"/>
		<edge from-layer="3829" from-port="0" to-layer="3830" to-port="1"/>
		<edge from-layer="3824" from-port="2" to-layer="3832" to-port="0"/>
		<edge from-layer="3830" from-port="2" to-layer="3833" to-port="0"/>
		<edge from-layer="3832" from-port="1" to-layer="3833" to-port="1"/>
		<edge from-layer="3831" from-port="0" to-layer="3833" to-port="2"/>
		<edge from-layer="3833" from-port="3" to-layer="3835" to-port="0"/>
		<edge from-layer="3834" from-port="0" to-layer="3835" to-port="1"/>
		<edge from-layer="3811" from-port="3" to-layer="3836" to-port="0"/>
		<edge from-layer="3836" from-port="1" to-layer="3838" to-port="0"/>
		<edge from-layer="3837" from-port="0" to-layer="3838" to-port="1"/>
		<edge from-layer="3828" from-port="2" to-layer="3839" to-port="0"/>
		<edge from-layer="3835" from-port="2" to-layer="3839" to-port="1"/>
		<edge from-layer="3838" from-port="2" to-layer="3839" to-port="2"/>
		<edge from-layer="3839" from-port="3" to-layer="3842" to-port="0"/>
		<edge from-layer="3840" from-port="0" to-layer="3842" to-port="1"/>
		<edge from-layer="3841" from-port="0" to-layer="3842" to-port="2"/>
		<edge from-layer="3842" from-port="3" to-layer="3844" to-port="0"/>
		<edge from-layer="3843" from-port="0" to-layer="3844" to-port="1"/>
		<edge from-layer="3844" from-port="2" to-layer="3846" to-port="0"/>
		<edge from-layer="3846" from-port="1" to-layer="3849" to-port="0"/>
		<edge from-layer="3847" from-port="0" to-layer="3849" to-port="1"/>
		<edge from-layer="3848" from-port="0" to-layer="3849" to-port="2"/>
		<edge from-layer="3849" from-port="3" to-layer="3851" to-port="0"/>
		<edge from-layer="3850" from-port="0" to-layer="3851" to-port="1"/>
		<edge from-layer="3845" from-port="0" to-layer="3852" to-port="0"/>
		<edge from-layer="3851" from-port="2" to-layer="3852" to-port="1"/>
		<edge from-layer="3852" from-port="2" to-layer="3853" to-port="0"/>
		<edge from-layer="3853" from-port="1" to-layer="3855" to-port="0"/>
		<edge from-layer="3855" from-port="1" to-layer="3856" to-port="0"/>
		<edge from-layer="3856" from-port="1" to-layer="3858" to-port="0"/>
		<edge from-layer="3857" from-port="0" to-layer="3858" to-port="1"/>
		<edge from-layer="3854" from-port="0" to-layer="3860" to-port="0"/>
		<edge from-layer="3858" from-port="2" to-layer="3860" to-port="1"/>
		<edge from-layer="3859" from-port="0" to-layer="3860" to-port="2"/>
		<edge from-layer="3853" from-port="1" to-layer="3861" to-port="0"/>
		<edge from-layer="3860" from-port="3" to-layer="3861" to-port="1"/>
		<edge from-layer="3861" from-port="2" to-layer="3862" to-port="0"/>
		<edge from-layer="3862" from-port="1" to-layer="3864" to-port="0"/>
		<edge from-layer="3863" from-port="0" to-layer="3864" to-port="1"/>
		<edge from-layer="3864" from-port="2" to-layer="3866" to-port="0"/>
		<edge from-layer="3865" from-port="0" to-layer="3866" to-port="1"/>
		<edge from-layer="3866" from-port="2" to-layer="3868" to-port="0"/>
		<edge from-layer="3867" from-port="0" to-layer="3868" to-port="1"/>
		<edge from-layer="3868" from-port="2" to-layer="3869" to-port="0"/>
		<edge from-layer="3844" from-port="2" to-layer="3870" to-port="0"/>
		<edge from-layer="3869" from-port="1" to-layer="3870" to-port="1"/>
		<edge from-layer="3870" from-port="2" to-layer="3871" to-port="0"/>
		<edge from-layer="3870" from-port="3" to-layer="3873" to-port="0"/>
		<edge from-layer="3873" from-port="1" to-layer="3874" to-port="0"/>
		<edge from-layer="3839" from-port="3" to-layer="3875" to-port="0"/>
		<edge from-layer="3874" from-port="1" to-layer="3875" to-port="1"/>
		<edge from-layer="3872" from-port="0" to-layer="3875" to-port="2"/>
		<edge from-layer="3875" from-port="3" to-layer="3879" to-port="0"/>
		<edge from-layer="3876" from-port="0" to-layer="3879" to-port="1"/>
		<edge from-layer="3877" from-port="0" to-layer="3879" to-port="2"/>
		<edge from-layer="3878" from-port="0" to-layer="3879" to-port="3"/>
		<edge from-layer="3879" from-port="4" to-layer="3880" to-port="0"/>
	</edges>
	<meta_data>
		<MO_version value="custom_HEAD_149c43044cb1e8ed8cd4f3f196b23f7b3f129a36"/>
		<cli_parameters>
			<caffe_parser_path value="DIR"/>
			<data_type value="FP16"/>
			<disable_nhwc_to_nchw value="False"/>
			<disable_omitting_optional value="False"/>
			<disable_resnet_optimization value="False"/>
			<disable_weights_compression value="False"/>
			<enable_concat_optimization value="False"/>
			<enable_flattening_nested_params value="False"/>
			<enable_ssd_gluoncv value="False"/>
			<extensions value="DIR"/>
			<framework value="onnx"/>
			<freeze_placeholder_with_value value="{}"/>
			<generate_deprecated_IR_V7 value="False"/>
			<input value="image"/>
			<input_model value="DIR/person-detection-asl-0001.onnx"/>
			<input_model_is_text value="False"/>
			<input_shape value="[1,3,320,320]"/>
			<k value="DIR/CustomLayersMapping.xml"/>
			<keep_shape_ops value="True"/>
			<legacy_ir_generation value="False"/>
			<legacy_mxnet_model value="False"/>
			<log_level value="ERROR"/>
			<mean_scale_values value="{'image': {'mean': array([123.675, 116.28 , 103.53 ]), 'scale': array([58.395, 57.12 , 57.375])}}"/>
			<mean_values value="image[123.675,116.28,103.53]"/>
			<model_name value="person-detection-asl-0001"/>
			<output value="['boxes']"/>
			<output_dir value="DIR"/>
			<placeholder_data_types value="{}"/>
			<placeholder_shapes value="{'image': array([  1,   3, 320, 320])}"/>
			<progress value="False"/>
			<remove_memory value="False"/>
			<remove_output_softmax value="False"/>
			<reverse_input_channels value="True"/>
			<save_params_from_nd value="False"/>
			<scale_values value="image[58.395,57.12,57.375]"/>
			<silent value="False"/>
			<static_shape value="False"/>
			<stream_output value="False"/>
			<transform value=""/>
			<unset unset_cli_parameters="batch, counts, disable_fusing, disable_gfusing, finegrain_fusing, input_checkpoint, input_meta_graph, input_proto, input_symbol, mean_file, mean_file_offsets, move_to_preprocess, nd_prefix_name, pretrained_model_name, saved_model_dir, saved_model_tags, scale, tensorboard_logdir, tensorflow_custom_layer_libraries, tensorflow_custom_operations_config_update, tensorflow_object_detection_api_pipeline_config, tensorflow_use_custom_operations_config, transformations_config"/>
		</cli_parameters>
	</meta_data>
	<quantization_parameters>
		<config>{
		'compression': {
			'algorithms': [
				{
					'name': 'DefaultQuantization',
					'params': {
						'num_samples_for_tuning': 2000,
						'preset': 'performance',
						'stat_subset_size': 300,
						'use_fast_bias': false,
						'use_layerwise_tuning': false
					}
				}
			],
			'dump_intermediate_model': true,
			'target_device': 'ANY'
		},
		'engine': {
			'models': [
				{
					'name': 'person-detection-asl-0001',
					'launchers': [
						{
							'framework': 'dlsdk',
							'adapter': {
								'type': 'class_agnostic_detection',
								'scale': 0.003125
							},
							'device': 'CPU'
						}
					],
					'datasets': [
						{
							'name': 'mscoco_person_detection',
							'data_source': 'PATH',
							'annotation_conversion': {
								'converter': 'mscoco_detection',
								'annotation_file': 'PATH',
								'has_background': true,
								'sort_annotations': true,
								'use_full_label_map': true
							},
							'annotation': 'PATH',
							'dataset_meta': 'PATH',
							'preprocessing': [
								{
									'type': 'resize',
									'size': 320
								}
							],
							'postprocessing': [
								{
									'type': 'resize_prediction_boxes'
								},
								{
									'type': 'filter',
									'apply_to': 'annotation',
									'height_range': 100,
									'aspect_ratio': '0.666, 5',
									'is_empty': true,
									'min_visibility': 'partially occluded'
								},
								{
									'type': 'filter',
									'apply_to': 'prediction',
									'height_range': 100,
									'is_empty': true,
									'aspect_ratio': '0.666, 5'
								}
							],
							'metrics': [
								{
									'type': 'map',
									'ignore_difficult': true,
									'include_boundaries': true,
									'allow_multiple_matches_per_ignored': false,
									'distinct_conf': false
								}
							],
							'_command_line_mapping': {
								'annotation_file': 'PATH'
							}
						}
					]
				}
			],
			'stat_requests_number': null,
			'eval_requests_number': null,
			'type': 'accuracy_checker'
		}
	}</config>
		<version value="1.0"/>
		<cli_params value="{'quantize': None, 'preset': None, 'model': None, 'weights': None, 'name': None, 'ac_config': None, 'max_drop': None, 'evaluate': False, 'output_dir': 'PATH', 'direct_dump': True, 'log_level': 'INFO', 'pbar': False, 'stream_output': False, 'keep_uncompressed_weights': False}"/>
	</quantization_parameters>
</net>
