<?xml version="1.0" ?>
<net name="person-detection-asl-0001" version="10">
	<layers>
		<layer id="0" name="image" type="Parameter" version="opset1">
			<data element_type="f32" shape="1, 3, 320, 320"/>
			<output>
				<port id="0" names="image" precision="FP32">
					<dim>1</dim>
					<dim>3</dim>
					<dim>320</dim>
					<dim>320</dim>
				</port>
			</output>
		</layer>
		<layer id="1" name="1260" type="Const" version="opset1">
			<data element_type="f32" offset="0" shape="1600, 2" size="12800"/>
			<output>
				<port id="0" names="1260" precision="FP32">
					<dim>1600</dim>
					<dim>2</dim>
				</port>
			</output>
		</layer>
		<layer id="2" name="data_mul_38052" type="Const" version="opset1">
			<data element_type="f32" offset="12800" shape="1, 3, 1, 1" size="12"/>
			<output>
				<port id="0" precision="FP32">
					<dim>1</dim>
					<dim>3</dim>
					<dim>1</dim>
					<dim>1</dim>
				</port>
			</output>
		</layer>
		<layer id="3" name="image/scale/Fused_Mul_" type="Multiply" version="opset1">
			<data auto_broadcast="numpy"/>
			<input>
				<port id="0" precision="FP32">
					<dim>1</dim>
					<dim>3</dim>
					<dim>320</dim>
					<dim>320</dim>
				</port>
				<port id="1" precision="FP32">
					<dim>1</dim>
					<dim>3</dim>
					<dim>1</dim>
					<dim>1</dim>
				</port>
			</input>
			<output>
				<port id="2" precision="FP32">
					<dim>1</dim>
					<dim>3</dim>
					<dim>320</dim>
					<dim>320</dim>
				</port>
			</output>
		</layer>
		<layer id="4" name="data_add_38054" type="Const" version="opset1">
			<data element_type="f32" offset="12812" shape="1, 3, 1, 1" size="12"/>
			<output>
				<port id="0" precision="FP32">
					<dim>1</dim>
					<dim>3</dim>
					<dim>1</dim>
					<dim>1</dim>
				</port>
			</output>
		</layer>
		<layer id="5" name="image/mean/Fused_Add_" type="Add" version="opset1">
			<data auto_broadcast="numpy"/>
			<input>
				<port id="0" precision="FP32">
					<dim>1</dim>
					<dim>3</dim>
					<dim>320</dim>
					<dim>320</dim>
				</port>
				<port id="1" precision="FP32">
					<dim>1</dim>
					<dim>3</dim>
					<dim>1</dim>
					<dim>1</dim>
				</port>
			</input>
			<output>
				<port id="2" precision="FP32">
					<dim>1</dim>
					<dim>3</dim>
					<dim>320</dim>
					<dim>320</dim>
				</port>
			</output>
		</layer>
		<layer id="6" name="391/mean/Fused_Mul__copy" type="Const" version="opset1">
			<data element_type="f32" offset="12824" shape="24, 3, 3, 3" size="2592"/>
			<output>
				<port id="0" names="backbone.features.init_block.conv.conv.weight" precision="FP32">
					<dim>24</dim>
					<dim>3</dim>
					<dim>3</dim>
					<dim>3</dim>
				</port>
			</output>
		</layer>
		<layer id="7" name="390" type="Convolution" version="opset1">
			<data auto_pad="explicit" dilations="1, 1" pads_begin="1, 1" pads_end="1, 1" strides="2, 2"/>
			<input>
				<port id="0" precision="FP32">
					<dim>1</dim>
					<dim>3</dim>
					<dim>320</dim>
					<dim>320</dim>
				</port>
				<port id="1" precision="FP32">
					<dim>24</dim>
					<dim>3</dim>
					<dim>3</dim>
					<dim>3</dim>
				</port>
			</input>
			<output>
				<port id="2" precision="FP32">
					<dim>1</dim>
					<dim>24</dim>
					<dim>160</dim>
					<dim>160</dim>
				</port>
			</output>
		</layer>
		<layer id="8" name="data_add_3805738062" type="Const" version="opset1">
			<data element_type="f32" offset="15416" shape="1, 24, 1, 1" size="96"/>
			<output>
				<port id="0" precision="FP32">
					<dim>1</dim>
					<dim>24</dim>
					<dim>1</dim>
					<dim>1</dim>
				</port>
			</output>
		</layer>
		<layer id="9" name="391/variance/Fused_Add_" type="Add" version="opset1">
			<data auto_broadcast="numpy"/>
			<input>
				<port id="0" precision="FP32">
					<dim>1</dim>
					<dim>24</dim>
					<dim>160</dim>
					<dim>160</dim>
				</port>
				<port id="1" precision="FP32">
					<dim>1</dim>
					<dim>24</dim>
					<dim>1</dim>
					<dim>1</dim>
				</port>
			</input>
			<output>
				<port id="2" names="391" precision="FP32">
					<dim>1</dim>
					<dim>24</dim>
					<dim>160</dim>
					<dim>160</dim>
				</port>
			</output>
		</layer>
		<layer id="10" name="392" type="ReLU" version="opset1">
			<input>
				<port id="0" precision="FP32">
					<dim>1</dim>
					<dim>24</dim>
					<dim>160</dim>
					<dim>160</dim>
				</port>
			</input>
			<output>
				<port id="1" names="392" precision="FP32">
					<dim>1</dim>
					<dim>24</dim>
					<dim>160</dim>
					<dim>160</dim>
				</port>
			</output>
		</layer>
		<layer id="11" name="393" type="MaxPool" version="opset1">
			<data auto_pad="explicit" kernel="3, 3" pads_begin="0, 0" pads_end="0, 0" rounding_type="ceil" strides="2, 2"/>
			<input>
				<port id="0" precision="FP32">
					<dim>1</dim>
					<dim>24</dim>
					<dim>160</dim>
					<dim>160</dim>
				</port>
			</input>
			<output>
				<port id="1" names="393" precision="FP32">
					<dim>1</dim>
					<dim>24</dim>
					<dim>80</dim>
					<dim>80</dim>
				</port>
			</output>
		</layer>
		<layer id="12" name="395/mean/Fused_Mul__copy" type="Const" version="opset1">
			<data element_type="f32" offset="15512" shape="24, 1, 1, 3, 3" size="864"/>
			<output>
				<port id="0" names="backbone.features.stage1.unit1.dw_conv4.weight" precision="FP32">
					<dim>24</dim>
					<dim>1</dim>
					<dim>1</dim>
					<dim>3</dim>
					<dim>3</dim>
				</port>
			</output>
		</layer>
		<layer id="13" name="394" type="GroupConvolution" version="opset1">
			<data auto_pad="explicit" dilations="1, 1" pads_begin="1, 1" pads_end="1, 1" strides="2, 2"/>
			<input>
				<port id="0" precision="FP32">
					<dim>1</dim>
					<dim>24</dim>
					<dim>80</dim>
					<dim>80</dim>
				</port>
				<port id="1" precision="FP32">
					<dim>24</dim>
					<dim>1</dim>
					<dim>1</dim>
					<dim>3</dim>
					<dim>3</dim>
				</port>
			</input>
			<output>
				<port id="2" precision="FP32">
					<dim>1</dim>
					<dim>24</dim>
					<dim>40</dim>
					<dim>40</dim>
				</port>
			</output>
		</layer>
		<layer id="14" name="data_add_3808938094" type="Const" version="opset1">
			<data element_type="f32" offset="16376" shape="1, 24, 1, 1" size="96"/>
			<output>
				<port id="0" precision="FP32">
					<dim>1</dim>
					<dim>24</dim>
					<dim>1</dim>
					<dim>1</dim>
				</port>
			</output>
		</layer>
		<layer id="15" name="395/variance/Fused_Add_" type="Add" version="opset1">
			<data auto_broadcast="numpy"/>
			<input>
				<port id="0" precision="FP32">
					<dim>1</dim>
					<dim>24</dim>
					<dim>40</dim>
					<dim>40</dim>
				</port>
				<port id="1" precision="FP32">
					<dim>1</dim>
					<dim>24</dim>
					<dim>1</dim>
					<dim>1</dim>
				</port>
			</input>
			<output>
				<port id="2" names="395" precision="FP32">
					<dim>1</dim>
					<dim>24</dim>
					<dim>40</dim>
					<dim>40</dim>
				</port>
			</output>
		</layer>
		<layer id="16" name="397/mean/Fused_Mul__copy" type="Const" version="opset1">
			<data element_type="f32" offset="16472" shape="58, 24, 1, 1" size="5568"/>
			<output>
				<port id="0" names="backbone.features.stage1.unit1.expand_conv5.weight" precision="FP32">
					<dim>58</dim>
					<dim>24</dim>
					<dim>1</dim>
					<dim>1</dim>
				</port>
			</output>
		</layer>
		<layer id="17" name="396" type="Convolution" version="opset1">
			<data auto_pad="explicit" dilations="1, 1" pads_begin="0, 0" pads_end="0, 0" strides="1, 1"/>
			<input>
				<port id="0" precision="FP32">
					<dim>1</dim>
					<dim>24</dim>
					<dim>40</dim>
					<dim>40</dim>
				</port>
				<port id="1" precision="FP32">
					<dim>58</dim>
					<dim>24</dim>
					<dim>1</dim>
					<dim>1</dim>
				</port>
			</input>
			<output>
				<port id="2" precision="FP32">
					<dim>1</dim>
					<dim>58</dim>
					<dim>40</dim>
					<dim>40</dim>
				</port>
			</output>
		</layer>
		<layer id="18" name="data_add_3809738102" type="Const" version="opset1">
			<data element_type="f32" offset="22040" shape="1, 58, 1, 1" size="232"/>
			<output>
				<port id="0" precision="FP32">
					<dim>1</dim>
					<dim>58</dim>
					<dim>1</dim>
					<dim>1</dim>
				</port>
			</output>
		</layer>
		<layer id="19" name="397/variance/Fused_Add_" type="Add" version="opset1">
			<data auto_broadcast="numpy"/>
			<input>
				<port id="0" precision="FP32">
					<dim>1</dim>
					<dim>58</dim>
					<dim>40</dim>
					<dim>40</dim>
				</port>
				<port id="1" precision="FP32">
					<dim>1</dim>
					<dim>58</dim>
					<dim>1</dim>
					<dim>1</dim>
				</port>
			</input>
			<output>
				<port id="2" names="397" precision="FP32">
					<dim>1</dim>
					<dim>58</dim>
					<dim>40</dim>
					<dim>40</dim>
				</port>
			</output>
		</layer>
		<layer id="20" name="398" type="ReLU" version="opset1">
			<input>
				<port id="0" precision="FP32">
					<dim>1</dim>
					<dim>58</dim>
					<dim>40</dim>
					<dim>40</dim>
				</port>
			</input>
			<output>
				<port id="1" names="398" precision="FP32">
					<dim>1</dim>
					<dim>58</dim>
					<dim>40</dim>
					<dim>40</dim>
				</port>
			</output>
		</layer>
		<layer id="21" name="400/mean/Fused_Mul__copy" type="Const" version="opset1">
			<data element_type="f32" offset="22272" shape="58, 24, 1, 1" size="5568"/>
			<output>
				<port id="0" names="backbone.features.stage1.unit1.compress_conv1.weight" precision="FP32">
					<dim>58</dim>
					<dim>24</dim>
					<dim>1</dim>
					<dim>1</dim>
				</port>
			</output>
		</layer>
		<layer id="22" name="399" type="Convolution" version="opset1">
			<data auto_pad="explicit" dilations="1, 1" pads_begin="0, 0" pads_end="0, 0" strides="1, 1"/>
			<input>
				<port id="0" precision="FP32">
					<dim>1</dim>
					<dim>24</dim>
					<dim>80</dim>
					<dim>80</dim>
				</port>
				<port id="1" precision="FP32">
					<dim>58</dim>
					<dim>24</dim>
					<dim>1</dim>
					<dim>1</dim>
				</port>
			</input>
			<output>
				<port id="2" precision="FP32">
					<dim>1</dim>
					<dim>58</dim>
					<dim>80</dim>
					<dim>80</dim>
				</port>
			</output>
		</layer>
		<layer id="23" name="data_add_3806538070" type="Const" version="opset1">
			<data element_type="f32" offset="27840" shape="1, 58, 1, 1" size="232"/>
			<output>
				<port id="0" precision="FP32">
					<dim>1</dim>
					<dim>58</dim>
					<dim>1</dim>
					<dim>1</dim>
				</port>
			</output>
		</layer>
		<layer id="24" name="400/variance/Fused_Add_" type="Add" version="opset1">
			<data auto_broadcast="numpy"/>
			<input>
				<port id="0" precision="FP32">
					<dim>1</dim>
					<dim>58</dim>
					<dim>80</dim>
					<dim>80</dim>
				</port>
				<port id="1" precision="FP32">
					<dim>1</dim>
					<dim>58</dim>
					<dim>1</dim>
					<dim>1</dim>
				</port>
			</input>
			<output>
				<port id="2" names="400" precision="FP32">
					<dim>1</dim>
					<dim>58</dim>
					<dim>80</dim>
					<dim>80</dim>
				</port>
			</output>
		</layer>
		<layer id="25" name="401" type="ReLU" version="opset1">
			<input>
				<port id="0" precision="FP32">
					<dim>1</dim>
					<dim>58</dim>
					<dim>80</dim>
					<dim>80</dim>
				</port>
			</input>
			<output>
				<port id="1" names="401" precision="FP32">
					<dim>1</dim>
					<dim>58</dim>
					<dim>80</dim>
					<dim>80</dim>
				</port>
			</output>
		</layer>
		<layer id="26" name="403/mean/Fused_Mul__copy" type="Const" version="opset1">
			<data element_type="f32" offset="28072" shape="58, 1, 1, 3, 3" size="2088"/>
			<output>
				<port id="0" names="backbone.features.stage1.unit1.dw_conv2.weight" precision="FP32">
					<dim>58</dim>
					<dim>1</dim>
					<dim>1</dim>
					<dim>3</dim>
					<dim>3</dim>
				</port>
			</output>
		</layer>
		<layer id="27" name="402" type="GroupConvolution" version="opset1">
			<data auto_pad="explicit" dilations="1, 1" pads_begin="1, 1" pads_end="1, 1" strides="2, 2"/>
			<input>
				<port id="0" precision="FP32">
					<dim>1</dim>
					<dim>58</dim>
					<dim>80</dim>
					<dim>80</dim>
				</port>
				<port id="1" precision="FP32">
					<dim>58</dim>
					<dim>1</dim>
					<dim>1</dim>
					<dim>3</dim>
					<dim>3</dim>
				</port>
			</input>
			<output>
				<port id="2" precision="FP32">
					<dim>1</dim>
					<dim>58</dim>
					<dim>40</dim>
					<dim>40</dim>
				</port>
			</output>
		</layer>
		<layer id="28" name="data_add_3807338078" type="Const" version="opset1">
			<data element_type="f32" offset="30160" shape="1, 58, 1, 1" size="232"/>
			<output>
				<port id="0" precision="FP32">
					<dim>1</dim>
					<dim>58</dim>
					<dim>1</dim>
					<dim>1</dim>
				</port>
			</output>
		</layer>
		<layer id="29" name="403/variance/Fused_Add_" type="Add" version="opset1">
			<data auto_broadcast="numpy"/>
			<input>
				<port id="0" precision="FP32">
					<dim>1</dim>
					<dim>58</dim>
					<dim>40</dim>
					<dim>40</dim>
				</port>
				<port id="1" precision="FP32">
					<dim>1</dim>
					<dim>58</dim>
					<dim>1</dim>
					<dim>1</dim>
				</port>
			</input>
			<output>
				<port id="2" names="403" precision="FP32">
					<dim>1</dim>
					<dim>58</dim>
					<dim>40</dim>
					<dim>40</dim>
				</port>
			</output>
		</layer>
		<layer id="30" name="405/mean/Fused_Mul__copy" type="Const" version="opset1">
			<data element_type="f32" offset="30392" shape="58, 58, 1, 1" size="13456"/>
			<output>
				<port id="0" names="backbone.features.stage1.unit1.expand_conv3.weight" precision="FP32">
					<dim>58</dim>
					<dim>58</dim>
					<dim>1</dim>
					<dim>1</dim>
				</port>
			</output>
		</layer>
		<layer id="31" name="404" type="Convolution" version="opset1">
			<data auto_pad="explicit" dilations="1, 1" pads_begin="0, 0" pads_end="0, 0" strides="1, 1"/>
			<input>
				<port id="0" precision="FP32">
					<dim>1</dim>
					<dim>58</dim>
					<dim>40</dim>
					<dim>40</dim>
				</port>
				<port id="1" precision="FP32">
					<dim>58</dim>
					<dim>58</dim>
					<dim>1</dim>
					<dim>1</dim>
				</port>
			</input>
			<output>
				<port id="2" precision="FP32">
					<dim>1</dim>
					<dim>58</dim>
					<dim>40</dim>
					<dim>40</dim>
				</port>
			</output>
		</layer>
		<layer id="32" name="data_add_3808138086" type="Const" version="opset1">
			<data element_type="f32" offset="43848" shape="1, 58, 1, 1" size="232"/>
			<output>
				<port id="0" precision="FP32">
					<dim>1</dim>
					<dim>58</dim>
					<dim>1</dim>
					<dim>1</dim>
				</port>
			</output>
		</layer>
		<layer id="33" name="405/variance/Fused_Add_" type="Add" version="opset1">
			<data auto_broadcast="numpy"/>
			<input>
				<port id="0" precision="FP32">
					<dim>1</dim>
					<dim>58</dim>
					<dim>40</dim>
					<dim>40</dim>
				</port>
				<port id="1" precision="FP32">
					<dim>1</dim>
					<dim>58</dim>
					<dim>1</dim>
					<dim>1</dim>
				</port>
			</input>
			<output>
				<port id="2" names="405" precision="FP32">
					<dim>1</dim>
					<dim>58</dim>
					<dim>40</dim>
					<dim>40</dim>
				</port>
			</output>
		</layer>
		<layer id="34" name="406" type="ReLU" version="opset1">
			<input>
				<port id="0" precision="FP32">
					<dim>1</dim>
					<dim>58</dim>
					<dim>40</dim>
					<dim>40</dim>
				</port>
			</input>
			<output>
				<port id="1" names="406" precision="FP32">
					<dim>1</dim>
					<dim>58</dim>
					<dim>40</dim>
					<dim>40</dim>
				</port>
			</output>
		</layer>
		<layer id="35" name="407" type="Concat" version="opset1">
			<data axis="1"/>
			<input>
				<port id="0" precision="FP32">
					<dim>1</dim>
					<dim>58</dim>
					<dim>40</dim>
					<dim>40</dim>
				</port>
				<port id="1" precision="FP32">
					<dim>1</dim>
					<dim>58</dim>
					<dim>40</dim>
					<dim>40</dim>
				</port>
			</input>
			<output>
				<port id="2" names="407" precision="FP32">
					<dim>1</dim>
					<dim>116</dim>
					<dim>40</dim>
					<dim>40</dim>
				</port>
			</output>
		</layer>
		<layer id="36" name="409" type="ShapeOf" version="opset3">
			<data output_type="i64"/>
			<input>
				<port id="0" precision="FP32">
					<dim>1</dim>
					<dim>116</dim>
					<dim>40</dim>
					<dim>40</dim>
				</port>
			</input>
			<output>
				<port id="1" names="409" precision="I64">
					<dim>4</dim>
				</port>
			</output>
		</layer>
		<layer id="37" name="408" type="Const" version="opset1">
			<data element_type="i32" offset="44080" shape="" size="4"/>
			<output>
				<port id="0" names="408" precision="I32"/>
			</output>
		</layer>
		<layer id="38" name="410/axis" type="Const" version="opset1">
			<data element_type="i64" offset="44084" shape="" size="8"/>
			<output>
				<port id="0" precision="I64"/>
			</output>
		</layer>
		<layer id="39" name="4102918" type="Gather" version="opset7">
			<data batch_dims="0"/>
			<input>
				<port id="0" precision="I64">
					<dim>4</dim>
				</port>
				<port id="1" precision="I32"/>
				<port id="2" precision="I64"/>
			</input>
			<output>
				<port id="3" names="410" precision="I64"/>
			</output>
		</layer>
		<layer id="40" name="423/Dims" type="Const" version="opset1">
			<data element_type="i64" offset="44084" shape="1" size="8"/>
			<output>
				<port id="0" precision="I64">
					<dim>1</dim>
				</port>
			</output>
		</layer>
		<layer id="41" name="423/Unsqueeze" type="Unsqueeze" version="opset1">
			<input>
				<port id="0" precision="I64"/>
				<port id="1" precision="I64">
					<dim>1</dim>
				</port>
			</input>
			<output>
				<port id="2" names="423" precision="I64">
					<dim>1</dim>
				</port>
			</output>
		</layer>
		<layer id="42" name="424/Unsqueeze" type="Const" version="opset1">
			<data element_type="i64" offset="44092" shape="1" size="8"/>
			<output>
				<port id="0" names="424" precision="I64">
					<dim>1</dim>
				</port>
			</output>
		</layer>
		<layer id="43" name="412" type="ShapeOf" version="opset3">
			<data output_type="i64"/>
			<input>
				<port id="0" precision="FP32">
					<dim>1</dim>
					<dim>116</dim>
					<dim>40</dim>
					<dim>40</dim>
				</port>
			</input>
			<output>
				<port id="1" names="412" precision="I64">
					<dim>4</dim>
				</port>
			</output>
		</layer>
		<layer id="44" name="411" type="Const" version="opset1">
			<data element_type="i32" offset="44100" shape="" size="4"/>
			<output>
				<port id="0" names="411" precision="I32"/>
			</output>
		</layer>
		<layer id="45" name="413/axis" type="Const" version="opset1">
			<data element_type="i64" offset="44084" shape="" size="8"/>
			<output>
				<port id="0" precision="I64"/>
			</output>
		</layer>
		<layer id="46" name="4132888" type="Gather" version="opset7">
			<data batch_dims="0"/>
			<input>
				<port id="0" precision="I64">
					<dim>4</dim>
				</port>
				<port id="1" precision="I32"/>
				<port id="2" precision="I64"/>
			</input>
			<output>
				<port id="3" names="413" precision="I64"/>
			</output>
		</layer>
		<layer id="47" name="420" type="Const" version="opset1">
			<data element_type="i64" offset="44092" shape="" size="8"/>
			<output>
				<port id="0" names="420" precision="I64"/>
			</output>
		</layer>
		<layer id="48" name="421" type="Divide" version="opset1">
			<data auto_broadcast="numpy" m_pythondiv="true"/>
			<input>
				<port id="0" precision="I64"/>
				<port id="1" precision="I64"/>
			</input>
			<output>
				<port id="2" names="421" precision="I64"/>
			</output>
		</layer>
		<layer id="49" name="425/Dims" type="Const" version="opset1">
			<data element_type="i64" offset="44084" shape="1" size="8"/>
			<output>
				<port id="0" precision="I64">
					<dim>1</dim>
				</port>
			</output>
		</layer>
		<layer id="50" name="425/Unsqueeze" type="Unsqueeze" version="opset1">
			<input>
				<port id="0" precision="I64"/>
				<port id="1" precision="I64">
					<dim>1</dim>
				</port>
			</input>
			<output>
				<port id="2" names="425" precision="I64">
					<dim>1</dim>
				</port>
			</output>
		</layer>
		<layer id="51" name="415" type="ShapeOf" version="opset3">
			<data output_type="i64"/>
			<input>
				<port id="0" precision="FP32">
					<dim>1</dim>
					<dim>116</dim>
					<dim>40</dim>
					<dim>40</dim>
				</port>
			</input>
			<output>
				<port id="1" names="415" precision="I64">
					<dim>4</dim>
				</port>
			</output>
		</layer>
		<layer id="52" name="414" type="Const" version="opset1">
			<data element_type="i32" offset="44104" shape="" size="4"/>
			<output>
				<port id="0" names="414" precision="I32"/>
			</output>
		</layer>
		<layer id="53" name="416/axis" type="Const" version="opset1">
			<data element_type="i64" offset="44084" shape="" size="8"/>
			<output>
				<port id="0" precision="I64"/>
			</output>
		</layer>
		<layer id="54" name="4162716" type="Gather" version="opset7">
			<data batch_dims="0"/>
			<input>
				<port id="0" precision="I64">
					<dim>4</dim>
				</port>
				<port id="1" precision="I32"/>
				<port id="2" precision="I64"/>
			</input>
			<output>
				<port id="3" names="416" precision="I64"/>
			</output>
		</layer>
		<layer id="55" name="426/Dims" type="Const" version="opset1">
			<data element_type="i64" offset="44084" shape="1" size="8"/>
			<output>
				<port id="0" precision="I64">
					<dim>1</dim>
				</port>
			</output>
		</layer>
		<layer id="56" name="426/Unsqueeze" type="Unsqueeze" version="opset1">
			<input>
				<port id="0" precision="I64"/>
				<port id="1" precision="I64">
					<dim>1</dim>
				</port>
			</input>
			<output>
				<port id="2" names="426" precision="I64">
					<dim>1</dim>
				</port>
			</output>
		</layer>
		<layer id="57" name="418" type="ShapeOf" version="opset3">
			<data output_type="i64"/>
			<input>
				<port id="0" precision="FP32">
					<dim>1</dim>
					<dim>116</dim>
					<dim>40</dim>
					<dim>40</dim>
				</port>
			</input>
			<output>
				<port id="1" names="418" precision="I64">
					<dim>4</dim>
				</port>
			</output>
		</layer>
		<layer id="58" name="417" type="Const" version="opset1">
			<data element_type="i32" offset="44108" shape="" size="4"/>
			<output>
				<port id="0" names="417" precision="I32"/>
			</output>
		</layer>
		<layer id="59" name="419/axis" type="Const" version="opset1">
			<data element_type="i64" offset="44084" shape="" size="8"/>
			<output>
				<port id="0" precision="I64"/>
			</output>
		</layer>
		<layer id="60" name="4192798" type="Gather" version="opset7">
			<data batch_dims="0"/>
			<input>
				<port id="0" precision="I64">
					<dim>4</dim>
				</port>
				<port id="1" precision="I32"/>
				<port id="2" precision="I64"/>
			</input>
			<output>
				<port id="3" names="419" precision="I64"/>
			</output>
		</layer>
		<layer id="61" name="427/Dims" type="Const" version="opset1">
			<data element_type="i64" offset="44084" shape="1" size="8"/>
			<output>
				<port id="0" precision="I64">
					<dim>1</dim>
				</port>
			</output>
		</layer>
		<layer id="62" name="427/Unsqueeze" type="Unsqueeze" version="opset1">
			<input>
				<port id="0" precision="I64"/>
				<port id="1" precision="I64">
					<dim>1</dim>
				</port>
			</input>
			<output>
				<port id="2" names="427" precision="I64">
					<dim>1</dim>
				</port>
			</output>
		</layer>
		<layer id="63" name="428" type="Concat" version="opset1">
			<data axis="0"/>
			<input>
				<port id="0" precision="I64">
					<dim>1</dim>
				</port>
				<port id="1" precision="I64">
					<dim>1</dim>
				</port>
				<port id="2" precision="I64">
					<dim>1</dim>
				</port>
				<port id="3" precision="I64">
					<dim>1</dim>
				</port>
				<port id="4" precision="I64">
					<dim>1</dim>
				</port>
			</input>
			<output>
				<port id="5" names="428" precision="I64">
					<dim>5</dim>
				</port>
			</output>
		</layer>
		<layer id="64" name="429" type="Reshape" version="opset1">
			<data special_zero="true"/>
			<input>
				<port id="0" precision="FP32">
					<dim>1</dim>
					<dim>116</dim>
					<dim>40</dim>
					<dim>40</dim>
				</port>
				<port id="1" precision="I64">
					<dim>5</dim>
				</port>
			</input>
			<output>
				<port id="2" names="429" precision="FP32">
					<dim>1</dim>
					<dim>2</dim>
					<dim>58</dim>
					<dim>40</dim>
					<dim>40</dim>
				</port>
			</output>
		</layer>
		<layer id="65" name="1718" type="Const" version="opset1">
			<data element_type="i64" offset="44112" shape="5" size="40"/>
			<output>
				<port id="0" precision="I64">
					<dim>5</dim>
				</port>
			</output>
		</layer>
		<layer id="66" name="430" type="Transpose" version="opset1">
			<input>
				<port id="0" precision="FP32">
					<dim>1</dim>
					<dim>2</dim>
					<dim>58</dim>
					<dim>40</dim>
					<dim>40</dim>
				</port>
				<port id="1" precision="I64">
					<dim>5</dim>
				</port>
			</input>
			<output>
				<port id="2" names="430" precision="FP32">
					<dim>1</dim>
					<dim>58</dim>
					<dim>2</dim>
					<dim>40</dim>
					<dim>40</dim>
				</port>
			</output>
		</layer>
		<layer id="67" name="431/Dims" type="Const" version="opset1">
			<data element_type="i64" offset="44084" shape="1" size="8"/>
			<output>
				<port id="0" precision="I64">
					<dim>1</dim>
				</port>
			</output>
		</layer>
		<layer id="68" name="431/Unsqueeze" type="Unsqueeze" version="opset1">
			<input>
				<port id="0" precision="I64"/>
				<port id="1" precision="I64">
					<dim>1</dim>
				</port>
			</input>
			<output>
				<port id="2" names="431" precision="I64">
					<dim>1</dim>
				</port>
			</output>
		</layer>
		<layer id="69" name="432/Dims" type="Const" version="opset1">
			<data element_type="i64" offset="44084" shape="1" size="8"/>
			<output>
				<port id="0" precision="I64">
					<dim>1</dim>
				</port>
			</output>
		</layer>
		<layer id="70" name="432/Unsqueeze" type="Unsqueeze" version="opset1">
			<input>
				<port id="0" precision="I64"/>
				<port id="1" precision="I64">
					<dim>1</dim>
				</port>
			</input>
			<output>
				<port id="2" names="432" precision="I64">
					<dim>1</dim>
				</port>
			</output>
		</layer>
		<layer id="71" name="433/Dims" type="Const" version="opset1">
			<data element_type="i64" offset="44084" shape="1" size="8"/>
			<output>
				<port id="0" precision="I64">
					<dim>1</dim>
				</port>
			</output>
		</layer>
		<layer id="72" name="433/Unsqueeze" type="Unsqueeze" version="opset1">
			<input>
				<port id="0" precision="I64"/>
				<port id="1" precision="I64">
					<dim>1</dim>
				</port>
			</input>
			<output>
				<port id="2" names="433" precision="I64">
					<dim>1</dim>
				</port>
			</output>
		</layer>
		<layer id="73" name="434/Dims" type="Const" version="opset1">
			<data element_type="i64" offset="44084" shape="1" size="8"/>
			<output>
				<port id="0" precision="I64">
					<dim>1</dim>
				</port>
			</output>
		</layer>
		<layer id="74" name="434/Unsqueeze" type="Unsqueeze" version="opset1">
			<input>
				<port id="0" precision="I64"/>
				<port id="1" precision="I64">
					<dim>1</dim>
				</port>
			</input>
			<output>
				<port id="2" names="434" precision="I64">
					<dim>1</dim>
				</port>
			</output>
		</layer>
		<layer id="75" name="435" type="Concat" version="opset1">
			<data axis="0"/>
			<input>
				<port id="0" precision="I64">
					<dim>1</dim>
				</port>
				<port id="1" precision="I64">
					<dim>1</dim>
				</port>
				<port id="2" precision="I64">
					<dim>1</dim>
				</port>
				<port id="3" precision="I64">
					<dim>1</dim>
				</port>
			</input>
			<output>
				<port id="4" names="435" precision="I64">
					<dim>4</dim>
				</port>
			</output>
		</layer>
		<layer id="76" name="436" type="Reshape" version="opset1">
			<data special_zero="true"/>
			<input>
				<port id="0" precision="FP32">
					<dim>1</dim>
					<dim>58</dim>
					<dim>2</dim>
					<dim>40</dim>
					<dim>40</dim>
				</port>
				<port id="1" precision="I64">
					<dim>4</dim>
				</port>
			</input>
			<output>
				<port id="2" names="436" precision="FP32">
					<dim>1</dim>
					<dim>116</dim>
					<dim>40</dim>
					<dim>40</dim>
				</port>
			</output>
		</layer>
		<layer id="77" name="437/VariadicSplit_input_port_1/value" type="Const" version="opset1">
			<data element_type="i64" offset="44152" shape="" size="8"/>
			<output>
				<port id="0" precision="I64"/>
			</output>
		</layer>
		<layer id="78" name="437/VariadicSplit_input_port_2/value" type="Const" version="opset1">
			<data element_type="i64" offset="44160" shape="2" size="16"/>
			<output>
				<port id="0" precision="I64">
					<dim>2</dim>
				</port>
			</output>
		</layer>
		<layer id="79" name="437/VariadicSplit" type="VariadicSplit" version="opset1">
			<input>
				<port id="0" precision="FP32">
					<dim>1</dim>
					<dim>116</dim>
					<dim>40</dim>
					<dim>40</dim>
				</port>
				<port id="1" precision="I64"/>
				<port id="2" precision="I64">
					<dim>2</dim>
				</port>
			</input>
			<output>
				<port id="3" names="437" precision="FP32">
					<dim>1</dim>
					<dim>58</dim>
					<dim>40</dim>
					<dim>40</dim>
				</port>
				<port id="4" names="438" precision="FP32">
					<dim>1</dim>
					<dim>58</dim>
					<dim>40</dim>
					<dim>40</dim>
				</port>
			</output>
		</layer>
		<layer id="80" name="440/mean/Fused_Mul__copy" type="Const" version="opset1">
			<data element_type="f32" offset="44176" shape="58, 58, 1, 1" size="13456"/>
			<output>
				<port id="0" names="backbone.features.stage1.unit2.compress_conv1.weight" precision="FP32">
					<dim>58</dim>
					<dim>58</dim>
					<dim>1</dim>
					<dim>1</dim>
				</port>
			</output>
		</layer>
		<layer id="81" name="439" type="Convolution" version="opset1">
			<data auto_pad="explicit" dilations="1, 1" pads_begin="0, 0" pads_end="0, 0" strides="1, 1"/>
			<input>
				<port id="0" precision="FP32">
					<dim>1</dim>
					<dim>58</dim>
					<dim>40</dim>
					<dim>40</dim>
				</port>
				<port id="1" precision="FP32">
					<dim>58</dim>
					<dim>58</dim>
					<dim>1</dim>
					<dim>1</dim>
				</port>
			</input>
			<output>
				<port id="2" precision="FP32">
					<dim>1</dim>
					<dim>58</dim>
					<dim>40</dim>
					<dim>40</dim>
				</port>
			</output>
		</layer>
		<layer id="82" name="data_add_3810538110" type="Const" version="opset1">
			<data element_type="f32" offset="57632" shape="1, 58, 1, 1" size="232"/>
			<output>
				<port id="0" precision="FP32">
					<dim>1</dim>
					<dim>58</dim>
					<dim>1</dim>
					<dim>1</dim>
				</port>
			</output>
		</layer>
		<layer id="83" name="440/variance/Fused_Add_" type="Add" version="opset1">
			<data auto_broadcast="numpy"/>
			<input>
				<port id="0" precision="FP32">
					<dim>1</dim>
					<dim>58</dim>
					<dim>40</dim>
					<dim>40</dim>
				</port>
				<port id="1" precision="FP32">
					<dim>1</dim>
					<dim>58</dim>
					<dim>1</dim>
					<dim>1</dim>
				</port>
			</input>
			<output>
				<port id="2" names="440" precision="FP32">
					<dim>1</dim>
					<dim>58</dim>
					<dim>40</dim>
					<dim>40</dim>
				</port>
			</output>
		</layer>
		<layer id="84" name="441" type="ReLU" version="opset1">
			<input>
				<port id="0" precision="FP32">
					<dim>1</dim>
					<dim>58</dim>
					<dim>40</dim>
					<dim>40</dim>
				</port>
			</input>
			<output>
				<port id="1" names="441" precision="FP32">
					<dim>1</dim>
					<dim>58</dim>
					<dim>40</dim>
					<dim>40</dim>
				</port>
			</output>
		</layer>
		<layer id="85" name="443/mean/Fused_Mul__copy" type="Const" version="opset1">
			<data element_type="f32" offset="57864" shape="58, 1, 1, 3, 3" size="2088"/>
			<output>
				<port id="0" names="backbone.features.stage1.unit2.dw_conv2.weight" precision="FP32">
					<dim>58</dim>
					<dim>1</dim>
					<dim>1</dim>
					<dim>3</dim>
					<dim>3</dim>
				</port>
			</output>
		</layer>
		<layer id="86" name="442" type="GroupConvolution" version="opset1">
			<data auto_pad="explicit" dilations="1, 1" pads_begin="1, 1" pads_end="1, 1" strides="1, 1"/>
			<input>
				<port id="0" precision="FP32">
					<dim>1</dim>
					<dim>58</dim>
					<dim>40</dim>
					<dim>40</dim>
				</port>
				<port id="1" precision="FP32">
					<dim>58</dim>
					<dim>1</dim>
					<dim>1</dim>
					<dim>3</dim>
					<dim>3</dim>
				</port>
			</input>
			<output>
				<port id="2" precision="FP32">
					<dim>1</dim>
					<dim>58</dim>
					<dim>40</dim>
					<dim>40</dim>
				</port>
			</output>
		</layer>
		<layer id="87" name="data_add_3811338118" type="Const" version="opset1">
			<data element_type="f32" offset="59952" shape="1, 58, 1, 1" size="232"/>
			<output>
				<port id="0" precision="FP32">
					<dim>1</dim>
					<dim>58</dim>
					<dim>1</dim>
					<dim>1</dim>
				</port>
			</output>
		</layer>
		<layer id="88" name="443/variance/Fused_Add_" type="Add" version="opset1">
			<data auto_broadcast="numpy"/>
			<input>
				<port id="0" precision="FP32">
					<dim>1</dim>
					<dim>58</dim>
					<dim>40</dim>
					<dim>40</dim>
				</port>
				<port id="1" precision="FP32">
					<dim>1</dim>
					<dim>58</dim>
					<dim>1</dim>
					<dim>1</dim>
				</port>
			</input>
			<output>
				<port id="2" names="443" precision="FP32">
					<dim>1</dim>
					<dim>58</dim>
					<dim>40</dim>
					<dim>40</dim>
				</port>
			</output>
		</layer>
		<layer id="89" name="445/mean/Fused_Mul__copy" type="Const" version="opset1">
			<data element_type="f32" offset="60184" shape="58, 58, 1, 1" size="13456"/>
			<output>
				<port id="0" names="backbone.features.stage1.unit2.expand_conv3.weight" precision="FP32">
					<dim>58</dim>
					<dim>58</dim>
					<dim>1</dim>
					<dim>1</dim>
				</port>
			</output>
		</layer>
		<layer id="90" name="444" type="Convolution" version="opset1">
			<data auto_pad="explicit" dilations="1, 1" pads_begin="0, 0" pads_end="0, 0" strides="1, 1"/>
			<input>
				<port id="0" precision="FP32">
					<dim>1</dim>
					<dim>58</dim>
					<dim>40</dim>
					<dim>40</dim>
				</port>
				<port id="1" precision="FP32">
					<dim>58</dim>
					<dim>58</dim>
					<dim>1</dim>
					<dim>1</dim>
				</port>
			</input>
			<output>
				<port id="2" precision="FP32">
					<dim>1</dim>
					<dim>58</dim>
					<dim>40</dim>
					<dim>40</dim>
				</port>
			</output>
		</layer>
		<layer id="91" name="data_add_3812138126" type="Const" version="opset1">
			<data element_type="f32" offset="73640" shape="1, 58, 1, 1" size="232"/>
			<output>
				<port id="0" precision="FP32">
					<dim>1</dim>
					<dim>58</dim>
					<dim>1</dim>
					<dim>1</dim>
				</port>
			</output>
		</layer>
		<layer id="92" name="445/variance/Fused_Add_" type="Add" version="opset1">
			<data auto_broadcast="numpy"/>
			<input>
				<port id="0" precision="FP32">
					<dim>1</dim>
					<dim>58</dim>
					<dim>40</dim>
					<dim>40</dim>
				</port>
				<port id="1" precision="FP32">
					<dim>1</dim>
					<dim>58</dim>
					<dim>1</dim>
					<dim>1</dim>
				</port>
			</input>
			<output>
				<port id="2" names="445" precision="FP32">
					<dim>1</dim>
					<dim>58</dim>
					<dim>40</dim>
					<dim>40</dim>
				</port>
			</output>
		</layer>
		<layer id="93" name="446" type="ReLU" version="opset1">
			<input>
				<port id="0" precision="FP32">
					<dim>1</dim>
					<dim>58</dim>
					<dim>40</dim>
					<dim>40</dim>
				</port>
			</input>
			<output>
				<port id="1" names="446" precision="FP32">
					<dim>1</dim>
					<dim>58</dim>
					<dim>40</dim>
					<dim>40</dim>
				</port>
			</output>
		</layer>
		<layer id="94" name="447" type="Concat" version="opset1">
			<data axis="1"/>
			<input>
				<port id="0" precision="FP32">
					<dim>1</dim>
					<dim>58</dim>
					<dim>40</dim>
					<dim>40</dim>
				</port>
				<port id="1" precision="FP32">
					<dim>1</dim>
					<dim>58</dim>
					<dim>40</dim>
					<dim>40</dim>
				</port>
			</input>
			<output>
				<port id="2" names="447" precision="FP32">
					<dim>1</dim>
					<dim>116</dim>
					<dim>40</dim>
					<dim>40</dim>
				</port>
			</output>
		</layer>
		<layer id="95" name="449" type="ShapeOf" version="opset3">
			<data output_type="i64"/>
			<input>
				<port id="0" precision="FP32">
					<dim>1</dim>
					<dim>116</dim>
					<dim>40</dim>
					<dim>40</dim>
				</port>
			</input>
			<output>
				<port id="1" names="449" precision="I64">
					<dim>4</dim>
				</port>
			</output>
		</layer>
		<layer id="96" name="448" type="Const" version="opset1">
			<data element_type="i32" offset="44080" shape="" size="4"/>
			<output>
				<port id="0" names="448" precision="I32"/>
			</output>
		</layer>
		<layer id="97" name="450/axis" type="Const" version="opset1">
			<data element_type="i64" offset="44084" shape="" size="8"/>
			<output>
				<port id="0" precision="I64"/>
			</output>
		</layer>
		<layer id="98" name="4502982" type="Gather" version="opset7">
			<data batch_dims="0"/>
			<input>
				<port id="0" precision="I64">
					<dim>4</dim>
				</port>
				<port id="1" precision="I32"/>
				<port id="2" precision="I64"/>
			</input>
			<output>
				<port id="3" names="450" precision="I64"/>
			</output>
		</layer>
		<layer id="99" name="463/Dims" type="Const" version="opset1">
			<data element_type="i64" offset="44084" shape="1" size="8"/>
			<output>
				<port id="0" precision="I64">
					<dim>1</dim>
				</port>
			</output>
		</layer>
		<layer id="100" name="463/Unsqueeze" type="Unsqueeze" version="opset1">
			<input>
				<port id="0" precision="I64"/>
				<port id="1" precision="I64">
					<dim>1</dim>
				</port>
			</input>
			<output>
				<port id="2" names="463" precision="I64">
					<dim>1</dim>
				</port>
			</output>
		</layer>
		<layer id="101" name="464/Unsqueeze" type="Const" version="opset1">
			<data element_type="i64" offset="44092" shape="1" size="8"/>
			<output>
				<port id="0" names="464" precision="I64">
					<dim>1</dim>
				</port>
			</output>
		</layer>
		<layer id="102" name="452" type="ShapeOf" version="opset3">
			<data output_type="i64"/>
			<input>
				<port id="0" precision="FP32">
					<dim>1</dim>
					<dim>116</dim>
					<dim>40</dim>
					<dim>40</dim>
				</port>
			</input>
			<output>
				<port id="1" names="452" precision="I64">
					<dim>4</dim>
				</port>
			</output>
		</layer>
		<layer id="103" name="451" type="Const" version="opset1">
			<data element_type="i32" offset="44100" shape="" size="4"/>
			<output>
				<port id="0" names="451" precision="I32"/>
			</output>
		</layer>
		<layer id="104" name="453/axis" type="Const" version="opset1">
			<data element_type="i64" offset="44084" shape="" size="8"/>
			<output>
				<port id="0" precision="I64"/>
			</output>
		</layer>
		<layer id="105" name="4532956" type="Gather" version="opset7">
			<data batch_dims="0"/>
			<input>
				<port id="0" precision="I64">
					<dim>4</dim>
				</port>
				<port id="1" precision="I32"/>
				<port id="2" precision="I64"/>
			</input>
			<output>
				<port id="3" names="453" precision="I64"/>
			</output>
		</layer>
		<layer id="106" name="460" type="Const" version="opset1">
			<data element_type="i64" offset="44092" shape="" size="8"/>
			<output>
				<port id="0" names="460" precision="I64"/>
			</output>
		</layer>
		<layer id="107" name="461" type="Divide" version="opset1">
			<data auto_broadcast="numpy" m_pythondiv="true"/>
			<input>
				<port id="0" precision="I64"/>
				<port id="1" precision="I64"/>
			</input>
			<output>
				<port id="2" names="461" precision="I64"/>
			</output>
		</layer>
		<layer id="108" name="465/Dims" type="Const" version="opset1">
			<data element_type="i64" offset="44084" shape="1" size="8"/>
			<output>
				<port id="0" precision="I64">
					<dim>1</dim>
				</port>
			</output>
		</layer>
		<layer id="109" name="465/Unsqueeze" type="Unsqueeze" version="opset1">
			<input>
				<port id="0" precision="I64"/>
				<port id="1" precision="I64">
					<dim>1</dim>
				</port>
			</input>
			<output>
				<port id="2" names="465" precision="I64">
					<dim>1</dim>
				</port>
			</output>
		</layer>
		<layer id="110" name="455" type="ShapeOf" version="opset3">
			<data output_type="i64"/>
			<input>
				<port id="0" precision="FP32">
					<dim>1</dim>
					<dim>116</dim>
					<dim>40</dim>
					<dim>40</dim>
				</port>
			</input>
			<output>
				<port id="1" names="455" precision="I64">
					<dim>4</dim>
				</port>
			</output>
		</layer>
		<layer id="111" name="454" type="Const" version="opset1">
			<data element_type="i32" offset="44104" shape="" size="4"/>
			<output>
				<port id="0" names="454" precision="I32"/>
			</output>
		</layer>
		<layer id="112" name="456/axis" type="Const" version="opset1">
			<data element_type="i64" offset="44084" shape="" size="8"/>
			<output>
				<port id="0" precision="I64"/>
			</output>
		</layer>
		<layer id="113" name="4562814" type="Gather" version="opset7">
			<data batch_dims="0"/>
			<input>
				<port id="0" precision="I64">
					<dim>4</dim>
				</port>
				<port id="1" precision="I32"/>
				<port id="2" precision="I64"/>
			</input>
			<output>
				<port id="3" names="456" precision="I64"/>
			</output>
		</layer>
		<layer id="114" name="466/Dims" type="Const" version="opset1">
			<data element_type="i64" offset="44084" shape="1" size="8"/>
			<output>
				<port id="0" precision="I64">
					<dim>1</dim>
				</port>
			</output>
		</layer>
		<layer id="115" name="466/Unsqueeze" type="Unsqueeze" version="opset1">
			<input>
				<port id="0" precision="I64"/>
				<port id="1" precision="I64">
					<dim>1</dim>
				</port>
			</input>
			<output>
				<port id="2" names="466" precision="I64">
					<dim>1</dim>
				</port>
			</output>
		</layer>
		<layer id="116" name="458" type="ShapeOf" version="opset3">
			<data output_type="i64"/>
			<input>
				<port id="0" precision="FP32">
					<dim>1</dim>
					<dim>116</dim>
					<dim>40</dim>
					<dim>40</dim>
				</port>
			</input>
			<output>
				<port id="1" names="458" precision="I64">
					<dim>4</dim>
				</port>
			</output>
		</layer>
		<layer id="117" name="457" type="Const" version="opset1">
			<data element_type="i32" offset="44108" shape="" size="4"/>
			<output>
				<port id="0" names="457" precision="I32"/>
			</output>
		</layer>
		<layer id="118" name="459/axis" type="Const" version="opset1">
			<data element_type="i64" offset="44084" shape="" size="8"/>
			<output>
				<port id="0" precision="I64"/>
			</output>
		</layer>
		<layer id="119" name="4592700" type="Gather" version="opset7">
			<data batch_dims="0"/>
			<input>
				<port id="0" precision="I64">
					<dim>4</dim>
				</port>
				<port id="1" precision="I32"/>
				<port id="2" precision="I64"/>
			</input>
			<output>
				<port id="3" names="459" precision="I64"/>
			</output>
		</layer>
		<layer id="120" name="467/Dims" type="Const" version="opset1">
			<data element_type="i64" offset="44084" shape="1" size="8"/>
			<output>
				<port id="0" precision="I64">
					<dim>1</dim>
				</port>
			</output>
		</layer>
		<layer id="121" name="467/Unsqueeze" type="Unsqueeze" version="opset1">
			<input>
				<port id="0" precision="I64"/>
				<port id="1" precision="I64">
					<dim>1</dim>
				</port>
			</input>
			<output>
				<port id="2" names="467" precision="I64">
					<dim>1</dim>
				</port>
			</output>
		</layer>
		<layer id="122" name="468" type="Concat" version="opset1">
			<data axis="0"/>
			<input>
				<port id="0" precision="I64">
					<dim>1</dim>
				</port>
				<port id="1" precision="I64">
					<dim>1</dim>
				</port>
				<port id="2" precision="I64">
					<dim>1</dim>
				</port>
				<port id="3" precision="I64">
					<dim>1</dim>
				</port>
				<port id="4" precision="I64">
					<dim>1</dim>
				</port>
			</input>
			<output>
				<port id="5" names="468" precision="I64">
					<dim>5</dim>
				</port>
			</output>
		</layer>
		<layer id="123" name="469" type="Reshape" version="opset1">
			<data special_zero="true"/>
			<input>
				<port id="0" precision="FP32">
					<dim>1</dim>
					<dim>116</dim>
					<dim>40</dim>
					<dim>40</dim>
				</port>
				<port id="1" precision="I64">
					<dim>5</dim>
				</port>
			</input>
			<output>
				<port id="2" names="469" precision="FP32">
					<dim>1</dim>
					<dim>2</dim>
					<dim>58</dim>
					<dim>40</dim>
					<dim>40</dim>
				</port>
			</output>
		</layer>
		<layer id="124" name="1695" type="Const" version="opset1">
			<data element_type="i64" offset="44112" shape="5" size="40"/>
			<output>
				<port id="0" precision="I64">
					<dim>5</dim>
				</port>
			</output>
		</layer>
		<layer id="125" name="470" type="Transpose" version="opset1">
			<input>
				<port id="0" precision="FP32">
					<dim>1</dim>
					<dim>2</dim>
					<dim>58</dim>
					<dim>40</dim>
					<dim>40</dim>
				</port>
				<port id="1" precision="I64">
					<dim>5</dim>
				</port>
			</input>
			<output>
				<port id="2" names="470" precision="FP32">
					<dim>1</dim>
					<dim>58</dim>
					<dim>2</dim>
					<dim>40</dim>
					<dim>40</dim>
				</port>
			</output>
		</layer>
		<layer id="126" name="471/Dims" type="Const" version="opset1">
			<data element_type="i64" offset="44084" shape="1" size="8"/>
			<output>
				<port id="0" precision="I64">
					<dim>1</dim>
				</port>
			</output>
		</layer>
		<layer id="127" name="471/Unsqueeze" type="Unsqueeze" version="opset1">
			<input>
				<port id="0" precision="I64"/>
				<port id="1" precision="I64">
					<dim>1</dim>
				</port>
			</input>
			<output>
				<port id="2" names="471" precision="I64">
					<dim>1</dim>
				</port>
			</output>
		</layer>
		<layer id="128" name="472/Dims" type="Const" version="opset1">
			<data element_type="i64" offset="44084" shape="1" size="8"/>
			<output>
				<port id="0" precision="I64">
					<dim>1</dim>
				</port>
			</output>
		</layer>
		<layer id="129" name="472/Unsqueeze" type="Unsqueeze" version="opset1">
			<input>
				<port id="0" precision="I64"/>
				<port id="1" precision="I64">
					<dim>1</dim>
				</port>
			</input>
			<output>
				<port id="2" names="472" precision="I64">
					<dim>1</dim>
				</port>
			</output>
		</layer>
		<layer id="130" name="473/Dims" type="Const" version="opset1">
			<data element_type="i64" offset="44084" shape="1" size="8"/>
			<output>
				<port id="0" precision="I64">
					<dim>1</dim>
				</port>
			</output>
		</layer>
		<layer id="131" name="473/Unsqueeze" type="Unsqueeze" version="opset1">
			<input>
				<port id="0" precision="I64"/>
				<port id="1" precision="I64">
					<dim>1</dim>
				</port>
			</input>
			<output>
				<port id="2" names="473" precision="I64">
					<dim>1</dim>
				</port>
			</output>
		</layer>
		<layer id="132" name="474/Dims" type="Const" version="opset1">
			<data element_type="i64" offset="44084" shape="1" size="8"/>
			<output>
				<port id="0" precision="I64">
					<dim>1</dim>
				</port>
			</output>
		</layer>
		<layer id="133" name="474/Unsqueeze" type="Unsqueeze" version="opset1">
			<input>
				<port id="0" precision="I64"/>
				<port id="1" precision="I64">
					<dim>1</dim>
				</port>
			</input>
			<output>
				<port id="2" names="474" precision="I64">
					<dim>1</dim>
				</port>
			</output>
		</layer>
		<layer id="134" name="475" type="Concat" version="opset1">
			<data axis="0"/>
			<input>
				<port id="0" precision="I64">
					<dim>1</dim>
				</port>
				<port id="1" precision="I64">
					<dim>1</dim>
				</port>
				<port id="2" precision="I64">
					<dim>1</dim>
				</port>
				<port id="3" precision="I64">
					<dim>1</dim>
				</port>
			</input>
			<output>
				<port id="4" names="475" precision="I64">
					<dim>4</dim>
				</port>
			</output>
		</layer>
		<layer id="135" name="476" type="Reshape" version="opset1">
			<data special_zero="true"/>
			<input>
				<port id="0" precision="FP32">
					<dim>1</dim>
					<dim>58</dim>
					<dim>2</dim>
					<dim>40</dim>
					<dim>40</dim>
				</port>
				<port id="1" precision="I64">
					<dim>4</dim>
				</port>
			</input>
			<output>
				<port id="2" names="476" precision="FP32">
					<dim>1</dim>
					<dim>116</dim>
					<dim>40</dim>
					<dim>40</dim>
				</port>
			</output>
		</layer>
		<layer id="136" name="477/VariadicSplit_input_port_1/value" type="Const" version="opset1">
			<data element_type="i64" offset="44152" shape="" size="8"/>
			<output>
				<port id="0" precision="I64"/>
			</output>
		</layer>
		<layer id="137" name="477/VariadicSplit_input_port_2/value" type="Const" version="opset1">
			<data element_type="i64" offset="44160" shape="2" size="16"/>
			<output>
				<port id="0" precision="I64">
					<dim>2</dim>
				</port>
			</output>
		</layer>
		<layer id="138" name="477/VariadicSplit" type="VariadicSplit" version="opset1">
			<input>
				<port id="0" precision="FP32">
					<dim>1</dim>
					<dim>116</dim>
					<dim>40</dim>
					<dim>40</dim>
				</port>
				<port id="1" precision="I64"/>
				<port id="2" precision="I64">
					<dim>2</dim>
				</port>
			</input>
			<output>
				<port id="3" names="477" precision="FP32">
					<dim>1</dim>
					<dim>58</dim>
					<dim>40</dim>
					<dim>40</dim>
				</port>
				<port id="4" names="478" precision="FP32">
					<dim>1</dim>
					<dim>58</dim>
					<dim>40</dim>
					<dim>40</dim>
				</port>
			</output>
		</layer>
		<layer id="139" name="480/mean/Fused_Mul__copy" type="Const" version="opset1">
			<data element_type="f32" offset="73872" shape="58, 58, 1, 1" size="13456"/>
			<output>
				<port id="0" names="backbone.features.stage1.unit3.compress_conv1.weight" precision="FP32">
					<dim>58</dim>
					<dim>58</dim>
					<dim>1</dim>
					<dim>1</dim>
				</port>
			</output>
		</layer>
		<layer id="140" name="479" type="Convolution" version="opset1">
			<data auto_pad="explicit" dilations="1, 1" pads_begin="0, 0" pads_end="0, 0" strides="1, 1"/>
			<input>
				<port id="0" precision="FP32">
					<dim>1</dim>
					<dim>58</dim>
					<dim>40</dim>
					<dim>40</dim>
				</port>
				<port id="1" precision="FP32">
					<dim>58</dim>
					<dim>58</dim>
					<dim>1</dim>
					<dim>1</dim>
				</port>
			</input>
			<output>
				<port id="2" precision="FP32">
					<dim>1</dim>
					<dim>58</dim>
					<dim>40</dim>
					<dim>40</dim>
				</port>
			</output>
		</layer>
		<layer id="141" name="data_add_3812938134" type="Const" version="opset1">
			<data element_type="f32" offset="87328" shape="1, 58, 1, 1" size="232"/>
			<output>
				<port id="0" precision="FP32">
					<dim>1</dim>
					<dim>58</dim>
					<dim>1</dim>
					<dim>1</dim>
				</port>
			</output>
		</layer>
		<layer id="142" name="480/variance/Fused_Add_" type="Add" version="opset1">
			<data auto_broadcast="numpy"/>
			<input>
				<port id="0" precision="FP32">
					<dim>1</dim>
					<dim>58</dim>
					<dim>40</dim>
					<dim>40</dim>
				</port>
				<port id="1" precision="FP32">
					<dim>1</dim>
					<dim>58</dim>
					<dim>1</dim>
					<dim>1</dim>
				</port>
			</input>
			<output>
				<port id="2" names="480" precision="FP32">
					<dim>1</dim>
					<dim>58</dim>
					<dim>40</dim>
					<dim>40</dim>
				</port>
			</output>
		</layer>
		<layer id="143" name="481" type="ReLU" version="opset1">
			<input>
				<port id="0" precision="FP32">
					<dim>1</dim>
					<dim>58</dim>
					<dim>40</dim>
					<dim>40</dim>
				</port>
			</input>
			<output>
				<port id="1" names="481" precision="FP32">
					<dim>1</dim>
					<dim>58</dim>
					<dim>40</dim>
					<dim>40</dim>
				</port>
			</output>
		</layer>
		<layer id="144" name="483/mean/Fused_Mul__copy" type="Const" version="opset1">
			<data element_type="f32" offset="87560" shape="58, 1, 1, 3, 3" size="2088"/>
			<output>
				<port id="0" names="backbone.features.stage1.unit3.dw_conv2.weight" precision="FP32">
					<dim>58</dim>
					<dim>1</dim>
					<dim>1</dim>
					<dim>3</dim>
					<dim>3</dim>
				</port>
			</output>
		</layer>
		<layer id="145" name="482" type="GroupConvolution" version="opset1">
			<data auto_pad="explicit" dilations="1, 1" pads_begin="1, 1" pads_end="1, 1" strides="1, 1"/>
			<input>
				<port id="0" precision="FP32">
					<dim>1</dim>
					<dim>58</dim>
					<dim>40</dim>
					<dim>40</dim>
				</port>
				<port id="1" precision="FP32">
					<dim>58</dim>
					<dim>1</dim>
					<dim>1</dim>
					<dim>3</dim>
					<dim>3</dim>
				</port>
			</input>
			<output>
				<port id="2" precision="FP32">
					<dim>1</dim>
					<dim>58</dim>
					<dim>40</dim>
					<dim>40</dim>
				</port>
			</output>
		</layer>
		<layer id="146" name="data_add_3813738142" type="Const" version="opset1">
			<data element_type="f32" offset="89648" shape="1, 58, 1, 1" size="232"/>
			<output>
				<port id="0" precision="FP32">
					<dim>1</dim>
					<dim>58</dim>
					<dim>1</dim>
					<dim>1</dim>
				</port>
			</output>
		</layer>
		<layer id="147" name="483/variance/Fused_Add_" type="Add" version="opset1">
			<data auto_broadcast="numpy"/>
			<input>
				<port id="0" precision="FP32">
					<dim>1</dim>
					<dim>58</dim>
					<dim>40</dim>
					<dim>40</dim>
				</port>
				<port id="1" precision="FP32">
					<dim>1</dim>
					<dim>58</dim>
					<dim>1</dim>
					<dim>1</dim>
				</port>
			</input>
			<output>
				<port id="2" names="483" precision="FP32">
					<dim>1</dim>
					<dim>58</dim>
					<dim>40</dim>
					<dim>40</dim>
				</port>
			</output>
		</layer>
		<layer id="148" name="485/mean/Fused_Mul__copy" type="Const" version="opset1">
			<data element_type="f32" offset="89880" shape="58, 58, 1, 1" size="13456"/>
			<output>
				<port id="0" names="backbone.features.stage1.unit3.expand_conv3.weight" precision="FP32">
					<dim>58</dim>
					<dim>58</dim>
					<dim>1</dim>
					<dim>1</dim>
				</port>
			</output>
		</layer>
		<layer id="149" name="484" type="Convolution" version="opset1">
			<data auto_pad="explicit" dilations="1, 1" pads_begin="0, 0" pads_end="0, 0" strides="1, 1"/>
			<input>
				<port id="0" precision="FP32">
					<dim>1</dim>
					<dim>58</dim>
					<dim>40</dim>
					<dim>40</dim>
				</port>
				<port id="1" precision="FP32">
					<dim>58</dim>
					<dim>58</dim>
					<dim>1</dim>
					<dim>1</dim>
				</port>
			</input>
			<output>
				<port id="2" precision="FP32">
					<dim>1</dim>
					<dim>58</dim>
					<dim>40</dim>
					<dim>40</dim>
				</port>
			</output>
		</layer>
		<layer id="150" name="data_add_3814538150" type="Const" version="opset1">
			<data element_type="f32" offset="103336" shape="1, 58, 1, 1" size="232"/>
			<output>
				<port id="0" precision="FP32">
					<dim>1</dim>
					<dim>58</dim>
					<dim>1</dim>
					<dim>1</dim>
				</port>
			</output>
		</layer>
		<layer id="151" name="485/variance/Fused_Add_" type="Add" version="opset1">
			<data auto_broadcast="numpy"/>
			<input>
				<port id="0" precision="FP32">
					<dim>1</dim>
					<dim>58</dim>
					<dim>40</dim>
					<dim>40</dim>
				</port>
				<port id="1" precision="FP32">
					<dim>1</dim>
					<dim>58</dim>
					<dim>1</dim>
					<dim>1</dim>
				</port>
			</input>
			<output>
				<port id="2" names="485" precision="FP32">
					<dim>1</dim>
					<dim>58</dim>
					<dim>40</dim>
					<dim>40</dim>
				</port>
			</output>
		</layer>
		<layer id="152" name="486" type="ReLU" version="opset1">
			<input>
				<port id="0" precision="FP32">
					<dim>1</dim>
					<dim>58</dim>
					<dim>40</dim>
					<dim>40</dim>
				</port>
			</input>
			<output>
				<port id="1" names="486" precision="FP32">
					<dim>1</dim>
					<dim>58</dim>
					<dim>40</dim>
					<dim>40</dim>
				</port>
			</output>
		</layer>
		<layer id="153" name="487" type="Concat" version="opset1">
			<data axis="1"/>
			<input>
				<port id="0" precision="FP32">
					<dim>1</dim>
					<dim>58</dim>
					<dim>40</dim>
					<dim>40</dim>
				</port>
				<port id="1" precision="FP32">
					<dim>1</dim>
					<dim>58</dim>
					<dim>40</dim>
					<dim>40</dim>
				</port>
			</input>
			<output>
				<port id="2" names="487" precision="FP32">
					<dim>1</dim>
					<dim>116</dim>
					<dim>40</dim>
					<dim>40</dim>
				</port>
			</output>
		</layer>
		<layer id="154" name="489" type="ShapeOf" version="opset3">
			<data output_type="i64"/>
			<input>
				<port id="0" precision="FP32">
					<dim>1</dim>
					<dim>116</dim>
					<dim>40</dim>
					<dim>40</dim>
				</port>
			</input>
			<output>
				<port id="1" names="489" precision="I64">
					<dim>4</dim>
				</port>
			</output>
		</layer>
		<layer id="155" name="488" type="Const" version="opset1">
			<data element_type="i32" offset="44080" shape="" size="4"/>
			<output>
				<port id="0" names="488" precision="I32"/>
			</output>
		</layer>
		<layer id="156" name="490/axis" type="Const" version="opset1">
			<data element_type="i64" offset="44084" shape="" size="8"/>
			<output>
				<port id="0" precision="I64"/>
			</output>
		</layer>
		<layer id="157" name="4902696" type="Gather" version="opset7">
			<data batch_dims="0"/>
			<input>
				<port id="0" precision="I64">
					<dim>4</dim>
				</port>
				<port id="1" precision="I32"/>
				<port id="2" precision="I64"/>
			</input>
			<output>
				<port id="3" names="490" precision="I64"/>
			</output>
		</layer>
		<layer id="158" name="503/Dims" type="Const" version="opset1">
			<data element_type="i64" offset="44084" shape="1" size="8"/>
			<output>
				<port id="0" precision="I64">
					<dim>1</dim>
				</port>
			</output>
		</layer>
		<layer id="159" name="503/Unsqueeze" type="Unsqueeze" version="opset1">
			<input>
				<port id="0" precision="I64"/>
				<port id="1" precision="I64">
					<dim>1</dim>
				</port>
			</input>
			<output>
				<port id="2" names="503" precision="I64">
					<dim>1</dim>
				</port>
			</output>
		</layer>
		<layer id="160" name="504/Unsqueeze" type="Const" version="opset1">
			<data element_type="i64" offset="44092" shape="1" size="8"/>
			<output>
				<port id="0" names="504" precision="I64">
					<dim>1</dim>
				</port>
			</output>
		</layer>
		<layer id="161" name="492" type="ShapeOf" version="opset3">
			<data output_type="i64"/>
			<input>
				<port id="0" precision="FP32">
					<dim>1</dim>
					<dim>116</dim>
					<dim>40</dim>
					<dim>40</dim>
				</port>
			</input>
			<output>
				<port id="1" names="492" precision="I64">
					<dim>4</dim>
				</port>
			</output>
		</layer>
		<layer id="162" name="491" type="Const" version="opset1">
			<data element_type="i32" offset="44100" shape="" size="4"/>
			<output>
				<port id="0" names="491" precision="I32"/>
			</output>
		</layer>
		<layer id="163" name="493/axis" type="Const" version="opset1">
			<data element_type="i64" offset="44084" shape="" size="8"/>
			<output>
				<port id="0" precision="I64"/>
			</output>
		</layer>
		<layer id="164" name="4932704" type="Gather" version="opset7">
			<data batch_dims="0"/>
			<input>
				<port id="0" precision="I64">
					<dim>4</dim>
				</port>
				<port id="1" precision="I32"/>
				<port id="2" precision="I64"/>
			</input>
			<output>
				<port id="3" names="493" precision="I64"/>
			</output>
		</layer>
		<layer id="165" name="500" type="Const" version="opset1">
			<data element_type="i64" offset="44092" shape="" size="8"/>
			<output>
				<port id="0" names="500" precision="I64"/>
			</output>
		</layer>
		<layer id="166" name="501" type="Divide" version="opset1">
			<data auto_broadcast="numpy" m_pythondiv="true"/>
			<input>
				<port id="0" precision="I64"/>
				<port id="1" precision="I64"/>
			</input>
			<output>
				<port id="2" names="501" precision="I64"/>
			</output>
		</layer>
		<layer id="167" name="505/Dims" type="Const" version="opset1">
			<data element_type="i64" offset="44084" shape="1" size="8"/>
			<output>
				<port id="0" precision="I64">
					<dim>1</dim>
				</port>
			</output>
		</layer>
		<layer id="168" name="505/Unsqueeze" type="Unsqueeze" version="opset1">
			<input>
				<port id="0" precision="I64"/>
				<port id="1" precision="I64">
					<dim>1</dim>
				</port>
			</input>
			<output>
				<port id="2" names="505" precision="I64">
					<dim>1</dim>
				</port>
			</output>
		</layer>
		<layer id="169" name="495" type="ShapeOf" version="opset3">
			<data output_type="i64"/>
			<input>
				<port id="0" precision="FP32">
					<dim>1</dim>
					<dim>116</dim>
					<dim>40</dim>
					<dim>40</dim>
				</port>
			</input>
			<output>
				<port id="1" names="495" precision="I64">
					<dim>4</dim>
				</port>
			</output>
		</layer>
		<layer id="170" name="494" type="Const" version="opset1">
			<data element_type="i32" offset="44104" shape="" size="4"/>
			<output>
				<port id="0" names="494" precision="I32"/>
			</output>
		</layer>
		<layer id="171" name="496/axis" type="Const" version="opset1">
			<data element_type="i64" offset="44084" shape="" size="8"/>
			<output>
				<port id="0" precision="I64"/>
			</output>
		</layer>
		<layer id="172" name="4962860" type="Gather" version="opset7">
			<data batch_dims="0"/>
			<input>
				<port id="0" precision="I64">
					<dim>4</dim>
				</port>
				<port id="1" precision="I32"/>
				<port id="2" precision="I64"/>
			</input>
			<output>
				<port id="3" names="496" precision="I64"/>
			</output>
		</layer>
		<layer id="173" name="506/Dims" type="Const" version="opset1">
			<data element_type="i64" offset="44084" shape="1" size="8"/>
			<output>
				<port id="0" precision="I64">
					<dim>1</dim>
				</port>
			</output>
		</layer>
		<layer id="174" name="506/Unsqueeze" type="Unsqueeze" version="opset1">
			<input>
				<port id="0" precision="I64"/>
				<port id="1" precision="I64">
					<dim>1</dim>
				</port>
			</input>
			<output>
				<port id="2" names="506" precision="I64">
					<dim>1</dim>
				</port>
			</output>
		</layer>
		<layer id="175" name="498" type="ShapeOf" version="opset3">
			<data output_type="i64"/>
			<input>
				<port id="0" precision="FP32">
					<dim>1</dim>
					<dim>116</dim>
					<dim>40</dim>
					<dim>40</dim>
				</port>
			</input>
			<output>
				<port id="1" names="498" precision="I64">
					<dim>4</dim>
				</port>
			</output>
		</layer>
		<layer id="176" name="497" type="Const" version="opset1">
			<data element_type="i32" offset="44108" shape="" size="4"/>
			<output>
				<port id="0" names="497" precision="I32"/>
			</output>
		</layer>
		<layer id="177" name="499/axis" type="Const" version="opset1">
			<data element_type="i64" offset="44084" shape="" size="8"/>
			<output>
				<port id="0" precision="I64"/>
			</output>
		</layer>
		<layer id="178" name="4992782" type="Gather" version="opset7">
			<data batch_dims="0"/>
			<input>
				<port id="0" precision="I64">
					<dim>4</dim>
				</port>
				<port id="1" precision="I32"/>
				<port id="2" precision="I64"/>
			</input>
			<output>
				<port id="3" names="499" precision="I64"/>
			</output>
		</layer>
		<layer id="179" name="507/Dims" type="Const" version="opset1">
			<data element_type="i64" offset="44084" shape="1" size="8"/>
			<output>
				<port id="0" precision="I64">
					<dim>1</dim>
				</port>
			</output>
		</layer>
		<layer id="180" name="507/Unsqueeze" type="Unsqueeze" version="opset1">
			<input>
				<port id="0" precision="I64"/>
				<port id="1" precision="I64">
					<dim>1</dim>
				</port>
			</input>
			<output>
				<port id="2" names="507" precision="I64">
					<dim>1</dim>
				</port>
			</output>
		</layer>
		<layer id="181" name="508" type="Concat" version="opset1">
			<data axis="0"/>
			<input>
				<port id="0" precision="I64">
					<dim>1</dim>
				</port>
				<port id="1" precision="I64">
					<dim>1</dim>
				</port>
				<port id="2" precision="I64">
					<dim>1</dim>
				</port>
				<port id="3" precision="I64">
					<dim>1</dim>
				</port>
				<port id="4" precision="I64">
					<dim>1</dim>
				</port>
			</input>
			<output>
				<port id="5" names="508" precision="I64">
					<dim>5</dim>
				</port>
			</output>
		</layer>
		<layer id="182" name="509" type="Reshape" version="opset1">
			<data special_zero="true"/>
			<input>
				<port id="0" precision="FP32">
					<dim>1</dim>
					<dim>116</dim>
					<dim>40</dim>
					<dim>40</dim>
				</port>
				<port id="1" precision="I64">
					<dim>5</dim>
				</port>
			</input>
			<output>
				<port id="2" names="509" precision="FP32">
					<dim>1</dim>
					<dim>2</dim>
					<dim>58</dim>
					<dim>40</dim>
					<dim>40</dim>
				</port>
			</output>
		</layer>
		<layer id="183" name="1719" type="Const" version="opset1">
			<data element_type="i64" offset="44112" shape="5" size="40"/>
			<output>
				<port id="0" precision="I64">
					<dim>5</dim>
				</port>
			</output>
		</layer>
		<layer id="184" name="510" type="Transpose" version="opset1">
			<input>
				<port id="0" precision="FP32">
					<dim>1</dim>
					<dim>2</dim>
					<dim>58</dim>
					<dim>40</dim>
					<dim>40</dim>
				</port>
				<port id="1" precision="I64">
					<dim>5</dim>
				</port>
			</input>
			<output>
				<port id="2" names="510" precision="FP32">
					<dim>1</dim>
					<dim>58</dim>
					<dim>2</dim>
					<dim>40</dim>
					<dim>40</dim>
				</port>
			</output>
		</layer>
		<layer id="185" name="511/Dims" type="Const" version="opset1">
			<data element_type="i64" offset="44084" shape="1" size="8"/>
			<output>
				<port id="0" precision="I64">
					<dim>1</dim>
				</port>
			</output>
		</layer>
		<layer id="186" name="511/Unsqueeze" type="Unsqueeze" version="opset1">
			<input>
				<port id="0" precision="I64"/>
				<port id="1" precision="I64">
					<dim>1</dim>
				</port>
			</input>
			<output>
				<port id="2" names="511" precision="I64">
					<dim>1</dim>
				</port>
			</output>
		</layer>
		<layer id="187" name="512/Dims" type="Const" version="opset1">
			<data element_type="i64" offset="44084" shape="1" size="8"/>
			<output>
				<port id="0" precision="I64">
					<dim>1</dim>
				</port>
			</output>
		</layer>
		<layer id="188" name="512/Unsqueeze" type="Unsqueeze" version="opset1">
			<input>
				<port id="0" precision="I64"/>
				<port id="1" precision="I64">
					<dim>1</dim>
				</port>
			</input>
			<output>
				<port id="2" names="512" precision="I64">
					<dim>1</dim>
				</port>
			</output>
		</layer>
		<layer id="189" name="513/Dims" type="Const" version="opset1">
			<data element_type="i64" offset="44084" shape="1" size="8"/>
			<output>
				<port id="0" precision="I64">
					<dim>1</dim>
				</port>
			</output>
		</layer>
		<layer id="190" name="513/Unsqueeze" type="Unsqueeze" version="opset1">
			<input>
				<port id="0" precision="I64"/>
				<port id="1" precision="I64">
					<dim>1</dim>
				</port>
			</input>
			<output>
				<port id="2" names="513" precision="I64">
					<dim>1</dim>
				</port>
			</output>
		</layer>
		<layer id="191" name="514/Dims" type="Const" version="opset1">
			<data element_type="i64" offset="44084" shape="1" size="8"/>
			<output>
				<port id="0" precision="I64">
					<dim>1</dim>
				</port>
			</output>
		</layer>
		<layer id="192" name="514/Unsqueeze" type="Unsqueeze" version="opset1">
			<input>
				<port id="0" precision="I64"/>
				<port id="1" precision="I64">
					<dim>1</dim>
				</port>
			</input>
			<output>
				<port id="2" names="514" precision="I64">
					<dim>1</dim>
				</port>
			</output>
		</layer>
		<layer id="193" name="515" type="Concat" version="opset1">
			<data axis="0"/>
			<input>
				<port id="0" precision="I64">
					<dim>1</dim>
				</port>
				<port id="1" precision="I64">
					<dim>1</dim>
				</port>
				<port id="2" precision="I64">
					<dim>1</dim>
				</port>
				<port id="3" precision="I64">
					<dim>1</dim>
				</port>
			</input>
			<output>
				<port id="4" names="515" precision="I64">
					<dim>4</dim>
				</port>
			</output>
		</layer>
		<layer id="194" name="516" type="Reshape" version="opset1">
			<data special_zero="true"/>
			<input>
				<port id="0" precision="FP32">
					<dim>1</dim>
					<dim>58</dim>
					<dim>2</dim>
					<dim>40</dim>
					<dim>40</dim>
				</port>
				<port id="1" precision="I64">
					<dim>4</dim>
				</port>
			</input>
			<output>
				<port id="2" names="516" precision="FP32">
					<dim>1</dim>
					<dim>116</dim>
					<dim>40</dim>
					<dim>40</dim>
				</port>
			</output>
		</layer>
		<layer id="195" name="517/VariadicSplit_input_port_1/value" type="Const" version="opset1">
			<data element_type="i64" offset="44152" shape="" size="8"/>
			<output>
				<port id="0" precision="I64"/>
			</output>
		</layer>
		<layer id="196" name="517/VariadicSplit_input_port_2/value" type="Const" version="opset1">
			<data element_type="i64" offset="44160" shape="2" size="16"/>
			<output>
				<port id="0" precision="I64">
					<dim>2</dim>
				</port>
			</output>
		</layer>
		<layer id="197" name="517/VariadicSplit" type="VariadicSplit" version="opset1">
			<input>
				<port id="0" precision="FP32">
					<dim>1</dim>
					<dim>116</dim>
					<dim>40</dim>
					<dim>40</dim>
				</port>
				<port id="1" precision="I64"/>
				<port id="2" precision="I64">
					<dim>2</dim>
				</port>
			</input>
			<output>
				<port id="3" names="517" precision="FP32">
					<dim>1</dim>
					<dim>58</dim>
					<dim>40</dim>
					<dim>40</dim>
				</port>
				<port id="4" names="518" precision="FP32">
					<dim>1</dim>
					<dim>58</dim>
					<dim>40</dim>
					<dim>40</dim>
				</port>
			</output>
		</layer>
		<layer id="198" name="520/mean/Fused_Mul__copy" type="Const" version="opset1">
			<data element_type="f32" offset="103568" shape="58, 58, 1, 1" size="13456"/>
			<output>
				<port id="0" names="backbone.features.stage1.unit4.compress_conv1.weight" precision="FP32">
					<dim>58</dim>
					<dim>58</dim>
					<dim>1</dim>
					<dim>1</dim>
				</port>
			</output>
		</layer>
		<layer id="199" name="519" type="Convolution" version="opset1">
			<data auto_pad="explicit" dilations="1, 1" pads_begin="0, 0" pads_end="0, 0" strides="1, 1"/>
			<input>
				<port id="0" precision="FP32">
					<dim>1</dim>
					<dim>58</dim>
					<dim>40</dim>
					<dim>40</dim>
				</port>
				<port id="1" precision="FP32">
					<dim>58</dim>
					<dim>58</dim>
					<dim>1</dim>
					<dim>1</dim>
				</port>
			</input>
			<output>
				<port id="2" precision="FP32">
					<dim>1</dim>
					<dim>58</dim>
					<dim>40</dim>
					<dim>40</dim>
				</port>
			</output>
		</layer>
		<layer id="200" name="data_add_3815338158" type="Const" version="opset1">
			<data element_type="f32" offset="117024" shape="1, 58, 1, 1" size="232"/>
			<output>
				<port id="0" precision="FP32">
					<dim>1</dim>
					<dim>58</dim>
					<dim>1</dim>
					<dim>1</dim>
				</port>
			</output>
		</layer>
		<layer id="201" name="520/variance/Fused_Add_" type="Add" version="opset1">
			<data auto_broadcast="numpy"/>
			<input>
				<port id="0" precision="FP32">
					<dim>1</dim>
					<dim>58</dim>
					<dim>40</dim>
					<dim>40</dim>
				</port>
				<port id="1" precision="FP32">
					<dim>1</dim>
					<dim>58</dim>
					<dim>1</dim>
					<dim>1</dim>
				</port>
			</input>
			<output>
				<port id="2" names="520" precision="FP32">
					<dim>1</dim>
					<dim>58</dim>
					<dim>40</dim>
					<dim>40</dim>
				</port>
			</output>
		</layer>
		<layer id="202" name="521" type="ReLU" version="opset1">
			<input>
				<port id="0" precision="FP32">
					<dim>1</dim>
					<dim>58</dim>
					<dim>40</dim>
					<dim>40</dim>
				</port>
			</input>
			<output>
				<port id="1" names="521" precision="FP32">
					<dim>1</dim>
					<dim>58</dim>
					<dim>40</dim>
					<dim>40</dim>
				</port>
			</output>
		</layer>
		<layer id="203" name="523/mean/Fused_Mul__copy" type="Const" version="opset1">
			<data element_type="f32" offset="117256" shape="58, 1, 1, 3, 3" size="2088"/>
			<output>
				<port id="0" names="backbone.features.stage1.unit4.dw_conv2.weight" precision="FP32">
					<dim>58</dim>
					<dim>1</dim>
					<dim>1</dim>
					<dim>3</dim>
					<dim>3</dim>
				</port>
			</output>
		</layer>
		<layer id="204" name="522" type="GroupConvolution" version="opset1">
			<data auto_pad="explicit" dilations="1, 1" pads_begin="1, 1" pads_end="1, 1" strides="1, 1"/>
			<input>
				<port id="0" precision="FP32">
					<dim>1</dim>
					<dim>58</dim>
					<dim>40</dim>
					<dim>40</dim>
				</port>
				<port id="1" precision="FP32">
					<dim>58</dim>
					<dim>1</dim>
					<dim>1</dim>
					<dim>3</dim>
					<dim>3</dim>
				</port>
			</input>
			<output>
				<port id="2" precision="FP32">
					<dim>1</dim>
					<dim>58</dim>
					<dim>40</dim>
					<dim>40</dim>
				</port>
			</output>
		</layer>
		<layer id="205" name="data_add_3816138166" type="Const" version="opset1">
			<data element_type="f32" offset="119344" shape="1, 58, 1, 1" size="232"/>
			<output>
				<port id="0" precision="FP32">
					<dim>1</dim>
					<dim>58</dim>
					<dim>1</dim>
					<dim>1</dim>
				</port>
			</output>
		</layer>
		<layer id="206" name="523/variance/Fused_Add_" type="Add" version="opset1">
			<data auto_broadcast="numpy"/>
			<input>
				<port id="0" precision="FP32">
					<dim>1</dim>
					<dim>58</dim>
					<dim>40</dim>
					<dim>40</dim>
				</port>
				<port id="1" precision="FP32">
					<dim>1</dim>
					<dim>58</dim>
					<dim>1</dim>
					<dim>1</dim>
				</port>
			</input>
			<output>
				<port id="2" names="523" precision="FP32">
					<dim>1</dim>
					<dim>58</dim>
					<dim>40</dim>
					<dim>40</dim>
				</port>
			</output>
		</layer>
		<layer id="207" name="525/mean/Fused_Mul__copy" type="Const" version="opset1">
			<data element_type="f32" offset="119576" shape="58, 58, 1, 1" size="13456"/>
			<output>
				<port id="0" names="backbone.features.stage1.unit4.expand_conv3.weight" precision="FP32">
					<dim>58</dim>
					<dim>58</dim>
					<dim>1</dim>
					<dim>1</dim>
				</port>
			</output>
		</layer>
		<layer id="208" name="524" type="Convolution" version="opset1">
			<data auto_pad="explicit" dilations="1, 1" pads_begin="0, 0" pads_end="0, 0" strides="1, 1"/>
			<input>
				<port id="0" precision="FP32">
					<dim>1</dim>
					<dim>58</dim>
					<dim>40</dim>
					<dim>40</dim>
				</port>
				<port id="1" precision="FP32">
					<dim>58</dim>
					<dim>58</dim>
					<dim>1</dim>
					<dim>1</dim>
				</port>
			</input>
			<output>
				<port id="2" precision="FP32">
					<dim>1</dim>
					<dim>58</dim>
					<dim>40</dim>
					<dim>40</dim>
				</port>
			</output>
		</layer>
		<layer id="209" name="data_add_3816938174" type="Const" version="opset1">
			<data element_type="f32" offset="133032" shape="1, 58, 1, 1" size="232"/>
			<output>
				<port id="0" precision="FP32">
					<dim>1</dim>
					<dim>58</dim>
					<dim>1</dim>
					<dim>1</dim>
				</port>
			</output>
		</layer>
		<layer id="210" name="525/variance/Fused_Add_" type="Add" version="opset1">
			<data auto_broadcast="numpy"/>
			<input>
				<port id="0" precision="FP32">
					<dim>1</dim>
					<dim>58</dim>
					<dim>40</dim>
					<dim>40</dim>
				</port>
				<port id="1" precision="FP32">
					<dim>1</dim>
					<dim>58</dim>
					<dim>1</dim>
					<dim>1</dim>
				</port>
			</input>
			<output>
				<port id="2" names="525" precision="FP32">
					<dim>1</dim>
					<dim>58</dim>
					<dim>40</dim>
					<dim>40</dim>
				</port>
			</output>
		</layer>
		<layer id="211" name="526" type="ReLU" version="opset1">
			<input>
				<port id="0" precision="FP32">
					<dim>1</dim>
					<dim>58</dim>
					<dim>40</dim>
					<dim>40</dim>
				</port>
			</input>
			<output>
				<port id="1" names="526" precision="FP32">
					<dim>1</dim>
					<dim>58</dim>
					<dim>40</dim>
					<dim>40</dim>
				</port>
			</output>
		</layer>
		<layer id="212" name="527" type="Concat" version="opset1">
			<data axis="1"/>
			<input>
				<port id="0" precision="FP32">
					<dim>1</dim>
					<dim>58</dim>
					<dim>40</dim>
					<dim>40</dim>
				</port>
				<port id="1" precision="FP32">
					<dim>1</dim>
					<dim>58</dim>
					<dim>40</dim>
					<dim>40</dim>
				</port>
			</input>
			<output>
				<port id="2" names="527" precision="FP32">
					<dim>1</dim>
					<dim>116</dim>
					<dim>40</dim>
					<dim>40</dim>
				</port>
			</output>
		</layer>
		<layer id="213" name="529" type="ShapeOf" version="opset3">
			<data output_type="i64"/>
			<input>
				<port id="0" precision="FP32">
					<dim>1</dim>
					<dim>116</dim>
					<dim>40</dim>
					<dim>40</dim>
				</port>
			</input>
			<output>
				<port id="1" names="529" precision="I64">
					<dim>4</dim>
				</port>
			</output>
		</layer>
		<layer id="214" name="528" type="Const" version="opset1">
			<data element_type="i32" offset="44080" shape="" size="4"/>
			<output>
				<port id="0" names="528" precision="I32"/>
			</output>
		</layer>
		<layer id="215" name="530/axis" type="Const" version="opset1">
			<data element_type="i64" offset="44084" shape="" size="8"/>
			<output>
				<port id="0" precision="I64"/>
			</output>
		</layer>
		<layer id="216" name="5302708" type="Gather" version="opset7">
			<data batch_dims="0"/>
			<input>
				<port id="0" precision="I64">
					<dim>4</dim>
				</port>
				<port id="1" precision="I32"/>
				<port id="2" precision="I64"/>
			</input>
			<output>
				<port id="3" names="530" precision="I64"/>
			</output>
		</layer>
		<layer id="217" name="543/Dims" type="Const" version="opset1">
			<data element_type="i64" offset="44084" shape="1" size="8"/>
			<output>
				<port id="0" precision="I64">
					<dim>1</dim>
				</port>
			</output>
		</layer>
		<layer id="218" name="543/Unsqueeze" type="Unsqueeze" version="opset1">
			<input>
				<port id="0" precision="I64"/>
				<port id="1" precision="I64">
					<dim>1</dim>
				</port>
			</input>
			<output>
				<port id="2" names="543" precision="I64">
					<dim>1</dim>
				</port>
			</output>
		</layer>
		<layer id="219" name="544/Unsqueeze" type="Const" version="opset1">
			<data element_type="i64" offset="44092" shape="1" size="8"/>
			<output>
				<port id="0" names="544" precision="I64">
					<dim>1</dim>
				</port>
			</output>
		</layer>
		<layer id="220" name="532" type="ShapeOf" version="opset3">
			<data output_type="i64"/>
			<input>
				<port id="0" precision="FP32">
					<dim>1</dim>
					<dim>116</dim>
					<dim>40</dim>
					<dim>40</dim>
				</port>
			</input>
			<output>
				<port id="1" names="532" precision="I64">
					<dim>4</dim>
				</port>
			</output>
		</layer>
		<layer id="221" name="531" type="Const" version="opset1">
			<data element_type="i32" offset="44100" shape="" size="4"/>
			<output>
				<port id="0" names="531" precision="I32"/>
			</output>
		</layer>
		<layer id="222" name="533/axis" type="Const" version="opset1">
			<data element_type="i64" offset="44084" shape="" size="8"/>
			<output>
				<port id="0" precision="I64"/>
			</output>
		</layer>
		<layer id="223" name="5332748" type="Gather" version="opset7">
			<data batch_dims="0"/>
			<input>
				<port id="0" precision="I64">
					<dim>4</dim>
				</port>
				<port id="1" precision="I32"/>
				<port id="2" precision="I64"/>
			</input>
			<output>
				<port id="3" names="533" precision="I64"/>
			</output>
		</layer>
		<layer id="224" name="540" type="Const" version="opset1">
			<data element_type="i64" offset="44092" shape="" size="8"/>
			<output>
				<port id="0" names="540" precision="I64"/>
			</output>
		</layer>
		<layer id="225" name="541" type="Divide" version="opset1">
			<data auto_broadcast="numpy" m_pythondiv="true"/>
			<input>
				<port id="0" precision="I64"/>
				<port id="1" precision="I64"/>
			</input>
			<output>
				<port id="2" names="541" precision="I64"/>
			</output>
		</layer>
		<layer id="226" name="545/Dims" type="Const" version="opset1">
			<data element_type="i64" offset="44084" shape="1" size="8"/>
			<output>
				<port id="0" precision="I64">
					<dim>1</dim>
				</port>
			</output>
		</layer>
		<layer id="227" name="545/Unsqueeze" type="Unsqueeze" version="opset1">
			<input>
				<port id="0" precision="I64"/>
				<port id="1" precision="I64">
					<dim>1</dim>
				</port>
			</input>
			<output>
				<port id="2" names="545" precision="I64">
					<dim>1</dim>
				</port>
			</output>
		</layer>
		<layer id="228" name="535" type="ShapeOf" version="opset3">
			<data output_type="i64"/>
			<input>
				<port id="0" precision="FP32">
					<dim>1</dim>
					<dim>116</dim>
					<dim>40</dim>
					<dim>40</dim>
				</port>
			</input>
			<output>
				<port id="1" names="535" precision="I64">
					<dim>4</dim>
				</port>
			</output>
		</layer>
		<layer id="229" name="534" type="Const" version="opset1">
			<data element_type="i32" offset="44104" shape="" size="4"/>
			<output>
				<port id="0" names="534" precision="I32"/>
			</output>
		</layer>
		<layer id="230" name="536/axis" type="Const" version="opset1">
			<data element_type="i64" offset="44084" shape="" size="8"/>
			<output>
				<port id="0" precision="I64"/>
			</output>
		</layer>
		<layer id="231" name="5362826" type="Gather" version="opset7">
			<data batch_dims="0"/>
			<input>
				<port id="0" precision="I64">
					<dim>4</dim>
				</port>
				<port id="1" precision="I32"/>
				<port id="2" precision="I64"/>
			</input>
			<output>
				<port id="3" names="536" precision="I64"/>
			</output>
		</layer>
		<layer id="232" name="546/Dims" type="Const" version="opset1">
			<data element_type="i64" offset="44084" shape="1" size="8"/>
			<output>
				<port id="0" precision="I64">
					<dim>1</dim>
				</port>
			</output>
		</layer>
		<layer id="233" name="546/Unsqueeze" type="Unsqueeze" version="opset1">
			<input>
				<port id="0" precision="I64"/>
				<port id="1" precision="I64">
					<dim>1</dim>
				</port>
			</input>
			<output>
				<port id="2" names="546" precision="I64">
					<dim>1</dim>
				</port>
			</output>
		</layer>
		<layer id="234" name="538" type="ShapeOf" version="opset3">
			<data output_type="i64"/>
			<input>
				<port id="0" precision="FP32">
					<dim>1</dim>
					<dim>116</dim>
					<dim>40</dim>
					<dim>40</dim>
				</port>
			</input>
			<output>
				<port id="1" names="538" precision="I64">
					<dim>4</dim>
				</port>
			</output>
		</layer>
		<layer id="235" name="537" type="Const" version="opset1">
			<data element_type="i32" offset="44108" shape="" size="4"/>
			<output>
				<port id="0" names="537" precision="I32"/>
			</output>
		</layer>
		<layer id="236" name="539/axis" type="Const" version="opset1">
			<data element_type="i64" offset="44084" shape="" size="8"/>
			<output>
				<port id="0" precision="I64"/>
			</output>
		</layer>
		<layer id="237" name="5392968" type="Gather" version="opset7">
			<data batch_dims="0"/>
			<input>
				<port id="0" precision="I64">
					<dim>4</dim>
				</port>
				<port id="1" precision="I32"/>
				<port id="2" precision="I64"/>
			</input>
			<output>
				<port id="3" names="539" precision="I64"/>
			</output>
		</layer>
		<layer id="238" name="547/Dims" type="Const" version="opset1">
			<data element_type="i64" offset="44084" shape="1" size="8"/>
			<output>
				<port id="0" precision="I64">
					<dim>1</dim>
				</port>
			</output>
		</layer>
		<layer id="239" name="547/Unsqueeze" type="Unsqueeze" version="opset1">
			<input>
				<port id="0" precision="I64"/>
				<port id="1" precision="I64">
					<dim>1</dim>
				</port>
			</input>
			<output>
				<port id="2" names="547" precision="I64">
					<dim>1</dim>
				</port>
			</output>
		</layer>
		<layer id="240" name="548" type="Concat" version="opset1">
			<data axis="0"/>
			<input>
				<port id="0" precision="I64">
					<dim>1</dim>
				</port>
				<port id="1" precision="I64">
					<dim>1</dim>
				</port>
				<port id="2" precision="I64">
					<dim>1</dim>
				</port>
				<port id="3" precision="I64">
					<dim>1</dim>
				</port>
				<port id="4" precision="I64">
					<dim>1</dim>
				</port>
			</input>
			<output>
				<port id="5" names="548" precision="I64">
					<dim>5</dim>
				</port>
			</output>
		</layer>
		<layer id="241" name="549" type="Reshape" version="opset1">
			<data special_zero="true"/>
			<input>
				<port id="0" precision="FP32">
					<dim>1</dim>
					<dim>116</dim>
					<dim>40</dim>
					<dim>40</dim>
				</port>
				<port id="1" precision="I64">
					<dim>5</dim>
				</port>
			</input>
			<output>
				<port id="2" names="549" precision="FP32">
					<dim>1</dim>
					<dim>2</dim>
					<dim>58</dim>
					<dim>40</dim>
					<dim>40</dim>
				</port>
			</output>
		</layer>
		<layer id="242" name="1720" type="Const" version="opset1">
			<data element_type="i64" offset="44112" shape="5" size="40"/>
			<output>
				<port id="0" precision="I64">
					<dim>5</dim>
				</port>
			</output>
		</layer>
		<layer id="243" name="550" type="Transpose" version="opset1">
			<input>
				<port id="0" precision="FP32">
					<dim>1</dim>
					<dim>2</dim>
					<dim>58</dim>
					<dim>40</dim>
					<dim>40</dim>
				</port>
				<port id="1" precision="I64">
					<dim>5</dim>
				</port>
			</input>
			<output>
				<port id="2" names="550" precision="FP32">
					<dim>1</dim>
					<dim>58</dim>
					<dim>2</dim>
					<dim>40</dim>
					<dim>40</dim>
				</port>
			</output>
		</layer>
		<layer id="244" name="551/Dims" type="Const" version="opset1">
			<data element_type="i64" offset="44084" shape="1" size="8"/>
			<output>
				<port id="0" precision="I64">
					<dim>1</dim>
				</port>
			</output>
		</layer>
		<layer id="245" name="551/Unsqueeze" type="Unsqueeze" version="opset1">
			<input>
				<port id="0" precision="I64"/>
				<port id="1" precision="I64">
					<dim>1</dim>
				</port>
			</input>
			<output>
				<port id="2" names="551" precision="I64">
					<dim>1</dim>
				</port>
			</output>
		</layer>
		<layer id="246" name="552/Dims" type="Const" version="opset1">
			<data element_type="i64" offset="44084" shape="1" size="8"/>
			<output>
				<port id="0" precision="I64">
					<dim>1</dim>
				</port>
			</output>
		</layer>
		<layer id="247" name="552/Unsqueeze" type="Unsqueeze" version="opset1">
			<input>
				<port id="0" precision="I64"/>
				<port id="1" precision="I64">
					<dim>1</dim>
				</port>
			</input>
			<output>
				<port id="2" names="552" precision="I64">
					<dim>1</dim>
				</port>
			</output>
		</layer>
		<layer id="248" name="553/Dims" type="Const" version="opset1">
			<data element_type="i64" offset="44084" shape="1" size="8"/>
			<output>
				<port id="0" precision="I64">
					<dim>1</dim>
				</port>
			</output>
		</layer>
		<layer id="249" name="553/Unsqueeze" type="Unsqueeze" version="opset1">
			<input>
				<port id="0" precision="I64"/>
				<port id="1" precision="I64">
					<dim>1</dim>
				</port>
			</input>
			<output>
				<port id="2" names="553" precision="I64">
					<dim>1</dim>
				</port>
			</output>
		</layer>
		<layer id="250" name="554/Dims" type="Const" version="opset1">
			<data element_type="i64" offset="44084" shape="1" size="8"/>
			<output>
				<port id="0" precision="I64">
					<dim>1</dim>
				</port>
			</output>
		</layer>
		<layer id="251" name="554/Unsqueeze" type="Unsqueeze" version="opset1">
			<input>
				<port id="0" precision="I64"/>
				<port id="1" precision="I64">
					<dim>1</dim>
				</port>
			</input>
			<output>
				<port id="2" names="554" precision="I64">
					<dim>1</dim>
				</port>
			</output>
		</layer>
		<layer id="252" name="555" type="Concat" version="opset1">
			<data axis="0"/>
			<input>
				<port id="0" precision="I64">
					<dim>1</dim>
				</port>
				<port id="1" precision="I64">
					<dim>1</dim>
				</port>
				<port id="2" precision="I64">
					<dim>1</dim>
				</port>
				<port id="3" precision="I64">
					<dim>1</dim>
				</port>
			</input>
			<output>
				<port id="4" names="555" precision="I64">
					<dim>4</dim>
				</port>
			</output>
		</layer>
		<layer id="253" name="556" type="Reshape" version="opset1">
			<data special_zero="true"/>
			<input>
				<port id="0" precision="FP32">
					<dim>1</dim>
					<dim>58</dim>
					<dim>2</dim>
					<dim>40</dim>
					<dim>40</dim>
				</port>
				<port id="1" precision="I64">
					<dim>4</dim>
				</port>
			</input>
			<output>
				<port id="2" names="556" precision="FP32">
					<dim>1</dim>
					<dim>116</dim>
					<dim>40</dim>
					<dim>40</dim>
				</port>
			</output>
		</layer>
		<layer id="254" name="neck.lateral_convs.0.conv.weight" type="Const" version="opset1">
			<data element_type="f32" offset="133264" shape="48, 116, 1, 1" size="22272"/>
			<output>
				<port id="0" names="neck.lateral_convs.0.conv.weight" precision="FP32">
					<dim>48</dim>
					<dim>116</dim>
					<dim>1</dim>
					<dim>1</dim>
				</port>
			</output>
		</layer>
		<layer id="255" name="1043/WithoutBiases" type="Convolution" version="opset1">
			<data auto_pad="explicit" dilations="1, 1" pads_begin="0, 0" pads_end="0, 0" strides="1, 1"/>
			<input>
				<port id="0" precision="FP32">
					<dim>1</dim>
					<dim>116</dim>
					<dim>40</dim>
					<dim>40</dim>
				</port>
				<port id="1" precision="FP32">
					<dim>48</dim>
					<dim>116</dim>
					<dim>1</dim>
					<dim>1</dim>
				</port>
			</input>
			<output>
				<port id="2" precision="FP32">
					<dim>1</dim>
					<dim>48</dim>
					<dim>40</dim>
					<dim>40</dim>
				</port>
			</output>
		</layer>
		<layer id="256" name="1043/Dims23222" type="Const" version="opset1">
			<data element_type="f32" offset="155536" shape="1, 48, 1, 1" size="192"/>
			<output>
				<port id="0" precision="FP32">
					<dim>1</dim>
					<dim>48</dim>
					<dim>1</dim>
					<dim>1</dim>
				</port>
			</output>
		</layer>
		<layer id="257" name="1043" type="Add" version="opset1">
			<data auto_broadcast="numpy"/>
			<input>
				<port id="0" precision="FP32">
					<dim>1</dim>
					<dim>48</dim>
					<dim>40</dim>
					<dim>40</dim>
				</port>
				<port id="1" precision="FP32">
					<dim>1</dim>
					<dim>48</dim>
					<dim>1</dim>
					<dim>1</dim>
				</port>
			</input>
			<output>
				<port id="2" names="1043" precision="FP32">
					<dim>1</dim>
					<dim>48</dim>
					<dim>40</dim>
					<dim>40</dim>
				</port>
			</output>
		</layer>
		<layer id="258" name="558/mean/Fused_Mul__copy" type="Const" version="opset1">
			<data element_type="f32" offset="155728" shape="116, 1, 1, 3, 3" size="4176"/>
			<output>
				<port id="0" names="backbone.features.stage2.unit1.dw_conv4.weight" precision="FP32">
					<dim>116</dim>
					<dim>1</dim>
					<dim>1</dim>
					<dim>3</dim>
					<dim>3</dim>
				</port>
			</output>
		</layer>
		<layer id="259" name="557" type="GroupConvolution" version="opset1">
			<data auto_pad="explicit" dilations="1, 1" pads_begin="1, 1" pads_end="1, 1" strides="2, 2"/>
			<input>
				<port id="0" precision="FP32">
					<dim>1</dim>
					<dim>116</dim>
					<dim>40</dim>
					<dim>40</dim>
				</port>
				<port id="1" precision="FP32">
					<dim>116</dim>
					<dim>1</dim>
					<dim>1</dim>
					<dim>3</dim>
					<dim>3</dim>
				</port>
			</input>
			<output>
				<port id="2" precision="FP32">
					<dim>1</dim>
					<dim>116</dim>
					<dim>20</dim>
					<dim>20</dim>
				</port>
			</output>
		</layer>
		<layer id="260" name="data_add_3820138206" type="Const" version="opset1">
			<data element_type="f32" offset="159904" shape="1, 116, 1, 1" size="464"/>
			<output>
				<port id="0" precision="FP32">
					<dim>1</dim>
					<dim>116</dim>
					<dim>1</dim>
					<dim>1</dim>
				</port>
			</output>
		</layer>
		<layer id="261" name="558/variance/Fused_Add_" type="Add" version="opset1">
			<data auto_broadcast="numpy"/>
			<input>
				<port id="0" precision="FP32">
					<dim>1</dim>
					<dim>116</dim>
					<dim>20</dim>
					<dim>20</dim>
				</port>
				<port id="1" precision="FP32">
					<dim>1</dim>
					<dim>116</dim>
					<dim>1</dim>
					<dim>1</dim>
				</port>
			</input>
			<output>
				<port id="2" names="558" precision="FP32">
					<dim>1</dim>
					<dim>116</dim>
					<dim>20</dim>
					<dim>20</dim>
				</port>
			</output>
		</layer>
		<layer id="262" name="560/mean/Fused_Mul__copy" type="Const" version="opset1">
			<data element_type="f32" offset="160368" shape="116, 116, 1, 1" size="53824"/>
			<output>
				<port id="0" names="backbone.features.stage2.unit1.expand_conv5.weight" precision="FP32">
					<dim>116</dim>
					<dim>116</dim>
					<dim>1</dim>
					<dim>1</dim>
				</port>
			</output>
		</layer>
		<layer id="263" name="559" type="Convolution" version="opset1">
			<data auto_pad="explicit" dilations="1, 1" pads_begin="0, 0" pads_end="0, 0" strides="1, 1"/>
			<input>
				<port id="0" precision="FP32">
					<dim>1</dim>
					<dim>116</dim>
					<dim>20</dim>
					<dim>20</dim>
				</port>
				<port id="1" precision="FP32">
					<dim>116</dim>
					<dim>116</dim>
					<dim>1</dim>
					<dim>1</dim>
				</port>
			</input>
			<output>
				<port id="2" precision="FP32">
					<dim>1</dim>
					<dim>116</dim>
					<dim>20</dim>
					<dim>20</dim>
				</port>
			</output>
		</layer>
		<layer id="264" name="data_add_3820938214" type="Const" version="opset1">
			<data element_type="f32" offset="214192" shape="1, 116, 1, 1" size="464"/>
			<output>
				<port id="0" precision="FP32">
					<dim>1</dim>
					<dim>116</dim>
					<dim>1</dim>
					<dim>1</dim>
				</port>
			</output>
		</layer>
		<layer id="265" name="560/variance/Fused_Add_" type="Add" version="opset1">
			<data auto_broadcast="numpy"/>
			<input>
				<port id="0" precision="FP32">
					<dim>1</dim>
					<dim>116</dim>
					<dim>20</dim>
					<dim>20</dim>
				</port>
				<port id="1" precision="FP32">
					<dim>1</dim>
					<dim>116</dim>
					<dim>1</dim>
					<dim>1</dim>
				</port>
			</input>
			<output>
				<port id="2" names="560" precision="FP32">
					<dim>1</dim>
					<dim>116</dim>
					<dim>20</dim>
					<dim>20</dim>
				</port>
			</output>
		</layer>
		<layer id="266" name="561" type="ReLU" version="opset1">
			<input>
				<port id="0" precision="FP32">
					<dim>1</dim>
					<dim>116</dim>
					<dim>20</dim>
					<dim>20</dim>
				</port>
			</input>
			<output>
				<port id="1" names="561" precision="FP32">
					<dim>1</dim>
					<dim>116</dim>
					<dim>20</dim>
					<dim>20</dim>
				</port>
			</output>
		</layer>
		<layer id="267" name="563/mean/Fused_Mul__copy" type="Const" version="opset1">
			<data element_type="f32" offset="214656" shape="116, 116, 1, 1" size="53824"/>
			<output>
				<port id="0" names="backbone.features.stage2.unit1.compress_conv1.weight" precision="FP32">
					<dim>116</dim>
					<dim>116</dim>
					<dim>1</dim>
					<dim>1</dim>
				</port>
			</output>
		</layer>
		<layer id="268" name="562" type="Convolution" version="opset1">
			<data auto_pad="explicit" dilations="1, 1" pads_begin="0, 0" pads_end="0, 0" strides="1, 1"/>
			<input>
				<port id="0" precision="FP32">
					<dim>1</dim>
					<dim>116</dim>
					<dim>40</dim>
					<dim>40</dim>
				</port>
				<port id="1" precision="FP32">
					<dim>116</dim>
					<dim>116</dim>
					<dim>1</dim>
					<dim>1</dim>
				</port>
			</input>
			<output>
				<port id="2" precision="FP32">
					<dim>1</dim>
					<dim>116</dim>
					<dim>40</dim>
					<dim>40</dim>
				</port>
			</output>
		</layer>
		<layer id="269" name="data_add_3817738182" type="Const" version="opset1">
			<data element_type="f32" offset="268480" shape="1, 116, 1, 1" size="464"/>
			<output>
				<port id="0" precision="FP32">
					<dim>1</dim>
					<dim>116</dim>
					<dim>1</dim>
					<dim>1</dim>
				</port>
			</output>
		</layer>
		<layer id="270" name="563/variance/Fused_Add_" type="Add" version="opset1">
			<data auto_broadcast="numpy"/>
			<input>
				<port id="0" precision="FP32">
					<dim>1</dim>
					<dim>116</dim>
					<dim>40</dim>
					<dim>40</dim>
				</port>
				<port id="1" precision="FP32">
					<dim>1</dim>
					<dim>116</dim>
					<dim>1</dim>
					<dim>1</dim>
				</port>
			</input>
			<output>
				<port id="2" names="563" precision="FP32">
					<dim>1</dim>
					<dim>116</dim>
					<dim>40</dim>
					<dim>40</dim>
				</port>
			</output>
		</layer>
		<layer id="271" name="564" type="ReLU" version="opset1">
			<input>
				<port id="0" precision="FP32">
					<dim>1</dim>
					<dim>116</dim>
					<dim>40</dim>
					<dim>40</dim>
				</port>
			</input>
			<output>
				<port id="1" names="564" precision="FP32">
					<dim>1</dim>
					<dim>116</dim>
					<dim>40</dim>
					<dim>40</dim>
				</port>
			</output>
		</layer>
		<layer id="272" name="566/mean/Fused_Mul__copy" type="Const" version="opset1">
			<data element_type="f32" offset="268944" shape="116, 1, 1, 3, 3" size="4176"/>
			<output>
				<port id="0" names="backbone.features.stage2.unit1.dw_conv2.weight" precision="FP32">
					<dim>116</dim>
					<dim>1</dim>
					<dim>1</dim>
					<dim>3</dim>
					<dim>3</dim>
				</port>
			</output>
		</layer>
		<layer id="273" name="565" type="GroupConvolution" version="opset1">
			<data auto_pad="explicit" dilations="1, 1" pads_begin="1, 1" pads_end="1, 1" strides="2, 2"/>
			<input>
				<port id="0" precision="FP32">
					<dim>1</dim>
					<dim>116</dim>
					<dim>40</dim>
					<dim>40</dim>
				</port>
				<port id="1" precision="FP32">
					<dim>116</dim>
					<dim>1</dim>
					<dim>1</dim>
					<dim>3</dim>
					<dim>3</dim>
				</port>
			</input>
			<output>
				<port id="2" precision="FP32">
					<dim>1</dim>
					<dim>116</dim>
					<dim>20</dim>
					<dim>20</dim>
				</port>
			</output>
		</layer>
		<layer id="274" name="data_add_3818538190" type="Const" version="opset1">
			<data element_type="f32" offset="273120" shape="1, 116, 1, 1" size="464"/>
			<output>
				<port id="0" precision="FP32">
					<dim>1</dim>
					<dim>116</dim>
					<dim>1</dim>
					<dim>1</dim>
				</port>
			</output>
		</layer>
		<layer id="275" name="566/variance/Fused_Add_" type="Add" version="opset1">
			<data auto_broadcast="numpy"/>
			<input>
				<port id="0" precision="FP32">
					<dim>1</dim>
					<dim>116</dim>
					<dim>20</dim>
					<dim>20</dim>
				</port>
				<port id="1" precision="FP32">
					<dim>1</dim>
					<dim>116</dim>
					<dim>1</dim>
					<dim>1</dim>
				</port>
			</input>
			<output>
				<port id="2" names="566" precision="FP32">
					<dim>1</dim>
					<dim>116</dim>
					<dim>20</dim>
					<dim>20</dim>
				</port>
			</output>
		</layer>
		<layer id="276" name="568/mean/Fused_Mul__copy" type="Const" version="opset1">
			<data element_type="f32" offset="273584" shape="116, 116, 1, 1" size="53824"/>
			<output>
				<port id="0" names="backbone.features.stage2.unit1.expand_conv3.weight" precision="FP32">
					<dim>116</dim>
					<dim>116</dim>
					<dim>1</dim>
					<dim>1</dim>
				</port>
			</output>
		</layer>
		<layer id="277" name="567" type="Convolution" version="opset1">
			<data auto_pad="explicit" dilations="1, 1" pads_begin="0, 0" pads_end="0, 0" strides="1, 1"/>
			<input>
				<port id="0" precision="FP32">
					<dim>1</dim>
					<dim>116</dim>
					<dim>20</dim>
					<dim>20</dim>
				</port>
				<port id="1" precision="FP32">
					<dim>116</dim>
					<dim>116</dim>
					<dim>1</dim>
					<dim>1</dim>
				</port>
			</input>
			<output>
				<port id="2" precision="FP32">
					<dim>1</dim>
					<dim>116</dim>
					<dim>20</dim>
					<dim>20</dim>
				</port>
			</output>
		</layer>
		<layer id="278" name="data_add_3819338198" type="Const" version="opset1">
			<data element_type="f32" offset="327408" shape="1, 116, 1, 1" size="464"/>
			<output>
				<port id="0" precision="FP32">
					<dim>1</dim>
					<dim>116</dim>
					<dim>1</dim>
					<dim>1</dim>
				</port>
			</output>
		</layer>
		<layer id="279" name="568/variance/Fused_Add_" type="Add" version="opset1">
			<data auto_broadcast="numpy"/>
			<input>
				<port id="0" precision="FP32">
					<dim>1</dim>
					<dim>116</dim>
					<dim>20</dim>
					<dim>20</dim>
				</port>
				<port id="1" precision="FP32">
					<dim>1</dim>
					<dim>116</dim>
					<dim>1</dim>
					<dim>1</dim>
				</port>
			</input>
			<output>
				<port id="2" names="568" precision="FP32">
					<dim>1</dim>
					<dim>116</dim>
					<dim>20</dim>
					<dim>20</dim>
				</port>
			</output>
		</layer>
		<layer id="280" name="569" type="ReLU" version="opset1">
			<input>
				<port id="0" precision="FP32">
					<dim>1</dim>
					<dim>116</dim>
					<dim>20</dim>
					<dim>20</dim>
				</port>
			</input>
			<output>
				<port id="1" names="569" precision="FP32">
					<dim>1</dim>
					<dim>116</dim>
					<dim>20</dim>
					<dim>20</dim>
				</port>
			</output>
		</layer>
		<layer id="281" name="570" type="Concat" version="opset1">
			<data axis="1"/>
			<input>
				<port id="0" precision="FP32">
					<dim>1</dim>
					<dim>116</dim>
					<dim>20</dim>
					<dim>20</dim>
				</port>
				<port id="1" precision="FP32">
					<dim>1</dim>
					<dim>116</dim>
					<dim>20</dim>
					<dim>20</dim>
				</port>
			</input>
			<output>
				<port id="2" names="570" precision="FP32">
					<dim>1</dim>
					<dim>232</dim>
					<dim>20</dim>
					<dim>20</dim>
				</port>
			</output>
		</layer>
		<layer id="282" name="572" type="ShapeOf" version="opset3">
			<data output_type="i64"/>
			<input>
				<port id="0" precision="FP32">
					<dim>1</dim>
					<dim>232</dim>
					<dim>20</dim>
					<dim>20</dim>
				</port>
			</input>
			<output>
				<port id="1" names="572" precision="I64">
					<dim>4</dim>
				</port>
			</output>
		</layer>
		<layer id="283" name="571" type="Const" version="opset1">
			<data element_type="i32" offset="44080" shape="" size="4"/>
			<output>
				<port id="0" names="571" precision="I32"/>
			</output>
		</layer>
		<layer id="284" name="573/axis" type="Const" version="opset1">
			<data element_type="i64" offset="44084" shape="" size="8"/>
			<output>
				<port id="0" precision="I64"/>
			</output>
		</layer>
		<layer id="285" name="5732962" type="Gather" version="opset7">
			<data batch_dims="0"/>
			<input>
				<port id="0" precision="I64">
					<dim>4</dim>
				</port>
				<port id="1" precision="I32"/>
				<port id="2" precision="I64"/>
			</input>
			<output>
				<port id="3" names="573" precision="I64"/>
			</output>
		</layer>
		<layer id="286" name="586/Dims" type="Const" version="opset1">
			<data element_type="i64" offset="44084" shape="1" size="8"/>
			<output>
				<port id="0" precision="I64">
					<dim>1</dim>
				</port>
			</output>
		</layer>
		<layer id="287" name="586/Unsqueeze" type="Unsqueeze" version="opset1">
			<input>
				<port id="0" precision="I64"/>
				<port id="1" precision="I64">
					<dim>1</dim>
				</port>
			</input>
			<output>
				<port id="2" names="586" precision="I64">
					<dim>1</dim>
				</port>
			</output>
		</layer>
		<layer id="288" name="587/Unsqueeze" type="Const" version="opset1">
			<data element_type="i64" offset="44092" shape="1" size="8"/>
			<output>
				<port id="0" names="587" precision="I64">
					<dim>1</dim>
				</port>
			</output>
		</layer>
		<layer id="289" name="575" type="ShapeOf" version="opset3">
			<data output_type="i64"/>
			<input>
				<port id="0" precision="FP32">
					<dim>1</dim>
					<dim>232</dim>
					<dim>20</dim>
					<dim>20</dim>
				</port>
			</input>
			<output>
				<port id="1" names="575" precision="I64">
					<dim>4</dim>
				</port>
			</output>
		</layer>
		<layer id="290" name="574" type="Const" version="opset1">
			<data element_type="i32" offset="44100" shape="" size="4"/>
			<output>
				<port id="0" names="574" precision="I32"/>
			</output>
		</layer>
		<layer id="291" name="576/axis" type="Const" version="opset1">
			<data element_type="i64" offset="44084" shape="" size="8"/>
			<output>
				<port id="0" precision="I64"/>
			</output>
		</layer>
		<layer id="292" name="5762790" type="Gather" version="opset7">
			<data batch_dims="0"/>
			<input>
				<port id="0" precision="I64">
					<dim>4</dim>
				</port>
				<port id="1" precision="I32"/>
				<port id="2" precision="I64"/>
			</input>
			<output>
				<port id="3" names="576" precision="I64"/>
			</output>
		</layer>
		<layer id="293" name="583" type="Const" version="opset1">
			<data element_type="i64" offset="44092" shape="" size="8"/>
			<output>
				<port id="0" names="583" precision="I64"/>
			</output>
		</layer>
		<layer id="294" name="584" type="Divide" version="opset1">
			<data auto_broadcast="numpy" m_pythondiv="true"/>
			<input>
				<port id="0" precision="I64"/>
				<port id="1" precision="I64"/>
			</input>
			<output>
				<port id="2" names="584" precision="I64"/>
			</output>
		</layer>
		<layer id="295" name="588/Dims" type="Const" version="opset1">
			<data element_type="i64" offset="44084" shape="1" size="8"/>
			<output>
				<port id="0" precision="I64">
					<dim>1</dim>
				</port>
			</output>
		</layer>
		<layer id="296" name="588/Unsqueeze" type="Unsqueeze" version="opset1">
			<input>
				<port id="0" precision="I64"/>
				<port id="1" precision="I64">
					<dim>1</dim>
				</port>
			</input>
			<output>
				<port id="2" names="588" precision="I64">
					<dim>1</dim>
				</port>
			</output>
		</layer>
		<layer id="297" name="578" type="ShapeOf" version="opset3">
			<data output_type="i64"/>
			<input>
				<port id="0" precision="FP32">
					<dim>1</dim>
					<dim>232</dim>
					<dim>20</dim>
					<dim>20</dim>
				</port>
			</input>
			<output>
				<port id="1" names="578" precision="I64">
					<dim>4</dim>
				</port>
			</output>
		</layer>
		<layer id="298" name="577" type="Const" version="opset1">
			<data element_type="i32" offset="44104" shape="" size="4"/>
			<output>
				<port id="0" names="577" precision="I32"/>
			</output>
		</layer>
		<layer id="299" name="579/axis" type="Const" version="opset1">
			<data element_type="i64" offset="44084" shape="" size="8"/>
			<output>
				<port id="0" precision="I64"/>
			</output>
		</layer>
		<layer id="300" name="5792688" type="Gather" version="opset7">
			<data batch_dims="0"/>
			<input>
				<port id="0" precision="I64">
					<dim>4</dim>
				</port>
				<port id="1" precision="I32"/>
				<port id="2" precision="I64"/>
			</input>
			<output>
				<port id="3" names="579" precision="I64"/>
			</output>
		</layer>
		<layer id="301" name="589/Dims" type="Const" version="opset1">
			<data element_type="i64" offset="44084" shape="1" size="8"/>
			<output>
				<port id="0" precision="I64">
					<dim>1</dim>
				</port>
			</output>
		</layer>
		<layer id="302" name="589/Unsqueeze" type="Unsqueeze" version="opset1">
			<input>
				<port id="0" precision="I64"/>
				<port id="1" precision="I64">
					<dim>1</dim>
				</port>
			</input>
			<output>
				<port id="2" names="589" precision="I64">
					<dim>1</dim>
				</port>
			</output>
		</layer>
		<layer id="303" name="581" type="ShapeOf" version="opset3">
			<data output_type="i64"/>
			<input>
				<port id="0" precision="FP32">
					<dim>1</dim>
					<dim>232</dim>
					<dim>20</dim>
					<dim>20</dim>
				</port>
			</input>
			<output>
				<port id="1" names="581" precision="I64">
					<dim>4</dim>
				</port>
			</output>
		</layer>
		<layer id="304" name="580" type="Const" version="opset1">
			<data element_type="i32" offset="44108" shape="" size="4"/>
			<output>
				<port id="0" names="580" precision="I32"/>
			</output>
		</layer>
		<layer id="305" name="582/axis" type="Const" version="opset1">
			<data element_type="i64" offset="44084" shape="" size="8"/>
			<output>
				<port id="0" precision="I64"/>
			</output>
		</layer>
		<layer id="306" name="5822808" type="Gather" version="opset7">
			<data batch_dims="0"/>
			<input>
				<port id="0" precision="I64">
					<dim>4</dim>
				</port>
				<port id="1" precision="I32"/>
				<port id="2" precision="I64"/>
			</input>
			<output>
				<port id="3" names="582" precision="I64"/>
			</output>
		</layer>
		<layer id="307" name="590/Dims" type="Const" version="opset1">
			<data element_type="i64" offset="44084" shape="1" size="8"/>
			<output>
				<port id="0" precision="I64">
					<dim>1</dim>
				</port>
			</output>
		</layer>
		<layer id="308" name="590/Unsqueeze" type="Unsqueeze" version="opset1">
			<input>
				<port id="0" precision="I64"/>
				<port id="1" precision="I64">
					<dim>1</dim>
				</port>
			</input>
			<output>
				<port id="2" names="590" precision="I64">
					<dim>1</dim>
				</port>
			</output>
		</layer>
		<layer id="309" name="591" type="Concat" version="opset1">
			<data axis="0"/>
			<input>
				<port id="0" precision="I64">
					<dim>1</dim>
				</port>
				<port id="1" precision="I64">
					<dim>1</dim>
				</port>
				<port id="2" precision="I64">
					<dim>1</dim>
				</port>
				<port id="3" precision="I64">
					<dim>1</dim>
				</port>
				<port id="4" precision="I64">
					<dim>1</dim>
				</port>
			</input>
			<output>
				<port id="5" names="591" precision="I64">
					<dim>5</dim>
				</port>
			</output>
		</layer>
		<layer id="310" name="592" type="Reshape" version="opset1">
			<data special_zero="true"/>
			<input>
				<port id="0" precision="FP32">
					<dim>1</dim>
					<dim>232</dim>
					<dim>20</dim>
					<dim>20</dim>
				</port>
				<port id="1" precision="I64">
					<dim>5</dim>
				</port>
			</input>
			<output>
				<port id="2" names="592" precision="FP32">
					<dim>1</dim>
					<dim>2</dim>
					<dim>116</dim>
					<dim>20</dim>
					<dim>20</dim>
				</port>
			</output>
		</layer>
		<layer id="311" name="1712" type="Const" version="opset1">
			<data element_type="i64" offset="44112" shape="5" size="40"/>
			<output>
				<port id="0" precision="I64">
					<dim>5</dim>
				</port>
			</output>
		</layer>
		<layer id="312" name="593" type="Transpose" version="opset1">
			<input>
				<port id="0" precision="FP32">
					<dim>1</dim>
					<dim>2</dim>
					<dim>116</dim>
					<dim>20</dim>
					<dim>20</dim>
				</port>
				<port id="1" precision="I64">
					<dim>5</dim>
				</port>
			</input>
			<output>
				<port id="2" names="593" precision="FP32">
					<dim>1</dim>
					<dim>116</dim>
					<dim>2</dim>
					<dim>20</dim>
					<dim>20</dim>
				</port>
			</output>
		</layer>
		<layer id="313" name="594/Dims" type="Const" version="opset1">
			<data element_type="i64" offset="44084" shape="1" size="8"/>
			<output>
				<port id="0" precision="I64">
					<dim>1</dim>
				</port>
			</output>
		</layer>
		<layer id="314" name="594/Unsqueeze" type="Unsqueeze" version="opset1">
			<input>
				<port id="0" precision="I64"/>
				<port id="1" precision="I64">
					<dim>1</dim>
				</port>
			</input>
			<output>
				<port id="2" names="594" precision="I64">
					<dim>1</dim>
				</port>
			</output>
		</layer>
		<layer id="315" name="595/Dims" type="Const" version="opset1">
			<data element_type="i64" offset="44084" shape="1" size="8"/>
			<output>
				<port id="0" precision="I64">
					<dim>1</dim>
				</port>
			</output>
		</layer>
		<layer id="316" name="595/Unsqueeze" type="Unsqueeze" version="opset1">
			<input>
				<port id="0" precision="I64"/>
				<port id="1" precision="I64">
					<dim>1</dim>
				</port>
			</input>
			<output>
				<port id="2" names="595" precision="I64">
					<dim>1</dim>
				</port>
			</output>
		</layer>
		<layer id="317" name="596/Dims" type="Const" version="opset1">
			<data element_type="i64" offset="44084" shape="1" size="8"/>
			<output>
				<port id="0" precision="I64">
					<dim>1</dim>
				</port>
			</output>
		</layer>
		<layer id="318" name="596/Unsqueeze" type="Unsqueeze" version="opset1">
			<input>
				<port id="0" precision="I64"/>
				<port id="1" precision="I64">
					<dim>1</dim>
				</port>
			</input>
			<output>
				<port id="2" names="596" precision="I64">
					<dim>1</dim>
				</port>
			</output>
		</layer>
		<layer id="319" name="597/Dims" type="Const" version="opset1">
			<data element_type="i64" offset="44084" shape="1" size="8"/>
			<output>
				<port id="0" precision="I64">
					<dim>1</dim>
				</port>
			</output>
		</layer>
		<layer id="320" name="597/Unsqueeze" type="Unsqueeze" version="opset1">
			<input>
				<port id="0" precision="I64"/>
				<port id="1" precision="I64">
					<dim>1</dim>
				</port>
			</input>
			<output>
				<port id="2" names="597" precision="I64">
					<dim>1</dim>
				</port>
			</output>
		</layer>
		<layer id="321" name="598" type="Concat" version="opset1">
			<data axis="0"/>
			<input>
				<port id="0" precision="I64">
					<dim>1</dim>
				</port>
				<port id="1" precision="I64">
					<dim>1</dim>
				</port>
				<port id="2" precision="I64">
					<dim>1</dim>
				</port>
				<port id="3" precision="I64">
					<dim>1</dim>
				</port>
			</input>
			<output>
				<port id="4" names="598" precision="I64">
					<dim>4</dim>
				</port>
			</output>
		</layer>
		<layer id="322" name="599" type="Reshape" version="opset1">
			<data special_zero="true"/>
			<input>
				<port id="0" precision="FP32">
					<dim>1</dim>
					<dim>116</dim>
					<dim>2</dim>
					<dim>20</dim>
					<dim>20</dim>
				</port>
				<port id="1" precision="I64">
					<dim>4</dim>
				</port>
			</input>
			<output>
				<port id="2" names="599" precision="FP32">
					<dim>1</dim>
					<dim>232</dim>
					<dim>20</dim>
					<dim>20</dim>
				</port>
			</output>
		</layer>
		<layer id="323" name="600/VariadicSplit_input_port_1/value" type="Const" version="opset1">
			<data element_type="i64" offset="44152" shape="" size="8"/>
			<output>
				<port id="0" precision="I64"/>
			</output>
		</layer>
		<layer id="324" name="600/VariadicSplit_input_port_2/value" type="Const" version="opset1">
			<data element_type="i64" offset="327872" shape="2" size="16"/>
			<output>
				<port id="0" precision="I64">
					<dim>2</dim>
				</port>
			</output>
		</layer>
		<layer id="325" name="600/VariadicSplit" type="VariadicSplit" version="opset1">
			<input>
				<port id="0" precision="FP32">
					<dim>1</dim>
					<dim>232</dim>
					<dim>20</dim>
					<dim>20</dim>
				</port>
				<port id="1" precision="I64"/>
				<port id="2" precision="I64">
					<dim>2</dim>
				</port>
			</input>
			<output>
				<port id="3" names="600" precision="FP32">
					<dim>1</dim>
					<dim>116</dim>
					<dim>20</dim>
					<dim>20</dim>
				</port>
				<port id="4" names="601" precision="FP32">
					<dim>1</dim>
					<dim>116</dim>
					<dim>20</dim>
					<dim>20</dim>
				</port>
			</output>
		</layer>
		<layer id="326" name="603/mean/Fused_Mul__copy" type="Const" version="opset1">
			<data element_type="f32" offset="327888" shape="116, 116, 1, 1" size="53824"/>
			<output>
				<port id="0" names="backbone.features.stage2.unit2.compress_conv1.weight" precision="FP32">
					<dim>116</dim>
					<dim>116</dim>
					<dim>1</dim>
					<dim>1</dim>
				</port>
			</output>
		</layer>
		<layer id="327" name="602" type="Convolution" version="opset1">
			<data auto_pad="explicit" dilations="1, 1" pads_begin="0, 0" pads_end="0, 0" strides="1, 1"/>
			<input>
				<port id="0" precision="FP32">
					<dim>1</dim>
					<dim>116</dim>
					<dim>20</dim>
					<dim>20</dim>
				</port>
				<port id="1" precision="FP32">
					<dim>116</dim>
					<dim>116</dim>
					<dim>1</dim>
					<dim>1</dim>
				</port>
			</input>
			<output>
				<port id="2" precision="FP32">
					<dim>1</dim>
					<dim>116</dim>
					<dim>20</dim>
					<dim>20</dim>
				</port>
			</output>
		</layer>
		<layer id="328" name="data_add_3821738222" type="Const" version="opset1">
			<data element_type="f32" offset="381712" shape="1, 116, 1, 1" size="464"/>
			<output>
				<port id="0" precision="FP32">
					<dim>1</dim>
					<dim>116</dim>
					<dim>1</dim>
					<dim>1</dim>
				</port>
			</output>
		</layer>
		<layer id="329" name="603/variance/Fused_Add_" type="Add" version="opset1">
			<data auto_broadcast="numpy"/>
			<input>
				<port id="0" precision="FP32">
					<dim>1</dim>
					<dim>116</dim>
					<dim>20</dim>
					<dim>20</dim>
				</port>
				<port id="1" precision="FP32">
					<dim>1</dim>
					<dim>116</dim>
					<dim>1</dim>
					<dim>1</dim>
				</port>
			</input>
			<output>
				<port id="2" names="603" precision="FP32">
					<dim>1</dim>
					<dim>116</dim>
					<dim>20</dim>
					<dim>20</dim>
				</port>
			</output>
		</layer>
		<layer id="330" name="604" type="ReLU" version="opset1">
			<input>
				<port id="0" precision="FP32">
					<dim>1</dim>
					<dim>116</dim>
					<dim>20</dim>
					<dim>20</dim>
				</port>
			</input>
			<output>
				<port id="1" names="604" precision="FP32">
					<dim>1</dim>
					<dim>116</dim>
					<dim>20</dim>
					<dim>20</dim>
				</port>
			</output>
		</layer>
		<layer id="331" name="606/mean/Fused_Mul__copy" type="Const" version="opset1">
			<data element_type="f32" offset="382176" shape="116, 1, 1, 3, 3" size="4176"/>
			<output>
				<port id="0" names="backbone.features.stage2.unit2.dw_conv2.weight" precision="FP32">
					<dim>116</dim>
					<dim>1</dim>
					<dim>1</dim>
					<dim>3</dim>
					<dim>3</dim>
				</port>
			</output>
		</layer>
		<layer id="332" name="605" type="GroupConvolution" version="opset1">
			<data auto_pad="explicit" dilations="1, 1" pads_begin="1, 1" pads_end="1, 1" strides="1, 1"/>
			<input>
				<port id="0" precision="FP32">
					<dim>1</dim>
					<dim>116</dim>
					<dim>20</dim>
					<dim>20</dim>
				</port>
				<port id="1" precision="FP32">
					<dim>116</dim>
					<dim>1</dim>
					<dim>1</dim>
					<dim>3</dim>
					<dim>3</dim>
				</port>
			</input>
			<output>
				<port id="2" precision="FP32">
					<dim>1</dim>
					<dim>116</dim>
					<dim>20</dim>
					<dim>20</dim>
				</port>
			</output>
		</layer>
		<layer id="333" name="data_add_3822538230" type="Const" version="opset1">
			<data element_type="f32" offset="386352" shape="1, 116, 1, 1" size="464"/>
			<output>
				<port id="0" precision="FP32">
					<dim>1</dim>
					<dim>116</dim>
					<dim>1</dim>
					<dim>1</dim>
				</port>
			</output>
		</layer>
		<layer id="334" name="606/variance/Fused_Add_" type="Add" version="opset1">
			<data auto_broadcast="numpy"/>
			<input>
				<port id="0" precision="FP32">
					<dim>1</dim>
					<dim>116</dim>
					<dim>20</dim>
					<dim>20</dim>
				</port>
				<port id="1" precision="FP32">
					<dim>1</dim>
					<dim>116</dim>
					<dim>1</dim>
					<dim>1</dim>
				</port>
			</input>
			<output>
				<port id="2" names="606" precision="FP32">
					<dim>1</dim>
					<dim>116</dim>
					<dim>20</dim>
					<dim>20</dim>
				</port>
			</output>
		</layer>
		<layer id="335" name="608/mean/Fused_Mul__copy" type="Const" version="opset1">
			<data element_type="f32" offset="386816" shape="116, 116, 1, 1" size="53824"/>
			<output>
				<port id="0" names="backbone.features.stage2.unit2.expand_conv3.weight" precision="FP32">
					<dim>116</dim>
					<dim>116</dim>
					<dim>1</dim>
					<dim>1</dim>
				</port>
			</output>
		</layer>
		<layer id="336" name="607" type="Convolution" version="opset1">
			<data auto_pad="explicit" dilations="1, 1" pads_begin="0, 0" pads_end="0, 0" strides="1, 1"/>
			<input>
				<port id="0" precision="FP32">
					<dim>1</dim>
					<dim>116</dim>
					<dim>20</dim>
					<dim>20</dim>
				</port>
				<port id="1" precision="FP32">
					<dim>116</dim>
					<dim>116</dim>
					<dim>1</dim>
					<dim>1</dim>
				</port>
			</input>
			<output>
				<port id="2" precision="FP32">
					<dim>1</dim>
					<dim>116</dim>
					<dim>20</dim>
					<dim>20</dim>
				</port>
			</output>
		</layer>
		<layer id="337" name="data_add_3823338238" type="Const" version="opset1">
			<data element_type="f32" offset="440640" shape="1, 116, 1, 1" size="464"/>
			<output>
				<port id="0" precision="FP32">
					<dim>1</dim>
					<dim>116</dim>
					<dim>1</dim>
					<dim>1</dim>
				</port>
			</output>
		</layer>
		<layer id="338" name="608/variance/Fused_Add_" type="Add" version="opset1">
			<data auto_broadcast="numpy"/>
			<input>
				<port id="0" precision="FP32">
					<dim>1</dim>
					<dim>116</dim>
					<dim>20</dim>
					<dim>20</dim>
				</port>
				<port id="1" precision="FP32">
					<dim>1</dim>
					<dim>116</dim>
					<dim>1</dim>
					<dim>1</dim>
				</port>
			</input>
			<output>
				<port id="2" names="608" precision="FP32">
					<dim>1</dim>
					<dim>116</dim>
					<dim>20</dim>
					<dim>20</dim>
				</port>
			</output>
		</layer>
		<layer id="339" name="609" type="ReLU" version="opset1">
			<input>
				<port id="0" precision="FP32">
					<dim>1</dim>
					<dim>116</dim>
					<dim>20</dim>
					<dim>20</dim>
				</port>
			</input>
			<output>
				<port id="1" names="609" precision="FP32">
					<dim>1</dim>
					<dim>116</dim>
					<dim>20</dim>
					<dim>20</dim>
				</port>
			</output>
		</layer>
		<layer id="340" name="610" type="Concat" version="opset1">
			<data axis="1"/>
			<input>
				<port id="0" precision="FP32">
					<dim>1</dim>
					<dim>116</dim>
					<dim>20</dim>
					<dim>20</dim>
				</port>
				<port id="1" precision="FP32">
					<dim>1</dim>
					<dim>116</dim>
					<dim>20</dim>
					<dim>20</dim>
				</port>
			</input>
			<output>
				<port id="2" names="610" precision="FP32">
					<dim>1</dim>
					<dim>232</dim>
					<dim>20</dim>
					<dim>20</dim>
				</port>
			</output>
		</layer>
		<layer id="341" name="612" type="ShapeOf" version="opset3">
			<data output_type="i64"/>
			<input>
				<port id="0" precision="FP32">
					<dim>1</dim>
					<dim>232</dim>
					<dim>20</dim>
					<dim>20</dim>
				</port>
			</input>
			<output>
				<port id="1" names="612" precision="I64">
					<dim>4</dim>
				</port>
			</output>
		</layer>
		<layer id="342" name="611" type="Const" version="opset1">
			<data element_type="i32" offset="44080" shape="" size="4"/>
			<output>
				<port id="0" names="611" precision="I32"/>
			</output>
		</layer>
		<layer id="343" name="613/axis" type="Const" version="opset1">
			<data element_type="i64" offset="44084" shape="" size="8"/>
			<output>
				<port id="0" precision="I64"/>
			</output>
		</layer>
		<layer id="344" name="6132936" type="Gather" version="opset7">
			<data batch_dims="0"/>
			<input>
				<port id="0" precision="I64">
					<dim>4</dim>
				</port>
				<port id="1" precision="I32"/>
				<port id="2" precision="I64"/>
			</input>
			<output>
				<port id="3" names="613" precision="I64"/>
			</output>
		</layer>
		<layer id="345" name="626/Dims" type="Const" version="opset1">
			<data element_type="i64" offset="44084" shape="1" size="8"/>
			<output>
				<port id="0" precision="I64">
					<dim>1</dim>
				</port>
			</output>
		</layer>
		<layer id="346" name="626/Unsqueeze" type="Unsqueeze" version="opset1">
			<input>
				<port id="0" precision="I64"/>
				<port id="1" precision="I64">
					<dim>1</dim>
				</port>
			</input>
			<output>
				<port id="2" names="626" precision="I64">
					<dim>1</dim>
				</port>
			</output>
		</layer>
		<layer id="347" name="627/Unsqueeze" type="Const" version="opset1">
			<data element_type="i64" offset="44092" shape="1" size="8"/>
			<output>
				<port id="0" names="627" precision="I64">
					<dim>1</dim>
				</port>
			</output>
		</layer>
		<layer id="348" name="615" type="ShapeOf" version="opset3">
			<data output_type="i64"/>
			<input>
				<port id="0" precision="FP32">
					<dim>1</dim>
					<dim>232</dim>
					<dim>20</dim>
					<dim>20</dim>
				</port>
			</input>
			<output>
				<port id="1" names="615" precision="I64">
					<dim>4</dim>
				</port>
			</output>
		</layer>
		<layer id="349" name="614" type="Const" version="opset1">
			<data element_type="i32" offset="44100" shape="" size="4"/>
			<output>
				<port id="0" names="614" precision="I32"/>
			</output>
		</layer>
		<layer id="350" name="616/axis" type="Const" version="opset1">
			<data element_type="i64" offset="44084" shape="" size="8"/>
			<output>
				<port id="0" precision="I64"/>
			</output>
		</layer>
		<layer id="351" name="6162938" type="Gather" version="opset7">
			<data batch_dims="0"/>
			<input>
				<port id="0" precision="I64">
					<dim>4</dim>
				</port>
				<port id="1" precision="I32"/>
				<port id="2" precision="I64"/>
			</input>
			<output>
				<port id="3" names="616" precision="I64"/>
			</output>
		</layer>
		<layer id="352" name="623" type="Const" version="opset1">
			<data element_type="i64" offset="44092" shape="" size="8"/>
			<output>
				<port id="0" names="623" precision="I64"/>
			</output>
		</layer>
		<layer id="353" name="624" type="Divide" version="opset1">
			<data auto_broadcast="numpy" m_pythondiv="true"/>
			<input>
				<port id="0" precision="I64"/>
				<port id="1" precision="I64"/>
			</input>
			<output>
				<port id="2" names="624" precision="I64"/>
			</output>
		</layer>
		<layer id="354" name="628/Dims" type="Const" version="opset1">
			<data element_type="i64" offset="44084" shape="1" size="8"/>
			<output>
				<port id="0" precision="I64">
					<dim>1</dim>
				</port>
			</output>
		</layer>
		<layer id="355" name="628/Unsqueeze" type="Unsqueeze" version="opset1">
			<input>
				<port id="0" precision="I64"/>
				<port id="1" precision="I64">
					<dim>1</dim>
				</port>
			</input>
			<output>
				<port id="2" names="628" precision="I64">
					<dim>1</dim>
				</port>
			</output>
		</layer>
		<layer id="356" name="618" type="ShapeOf" version="opset3">
			<data output_type="i64"/>
			<input>
				<port id="0" precision="FP32">
					<dim>1</dim>
					<dim>232</dim>
					<dim>20</dim>
					<dim>20</dim>
				</port>
			</input>
			<output>
				<port id="1" names="618" precision="I64">
					<dim>4</dim>
				</port>
			</output>
		</layer>
		<layer id="357" name="617" type="Const" version="opset1">
			<data element_type="i32" offset="44104" shape="" size="4"/>
			<output>
				<port id="0" names="617" precision="I32"/>
			</output>
		</layer>
		<layer id="358" name="619/axis" type="Const" version="opset1">
			<data element_type="i64" offset="44084" shape="" size="8"/>
			<output>
				<port id="0" precision="I64"/>
			</output>
		</layer>
		<layer id="359" name="6192710" type="Gather" version="opset7">
			<data batch_dims="0"/>
			<input>
				<port id="0" precision="I64">
					<dim>4</dim>
				</port>
				<port id="1" precision="I32"/>
				<port id="2" precision="I64"/>
			</input>
			<output>
				<port id="3" names="619" precision="I64"/>
			</output>
		</layer>
		<layer id="360" name="629/Dims" type="Const" version="opset1">
			<data element_type="i64" offset="44084" shape="1" size="8"/>
			<output>
				<port id="0" precision="I64">
					<dim>1</dim>
				</port>
			</output>
		</layer>
		<layer id="361" name="629/Unsqueeze" type="Unsqueeze" version="opset1">
			<input>
				<port id="0" precision="I64"/>
				<port id="1" precision="I64">
					<dim>1</dim>
				</port>
			</input>
			<output>
				<port id="2" names="629" precision="I64">
					<dim>1</dim>
				</port>
			</output>
		</layer>
		<layer id="362" name="621" type="ShapeOf" version="opset3">
			<data output_type="i64"/>
			<input>
				<port id="0" precision="FP32">
					<dim>1</dim>
					<dim>232</dim>
					<dim>20</dim>
					<dim>20</dim>
				</port>
			</input>
			<output>
				<port id="1" names="621" precision="I64">
					<dim>4</dim>
				</port>
			</output>
		</layer>
		<layer id="363" name="620" type="Const" version="opset1">
			<data element_type="i32" offset="44108" shape="" size="4"/>
			<output>
				<port id="0" names="620" precision="I32"/>
			</output>
		</layer>
		<layer id="364" name="622/axis" type="Const" version="opset1">
			<data element_type="i64" offset="44084" shape="" size="8"/>
			<output>
				<port id="0" precision="I64"/>
			</output>
		</layer>
		<layer id="365" name="6222870" type="Gather" version="opset7">
			<data batch_dims="0"/>
			<input>
				<port id="0" precision="I64">
					<dim>4</dim>
				</port>
				<port id="1" precision="I32"/>
				<port id="2" precision="I64"/>
			</input>
			<output>
				<port id="3" names="622" precision="I64"/>
			</output>
		</layer>
		<layer id="366" name="630/Dims" type="Const" version="opset1">
			<data element_type="i64" offset="44084" shape="1" size="8"/>
			<output>
				<port id="0" precision="I64">
					<dim>1</dim>
				</port>
			</output>
		</layer>
		<layer id="367" name="630/Unsqueeze" type="Unsqueeze" version="opset1">
			<input>
				<port id="0" precision="I64"/>
				<port id="1" precision="I64">
					<dim>1</dim>
				</port>
			</input>
			<output>
				<port id="2" names="630" precision="I64">
					<dim>1</dim>
				</port>
			</output>
		</layer>
		<layer id="368" name="631" type="Concat" version="opset1">
			<data axis="0"/>
			<input>
				<port id="0" precision="I64">
					<dim>1</dim>
				</port>
				<port id="1" precision="I64">
					<dim>1</dim>
				</port>
				<port id="2" precision="I64">
					<dim>1</dim>
				</port>
				<port id="3" precision="I64">
					<dim>1</dim>
				</port>
				<port id="4" precision="I64">
					<dim>1</dim>
				</port>
			</input>
			<output>
				<port id="5" names="631" precision="I64">
					<dim>5</dim>
				</port>
			</output>
		</layer>
		<layer id="369" name="632" type="Reshape" version="opset1">
			<data special_zero="true"/>
			<input>
				<port id="0" precision="FP32">
					<dim>1</dim>
					<dim>232</dim>
					<dim>20</dim>
					<dim>20</dim>
				</port>
				<port id="1" precision="I64">
					<dim>5</dim>
				</port>
			</input>
			<output>
				<port id="2" names="632" precision="FP32">
					<dim>1</dim>
					<dim>2</dim>
					<dim>116</dim>
					<dim>20</dim>
					<dim>20</dim>
				</port>
			</output>
		</layer>
		<layer id="370" name="1693" type="Const" version="opset1">
			<data element_type="i64" offset="44112" shape="5" size="40"/>
			<output>
				<port id="0" precision="I64">
					<dim>5</dim>
				</port>
			</output>
		</layer>
		<layer id="371" name="633" type="Transpose" version="opset1">
			<input>
				<port id="0" precision="FP32">
					<dim>1</dim>
					<dim>2</dim>
					<dim>116</dim>
					<dim>20</dim>
					<dim>20</dim>
				</port>
				<port id="1" precision="I64">
					<dim>5</dim>
				</port>
			</input>
			<output>
				<port id="2" names="633" precision="FP32">
					<dim>1</dim>
					<dim>116</dim>
					<dim>2</dim>
					<dim>20</dim>
					<dim>20</dim>
				</port>
			</output>
		</layer>
		<layer id="372" name="634/Dims" type="Const" version="opset1">
			<data element_type="i64" offset="44084" shape="1" size="8"/>
			<output>
				<port id="0" precision="I64">
					<dim>1</dim>
				</port>
			</output>
		</layer>
		<layer id="373" name="634/Unsqueeze" type="Unsqueeze" version="opset1">
			<input>
				<port id="0" precision="I64"/>
				<port id="1" precision="I64">
					<dim>1</dim>
				</port>
			</input>
			<output>
				<port id="2" names="634" precision="I64">
					<dim>1</dim>
				</port>
			</output>
		</layer>
		<layer id="374" name="635/Dims" type="Const" version="opset1">
			<data element_type="i64" offset="44084" shape="1" size="8"/>
			<output>
				<port id="0" precision="I64">
					<dim>1</dim>
				</port>
			</output>
		</layer>
		<layer id="375" name="635/Unsqueeze" type="Unsqueeze" version="opset1">
			<input>
				<port id="0" precision="I64"/>
				<port id="1" precision="I64">
					<dim>1</dim>
				</port>
			</input>
			<output>
				<port id="2" names="635" precision="I64">
					<dim>1</dim>
				</port>
			</output>
		</layer>
		<layer id="376" name="636/Dims" type="Const" version="opset1">
			<data element_type="i64" offset="44084" shape="1" size="8"/>
			<output>
				<port id="0" precision="I64">
					<dim>1</dim>
				</port>
			</output>
		</layer>
		<layer id="377" name="636/Unsqueeze" type="Unsqueeze" version="opset1">
			<input>
				<port id="0" precision="I64"/>
				<port id="1" precision="I64">
					<dim>1</dim>
				</port>
			</input>
			<output>
				<port id="2" names="636" precision="I64">
					<dim>1</dim>
				</port>
			</output>
		</layer>
		<layer id="378" name="637/Dims" type="Const" version="opset1">
			<data element_type="i64" offset="44084" shape="1" size="8"/>
			<output>
				<port id="0" precision="I64">
					<dim>1</dim>
				</port>
			</output>
		</layer>
		<layer id="379" name="637/Unsqueeze" type="Unsqueeze" version="opset1">
			<input>
				<port id="0" precision="I64"/>
				<port id="1" precision="I64">
					<dim>1</dim>
				</port>
			</input>
			<output>
				<port id="2" names="637" precision="I64">
					<dim>1</dim>
				</port>
			</output>
		</layer>
		<layer id="380" name="638" type="Concat" version="opset1">
			<data axis="0"/>
			<input>
				<port id="0" precision="I64">
					<dim>1</dim>
				</port>
				<port id="1" precision="I64">
					<dim>1</dim>
				</port>
				<port id="2" precision="I64">
					<dim>1</dim>
				</port>
				<port id="3" precision="I64">
					<dim>1</dim>
				</port>
			</input>
			<output>
				<port id="4" names="638" precision="I64">
					<dim>4</dim>
				</port>
			</output>
		</layer>
		<layer id="381" name="639" type="Reshape" version="opset1">
			<data special_zero="true"/>
			<input>
				<port id="0" precision="FP32">
					<dim>1</dim>
					<dim>116</dim>
					<dim>2</dim>
					<dim>20</dim>
					<dim>20</dim>
				</port>
				<port id="1" precision="I64">
					<dim>4</dim>
				</port>
			</input>
			<output>
				<port id="2" names="639" precision="FP32">
					<dim>1</dim>
					<dim>232</dim>
					<dim>20</dim>
					<dim>20</dim>
				</port>
			</output>
		</layer>
		<layer id="382" name="640/VariadicSplit_input_port_1/value" type="Const" version="opset1">
			<data element_type="i64" offset="44152" shape="" size="8"/>
			<output>
				<port id="0" precision="I64"/>
			</output>
		</layer>
		<layer id="383" name="640/VariadicSplit_input_port_2/value" type="Const" version="opset1">
			<data element_type="i64" offset="327872" shape="2" size="16"/>
			<output>
				<port id="0" precision="I64">
					<dim>2</dim>
				</port>
			</output>
		</layer>
		<layer id="384" name="640/VariadicSplit" type="VariadicSplit" version="opset1">
			<input>
				<port id="0" precision="FP32">
					<dim>1</dim>
					<dim>232</dim>
					<dim>20</dim>
					<dim>20</dim>
				</port>
				<port id="1" precision="I64"/>
				<port id="2" precision="I64">
					<dim>2</dim>
				</port>
			</input>
			<output>
				<port id="3" names="640" precision="FP32">
					<dim>1</dim>
					<dim>116</dim>
					<dim>20</dim>
					<dim>20</dim>
				</port>
				<port id="4" names="641" precision="FP32">
					<dim>1</dim>
					<dim>116</dim>
					<dim>20</dim>
					<dim>20</dim>
				</port>
			</output>
		</layer>
		<layer id="385" name="643/mean/Fused_Mul__copy" type="Const" version="opset1">
			<data element_type="f32" offset="441104" shape="116, 116, 1, 1" size="53824"/>
			<output>
				<port id="0" names="backbone.features.stage2.unit3.compress_conv1.weight" precision="FP32">
					<dim>116</dim>
					<dim>116</dim>
					<dim>1</dim>
					<dim>1</dim>
				</port>
			</output>
		</layer>
		<layer id="386" name="642" type="Convolution" version="opset1">
			<data auto_pad="explicit" dilations="1, 1" pads_begin="0, 0" pads_end="0, 0" strides="1, 1"/>
			<input>
				<port id="0" precision="FP32">
					<dim>1</dim>
					<dim>116</dim>
					<dim>20</dim>
					<dim>20</dim>
				</port>
				<port id="1" precision="FP32">
					<dim>116</dim>
					<dim>116</dim>
					<dim>1</dim>
					<dim>1</dim>
				</port>
			</input>
			<output>
				<port id="2" precision="FP32">
					<dim>1</dim>
					<dim>116</dim>
					<dim>20</dim>
					<dim>20</dim>
				</port>
			</output>
		</layer>
		<layer id="387" name="data_add_3824138246" type="Const" version="opset1">
			<data element_type="f32" offset="494928" shape="1, 116, 1, 1" size="464"/>
			<output>
				<port id="0" precision="FP32">
					<dim>1</dim>
					<dim>116</dim>
					<dim>1</dim>
					<dim>1</dim>
				</port>
			</output>
		</layer>
		<layer id="388" name="643/variance/Fused_Add_" type="Add" version="opset1">
			<data auto_broadcast="numpy"/>
			<input>
				<port id="0" precision="FP32">
					<dim>1</dim>
					<dim>116</dim>
					<dim>20</dim>
					<dim>20</dim>
				</port>
				<port id="1" precision="FP32">
					<dim>1</dim>
					<dim>116</dim>
					<dim>1</dim>
					<dim>1</dim>
				</port>
			</input>
			<output>
				<port id="2" names="643" precision="FP32">
					<dim>1</dim>
					<dim>116</dim>
					<dim>20</dim>
					<dim>20</dim>
				</port>
			</output>
		</layer>
		<layer id="389" name="644" type="ReLU" version="opset1">
			<input>
				<port id="0" precision="FP32">
					<dim>1</dim>
					<dim>116</dim>
					<dim>20</dim>
					<dim>20</dim>
				</port>
			</input>
			<output>
				<port id="1" names="644" precision="FP32">
					<dim>1</dim>
					<dim>116</dim>
					<dim>20</dim>
					<dim>20</dim>
				</port>
			</output>
		</layer>
		<layer id="390" name="646/mean/Fused_Mul__copy" type="Const" version="opset1">
			<data element_type="f32" offset="495392" shape="116, 1, 1, 3, 3" size="4176"/>
			<output>
				<port id="0" names="backbone.features.stage2.unit3.dw_conv2.weight" precision="FP32">
					<dim>116</dim>
					<dim>1</dim>
					<dim>1</dim>
					<dim>3</dim>
					<dim>3</dim>
				</port>
			</output>
		</layer>
		<layer id="391" name="645" type="GroupConvolution" version="opset1">
			<data auto_pad="explicit" dilations="1, 1" pads_begin="1, 1" pads_end="1, 1" strides="1, 1"/>
			<input>
				<port id="0" precision="FP32">
					<dim>1</dim>
					<dim>116</dim>
					<dim>20</dim>
					<dim>20</dim>
				</port>
				<port id="1" precision="FP32">
					<dim>116</dim>
					<dim>1</dim>
					<dim>1</dim>
					<dim>3</dim>
					<dim>3</dim>
				</port>
			</input>
			<output>
				<port id="2" precision="FP32">
					<dim>1</dim>
					<dim>116</dim>
					<dim>20</dim>
					<dim>20</dim>
				</port>
			</output>
		</layer>
		<layer id="392" name="data_add_3824938254" type="Const" version="opset1">
			<data element_type="f32" offset="499568" shape="1, 116, 1, 1" size="464"/>
			<output>
				<port id="0" precision="FP32">
					<dim>1</dim>
					<dim>116</dim>
					<dim>1</dim>
					<dim>1</dim>
				</port>
			</output>
		</layer>
		<layer id="393" name="646/variance/Fused_Add_" type="Add" version="opset1">
			<data auto_broadcast="numpy"/>
			<input>
				<port id="0" precision="FP32">
					<dim>1</dim>
					<dim>116</dim>
					<dim>20</dim>
					<dim>20</dim>
				</port>
				<port id="1" precision="FP32">
					<dim>1</dim>
					<dim>116</dim>
					<dim>1</dim>
					<dim>1</dim>
				</port>
			</input>
			<output>
				<port id="2" names="646" precision="FP32">
					<dim>1</dim>
					<dim>116</dim>
					<dim>20</dim>
					<dim>20</dim>
				</port>
			</output>
		</layer>
		<layer id="394" name="648/mean/Fused_Mul__copy" type="Const" version="opset1">
			<data element_type="f32" offset="500032" shape="116, 116, 1, 1" size="53824"/>
			<output>
				<port id="0" names="backbone.features.stage2.unit3.expand_conv3.weight" precision="FP32">
					<dim>116</dim>
					<dim>116</dim>
					<dim>1</dim>
					<dim>1</dim>
				</port>
			</output>
		</layer>
		<layer id="395" name="647" type="Convolution" version="opset1">
			<data auto_pad="explicit" dilations="1, 1" pads_begin="0, 0" pads_end="0, 0" strides="1, 1"/>
			<input>
				<port id="0" precision="FP32">
					<dim>1</dim>
					<dim>116</dim>
					<dim>20</dim>
					<dim>20</dim>
				</port>
				<port id="1" precision="FP32">
					<dim>116</dim>
					<dim>116</dim>
					<dim>1</dim>
					<dim>1</dim>
				</port>
			</input>
			<output>
				<port id="2" precision="FP32">
					<dim>1</dim>
					<dim>116</dim>
					<dim>20</dim>
					<dim>20</dim>
				</port>
			</output>
		</layer>
		<layer id="396" name="data_add_3825738262" type="Const" version="opset1">
			<data element_type="f32" offset="553856" shape="1, 116, 1, 1" size="464"/>
			<output>
				<port id="0" precision="FP32">
					<dim>1</dim>
					<dim>116</dim>
					<dim>1</dim>
					<dim>1</dim>
				</port>
			</output>
		</layer>
		<layer id="397" name="648/variance/Fused_Add_" type="Add" version="opset1">
			<data auto_broadcast="numpy"/>
			<input>
				<port id="0" precision="FP32">
					<dim>1</dim>
					<dim>116</dim>
					<dim>20</dim>
					<dim>20</dim>
				</port>
				<port id="1" precision="FP32">
					<dim>1</dim>
					<dim>116</dim>
					<dim>1</dim>
					<dim>1</dim>
				</port>
			</input>
			<output>
				<port id="2" names="648" precision="FP32">
					<dim>1</dim>
					<dim>116</dim>
					<dim>20</dim>
					<dim>20</dim>
				</port>
			</output>
		</layer>
		<layer id="398" name="649" type="ReLU" version="opset1">
			<input>
				<port id="0" precision="FP32">
					<dim>1</dim>
					<dim>116</dim>
					<dim>20</dim>
					<dim>20</dim>
				</port>
			</input>
			<output>
				<port id="1" names="649" precision="FP32">
					<dim>1</dim>
					<dim>116</dim>
					<dim>20</dim>
					<dim>20</dim>
				</port>
			</output>
		</layer>
		<layer id="399" name="650" type="Concat" version="opset1">
			<data axis="1"/>
			<input>
				<port id="0" precision="FP32">
					<dim>1</dim>
					<dim>116</dim>
					<dim>20</dim>
					<dim>20</dim>
				</port>
				<port id="1" precision="FP32">
					<dim>1</dim>
					<dim>116</dim>
					<dim>20</dim>
					<dim>20</dim>
				</port>
			</input>
			<output>
				<port id="2" names="650" precision="FP32">
					<dim>1</dim>
					<dim>232</dim>
					<dim>20</dim>
					<dim>20</dim>
				</port>
			</output>
		</layer>
		<layer id="400" name="652" type="ShapeOf" version="opset3">
			<data output_type="i64"/>
			<input>
				<port id="0" precision="FP32">
					<dim>1</dim>
					<dim>232</dim>
					<dim>20</dim>
					<dim>20</dim>
				</port>
			</input>
			<output>
				<port id="1" names="652" precision="I64">
					<dim>4</dim>
				</port>
			</output>
		</layer>
		<layer id="401" name="651" type="Const" version="opset1">
			<data element_type="i32" offset="44080" shape="" size="4"/>
			<output>
				<port id="0" names="651" precision="I32"/>
			</output>
		</layer>
		<layer id="402" name="653/axis" type="Const" version="opset1">
			<data element_type="i64" offset="44084" shape="" size="8"/>
			<output>
				<port id="0" precision="I64"/>
			</output>
		</layer>
		<layer id="403" name="6532984" type="Gather" version="opset7">
			<data batch_dims="0"/>
			<input>
				<port id="0" precision="I64">
					<dim>4</dim>
				</port>
				<port id="1" precision="I32"/>
				<port id="2" precision="I64"/>
			</input>
			<output>
				<port id="3" names="653" precision="I64"/>
			</output>
		</layer>
		<layer id="404" name="666/Dims" type="Const" version="opset1">
			<data element_type="i64" offset="44084" shape="1" size="8"/>
			<output>
				<port id="0" precision="I64">
					<dim>1</dim>
				</port>
			</output>
		</layer>
		<layer id="405" name="666/Unsqueeze" type="Unsqueeze" version="opset1">
			<input>
				<port id="0" precision="I64"/>
				<port id="1" precision="I64">
					<dim>1</dim>
				</port>
			</input>
			<output>
				<port id="2" names="666" precision="I64">
					<dim>1</dim>
				</port>
			</output>
		</layer>
		<layer id="406" name="667/Unsqueeze" type="Const" version="opset1">
			<data element_type="i64" offset="44092" shape="1" size="8"/>
			<output>
				<port id="0" names="667" precision="I64">
					<dim>1</dim>
				</port>
			</output>
		</layer>
		<layer id="407" name="655" type="ShapeOf" version="opset3">
			<data output_type="i64"/>
			<input>
				<port id="0" precision="FP32">
					<dim>1</dim>
					<dim>232</dim>
					<dim>20</dim>
					<dim>20</dim>
				</port>
			</input>
			<output>
				<port id="1" names="655" precision="I64">
					<dim>4</dim>
				</port>
			</output>
		</layer>
		<layer id="408" name="654" type="Const" version="opset1">
			<data element_type="i32" offset="44100" shape="" size="4"/>
			<output>
				<port id="0" names="654" precision="I32"/>
			</output>
		</layer>
		<layer id="409" name="656/axis" type="Const" version="opset1">
			<data element_type="i64" offset="44084" shape="" size="8"/>
			<output>
				<port id="0" precision="I64"/>
			</output>
		</layer>
		<layer id="410" name="6562828" type="Gather" version="opset7">
			<data batch_dims="0"/>
			<input>
				<port id="0" precision="I64">
					<dim>4</dim>
				</port>
				<port id="1" precision="I32"/>
				<port id="2" precision="I64"/>
			</input>
			<output>
				<port id="3" names="656" precision="I64"/>
			</output>
		</layer>
		<layer id="411" name="663" type="Const" version="opset1">
			<data element_type="i64" offset="44092" shape="" size="8"/>
			<output>
				<port id="0" names="663" precision="I64"/>
			</output>
		</layer>
		<layer id="412" name="664" type="Divide" version="opset1">
			<data auto_broadcast="numpy" m_pythondiv="true"/>
			<input>
				<port id="0" precision="I64"/>
				<port id="1" precision="I64"/>
			</input>
			<output>
				<port id="2" names="664" precision="I64"/>
			</output>
		</layer>
		<layer id="413" name="668/Dims" type="Const" version="opset1">
			<data element_type="i64" offset="44084" shape="1" size="8"/>
			<output>
				<port id="0" precision="I64">
					<dim>1</dim>
				</port>
			</output>
		</layer>
		<layer id="414" name="668/Unsqueeze" type="Unsqueeze" version="opset1">
			<input>
				<port id="0" precision="I64"/>
				<port id="1" precision="I64">
					<dim>1</dim>
				</port>
			</input>
			<output>
				<port id="2" names="668" precision="I64">
					<dim>1</dim>
				</port>
			</output>
		</layer>
		<layer id="415" name="658" type="ShapeOf" version="opset3">
			<data output_type="i64"/>
			<input>
				<port id="0" precision="FP32">
					<dim>1</dim>
					<dim>232</dim>
					<dim>20</dim>
					<dim>20</dim>
				</port>
			</input>
			<output>
				<port id="1" names="658" precision="I64">
					<dim>4</dim>
				</port>
			</output>
		</layer>
		<layer id="416" name="657" type="Const" version="opset1">
			<data element_type="i32" offset="44104" shape="" size="4"/>
			<output>
				<port id="0" names="657" precision="I32"/>
			</output>
		</layer>
		<layer id="417" name="659/axis" type="Const" version="opset1">
			<data element_type="i64" offset="44084" shape="" size="8"/>
			<output>
				<port id="0" precision="I64"/>
			</output>
		</layer>
		<layer id="418" name="6592830" type="Gather" version="opset7">
			<data batch_dims="0"/>
			<input>
				<port id="0" precision="I64">
					<dim>4</dim>
				</port>
				<port id="1" precision="I32"/>
				<port id="2" precision="I64"/>
			</input>
			<output>
				<port id="3" names="659" precision="I64"/>
			</output>
		</layer>
		<layer id="419" name="669/Dims" type="Const" version="opset1">
			<data element_type="i64" offset="44084" shape="1" size="8"/>
			<output>
				<port id="0" precision="I64">
					<dim>1</dim>
				</port>
			</output>
		</layer>
		<layer id="420" name="669/Unsqueeze" type="Unsqueeze" version="opset1">
			<input>
				<port id="0" precision="I64"/>
				<port id="1" precision="I64">
					<dim>1</dim>
				</port>
			</input>
			<output>
				<port id="2" names="669" precision="I64">
					<dim>1</dim>
				</port>
			</output>
		</layer>
		<layer id="421" name="661" type="ShapeOf" version="opset3">
			<data output_type="i64"/>
			<input>
				<port id="0" precision="FP32">
					<dim>1</dim>
					<dim>232</dim>
					<dim>20</dim>
					<dim>20</dim>
				</port>
			</input>
			<output>
				<port id="1" names="661" precision="I64">
					<dim>4</dim>
				</port>
			</output>
		</layer>
		<layer id="422" name="660" type="Const" version="opset1">
			<data element_type="i32" offset="44108" shape="" size="4"/>
			<output>
				<port id="0" names="660" precision="I32"/>
			</output>
		</layer>
		<layer id="423" name="662/axis" type="Const" version="opset1">
			<data element_type="i64" offset="44084" shape="" size="8"/>
			<output>
				<port id="0" precision="I64"/>
			</output>
		</layer>
		<layer id="424" name="6622802" type="Gather" version="opset7">
			<data batch_dims="0"/>
			<input>
				<port id="0" precision="I64">
					<dim>4</dim>
				</port>
				<port id="1" precision="I32"/>
				<port id="2" precision="I64"/>
			</input>
			<output>
				<port id="3" names="662" precision="I64"/>
			</output>
		</layer>
		<layer id="425" name="670/Dims" type="Const" version="opset1">
			<data element_type="i64" offset="44084" shape="1" size="8"/>
			<output>
				<port id="0" precision="I64">
					<dim>1</dim>
				</port>
			</output>
		</layer>
		<layer id="426" name="670/Unsqueeze" type="Unsqueeze" version="opset1">
			<input>
				<port id="0" precision="I64"/>
				<port id="1" precision="I64">
					<dim>1</dim>
				</port>
			</input>
			<output>
				<port id="2" names="670" precision="I64">
					<dim>1</dim>
				</port>
			</output>
		</layer>
		<layer id="427" name="671" type="Concat" version="opset1">
			<data axis="0"/>
			<input>
				<port id="0" precision="I64">
					<dim>1</dim>
				</port>
				<port id="1" precision="I64">
					<dim>1</dim>
				</port>
				<port id="2" precision="I64">
					<dim>1</dim>
				</port>
				<port id="3" precision="I64">
					<dim>1</dim>
				</port>
				<port id="4" precision="I64">
					<dim>1</dim>
				</port>
			</input>
			<output>
				<port id="5" names="671" precision="I64">
					<dim>5</dim>
				</port>
			</output>
		</layer>
		<layer id="428" name="672" type="Reshape" version="opset1">
			<data special_zero="true"/>
			<input>
				<port id="0" precision="FP32">
					<dim>1</dim>
					<dim>232</dim>
					<dim>20</dim>
					<dim>20</dim>
				</port>
				<port id="1" precision="I64">
					<dim>5</dim>
				</port>
			</input>
			<output>
				<port id="2" names="672" precision="FP32">
					<dim>1</dim>
					<dim>2</dim>
					<dim>116</dim>
					<dim>20</dim>
					<dim>20</dim>
				</port>
			</output>
		</layer>
		<layer id="429" name="1710" type="Const" version="opset1">
			<data element_type="i64" offset="44112" shape="5" size="40"/>
			<output>
				<port id="0" precision="I64">
					<dim>5</dim>
				</port>
			</output>
		</layer>
		<layer id="430" name="673" type="Transpose" version="opset1">
			<input>
				<port id="0" precision="FP32">
					<dim>1</dim>
					<dim>2</dim>
					<dim>116</dim>
					<dim>20</dim>
					<dim>20</dim>
				</port>
				<port id="1" precision="I64">
					<dim>5</dim>
				</port>
			</input>
			<output>
				<port id="2" names="673" precision="FP32">
					<dim>1</dim>
					<dim>116</dim>
					<dim>2</dim>
					<dim>20</dim>
					<dim>20</dim>
				</port>
			</output>
		</layer>
		<layer id="431" name="674/Dims" type="Const" version="opset1">
			<data element_type="i64" offset="44084" shape="1" size="8"/>
			<output>
				<port id="0" precision="I64">
					<dim>1</dim>
				</port>
			</output>
		</layer>
		<layer id="432" name="674/Unsqueeze" type="Unsqueeze" version="opset1">
			<input>
				<port id="0" precision="I64"/>
				<port id="1" precision="I64">
					<dim>1</dim>
				</port>
			</input>
			<output>
				<port id="2" names="674" precision="I64">
					<dim>1</dim>
				</port>
			</output>
		</layer>
		<layer id="433" name="675/Dims" type="Const" version="opset1">
			<data element_type="i64" offset="44084" shape="1" size="8"/>
			<output>
				<port id="0" precision="I64">
…
		<edge from-layer="1794" from-port="3" to-layer="1795" to-port="1"/>
		<edge from-layer="1795" from-port="2" to-layer="1796" to-port="0"/>
		<edge from-layer="1796" from-port="1" to-layer="1798" to-port="0"/>
		<edge from-layer="1797" from-port="0" to-layer="1798" to-port="1"/>
		<edge from-layer="1798" from-port="2" to-layer="1809" to-port="2"/>
		<edge from-layer="1799" from-port="0" to-layer="1801" to-port="1"/>
		<edge from-layer="1800" from-port="0" to-layer="1801" to-port="2"/>
		<edge from-layer="1801" from-port="3" to-layer="1805" to-port="0"/>
		<edge from-layer="1802" from-port="0" to-layer="1804" to-port="1"/>
		<edge from-layer="1803" from-port="0" to-layer="1804" to-port="2"/>
		<edge from-layer="1804" from-port="3" to-layer="1805" to-port="1"/>
		<edge from-layer="1805" from-port="2" to-layer="1806" to-port="0"/>
		<edge from-layer="1806" from-port="1" to-layer="1808" to-port="0"/>
		<edge from-layer="1807" from-port="0" to-layer="1808" to-port="1"/>
		<edge from-layer="1808" from-port="2" to-layer="1809" to-port="3"/>
		<edge from-layer="1809" from-port="4" to-layer="2289" to-port="2"/>
		<edge from-layer="1810" from-port="0" to-layer="1932" to-port="0"/>
		<edge from-layer="1811" from-port="0" to-layer="1812" to-port="1"/>
		<edge from-layer="1812" from-port="2" to-layer="1814" to-port="0"/>
		<edge from-layer="1813" from-port="0" to-layer="1814" to-port="1"/>
		<edge from-layer="1814" from-port="2" to-layer="1937" to-port="0"/>
		<edge from-layer="1814" from-port="2" to-layer="2050" to-port="0"/>
		<edge from-layer="1814" from-port="2" to-layer="1816" to-port="0"/>
		<edge from-layer="1815" from-port="0" to-layer="1816" to-port="1"/>
		<edge from-layer="1816" from-port="2" to-layer="1818" to-port="0"/>
		<edge from-layer="1816" from-port="2" to-layer="1824" to-port="0"/>
		<edge from-layer="1817" from-port="0" to-layer="1823" to-port="0"/>
		<edge from-layer="1818" from-port="1" to-layer="1819" to-port="0"/>
		<edge from-layer="1819" from-port="1" to-layer="1821" to-port="0"/>
		<edge from-layer="1820" from-port="0" to-layer="1821" to-port="1"/>
		<edge from-layer="1821" from-port="2" to-layer="1823" to-port="1"/>
		<edge from-layer="1822" from-port="0" to-layer="1823" to-port="2"/>
		<edge from-layer="1823" from-port="3" to-layer="1824" to-port="1"/>
		<edge from-layer="1824" from-port="2" to-layer="1826" to-port="0"/>
		<edge from-layer="1825" from-port="0" to-layer="1826" to-port="1"/>
		<edge from-layer="1826" from-port="2" to-layer="1828" to-port="0"/>
		<edge from-layer="1827" from-port="0" to-layer="1828" to-port="1"/>
		<edge from-layer="1828" from-port="2" to-layer="1829" to-port="0"/>
		<edge from-layer="1829" from-port="1" to-layer="1831" to-port="0"/>
		<edge from-layer="1830" from-port="0" to-layer="1831" to-port="1"/>
		<edge from-layer="1831" from-port="2" to-layer="1833" to-port="0"/>
		<edge from-layer="1831" from-port="2" to-layer="1839" to-port="0"/>
		<edge from-layer="1832" from-port="0" to-layer="1838" to-port="0"/>
		<edge from-layer="1833" from-port="1" to-layer="1834" to-port="0"/>
		<edge from-layer="1834" from-port="1" to-layer="1836" to-port="0"/>
		<edge from-layer="1835" from-port="0" to-layer="1836" to-port="1"/>
		<edge from-layer="1836" from-port="2" to-layer="1838" to-port="1"/>
		<edge from-layer="1837" from-port="0" to-layer="1838" to-port="2"/>
		<edge from-layer="1838" from-port="3" to-layer="1839" to-port="1"/>
		<edge from-layer="1839" from-port="2" to-layer="1841" to-port="0"/>
		<edge from-layer="1840" from-port="0" to-layer="1841" to-port="1"/>
		<edge from-layer="1841" from-port="2" to-layer="1843" to-port="0"/>
		<edge from-layer="1842" from-port="0" to-layer="1843" to-port="1"/>
		<edge from-layer="1843" from-port="2" to-layer="1844" to-port="0"/>
		<edge from-layer="1844" from-port="1" to-layer="1846" to-port="0"/>
		<edge from-layer="1845" from-port="0" to-layer="1846" to-port="1"/>
		<edge from-layer="1846" from-port="2" to-layer="1848" to-port="0"/>
		<edge from-layer="1846" from-port="2" to-layer="1854" to-port="0"/>
		<edge from-layer="1847" from-port="0" to-layer="1853" to-port="0"/>
		<edge from-layer="1848" from-port="1" to-layer="1849" to-port="0"/>
		<edge from-layer="1849" from-port="1" to-layer="1851" to-port="0"/>
		<edge from-layer="1850" from-port="0" to-layer="1851" to-port="1"/>
		<edge from-layer="1851" from-port="2" to-layer="1853" to-port="1"/>
		<edge from-layer="1852" from-port="0" to-layer="1853" to-port="2"/>
		<edge from-layer="1853" from-port="3" to-layer="1854" to-port="1"/>
		<edge from-layer="1854" from-port="2" to-layer="1856" to-port="0"/>
		<edge from-layer="1855" from-port="0" to-layer="1856" to-port="1"/>
		<edge from-layer="1856" from-port="2" to-layer="1858" to-port="0"/>
		<edge from-layer="1857" from-port="0" to-layer="1858" to-port="1"/>
		<edge from-layer="1858" from-port="2" to-layer="1859" to-port="0"/>
		<edge from-layer="1859" from-port="1" to-layer="1861" to-port="0"/>
		<edge from-layer="1860" from-port="0" to-layer="1861" to-port="1"/>
		<edge from-layer="1861" from-port="2" to-layer="1863" to-port="0"/>
		<edge from-layer="1861" from-port="2" to-layer="1869" to-port="0"/>
		<edge from-layer="1862" from-port="0" to-layer="1868" to-port="0"/>
		<edge from-layer="1863" from-port="1" to-layer="1864" to-port="0"/>
		<edge from-layer="1864" from-port="1" to-layer="1866" to-port="0"/>
		<edge from-layer="1865" from-port="0" to-layer="1866" to-port="1"/>
		<edge from-layer="1866" from-port="2" to-layer="1868" to-port="1"/>
		<edge from-layer="1867" from-port="0" to-layer="1868" to-port="2"/>
		<edge from-layer="1868" from-port="3" to-layer="1869" to-port="1"/>
		<edge from-layer="1869" from-port="2" to-layer="1871" to-port="0"/>
		<edge from-layer="1870" from-port="0" to-layer="1871" to-port="1"/>
		<edge from-layer="1871" from-port="2" to-layer="1873" to-port="0"/>
		<edge from-layer="1872" from-port="0" to-layer="1873" to-port="1"/>
		<edge from-layer="1873" from-port="2" to-layer="1874" to-port="0"/>
		<edge from-layer="1874" from-port="1" to-layer="1888" to-port="0"/>
		<edge from-layer="1874" from-port="1" to-layer="1876" to-port="0"/>
		<edge from-layer="1875" from-port="0" to-layer="1876" to-port="1"/>
		<edge from-layer="1876" from-port="2" to-layer="1878" to-port="0"/>
		<edge from-layer="1877" from-port="0" to-layer="1878" to-port="1"/>
		<edge from-layer="1878" from-port="2" to-layer="1881" to-port="0"/>
		<edge from-layer="1879" from-port="0" to-layer="1881" to-port="1"/>
		<edge from-layer="1880" from-port="0" to-layer="1881" to-port="2"/>
		<edge from-layer="1881" from-port="3" to-layer="1883" to-port="0"/>
		<edge from-layer="1882" from-port="0" to-layer="1883" to-port="1"/>
		<edge from-layer="1883" from-port="2" to-layer="1885" to-port="0"/>
		<edge from-layer="1884" from-port="0" to-layer="1885" to-port="1"/>
		<edge from-layer="1885" from-port="2" to-layer="1886" to-port="0"/>
		<edge from-layer="1886" from-port="1" to-layer="2307" to-port="0"/>
		<edge from-layer="1886" from-port="1" to-layer="1901" to-port="0"/>
		<edge from-layer="1887" from-port="0" to-layer="1888" to-port="1"/>
		<edge from-layer="1888" from-port="2" to-layer="1890" to-port="0"/>
		<edge from-layer="1889" from-port="0" to-layer="1890" to-port="1"/>
		<edge from-layer="1890" from-port="2" to-layer="1893" to-port="0"/>
		<edge from-layer="1891" from-port="0" to-layer="1893" to-port="1"/>
		<edge from-layer="1892" from-port="0" to-layer="1893" to-port="2"/>
		<edge from-layer="1893" from-port="3" to-layer="1895" to-port="0"/>
		<edge from-layer="1894" from-port="0" to-layer="1895" to-port="1"/>
		<edge from-layer="1895" from-port="2" to-layer="1897" to-port="0"/>
		<edge from-layer="1896" from-port="0" to-layer="1897" to-port="1"/>
		<edge from-layer="1897" from-port="2" to-layer="1898" to-port="0"/>
		<edge from-layer="1898" from-port="1" to-layer="2323" to-port="0"/>
		<edge from-layer="1898" from-port="1" to-layer="1900" to-port="0"/>
		<edge from-layer="1899" from-port="0" to-layer="1900" to-port="1"/>
		<edge from-layer="1900" from-port="2" to-layer="1901" to-port="1"/>
		<edge from-layer="1901" from-port="2" to-layer="1903" to-port="0"/>
		<edge from-layer="1902" from-port="0" to-layer="1903" to-port="1"/>
		<edge from-layer="1903" from-port="2" to-layer="1905" to-port="0"/>
		<edge from-layer="1903" from-port="2" to-layer="1929" to-port="0"/>
		<edge from-layer="1904" from-port="0" to-layer="1911" to-port="0"/>
		<edge from-layer="1905" from-port="1" to-layer="1908" to-port="0"/>
		<edge from-layer="1906" from-port="0" to-layer="1908" to-port="1"/>
		<edge from-layer="1907" from-port="0" to-layer="1908" to-port="2"/>
		<edge from-layer="1908" from-port="3" to-layer="1910" to-port="0"/>
		<edge from-layer="1909" from-port="0" to-layer="1910" to-port="1"/>
		<edge from-layer="1910" from-port="2" to-layer="1911" to-port="1"/>
		<edge from-layer="1911" from-port="2" to-layer="1912" to-port="0"/>
		<edge from-layer="1912" from-port="1" to-layer="1914" to-port="0"/>
		<edge from-layer="1912" from-port="1" to-layer="1920" to-port="0"/>
		<edge from-layer="1913" from-port="0" to-layer="1919" to-port="0"/>
		<edge from-layer="1914" from-port="1" to-layer="1915" to-port="0"/>
		<edge from-layer="1915" from-port="1" to-layer="1917" to-port="0"/>
		<edge from-layer="1916" from-port="0" to-layer="1917" to-port="1"/>
		<edge from-layer="1917" from-port="2" to-layer="1919" to-port="1"/>
		<edge from-layer="1918" from-port="0" to-layer="1919" to-port="2"/>
		<edge from-layer="1919" from-port="3" to-layer="1920" to-port="1"/>
		<edge from-layer="1920" from-port="2" to-layer="1921" to-port="0"/>
		<edge from-layer="1921" from-port="1" to-layer="1923" to-port="0"/>
		<edge from-layer="1922" from-port="0" to-layer="1923" to-port="1"/>
		<edge from-layer="1923" from-port="2" to-layer="1925" to-port="0"/>
		<edge from-layer="1924" from-port="0" to-layer="1925" to-port="1"/>
		<edge from-layer="1925" from-port="2" to-layer="1927" to-port="0"/>
		<edge from-layer="1926" from-port="0" to-layer="1927" to-port="1"/>
		<edge from-layer="1927" from-port="2" to-layer="1928" to-port="0"/>
		<edge from-layer="1928" from-port="1" to-layer="1929" to-port="1"/>
		<edge from-layer="1929" from-port="2" to-layer="2418" to-port="0"/>
		<edge from-layer="1929" from-port="3" to-layer="2008" to-port="0"/>
		<edge from-layer="1929" from-port="3" to-layer="2305" to-port="0"/>
		<edge from-layer="1929" from-port="3" to-layer="2321" to-port="0"/>
		<edge from-layer="1929" from-port="3" to-layer="1930" to-port="0"/>
		<edge from-layer="1930" from-port="1" to-layer="1932" to-port="1"/>
		<edge from-layer="1931" from-port="0" to-layer="1932" to-port="2"/>
		<edge from-layer="1932" from-port="3" to-layer="2020" to-port="0"/>
		<edge from-layer="1932" from-port="3" to-layer="2030" to-port="0"/>
		<edge from-layer="1932" from-port="3" to-layer="2040" to-port="0"/>
		<edge from-layer="1932" from-port="3" to-layer="1935" to-port="0"/>
		<edge from-layer="1933" from-port="0" to-layer="1935" to-port="1"/>
		<edge from-layer="1934" from-port="0" to-layer="1935" to-port="2"/>
		<edge from-layer="1935" from-port="3" to-layer="2014" to-port="0"/>
		<edge from-layer="1936" from-port="0" to-layer="1937" to-port="1"/>
		<edge from-layer="1937" from-port="2" to-layer="1939" to-port="0"/>
		<edge from-layer="1937" from-port="2" to-layer="1945" to-port="0"/>
		<edge from-layer="1938" from-port="0" to-layer="1944" to-port="0"/>
		<edge from-layer="1939" from-port="1" to-layer="1940" to-port="0"/>
		<edge from-layer="1940" from-port="1" to-layer="1942" to-port="0"/>
		<edge from-layer="1941" from-port="0" to-layer="1942" to-port="1"/>
		<edge from-layer="1942" from-port="2" to-layer="1944" to-port="1"/>
		<edge from-layer="1943" from-port="0" to-layer="1944" to-port="2"/>
		<edge from-layer="1944" from-port="3" to-layer="1945" to-port="1"/>
		<edge from-layer="1945" from-port="2" to-layer="1947" to-port="0"/>
		<edge from-layer="1946" from-port="0" to-layer="1947" to-port="1"/>
		<edge from-layer="1947" from-port="2" to-layer="1949" to-port="0"/>
		<edge from-layer="1948" from-port="0" to-layer="1949" to-port="1"/>
		<edge from-layer="1949" from-port="2" to-layer="1950" to-port="0"/>
		<edge from-layer="1950" from-port="1" to-layer="1952" to-port="0"/>
		<edge from-layer="1951" from-port="0" to-layer="1952" to-port="1"/>
		<edge from-layer="1952" from-port="2" to-layer="1954" to-port="0"/>
		<edge from-layer="1952" from-port="2" to-layer="1960" to-port="0"/>
		<edge from-layer="1953" from-port="0" to-layer="1959" to-port="0"/>
		<edge from-layer="1954" from-port="1" to-layer="1955" to-port="0"/>
		<edge from-layer="1955" from-port="1" to-layer="1957" to-port="0"/>
		<edge from-layer="1956" from-port="0" to-layer="1957" to-port="1"/>
		<edge from-layer="1957" from-port="2" to-layer="1959" to-port="1"/>
		<edge from-layer="1958" from-port="0" to-layer="1959" to-port="2"/>
		<edge from-layer="1959" from-port="3" to-layer="1960" to-port="1"/>
		<edge from-layer="1960" from-port="2" to-layer="1962" to-port="0"/>
		<edge from-layer="1961" from-port="0" to-layer="1962" to-port="1"/>
		<edge from-layer="1962" from-port="2" to-layer="1964" to-port="0"/>
		<edge from-layer="1963" from-port="0" to-layer="1964" to-port="1"/>
		<edge from-layer="1964" from-port="2" to-layer="1965" to-port="0"/>
		<edge from-layer="1965" from-port="1" to-layer="1967" to-port="0"/>
		<edge from-layer="1966" from-port="0" to-layer="1967" to-port="1"/>
		<edge from-layer="1967" from-port="2" to-layer="1969" to-port="0"/>
		<edge from-layer="1967" from-port="2" to-layer="1975" to-port="0"/>
		<edge from-layer="1968" from-port="0" to-layer="1974" to-port="0"/>
		<edge from-layer="1969" from-port="1" to-layer="1970" to-port="0"/>
		<edge from-layer="1970" from-port="1" to-layer="1972" to-port="0"/>
		<edge from-layer="1971" from-port="0" to-layer="1972" to-port="1"/>
		<edge from-layer="1972" from-port="2" to-layer="1974" to-port="1"/>
		<edge from-layer="1973" from-port="0" to-layer="1974" to-port="2"/>
		<edge from-layer="1974" from-port="3" to-layer="1975" to-port="1"/>
		<edge from-layer="1975" from-port="2" to-layer="1977" to-port="0"/>
		<edge from-layer="1976" from-port="0" to-layer="1977" to-port="1"/>
		<edge from-layer="1977" from-port="2" to-layer="1979" to-port="0"/>
		<edge from-layer="1978" from-port="0" to-layer="1979" to-port="1"/>
		<edge from-layer="1979" from-port="2" to-layer="1980" to-port="0"/>
		<edge from-layer="1980" from-port="1" to-layer="1982" to-port="0"/>
		<edge from-layer="1981" from-port="0" to-layer="1982" to-port="1"/>
		<edge from-layer="1982" from-port="2" to-layer="1984" to-port="0"/>
		<edge from-layer="1982" from-port="2" to-layer="1990" to-port="0"/>
		<edge from-layer="1983" from-port="0" to-layer="1989" to-port="0"/>
		<edge from-layer="1984" from-port="1" to-layer="1985" to-port="0"/>
		<edge from-layer="1985" from-port="1" to-layer="1987" to-port="0"/>
		<edge from-layer="1986" from-port="0" to-layer="1987" to-port="1"/>
		<edge from-layer="1987" from-port="2" to-layer="1989" to-port="1"/>
		<edge from-layer="1988" from-port="0" to-layer="1989" to-port="2"/>
		<edge from-layer="1989" from-port="3" to-layer="1990" to-port="1"/>
		<edge from-layer="1990" from-port="2" to-layer="1992" to-port="0"/>
		<edge from-layer="1991" from-port="0" to-layer="1992" to-port="1"/>
		<edge from-layer="1992" from-port="2" to-layer="1994" to-port="0"/>
		<edge from-layer="1993" from-port="0" to-layer="1994" to-port="1"/>
		<edge from-layer="1994" from-port="2" to-layer="1995" to-port="0"/>
		<edge from-layer="1995" from-port="1" to-layer="1997" to-port="0"/>
		<edge from-layer="1996" from-port="0" to-layer="1997" to-port="1"/>
		<edge from-layer="1997" from-port="2" to-layer="1999" to-port="0"/>
		<edge from-layer="1998" from-port="0" to-layer="1999" to-port="1"/>
		<edge from-layer="1999" from-port="2" to-layer="2000" to-port="0"/>
		<edge from-layer="2000" from-port="1" to-layer="2003" to-port="0"/>
		<edge from-layer="2001" from-port="0" to-layer="2003" to-port="1"/>
		<edge from-layer="2002" from-port="0" to-layer="2003" to-port="2"/>
		<edge from-layer="2003" from-port="3" to-layer="2005" to-port="0"/>
		<edge from-layer="2004" from-port="0" to-layer="2005" to-port="1"/>
		<edge from-layer="2005" from-port="2" to-layer="2007" to-port="0"/>
		<edge from-layer="2006" from-port="0" to-layer="2007" to-port="1"/>
		<edge from-layer="2007" from-port="2" to-layer="2010" to-port="0"/>
		<edge from-layer="2008" from-port="1" to-layer="2010" to-port="1"/>
		<edge from-layer="2009" from-port="0" to-layer="2010" to-port="2"/>
		<edge from-layer="2010" from-port="3" to-layer="2013" to-port="0"/>
		<edge from-layer="2010" from-port="3" to-layer="2023" to-port="0"/>
		<edge from-layer="2010" from-port="3" to-layer="2033" to-port="0"/>
		<edge from-layer="2010" from-port="3" to-layer="2043" to-port="0"/>
		<edge from-layer="2011" from-port="0" to-layer="2013" to-port="1"/>
		<edge from-layer="2012" from-port="0" to-layer="2013" to-port="2"/>
		<edge from-layer="2013" from-port="3" to-layer="2014" to-port="1"/>
		<edge from-layer="2014" from-port="2" to-layer="2015" to-port="0"/>
		<edge from-layer="2015" from-port="1" to-layer="2017" to-port="0"/>
		<edge from-layer="2016" from-port="0" to-layer="2017" to-port="1"/>
		<edge from-layer="2017" from-port="2" to-layer="2048" to-port="0"/>
		<edge from-layer="2018" from-port="0" to-layer="2020" to-port="1"/>
		<edge from-layer="2019" from-port="0" to-layer="2020" to-port="2"/>
		<edge from-layer="2020" from-port="3" to-layer="2024" to-port="0"/>
		<edge from-layer="2021" from-port="0" to-layer="2023" to-port="1"/>
		<edge from-layer="2022" from-port="0" to-layer="2023" to-port="2"/>
		<edge from-layer="2023" from-port="3" to-layer="2024" to-port="1"/>
		<edge from-layer="2024" from-port="2" to-layer="2025" to-port="0"/>
		<edge from-layer="2025" from-port="1" to-layer="2027" to-port="0"/>
		<edge from-layer="2026" from-port="0" to-layer="2027" to-port="1"/>
		<edge from-layer="2027" from-port="2" to-layer="2048" to-port="1"/>
		<edge from-layer="2028" from-port="0" to-layer="2030" to-port="1"/>
		<edge from-layer="2029" from-port="0" to-layer="2030" to-port="2"/>
		<edge from-layer="2030" from-port="3" to-layer="2034" to-port="0"/>
		<edge from-layer="2031" from-port="0" to-layer="2033" to-port="1"/>
		<edge from-layer="2032" from-port="0" to-layer="2033" to-port="2"/>
		<edge from-layer="2033" from-port="3" to-layer="2034" to-port="1"/>
		<edge from-layer="2034" from-port="2" to-layer="2035" to-port="0"/>
		<edge from-layer="2035" from-port="1" to-layer="2037" to-port="0"/>
		<edge from-layer="2036" from-port="0" to-layer="2037" to-port="1"/>
		<edge from-layer="2037" from-port="2" to-layer="2048" to-port="2"/>
		<edge from-layer="2038" from-port="0" to-layer="2040" to-port="1"/>
		<edge from-layer="2039" from-port="0" to-layer="2040" to-port="2"/>
		<edge from-layer="2040" from-port="3" to-layer="2044" to-port="0"/>
		<edge from-layer="2041" from-port="0" to-layer="2043" to-port="1"/>
		<edge from-layer="2042" from-port="0" to-layer="2043" to-port="2"/>
		<edge from-layer="2043" from-port="3" to-layer="2044" to-port="1"/>
		<edge from-layer="2044" from-port="2" to-layer="2045" to-port="0"/>
		<edge from-layer="2045" from-port="1" to-layer="2047" to-port="0"/>
		<edge from-layer="2046" from-port="0" to-layer="2047" to-port="1"/>
		<edge from-layer="2047" from-port="2" to-layer="2048" to-port="3"/>
		<edge from-layer="2048" from-port="4" to-layer="2289" to-port="3"/>
		<edge from-layer="2049" from-port="0" to-layer="2172" to-port="0"/>
		<edge from-layer="2050" from-port="1" to-layer="2052" to-port="0"/>
		<edge from-layer="2051" from-port="0" to-layer="2052" to-port="1"/>
		<edge from-layer="2052" from-port="2" to-layer="2054" to-port="0"/>
		<edge from-layer="2053" from-port="0" to-layer="2054" to-port="1"/>
		<edge from-layer="2054" from-port="2" to-layer="2056" to-port="0"/>
		<edge from-layer="2054" from-port="2" to-layer="2177" to-port="0"/>
		<edge from-layer="2055" from-port="0" to-layer="2056" to-port="1"/>
		<edge from-layer="2056" from-port="2" to-layer="2058" to-port="0"/>
		<edge from-layer="2056" from-port="2" to-layer="2064" to-port="0"/>
		<edge from-layer="2057" from-port="0" to-layer="2063" to-port="0"/>
		<edge from-layer="2058" from-port="1" to-layer="2059" to-port="0"/>
		<edge from-layer="2059" from-port="1" to-layer="2061" to-port="0"/>
		<edge from-layer="2060" from-port="0" to-layer="2061" to-port="1"/>
		<edge from-layer="2061" from-port="2" to-layer="2063" to-port="1"/>
		<edge from-layer="2062" from-port="0" to-layer="2063" to-port="2"/>
		<edge from-layer="2063" from-port="3" to-layer="2064" to-port="1"/>
		<edge from-layer="2064" from-port="2" to-layer="2066" to-port="0"/>
		<edge from-layer="2065" from-port="0" to-layer="2066" to-port="1"/>
		<edge from-layer="2066" from-port="2" to-layer="2068" to-port="0"/>
		<edge from-layer="2067" from-port="0" to-layer="2068" to-port="1"/>
		<edge from-layer="2068" from-port="2" to-layer="2069" to-port="0"/>
		<edge from-layer="2069" from-port="1" to-layer="2071" to-port="0"/>
		<edge from-layer="2070" from-port="0" to-layer="2071" to-port="1"/>
		<edge from-layer="2071" from-port="2" to-layer="2073" to-port="0"/>
		<edge from-layer="2071" from-port="2" to-layer="2079" to-port="0"/>
		<edge from-layer="2072" from-port="0" to-layer="2078" to-port="0"/>
		<edge from-layer="2073" from-port="1" to-layer="2074" to-port="0"/>
		<edge from-layer="2074" from-port="1" to-layer="2076" to-port="0"/>
		<edge from-layer="2075" from-port="0" to-layer="2076" to-port="1"/>
		<edge from-layer="2076" from-port="2" to-layer="2078" to-port="1"/>
		<edge from-layer="2077" from-port="0" to-layer="2078" to-port="2"/>
		<edge from-layer="2078" from-port="3" to-layer="2079" to-port="1"/>
		<edge from-layer="2079" from-port="2" to-layer="2081" to-port="0"/>
		<edge from-layer="2080" from-port="0" to-layer="2081" to-port="1"/>
		<edge from-layer="2081" from-port="2" to-layer="2083" to-port="0"/>
		<edge from-layer="2082" from-port="0" to-layer="2083" to-port="1"/>
		<edge from-layer="2083" from-port="2" to-layer="2084" to-port="0"/>
		<edge from-layer="2084" from-port="1" to-layer="2086" to-port="0"/>
		<edge from-layer="2085" from-port="0" to-layer="2086" to-port="1"/>
		<edge from-layer="2086" from-port="2" to-layer="2088" to-port="0"/>
		<edge from-layer="2086" from-port="2" to-layer="2094" to-port="0"/>
		<edge from-layer="2087" from-port="0" to-layer="2093" to-port="0"/>
		<edge from-layer="2088" from-port="1" to-layer="2089" to-port="0"/>
		<edge from-layer="2089" from-port="1" to-layer="2091" to-port="0"/>
		<edge from-layer="2090" from-port="0" to-layer="2091" to-port="1"/>
		<edge from-layer="2091" from-port="2" to-layer="2093" to-port="1"/>
		<edge from-layer="2092" from-port="0" to-layer="2093" to-port="2"/>
		<edge from-layer="2093" from-port="3" to-layer="2094" to-port="1"/>
		<edge from-layer="2094" from-port="2" to-layer="2096" to-port="0"/>
		<edge from-layer="2095" from-port="0" to-layer="2096" to-port="1"/>
		<edge from-layer="2096" from-port="2" to-layer="2098" to-port="0"/>
		<edge from-layer="2097" from-port="0" to-layer="2098" to-port="1"/>
		<edge from-layer="2098" from-port="2" to-layer="2099" to-port="0"/>
		<edge from-layer="2099" from-port="1" to-layer="2101" to-port="0"/>
		<edge from-layer="2100" from-port="0" to-layer="2101" to-port="1"/>
		<edge from-layer="2101" from-port="2" to-layer="2103" to-port="0"/>
		<edge from-layer="2101" from-port="2" to-layer="2109" to-port="0"/>
		<edge from-layer="2102" from-port="0" to-layer="2108" to-port="0"/>
		<edge from-layer="2103" from-port="1" to-layer="2104" to-port="0"/>
		<edge from-layer="2104" from-port="1" to-layer="2106" to-port="0"/>
		<edge from-layer="2105" from-port="0" to-layer="2106" to-port="1"/>
		<edge from-layer="2106" from-port="2" to-layer="2108" to-port="1"/>
		<edge from-layer="2107" from-port="0" to-layer="2108" to-port="2"/>
		<edge from-layer="2108" from-port="3" to-layer="2109" to-port="1"/>
		<edge from-layer="2109" from-port="2" to-layer="2111" to-port="0"/>
		<edge from-layer="2110" from-port="0" to-layer="2111" to-port="1"/>
		<edge from-layer="2111" from-port="2" to-layer="2113" to-port="0"/>
		<edge from-layer="2112" from-port="0" to-layer="2113" to-port="1"/>
		<edge from-layer="2113" from-port="2" to-layer="2114" to-port="0"/>
		<edge from-layer="2114" from-port="1" to-layer="2116" to-port="0"/>
		<edge from-layer="2114" from-port="1" to-layer="2128" to-port="0"/>
		<edge from-layer="2115" from-port="0" to-layer="2116" to-port="1"/>
		<edge from-layer="2116" from-port="2" to-layer="2118" to-port="0"/>
		<edge from-layer="2117" from-port="0" to-layer="2118" to-port="1"/>
		<edge from-layer="2118" from-port="2" to-layer="2121" to-port="0"/>
		<edge from-layer="2119" from-port="0" to-layer="2121" to-port="1"/>
		<edge from-layer="2120" from-port="0" to-layer="2121" to-port="2"/>
		<edge from-layer="2121" from-port="3" to-layer="2123" to-port="0"/>
		<edge from-layer="2122" from-port="0" to-layer="2123" to-port="1"/>
		<edge from-layer="2123" from-port="2" to-layer="2125" to-port="0"/>
		<edge from-layer="2124" from-port="0" to-layer="2125" to-port="1"/>
		<edge from-layer="2125" from-port="2" to-layer="2126" to-port="0"/>
		<edge from-layer="2126" from-port="1" to-layer="2141" to-port="0"/>
		<edge from-layer="2126" from-port="1" to-layer="2310" to-port="0"/>
		<edge from-layer="2127" from-port="0" to-layer="2128" to-port="1"/>
		<edge from-layer="2128" from-port="2" to-layer="2130" to-port="0"/>
		<edge from-layer="2129" from-port="0" to-layer="2130" to-port="1"/>
		<edge from-layer="2130" from-port="2" to-layer="2133" to-port="0"/>
		<edge from-layer="2131" from-port="0" to-layer="2133" to-port="1"/>
		<edge from-layer="2132" from-port="0" to-layer="2133" to-port="2"/>
		<edge from-layer="2133" from-port="3" to-layer="2135" to-port="0"/>
		<edge from-layer="2134" from-port="0" to-layer="2135" to-port="1"/>
		<edge from-layer="2135" from-port="2" to-layer="2137" to-port="0"/>
		<edge from-layer="2136" from-port="0" to-layer="2137" to-port="1"/>
		<edge from-layer="2137" from-port="2" to-layer="2138" to-port="0"/>
		<edge from-layer="2138" from-port="1" to-layer="2140" to-port="0"/>
		<edge from-layer="2138" from-port="1" to-layer="2326" to-port="0"/>
		<edge from-layer="2139" from-port="0" to-layer="2140" to-port="1"/>
		<edge from-layer="2140" from-port="2" to-layer="2141" to-port="1"/>
		<edge from-layer="2141" from-port="2" to-layer="2143" to-port="0"/>
		<edge from-layer="2142" from-port="0" to-layer="2143" to-port="1"/>
		<edge from-layer="2143" from-port="2" to-layer="2145" to-port="0"/>
		<edge from-layer="2143" from-port="2" to-layer="2169" to-port="0"/>
		<edge from-layer="2144" from-port="0" to-layer="2151" to-port="0"/>
		<edge from-layer="2145" from-port="1" to-layer="2148" to-port="0"/>
		<edge from-layer="2146" from-port="0" to-layer="2148" to-port="1"/>
		<edge from-layer="2147" from-port="0" to-layer="2148" to-port="2"/>
		<edge from-layer="2148" from-port="3" to-layer="2150" to-port="0"/>
		<edge from-layer="2149" from-port="0" to-layer="2150" to-port="1"/>
		<edge from-layer="2150" from-port="2" to-layer="2151" to-port="1"/>
		<edge from-layer="2151" from-port="2" to-layer="2152" to-port="0"/>
		<edge from-layer="2152" from-port="1" to-layer="2154" to-port="0"/>
		<edge from-layer="2152" from-port="1" to-layer="2160" to-port="0"/>
		<edge from-layer="2153" from-port="0" to-layer="2159" to-port="0"/>
		<edge from-layer="2154" from-port="1" to-layer="2155" to-port="0"/>
		<edge from-layer="2155" from-port="1" to-layer="2157" to-port="0"/>
		<edge from-layer="2156" from-port="0" to-layer="2157" to-port="1"/>
		<edge from-layer="2157" from-port="2" to-layer="2159" to-port="1"/>
		<edge from-layer="2158" from-port="0" to-layer="2159" to-port="2"/>
		<edge from-layer="2159" from-port="3" to-layer="2160" to-port="1"/>
		<edge from-layer="2160" from-port="2" to-layer="2161" to-port="0"/>
		<edge from-layer="2161" from-port="1" to-layer="2163" to-port="0"/>
		<edge from-layer="2162" from-port="0" to-layer="2163" to-port="1"/>
		<edge from-layer="2163" from-port="2" to-layer="2165" to-port="0"/>
		<edge from-layer="2164" from-port="0" to-layer="2165" to-port="1"/>
		<edge from-layer="2165" from-port="2" to-layer="2167" to-port="0"/>
		<edge from-layer="2166" from-port="0" to-layer="2167" to-port="1"/>
		<edge from-layer="2167" from-port="2" to-layer="2168" to-port="0"/>
		<edge from-layer="2168" from-port="1" to-layer="2169" to-port="1"/>
		<edge from-layer="2169" from-port="2" to-layer="2417" to-port="0"/>
		<edge from-layer="2169" from-port="3" to-layer="2170" to-port="0"/>
		<edge from-layer="2169" from-port="3" to-layer="2248" to-port="0"/>
		<edge from-layer="2169" from-port="3" to-layer="2308" to-port="0"/>
		<edge from-layer="2169" from-port="3" to-layer="2324" to-port="0"/>
		<edge from-layer="2170" from-port="1" to-layer="2172" to-port="1"/>
		<edge from-layer="2171" from-port="0" to-layer="2172" to-port="2"/>
		<edge from-layer="2172" from-port="3" to-layer="2175" to-port="0"/>
		<edge from-layer="2172" from-port="3" to-layer="2260" to-port="0"/>
		<edge from-layer="2172" from-port="3" to-layer="2270" to-port="0"/>
		<edge from-layer="2172" from-port="3" to-layer="2280" to-port="0"/>
		<edge from-layer="2173" from-port="0" to-layer="2175" to-port="1"/>
		<edge from-layer="2174" from-port="0" to-layer="2175" to-port="2"/>
		<edge from-layer="2175" from-port="3" to-layer="2254" to-port="0"/>
		<edge from-layer="2176" from-port="0" to-layer="2177" to-port="1"/>
		<edge from-layer="2177" from-port="2" to-layer="2179" to-port="0"/>
		<edge from-layer="2177" from-port="2" to-layer="2185" to-port="0"/>
		<edge from-layer="2178" from-port="0" to-layer="2184" to-port="0"/>
		<edge from-layer="2179" from-port="1" to-layer="2180" to-port="0"/>
		<edge from-layer="2180" from-port="1" to-layer="2182" to-port="0"/>
		<edge from-layer="2181" from-port="0" to-layer="2182" to-port="1"/>
		<edge from-layer="2182" from-port="2" to-layer="2184" to-port="1"/>
		<edge from-layer="2183" from-port="0" to-layer="2184" to-port="2"/>
		<edge from-layer="2184" from-port="3" to-layer="2185" to-port="1"/>
		<edge from-layer="2185" from-port="2" to-layer="2187" to-port="0"/>
		<edge from-layer="2186" from-port="0" to-layer="2187" to-port="1"/>
		<edge from-layer="2187" from-port="2" to-layer="2189" to-port="0"/>
		<edge from-layer="2188" from-port="0" to-layer="2189" to-port="1"/>
		<edge from-layer="2189" from-port="2" to-layer="2190" to-port="0"/>
		<edge from-layer="2190" from-port="1" to-layer="2192" to-port="0"/>
		<edge from-layer="2191" from-port="0" to-layer="2192" to-port="1"/>
		<edge from-layer="2192" from-port="2" to-layer="2194" to-port="0"/>
		<edge from-layer="2192" from-port="2" to-layer="2200" to-port="0"/>
		<edge from-layer="2193" from-port="0" to-layer="2199" to-port="0"/>
		<edge from-layer="2194" from-port="1" to-layer="2195" to-port="0"/>
		<edge from-layer="2195" from-port="1" to-layer="2197" to-port="0"/>
		<edge from-layer="2196" from-port="0" to-layer="2197" to-port="1"/>
		<edge from-layer="2197" from-port="2" to-layer="2199" to-port="1"/>
		<edge from-layer="2198" from-port="0" to-layer="2199" to-port="2"/>
		<edge from-layer="2199" from-port="3" to-layer="2200" to-port="1"/>
		<edge from-layer="2200" from-port="2" to-layer="2202" to-port="0"/>
		<edge from-layer="2201" from-port="0" to-layer="2202" to-port="1"/>
		<edge from-layer="2202" from-port="2" to-layer="2204" to-port="0"/>
		<edge from-layer="2203" from-port="0" to-layer="2204" to-port="1"/>
		<edge from-layer="2204" from-port="2" to-layer="2205" to-port="0"/>
		<edge from-layer="2205" from-port="1" to-layer="2207" to-port="0"/>
		<edge from-layer="2206" from-port="0" to-layer="2207" to-port="1"/>
		<edge from-layer="2207" from-port="2" to-layer="2209" to-port="0"/>
		<edge from-layer="2207" from-port="2" to-layer="2215" to-port="0"/>
		<edge from-layer="2208" from-port="0" to-layer="2214" to-port="0"/>
		<edge from-layer="2209" from-port="1" to-layer="2210" to-port="0"/>
		<edge from-layer="2210" from-port="1" to-layer="2212" to-port="0"/>
		<edge from-layer="2211" from-port="0" to-layer="2212" to-port="1"/>
		<edge from-layer="2212" from-port="2" to-layer="2214" to-port="1"/>
		<edge from-layer="2213" from-port="0" to-layer="2214" to-port="2"/>
		<edge from-layer="2214" from-port="3" to-layer="2215" to-port="1"/>
		<edge from-layer="2215" from-port="2" to-layer="2217" to-port="0"/>
		<edge from-layer="2216" from-port="0" to-layer="2217" to-port="1"/>
		<edge from-layer="2217" from-port="2" to-layer="2219" to-port="0"/>
		<edge from-layer="2218" from-port="0" to-layer="2219" to-port="1"/>
		<edge from-layer="2219" from-port="2" to-layer="2220" to-port="0"/>
		<edge from-layer="2220" from-port="1" to-layer="2222" to-port="0"/>
		<edge from-layer="2221" from-port="0" to-layer="2222" to-port="1"/>
		<edge from-layer="2222" from-port="2" to-layer="2224" to-port="0"/>
		<edge from-layer="2222" from-port="2" to-layer="2230" to-port="0"/>
		<edge from-layer="2223" from-port="0" to-layer="2229" to-port="0"/>
		<edge from-layer="2224" from-port="1" to-layer="2225" to-port="0"/>
		<edge from-layer="2225" from-port="1" to-layer="2227" to-port="0"/>
		<edge from-layer="2226" from-port="0" to-layer="2227" to-port="1"/>
		<edge from-layer="2227" from-port="2" to-layer="2229" to-port="1"/>
		<edge from-layer="2228" from-port="0" to-layer="2229" to-port="2"/>
		<edge from-layer="2229" from-port="3" to-layer="2230" to-port="1"/>
		<edge from-layer="2230" from-port="2" to-layer="2232" to-port="0"/>
		<edge from-layer="2231" from-port="0" to-layer="2232" to-port="1"/>
		<edge from-layer="2232" from-port="2" to-layer="2234" to-port="0"/>
		<edge from-layer="2233" from-port="0" to-layer="2234" to-port="1"/>
		<edge from-layer="2234" from-port="2" to-layer="2235" to-port="0"/>
		<edge from-layer="2235" from-port="1" to-layer="2237" to-port="0"/>
		<edge from-layer="2236" from-port="0" to-layer="2237" to-port="1"/>
		<edge from-layer="2237" from-port="2" to-layer="2239" to-port="0"/>
		<edge from-layer="2238" from-port="0" to-layer="2239" to-port="1"/>
		<edge from-layer="2239" from-port="2" to-layer="2240" to-port="0"/>
		<edge from-layer="2240" from-port="1" to-layer="2243" to-port="0"/>
		<edge from-layer="2241" from-port="0" to-layer="2243" to-port="1"/>
		<edge from-layer="2242" from-port="0" to-layer="2243" to-port="2"/>
		<edge from-layer="2243" from-port="3" to-layer="2245" to-port="0"/>
		<edge from-layer="2244" from-port="0" to-layer="2245" to-port="1"/>
		<edge from-layer="2245" from-port="2" to-layer="2247" to-port="0"/>
		<edge from-layer="2246" from-port="0" to-layer="2247" to-port="1"/>
		<edge from-layer="2247" from-port="2" to-layer="2250" to-port="0"/>
		<edge from-layer="2248" from-port="1" to-layer="2250" to-port="1"/>
		<edge from-layer="2249" from-port="0" to-layer="2250" to-port="2"/>
		<edge from-layer="2250" from-port="3" to-layer="2253" to-port="0"/>
		<edge from-layer="2250" from-port="3" to-layer="2263" to-port="0"/>
		<edge from-layer="2250" from-port="3" to-layer="2273" to-port="0"/>
		<edge from-layer="2250" from-port="3" to-layer="2283" to-port="0"/>
		<edge from-layer="2251" from-port="0" to-layer="2253" to-port="1"/>
		<edge from-layer="2252" from-port="0" to-layer="2253" to-port="2"/>
		<edge from-layer="2253" from-port="3" to-layer="2254" to-port="1"/>
		<edge from-layer="2254" from-port="2" to-layer="2255" to-port="0"/>
		<edge from-layer="2255" from-port="1" to-layer="2257" to-port="0"/>
		<edge from-layer="2256" from-port="0" to-layer="2257" to-port="1"/>
		<edge from-layer="2257" from-port="2" to-layer="2288" to-port="0"/>
		<edge from-layer="2258" from-port="0" to-layer="2260" to-port="1"/>
		<edge from-layer="2259" from-port="0" to-layer="2260" to-port="2"/>
		<edge from-layer="2260" from-port="3" to-layer="2264" to-port="0"/>
		<edge from-layer="2261" from-port="0" to-layer="2263" to-port="1"/>
		<edge from-layer="2262" from-port="0" to-layer="2263" to-port="2"/>
		<edge from-layer="2263" from-port="3" to-layer="2264" to-port="1"/>
		<edge from-layer="2264" from-port="2" to-layer="2265" to-port="0"/>
		<edge from-layer="2265" from-port="1" to-layer="2267" to-port="0"/>
		<edge from-layer="2266" from-port="0" to-layer="2267" to-port="1"/>
		<edge from-layer="2267" from-port="2" to-layer="2288" to-port="1"/>
		<edge from-layer="2268" from-port="0" to-layer="2270" to-port="1"/>
		<edge from-layer="2269" from-port="0" to-layer="2270" to-port="2"/>
		<edge from-layer="2270" from-port="3" to-layer="2274" to-port="0"/>
		<edge from-layer="2271" from-port="0" to-layer="2273" to-port="1"/>
		<edge from-layer="2272" from-port="0" to-layer="2273" to-port="2"/>
		<edge from-layer="2273" from-port="3" to-layer="2274" to-port="1"/>
		<edge from-layer="2274" from-port="2" to-layer="2275" to-port="0"/>
		<edge from-layer="2275" from-port="1" to-layer="2277" to-port="0"/>
		<edge from-layer="2276" from-port="0" to-layer="2277" to-port="1"/>
		<edge from-layer="2277" from-port="2" to-layer="2288" to-port="2"/>
		<edge from-layer="2278" from-port="0" to-layer="2280" to-port="1"/>
		<edge from-layer="2279" from-port="0" to-layer="2280" to-port="2"/>
		<edge from-layer="2280" from-port="3" to-layer="2284" to-port="0"/>
		<edge from-layer="2281" from-port="0" to-layer="2283" to-port="1"/>
		<edge from-layer="2282" from-port="0" to-layer="2283" to-port="2"/>
		<edge from-layer="2283" from-port="3" to-layer="2284" to-port="1"/>
		<edge from-layer="2284" from-port="2" to-layer="2285" to-port="0"/>
		<edge from-layer="2285" from-port="1" to-layer="2287" to-port="0"/>
		<edge from-layer="2286" from-port="0" to-layer="2287" to-port="1"/>
		<edge from-layer="2287" from-port="2" to-layer="2288" to-port="3"/>
		<edge from-layer="2288" from-port="4" to-layer="2289" to-port="4"/>
		<edge from-layer="2289" from-port="5" to-layer="2291" to-port="0"/>
		<edge from-layer="2290" from-port="0" to-layer="2291" to-port="1"/>
		<edge from-layer="2291" from-port="2" to-layer="2293" to-port="0"/>
		<edge from-layer="2292" from-port="0" to-layer="2293" to-port="1"/>
		<edge from-layer="2293" from-port="2" to-layer="2295" to-port="0"/>
		<edge from-layer="2293" from-port="2" to-layer="2347" to-port="0"/>
		<edge from-layer="2293" from-port="2" to-layer="2351" to-port="0"/>
		<edge from-layer="2294" from-port="0" to-layer="2295" to-port="1"/>
		<edge from-layer="2295" from-port="2" to-layer="2362" to-port="0"/>
		<edge from-layer="2296" from-port="1" to-layer="2298" to-port="1"/>
		<edge from-layer="2297" from-port="0" to-layer="2298" to-port="2"/>
		<edge from-layer="2298" from-port="3" to-layer="2311" to-port="0"/>
		<edge from-layer="2299" from-port="1" to-layer="2301" to-port="1"/>
		<edge from-layer="2300" from-port="0" to-layer="2301" to-port="2"/>
		<edge from-layer="2301" from-port="3" to-layer="2311" to-port="1"/>
		<edge from-layer="2302" from-port="1" to-layer="2304" to-port="1"/>
		<edge from-layer="2303" from-port="0" to-layer="2304" to-port="2"/>
		<edge from-layer="2304" from-port="3" to-layer="2311" to-port="2"/>
		<edge from-layer="2305" from-port="1" to-layer="2307" to-port="1"/>
		<edge from-layer="2306" from-port="0" to-layer="2307" to-port="2"/>
		<edge from-layer="2307" from-port="3" to-layer="2311" to-port="3"/>
		<edge from-layer="2308" from-port="1" to-layer="2310" to-port="1"/>
		<edge from-layer="2309" from-port="0" to-layer="2310" to-port="2"/>
		<edge from-layer="2310" from-port="3" to-layer="2311" to-port="4"/>
		<edge from-layer="2311" from-port="5" to-layer="2337" to-port="0"/>
		<edge from-layer="2311" from-port="5" to-layer="2339" to-port="0"/>
		<edge from-layer="2312" from-port="1" to-layer="2314" to-port="1"/>
		<edge from-layer="2313" from-port="0" to-layer="2314" to-port="2"/>
		<edge from-layer="2314" from-port="3" to-layer="2327" to-port="0"/>
		<edge from-layer="2315" from-port="1" to-layer="2317" to-port="1"/>
		<edge from-layer="2316" from-port="0" to-layer="2317" to-port="2"/>
		<edge from-layer="2317" from-port="3" to-layer="2327" to-port="1"/>
		<edge from-layer="2318" from-port="1" to-layer="2320" to-port="1"/>
		<edge from-layer="2319" from-port="0" to-layer="2320" to-port="2"/>
		<edge from-layer="2320" from-port="3" to-layer="2327" to-port="2"/>
		<edge from-layer="2321" from-port="1" to-layer="2323" to-port="1"/>
		<edge from-layer="2322" from-port="0" to-layer="2323" to-port="2"/>
		<edge from-layer="2323" from-port="3" to-layer="2327" to-port="3"/>
		<edge from-layer="2324" from-port="1" to-layer="2326" to-port="1"/>
		<edge from-layer="2325" from-port="0" to-layer="2326" to-port="2"/>
		<edge from-layer="2326" from-port="3" to-layer="2327" to-port="4"/>
		<edge from-layer="2327" from-port="5" to-layer="2328" to-port="0"/>
		<edge from-layer="2327" from-port="5" to-layer="2336" to-port="0"/>
		<edge from-layer="2328" from-port="1" to-layer="2331" to-port="0"/>
		<edge from-layer="2329" from-port="0" to-layer="2331" to-port="1"/>
		<edge from-layer="2330" from-port="0" to-layer="2331" to-port="2"/>
		<edge from-layer="2331" from-port="3" to-layer="2333" to-port="0"/>
		<edge from-layer="2332" from-port="0" to-layer="2333" to-port="1"/>
		<edge from-layer="2333" from-port="2" to-layer="2335" to-port="0"/>
		<edge from-layer="2334" from-port="0" to-layer="2335" to-port="1"/>
		<edge from-layer="2335" from-port="2" to-layer="2336" to-port="1"/>
		<edge from-layer="2336" from-port="2" to-layer="2338" to-port="0"/>
		<edge from-layer="2337" from-port="1" to-layer="2338" to-port="1"/>
		<edge from-layer="2338" from-port="2" to-layer="2339" to-port="1"/>
		<edge from-layer="2339" from-port="2" to-layer="2341" to-port="0"/>
		<edge from-layer="2340" from-port="0" to-layer="2341" to-port="1"/>
		<edge from-layer="2341" from-port="2" to-layer="2343" to-port="0"/>
		<edge from-layer="2342" from-port="0" to-layer="2343" to-port="1"/>
		<edge from-layer="2343" from-port="2" to-layer="2347" to-port="1"/>
		<edge from-layer="2343" from-port="2" to-layer="2366" to-port="0"/>
		<edge from-layer="2344" from-port="0" to-layer="2347" to-port="2"/>
		<edge from-layer="2345" from-port="0" to-layer="2347" to-port="3"/>
		<edge from-layer="2346" from-port="0" to-layer="2347" to-port="4"/>
		<edge from-layer="2347" from-port="5" to-layer="2350" to-port="0"/>
		<edge from-layer="2348" from-port="0" to-layer="2350" to-port="1"/>
		<edge from-layer="2349" from-port="0" to-layer="2350" to-port="2"/>
		<edge from-layer="2350" from-port="4" to-layer="2416" to-port="0"/>
		<edge from-layer="2350" from-port="3" to-layer="2358" to-port="0"/>
		<edge from-layer="2350" from-port="5" to-layer="2359" to-port="1"/>
		<edge from-layer="2350" from-port="3" to-layer="2372" to-port="0"/>
		<edge from-layer="2351" from-port="1" to-layer="2355" to-port="0"/>
		<edge from-layer="2352" from-port="0" to-layer="2355" to-port="1"/>
		<edge from-layer="2353" from-port="0" to-layer="2355" to-port="2"/>
		<edge from-layer="2354" from-port="0" to-layer="2355" to-port="3"/>
		<edge from-layer="2355" from-port="4" to-layer="2357" to-port="0"/>
		<edge from-layer="2356" from-port="0" to-layer="2357" to-port="1"/>
		<edge from-layer="2357" from-port="2" to-layer="2358" to-port="1"/>
		<edge from-layer="2358" from-port="2" to-layer="2359" to-port="0"/>
		<edge from-layer="2359" from-port="2" to-layer="2360" to-port="0"/>
		<edge from-layer="2359" from-port="2" to-layer="2367" to-port="0"/>
		<edge from-layer="2360" from-port="1" to-layer="2362" to-port="1"/>
		<edge from-layer="2361" from-port="0" to-layer="2362" to-port="2"/>
		<edge from-layer="2362" from-port="3" to-layer="2364" to-port="0"/>
		<edge from-layer="2363" from-port="0" to-layer="2364" to-port="1"/>
		<edge from-layer="2364" from-port="2" to-layer="2375" to-port="0"/>
		<edge from-layer="2365" from-port="0" to-layer="2366" to-port="1"/>
		<edge from-layer="2366" from-port="2" to-layer="2369" to-port="0"/>
		<edge from-layer="2367" from-port="1" to-layer="2369" to-port="1"/>
		<edge from-layer="2368" from-port="0" to-layer="2369" to-port="2"/>
		<edge from-layer="2369" from-port="3" to-layer="2371" to-port="0"/>
		<edge from-layer="2370" from-port="0" to-layer="2371" to-port="1"/>
		<edge from-layer="2371" from-port="2" to-layer="2375" to-port="1"/>
		<edge from-layer="2372" from-port="1" to-layer="2374" to-port="0"/>
		<edge from-layer="2373" from-port="0" to-layer="2374" to-port="1"/>
		<edge from-layer="2374" from-port="2" to-layer="2375" to-port="2"/>
		<edge from-layer="2375" from-port="3" to-layer="2409" to-port="0"/>
		<edge from-layer="2375" from-port="3" to-layer="2378" to-port="0"/>
		<edge from-layer="2376" from-port="0" to-layer="2378" to-port="1"/>
		<edge from-layer="2377" from-port="0" to-layer="2378" to-port="2"/>
		<edge from-layer="2378" from-port="3" to-layer="2380" to-port="0"/>
		<edge from-layer="2379" from-port="0" to-layer="2380" to-port="1"/>
		<edge from-layer="2380" from-port="2" to-layer="2406" to-port="0"/>
		<edge from-layer="2380" from-port="2" to-layer="2382" to-port="0"/>
		<edge from-layer="2381" from-port="0" to-layer="2388" to-port="0"/>
		<edge from-layer="2382" from-port="1" to-layer="2385" to-port="0"/>
		<edge from-layer="2383" from-port="0" to-layer="2385" to-port="1"/>
		<edge from-layer="2384" from-port="0" to-layer="2385" to-port="2"/>
		<edge from-layer="2385" from-port="3" to-layer="2387" to-port="0"/>
		<edge from-layer="2386" from-port="0" to-layer="2387" to-port="1"/>
		<edge from-layer="2387" from-port="2" to-layer="2388" to-port="1"/>
		<edge from-layer="2388" from-port="2" to-layer="2389" to-port="0"/>
		<edge from-layer="2389" from-port="1" to-layer="2391" to-port="0"/>
		<edge from-layer="2389" from-port="1" to-layer="2397" to-port="0"/>
		<edge from-layer="2390" from-port="0" to-layer="2396" to-port="0"/>
		<edge from-layer="2391" from-port="1" to-layer="2392" to-port="0"/>
		<edge from-layer="2392" from-port="1" to-layer="2394" to-port="0"/>
		<edge from-layer="2393" from-port="0" to-layer="2394" to-port="1"/>
		<edge from-layer="2394" from-port="2" to-layer="2396" to-port="1"/>
		<edge from-layer="2395" from-port="0" to-layer="2396" to-port="2"/>
		<edge from-layer="2396" from-port="3" to-layer="2397" to-port="1"/>
		<edge from-layer="2397" from-port="2" to-layer="2398" to-port="0"/>
		<edge from-layer="2398" from-port="1" to-layer="2400" to-port="0"/>
		<edge from-layer="2399" from-port="0" to-layer="2400" to-port="1"/>
		<edge from-layer="2400" from-port="2" to-layer="2402" to-port="0"/>
		<edge from-layer="2401" from-port="0" to-layer="2402" to-port="1"/>
		<edge from-layer="2402" from-port="2" to-layer="2404" to-port="0"/>
		<edge from-layer="2403" from-port="0" to-layer="2404" to-port="1"/>
		<edge from-layer="2404" from-port="2" to-layer="2405" to-port="0"/>
		<edge from-layer="2405" from-port="1" to-layer="2406" to-port="1"/>
		<edge from-layer="2406" from-port="3" to-layer="2407" to-port="0"/>
		<edge from-layer="2406" from-port="2" to-layer="2415" to-port="0"/>
		<edge from-layer="2407" from-port="1" to-layer="2409" to-port="1"/>
		<edge from-layer="2408" from-port="0" to-layer="2409" to-port="2"/>
		<edge from-layer="2409" from-port="3" to-layer="2413" to-port="0"/>
		<edge from-layer="2410" from-port="0" to-layer="2413" to-port="1"/>
		<edge from-layer="2411" from-port="0" to-layer="2413" to-port="2"/>
		<edge from-layer="2412" from-port="0" to-layer="2413" to-port="3"/>
		<edge from-layer="2413" from-port="4" to-layer="2414" to-port="0"/>
	</edges>
	<meta_data>
		<MO_version value="2021.4.0-3827-c5b65f2cb1d-releases/2021/4"/>
		<cli_parameters>
			<caffe_parser_path value="DIR"/>
			<data_type value="FP32"/>
			<disable_nhwc_to_nchw value="False"/>
			<disable_omitting_optional value="False"/>
			<disable_resnet_optimization value="False"/>
			<disable_weights_compression value="False"/>
			<enable_concat_optimization value="False"/>
			<enable_flattening_nested_params value="False"/>
			<enable_ssd_gluoncv value="False"/>
			<extensions value="DIR"/>
			<framework value="onnx"/>
			<freeze_placeholder_with_value value="{}"/>
			<generate_deprecated_IR_V7 value="False"/>
			<input value="image"/>
			<input_model value="DIR/person-detection-asl-0001.onnx"/>
			<input_model_is_text value="False"/>
			<input_shape value="[1,3,320,320]"/>
			<k value="DIR/CustomLayersMapping.xml"/>
			<keep_shape_ops value="True"/>
			<legacy_ir_generation value="False"/>
			<legacy_mxnet_model value="False"/>
			<log_level value="ERROR"/>
			<mean_scale_values value="{'image': {'mean': array([123.675, 116.28 , 103.53 ]), 'scale': array([58.395, 57.12 , 57.375])}}"/>
			<mean_values value="image[123.675,116.28,103.53]"/>
			<model_name value="person-detection-asl-0001"/>
			<output value="['boxes']"/>
			<output_dir value="DIR"/>
			<placeholder_data_types value="{}"/>
			<placeholder_shapes value="{'image': array([  1,   3, 320, 320])}"/>
			<progress value="False"/>
			<remove_memory value="False"/>
			<remove_output_softmax value="False"/>
			<reverse_input_channels value="True"/>
			<save_params_from_nd value="False"/>
			<scale_values value="image[58.395,57.12,57.375]"/>
			<silent value="False"/>
			<static_shape value="False"/>
			<stream_output value="False"/>
			<transform value=""/>
			<unset unset_cli_parameters="batch, counts, disable_fusing, disable_gfusing, finegrain_fusing, input_checkpoint, input_meta_graph, input_proto, input_symbol, mean_file, mean_file_offsets, move_to_preprocess, nd_prefix_name, pretrained_model_name, saved_model_dir, saved_model_tags, scale, tensorboard_logdir, tensorflow_custom_layer_libraries, tensorflow_custom_operations_config_update, tensorflow_object_detection_api_pipeline_config, tensorflow_use_custom_operations_config, transformations_config"/>
		</cli_parameters>
	</meta_data>
</net>
